model/pendulum_model_16.pth (torch, 88722 bytes, 11 tensors)

linear_relu_stack.0.weight f4 [32, 3]
0	0x3edf5d53	0.43625888
1	0xbda0934e	-0.07840596
2	0x3ec09cda	0.37619668
3	0x3d83c281	0.06433583
4	0x3c354360	0.011063427
5	0xbeb8ff52	-0.36132294
6	0xbed9c27b	-0.4253119
7	0xbec8df97	-0.39233086
8	0xbef076aa	-0.46965533
9	0xbeadcb29	-0.3394406
10	0xbef0d9d3	-0.47041187
11	0xbe5516d5	-0.20809491
12	0x3ebecb60	0.37264538
13	0xbd9dde19	-0.077083774
14	0x3da7d0d0	0.08194125
15	0xbef84ac1	-0.48494533
16	0xbec52450	-0.38504267
17	0xbdda4e50	-0.10659468
18	0xbd9d774c	-0.0768877
19	0xbefa8438	-0.48929
20	0x3ebbfc74	0.36716044
21	0xbe319996	-0.17343745
22	0x3c41209f	0.011787563
23	0x3e6cbce4	0.23118931
24	0xbdf69bf8	-0.120414674
25	0x3eff73e7	0.49893114
26	0x3ecd3e1d	0.4008645
27	0x3ef53fbc	0.47900188
28	0x3dfff577	0.124979906
29	0xbd9e5402	-0.07730867
30	0xbe2fdaea	-0.17173353
31	0xbed42875	-0.41437116
32	0xbe6acb81	-0.22929193
33	0xbe1b01c8	-0.15137398
34	0xbe917773	-0.28411445
35	0x3f01516d	0.5051487
36	0x3ef21ebe	0.4728908
37	0x3ea88373	0.32912788
38	0xbed33379	-0.41250208
39	0xbebae954	-0.3650614
40	0x3e44e261	0.19226982
41	0xbdc87a00	-0.09788895
42	0xbea0f23a	-0.31434804
43	0xbe135521	-0.14387943
44	0xbef4bf0d	-0.4780201
45	0xbd616061	-0.055023555
46	0x3ef45ae6	0.477256
47	0x3e84d7be	0.25945848
48	0x3e6bc6ab	0.23025005
49	0x3edecbae	0.4351477
50	0x3e4c6d8e	0.19963667
51	0x3ed7f074	0.4217564
52	0xbf0d3310	-0.5515604
53	0x3eb76de9	0.35826042
54	0x3ed580ea	0.41699916
55	0x3f1e7a2c	0.6190517
56	0x3eae5458	0.34048724
57	0xbed54a22	-0.4165812
58	0x3f0d3966	0.5516571
59	0x3e1a4b46	0.15067777
60	0x3c91dc9d	0.017805392
61	0x3e20ae5e	0.15691516
62	0xbe789f7d	-0.2427959
63	0xbec6b9d9	-0.38813666
64	0x3e95c601	0.29252627
65	0x3e123d98	0.14281309
66	0x3ddcf465	0.10788802
67	0xbf003e72	-0.50095284
68	0xbe16cdea	-0.14726987
69	0xbd68b30f	-0.05681139
70	0x3e98bbd2	0.29830796
71	0x3eabca8c	0.33552969
72	0x3f0919ca	0.53554976
73	0x3f041af3	0.5160362
74	0xbe8c6c13	-0.27426204
75	0xbd875335	-0.06607667
76	0x3a636c26	0.0008675478
77	0x3e4b8f18	0.19878805
78	0x3c9fe018	0.019516036
79	0x3efdb83b	0.4955462
80	0xbf104434	-0.5635407
81	0xbf049c16	-0.5180067
82	0x3ee0a1f9	0.43873575
83	0x3eac3642	0.33635145
84	0xbe1860a0	-0.1488061
85	0x3eacc16d	0.33741322
86	0xbda6b21f	-0.08139443
87	0x3ebf67a4	0.3738376
88	0x3ef13151	0.47107938
89	0xbe8daf0a	-0.27672607
90	0x3e262582	0.16225246
91	0xbef99880	-0.4874916
92	0x3ef8f1d3	0.48621997
93	0x3e81f400	0.2538147
94	0xbee97993	-0.45600566
95	0xbf0dd827	-0.5540795

linear_relu_stack.0.bias f4 [32]
0	0x3dfccb9f	0.12343525
1	0xbef68a80	-0.48152542
2	0x3e88b395	0.2669951
3	0xbdd41b17	-0.103567295
4	0xbf142b98	-0.5787902
5	0x3db848e6	0.08998279
6	0xbe8ab573	-0.2709156
7	0xbe7bad49	-0.24577822
8	0xba2144f6	-0.00061519386
9	0xbe0ca9d0	-0.13736653
10	0x3e396448	0.1810466
11	0x3e2ea578	0.17055309
12	0xbe3d2eaf	-0.1847484
13	0x3dfc770d	0.12327395
14	0x3f184996	0.59487283
15	0xbf05b130	-0.5222349
16	0xbcf4703f	-0.02983868
17	0x3d63b263	0.055590045
18	0xbe69241b	-0.2276768
19	0x3efa8d03	0.48935708
20	0xbeed6220	-0.46363926
21	0x3ebae2ac	0.36501062
22	0x3e1e129c	0.15436786
23	0x3d897364	0.06711462
24	0xbea73b24	-0.32662308
25	0x3eac25f3	0.33622703
26	0x3f1021d9	0.5630165
27	0xbda4c7a3	-0.0804589
28	0xbea15e08	-0.31517053
29	0x3e8ef9f7	0.27925083
30	0xbe0e8a92	-0.13920048
31	0x3eb34396	0.350125

linear_relu_stack.2.weight f4 [64, 32]
0	0x3e22b22d	0.15888281
1	0x3e829d27	0.25510523
2	0xbe61194f	-0.2198231
3	0x3e042a6e	0.1290681
4	0xbe41d930	-0.18930507
5	0xbe5797a0	-0.21053934
6	0x3d37c762	0.04486788
7	0xbe436270	-0.1908052
8	0xbdde5ef8	-0.108579576
9	0x3ddf3fbb	0.109008275
10	0xbd9fe7a8	-0.07807857
11	0xbdc7992e	-0.097460136
12	0xbe11648f	-0.14198516
13	0x3e0e3ab7	0.13889585
14	0x3e1da42f	0.15394662
15	0x3e32c714	0.17458755
16	0xbca88370	-0.020570487
17	0xbe2ac7ca	-0.16677776
18	0x3dd28390	0.10279
19	0xbd9afaab	-0.07567342
20	0x3e33878c	0.17532176
21	0x3c497b5e	0.012297479
22	0x3d065168	0.03279248
23	0xbe68617d	-0.22693439
24	0xbdd306db	-0.10304042
25	0xbd93cfc2	-0.07217361
26	0xbe5e4f22	-0.21709874
27	0x3d1f3cb5	0.038876254
28	0x3e26af60	0.16277838
29	0xbca53ed5	-0.020171562
30	0x3d965bc7	0.07341724
31	0x3e1a410c	0.15063876
32	0xbe083695	-0.13302071
33	0x3d7caed4	0.061690167
34	0xbd69a77e	-0.0570445
35	0x3dcf8842	0.10133411
36	0x3d583bbd	0.052791346
37	0xbd8a6256	-0.06757037
38	0x3e9a2e51	0.30113462
39	0x3d03fbe9	0.032222662
40	0xbea197fe	-0.31561273
41	0xbd2b2cf8	-0.041790932
42	0x3cf12e94	0.029441155
43	0x3e5418bf	0.20712565
44	0xbe0c792f	-0.13718103
45	0xbd8a553a	-0.06754537
46	0x3d693af0	0.056940973
47	0xbe1264e9	-0.14296307
48	0x3e070e29	0.13188995
49	0xbe5897f6	-0.21151718
50	0x3d9663d3	0.07343259
51	0xbd2c3ac0	-0.042048216
52	0x3c48c960	0.012255043
53	0xbde1c618	-0.110241115
54	0x3dc6fc3a	0.09716077
55	0xbe426b21	-0.18986179
56	0x3cf23a11	0.029568704
57	0xbe305d41	-0.17223074
58	0x3d55b477	0.052174058
59	0xbe3702da	-0.17872182
60	0x3d15f1a3	0.036607396
61	0xbcd3d5af	-0.025858728
62	0xbe5a2fd3	-0.21307306
63	0xbe302978	-0.17203319
64	0xbd83886e	-0.06422506
65	0x3e763963	0.24045329
66	0xbde6c4d3	-0.1126801
67	0x3b86634e	0.0041011935
68	0x3e056385	0.13026245
69	0x3e3ccdff	0.18437956
70	0xbe7ed0a4	-0.24884278
71	0xbd9d5a99	-0.07683296
72	0x3e3bfbb5	0.18357737
73	0x3d86614e	0.06561528
74	0x3de9a331	0.114080794
75	0xbdb3bee3	-0.08776643
76	0xbdedf345	-0.116186656
77	0x3dd6064d	0.104504205
78	0x3de46e06	0.11153798
79	0x3e1a80b3	0.15088157
80	0x3e06c0e1	0.13159515
81	0x3bcb5b98	0.006205987
82	0xbc8d3dda	-0.017241407
83	0xbe2249a1	-0.158484
84	0x3d418ca4	0.047253266
85	0x3dee9bb9	0.116507955
86	0x3e05a2df	0.13050412
87	0xbe909052	-0.28235108
88	0x3d818ba1	0.0632546
89	0xbd0b46d8	-0.03400311
90	0xbdfcd36a	-0.123450115
91	0x3df6ec4e	0.1205679
92	0x3d10486b	0.035225313
93	0xbc650201	-0.013977529
94	0x3cd9a44f	0.026567606
95	0x3dc90295	0.098149456
96	0xbe1a8b2a	-0.1509215
97	0x3d388fef	0.04505914
98	0x3eabaca1	0.33530143
99	0xbcd697af	-0.026195375
100	0xbd153e05	-0.0364361
101	0x3df32131	0.11871565
102	0xbe3991a2	-0.18121961
103	0x3e252c1a	0.16130105
104	0x3c72368c	0.014783513
105	0xbd885869	-0.06657488
106	0xbe296637	-0.16542898
107	0xbd959dbc	-0.07305476
108	0x3da659e2	0.081226125
109	0xbda7feb5	-0.082028784
110	0x3d3a8f92	0.045547076
111	0x3c455095	0.012043138
112	0xbe6e0f07	-0.2324792
113	0x3dea31ed	0.11435304
114	0xbd6397c5	-0.05556466
115	0x3e5c6405	0.2152253
116	0x3e3d7314	0.1850093
117	0xbdadc48f	-0.08484756
118	0x3deed09a	0.11660881
119	0x3ce73ec0	0.028228164
120	0x3d8daba8	0.069175065
121	0xbde63541	-0.11240626
122	0x3d3ac416	0.04559716
123	0xbdf77e00	-0.120845795
124	0x3ba892c6	0.00514445
125	0x3e3692fd	0.17829509
126	0xbd7f3972	-0.062310643
127	0x3e061ef5	0.13097747
128	0xbe00c2b6	-0.12574276
129	0x3e756ba2	0.2396684
130	0xbd03d35a	-0.032183982
131	0x3dc850d1	0.097810395
132	0x3dbfc09a	0.09362908
133	0xbd163e1f	-0.036680337
134	0x3e14372e	0.14474174
135	0x3d954667	0.07288819
136	0xbd88020f	-0.06641018
137	0xbe0b376a	-0.13595358
138	0x3d483349	0.048877034
139	0x3e246dd1	0.16057517
140	0xbd220122	-0.03955186
141	0xbe10b0b8	-0.14129913
142	0xbe7ad141	-0.24493887
143	0xbea3e515	-0.32010713
144	0x3db83ac5	0.089955844
145	0x3e274f27	0.16338788
146	0xbe318e3c	-0.17339414
147	0xbe1bc559	-0.15212001
148	0xbbc8c10f	-0.00612653
149	0xbae0b2aa	-0.001714309
150	0xbe712628	-0.23549712
151	0x3da49eb6	0.08038084
152	0xbe2f8ea8	-0.17144263
153	0xbdebec9e	-0.115197405
154	0x3ef0029b	0.46876988
155	0xbda6a536	-0.0813698
156	0xbe506d35	-0.20354159
157	0xbdcf42a6	-0.10120134
158	0x3d0bb4c1	0.034107927
159	0xbe35989c	-0.17733997
160	0x3de8bb11	0.11363805
161	0x3deb9a24	0.11504009
162	0x3e4d4e32	0.2004936
163	0xbe366e48	-0.17815506
164	0xbd8631e6	-0.06552486
165	0x3ea083b2	0.31350476
166	0xbbaeed7d	-0.0053383694
167	0x3e16a50d	0.147114
168	0xbe3b4e30	-0.18291545
169	0x3e514b62	0.20438913
170	0x3d2ea945	0.042641897
171	0xbddce175	-0.1078519
172	0x3d718816	0.058967672
173	0x3d2eb2e2	0.042651065
174	0xbdb52b64	-0.08846167
175	0x3df86865	0.12129287
176	0x3db89b2d	0.090139724
177	0xbe23bf1c	-0.15990871
178	0xbe9e3ec7	-0.3090727
179	0x3e23ee63	0.16008906
180	0x3e3db5d7	0.18526398
181	0xbe214dd4	-0.15752345
182	0xbe2b0fe4	-0.1670528
183	0xbe572623	-0.21010642
184	0x3e0590f2	0.13043573
185	0xbd9ec0e0	-0.07751632
186	0x3d9f82ae	0.07788597
187	0xbdddf2bc	-0.108373135
188	0x3db48b75	0.08815662
189	0x3d1a6ee2	0.037703402
190	0x3dcb9ebe	0.09942387
191	0x3dfc837b	0.123297654
192	0xbd28478d	-0.04108386
193	0x3e56fdfa	0.20995322
194	0xbeaa8d87	-0.33311102
195	0xbdea3621	-0.114361055
196	0xbe3ce720	-0.18447542
197	0xbda2b93b	-0.07945486
198	0x3d62fed4	0.055418804
199	0xbe570aa4	-0.21000153
200	0xbe04fd3f	-0.1298723
201	0xbe6cc811	-0.23123194
202	0x3dc2ffd8	0.095214546
203	0xbd1d8868	-0.038460165
204	0xbbb18792	-0.0054177726
205	0xbe51925a	-0.20465985
206	0x3e32f4bb	0.1747617
207	0xbcf639ff	-0.030056952
208	0x3ddd3ca9	0.10802586
209	0x3e257ecb	0.16161649
210	0xbdc16723	-0.094435
211	0x3e3ff1dc	0.18744606
212	0xb8eda7a5	-0.00011332267
213	0x3de60cfd	0.11232946
214	0x3e39b641	0.1813593
215	0xbd9c8a18	-0.07643527
216	0x3dd90f1f	0.10598587
217	0xbe169567	-0.1470543
218	0xbbfd0934	-0.0077220444
219	0x3da9e190	0.08294976
220	0x3e9c26f9	0.30498484
221	0xbdba4654	-0.09095445
222	0xbdb7f0d5	-0.08981482
223	0x3d6e3e70	0.058165014
224	0xbd83ce97	-0.06435888
225	0x3cdda196	0.02705459
226	0xbe8a3fcc	-0.27001798
227	0xbe9b2c11	-0.30307057
228	0xbe0e2297	-0.13880382
229	0x3e2924f3	0.16518001
230	0xbdaf8e13	-0.085720204
231	0x3dd1ced7	0.1024453
232	0xbdd5eb12	-0.10445227
233	0x3e184127	0.14868604
234	0xbd009aaa	-0.0313975
235	0xbe087566	-0.13326034
236	0x3ade664b	0.0016967742
237	0x3daf15d6	0.08549087
238	0xbd376774	-0.044776395
239	0xbc600da6	-0.013675129
240	0xbe3c02cc	-0.18360442
241	0x3dbf1f1e	0.09332107
242	0xbe410e87	-0.18853198
243	0xbdb27f83	-0.08715727
244	0xbd58f2aa	-0.052965797
245	0x3dbb05b0	0.09131944
246	0xbe406903	-0.18790059
247	0x3e7e6d32	0.24846342
248	0xbdb10950	-0.08644354
249	0x3e56db08	0.20981991
250	0x3df97061	0.12179638
251	0xbd53c0d1	-0.051697556
252	0x3cafee07	0.021475805
253	0xbd7053d1	-0.058673684
254	0x3dd2f368	0.10300332
255	0x3d088d23	0.033337723

linear_relu_stack.2.bias f4 [64]
0	0xbda596ac	-0.08085379
1	0x3ac82f7c	0.001527294
2	0xbd61ffec	-0.055175707
3	0xbde6b68e	-0.11265288
4	0xbe0a41be	-0.13501641
5	0x3d81aff7	0.06332391
6	0xbd81f558	-0.06345624
7	0xbc788239	-0.015167766
8	0xbdee5f36	-0.11639254
9	0xbd9e2529	-0.077219315
10	0xbdd66ce7	-0.1046999
11	0xbb886242	-0.004162104
12	0xbe190a96	-0.14945444
13	0x3e36d289	0.1785375
14	0xbd861f69	-0.0654896
15	0x3d99397a	0.07481666
16	0x3e028a9d	0.1274819
17	0x3c5b5edf	0.013389318
18	0xbe3b1f28	-0.18273604
19	0xbc1c5d8b	-0.009543787
20	0x3da6ecf1	0.08150662
21	0xbd635012	-0.055496283
22	0x3d8b2abd	0.06795261
23	0x3de83307	0.11337858
24	0xbce3be00	-0.02780056
25	0x3e0c73c2	0.13716033
26	0x3a0d6113	0.00053931883
27	0x3df8c7a8	0.121474564
28	0xbe3f33dd	-0.18672128
29	0x3d9d0bd0	0.07668269
30	0xbb956378	-0.0045589767
31	0xbdf2e3a2	-0.11859824
32	0xbe197173	-0.14984684
33	0x3d6573af	0.056018528
34	0x3dee4c04	0.116355926
35	0xbe90abb6	-0.28256005
36	0x3dc0913d	0.09402702
37	0x3d718fa5	0.05897488
38	0x3e4758ef	0.19467519
39	0xbdd205b3	-0.10254993
40	0xbd864f71	-0.06558121
41	0xbcbb0345	-0.022828707
42	0x3ddaa195	0.106753506
43	0x3cec52d2	0.028848086
44	0x3e207e74	0.15673238
45	0xbc1470bb	-0.00906008
46	0x3df7f0b0	0.12106454
47	0x3c6d7f61	0.0144957015
48	0x3bf0d88f	0.0073500345
49	0x3c64de13	0.013968962
50	0xbc451c2c	-0.0120306425
51	0x3cea90a3	0.028633421
52	0xbe0f39a9	-0.1398684
53	0xbe0f2c4e	-0.13981745
54	0xbd81f72b	-0.06345972
55	0xbda99fa9	-0.08282406
56	0x3d20a660	0.039221168
57	0x3d0b0793	0.03394277
58	0xbe69f79b	-0.2284836
59	0x3de62c8a	0.11238964
60	0xbe8072b8	-0.25087523
61	0x3d1951b4	0.037431434
62	0xbe25b5ce	-0.16182634
63	0x3e06fc3f	0.13182162

linear_relu_stack.4.weight f4 [128, 64]
0	0xbd948a29	-0.072529145
1	0xbc5dc8a6	-0.013536608
2	0xbdb5991e	-0.088670954
3	0xbe22c8e2	-0.15896943
4	0x3cffd026	0.031227183
5	0x3e2c3846	0.16818342
6	0xbd391f16	-0.04519566
7	0x3d7076d0	0.05870706
8	0x3d8c341a	0.06845875
9	0x3e06a605	0.13149269
10	0xbd9d5c3a	-0.076836064
11	0x3db48084	0.08813575
12	0xbe008a30	-0.12552714
13	0xbd73932c	-0.059466526
14	0x3c0c818c	0.008575808
15	0xbd9c4b9c	-0.07631609
16	0xbc4202a3	-0.011841449
17	0xbc2df988	-0.010618575
18	0x3deacaf2	0.1146449
19	0xbdbf77ba	-0.09349008
20	0x3c0413d3	0.008061367
21	0xbd6a9648	-0.057272226
22	0x3daad549	0.08341462
23	0xbe0283fa	-0.12745658
24	0xbdbd8af0	-0.09255016
25	0x3de86a81	0.11348439
26	0xbda82c04	-0.0821152
27	0xbe0daf08	-0.138363
28	0x3dba2282	0.09088613
29	0xbe318613	-0.17336302
30	0xbd832439	-0.06403393
31	0xbe1222c1	-0.1427107
32	0x3d4325b8	0.047643393
33	0xbd57b005	-0.0526581
34	0x3d762cb8	0.06010124
35	0x3dc5e8e4	0.09663561
36	0x3e058625	0.13039453
37	0x3d53fd1d	0.05175506
38	0xbe2e9ba1	-0.17051555
39	0xbcbcd7a8	-0.023052052
40	0xbdf80492	-0.12110247
41	0xbd6e4e20	-0.058179975
42	0x3db6a378	0.08917898
43	0xbbeb11e7	-0.007173765
44	0xbe9f9b98	-0.31173396
45	0x3da335b6	0.07969229
46	0xbef798be	-0.4835872
47	0x3e4b8044	0.19873148
48	0x3e166c49	0.14689745
49	0xbd3f8693	-0.0467592
50	0x3d0373ca	0.032092847
51	0x3e240a1c	0.16019481
52	0xbdcbf95e	-0.099596724
53	0x3c75e81a	0.015008951
54	0x3d944c21	0.07241083
55	0x3e1fce7c	0.15606111
56	0x3da9f789	0.08299167
57	0x3e267dfc	0.16258997
58	0xbbfb9038	-0.0076771043
59	0x3d12ec31	0.03586978
60	0xbd8b9209	-0.06814963
61	0x3d72def9	0.059294675
62	0x3d1a3adc	0.03765379
63	0xbd4aa028	-0.049469143
64	0x3e577caa	0.2104365
65	0xbce2cda9	-0.027685957
66	0xbcfe8a50	-0.031071812
67	0xbd2b90a6	-0.041885994
68	0xbdd3ba53	-0.10338273
69	0xbdbd231e	-0.09235214
70	0xbe1d9600	-0.15389252
71	0x3e00a8f5	0.12564452
72	0xbd860d04	-0.06545451
73	0x3b26f1cf	0.002547372
74	0x3dead8e7	0.11467152
75	0x3d280c3f	0.041027304
76	0xbd82414a	-0.06360109
77	0x3d7b2d5d	0.06132256
78	0xbda2ee4b	-0.07955607
79	0x3e152dfe	0.14568326
80	0x3e8914c6	0.2677366
81	0x3da0f840	0.0785985
82	0xbd46d901	-0.048546795
83	0xbd180f86	-0.03712418
84	0xbdad24cf	-0.08454286
85	0x3e9e2772	0.3088947
86	0x3e0aa83e	0.13540742
87	0x3e1fa3f8	0.15589893
88	0x3df67a4c	0.12035045
89	0x3dce70af	0.100800864
90	0x3c929dfb	0.017897597
91	0x3e0c6e61	0.13713981
92	0x3e1a6c1c	0.15080303
93	0x3e1d525a	0.15363446
94	0x3d98be15	0.0745813
95	0xbbd8d575	-0.006617243
96	0x3e581192	0.21100453
97	0x3b8cef9a	0.0043010237
98	0x3e04985f	0.1294875
99	0x3d7b838e	0.061404757
100	0xbe2bb8fa	-0.16769782
101	0x3c2b21b7	0.01044505
102	0x3dac35c4	0.084086925
103	0x3e20a880	0.15689278
104	0xbd31084f	-0.043220814
105	0x3e4c6dd2	0.19963768
106	0xbd24e54e	-0.040257744
107	0xbb9acd3d	-0.0047241733
108	0x3d9297a2	0.07157828
109	0xbda0c744	-0.07850507
110	0x3e1b58e0	0.15170622
111	0x3e271c73	0.16319446
112	0xbcc8913c	-0.024483316
113	0xbe1ecffa	-0.15509024
114	0x3d8e7c55	0.06957308
115	0x3d5d8250	0.054079354
116	0x3de9250e	0.11384021
117	0x3d7a8b2c	0.06116788
118	0x3d9edd8c	0.077571005
119	0x3e4aaca5	0.19792421
120	0x3d4e6ae2	0.0503949
121	0x3dd90ef5	0.10598556
122	0x3e08a0ba	0.13342562
123	0xbdcb432b	-0.09924921
124	0x3e109d0c	0.14122409
125	0xbd56291a	-0.05228529
126	0x3d81fb3e	0.06346749
127	0x3c6197a3	0.013769063
128	0xbd9edde6	-0.077571675
129	0x3dc67005	0.09689335
130	0xbe1ffb65	-0.15623243
131	0xbe390ba6	-0.1807085
132	0xbcdf3cee	-0.027250733
133	0xbb8fb297	-0.0043853032
134	0x3dd2bcdc	0.10289928
135	0xbcbeff41	-0.023315074
136	0xbe22bb52	-0.1589177
137	0xbd98ca52	-0.074604645
138	0xbdd48539	-0.10376973
139	0xbdeba35f	-0.1150577
140	0x3cf17686	0.029475462
141	0xbd290ad6	-0.0412701
142	0xbddf8ad9	-0.10915155
143	0x3dd4e995	0.10396115
144	0x3baeae04	0.005330803
145	0x3e3f6ddb	0.1869425
146	0x3d4cc0b5	0.049988467
147	0xbe3d1cba	-0.1846799
148	0xbcb842ac	-0.02249273
149	0x3d3bf1aa	0.045884766
150	0x3d20c35d	0.039248813
151	0x3e25faca	0.1620895
152	0x3df9cb40	0.1219697
153	0xbc8c64ad	-0.01713785
154	0x3d18c2a8	0.037295014
155	0xbd68bd72	-0.056821294
156	0xbd0196ea	-0.031638063
157	0x3cab0f86	0.020881426
158	0xbb89d8a1	-0.0042067324
159	0xbc0daba7	-0.008646882
160	0x3e7c663f	0.24648379
161	0xbc83ebf9	-0.016103731
162	0x3e62108e	0.22076628
163	0x39afaf03	0.00033508995
164	0xbc6cd141	-0.014454187
165	0xbdbc006b	-0.09179767
166	0xbc56ae7f	-0.013103127
167	0x3e061160	0.13092566
168	0xbd02008b	-0.0317388
169	0x3c15aaae	0.0091349315
170	0x3c478636	0.0121779945
171	0xbe4df434	-0.20112687
172	0xbdc21455	-0.09476534
173	0x3dc1eff8	0.094695985
174	0x3dd51bec	0.10405716
175	0xbcf0e11c	-0.029404216
176	0xbda606cf	-0.081067674
177	0x3ccb05cb	0.024783036
178	0x3e114015	0.14184602
179	0x3df13606	0.11777882
180	0x3df77903	0.12083628
181	0x3d7c64c6	0.061619543
182	0x3d4624b0	0.04837483
183	0x3d1a2cdc	0.037640437
184	0x3cca76c7	0.02471484
185	0xbb38fa35	-0.0028225307
186	0x3d874baa	0.06606229
187	0xbdb94771	-0.090468295
188	0x3d725d27	0.05917087
189	0x3c2baf12	0.010478752
190	0x3dce5ca0	0.100762606
191	0x3d0281bb	0.031862002
192	0xbd6a904f	-0.05726653
193	0x3d4bcec7	0.049757745
194	0x3dbfa9a8	0.09358531
195	0x3d81333d	0.06308601
196	0x3d056295	0.03256472
197	0xbe143bbf	-0.14475916
198	0x3ddcfa06	0.10789876
199	0x3d72ac3e	0.059246294
200	0xbde39e98	-0.11114234
201	0x3d322959	0.043496463
202	0xbe238a2b	-0.15970676
203	0x39b4a9d4	0.00034458807
204	0x3dce7110	0.10080159
205	0x3da39f29	0.07989342
206	0xbe0b0fcc	-0.13580245
207	0xbdd6c34a	-0.10486467
208	0x3e31781b	0.17330973
209	0x3dd598bd	0.10429523
210	0xbe2099da	-0.1568369
211	0xbcb495cb	-0.022044083
212	0xbd6a391f	-0.05718338
213	0xbd169c92	-0.03677041
214	0xbc3d37f3	-0.011548984
215	0xbdd89db1	-0.10576952
216	0xbd3435e1	-0.043996695
217	0x3d3e4949	0.04645661
218	0x3e19dc9d	0.15025564
219	0x3e256e5b	0.16155379
220	0xbcca63f8	-0.024705872
221	0xbe5f24ab	-0.21791331
222	0x3dee2c6b	0.11629566
223	0xbdc4596c	-0.09587368
224	0xbe3a9e9d	-0.18224569
225	0xbe221338	-0.15827644
226	0x3d96b241	0.07358218
227	0x3d9b7993	0.07591548
228	0x3e40f504	0.18843466
229	0x3e11e9d4	0.14249355
230	0xbcefe227	-0.029282643
231	0xbd5b442e	-0.053531818
232	0x3df0a2cd	0.11749802
233	0xbc95e04b	-0.018295428
234	0xbcb03a80	-0.02151227
235	0x3c58ccd6	0.01323243
236	0xbe48b81c	-0.19601482
237	0x3cd3018e	0.025757577
238	0xbd2b1e13	-0.041776728
239	0xbdc778f8	-0.0973987
240	0xbc46374b	-0.012098144
241	0xbd4c3ecb	-0.04986457
242	0xbdad7144	-0.08468869
243	0xbcd91ee0	-0.02650398
244	0x3e26ccec	0.16289109
245	0x3c462863	0.01209459
246	0xbdbebfde	-0.093139395
247	0x3d8b8c50	0.06813872
248	0xbe38bc39	-0.18040551
249	0x3c42008b	0.01184095
250	0xbd571035	-0.05250569
251	0x3bacebad	0.005277118
252	0x3dbd972d	0.0925735
253	0xbd1ad888	-0.037804157
254	0x3e110d46	0.1416522
255	0xbd8a07f2	-0.06739797

linear_relu_stack.4.bias f4 [128]
0	0xbc4eec21	-0.01262954
1	0xbd5a80dd	-0.05334555
2	0xbd93f651	-0.072247155
3	0x3db3d9a9	0.0878175
4	0x3db8dce7	0.09026509
5	0x3c04350e	0.00806929
6	0xbc168e55	-0.009189208
7	0xbcf0e100	-0.029404163
8	0xbe3ff183	-0.18744473
9	0xbdf62354	-0.12018457
10	0xbd47f45d	-0.048817027
11	0xbbf9e2d1	-0.0076259156
12	0xbe2b33c3	-0.16718964
13	0xbe095547	-0.13411437
14	0x3b487bd8	0.0030591395
15	0x3b3dff02	0.0028991108
16	0xbe15ce96	-0.14629588
17	0x3e040b2a	0.12894884
18	0x3cea15ef	0.028574912
19	0xbbc9ebc5	-0.006162139
20	0xbb117cc2	-0.0022199606
21	0xbdf427ca	-0.11921652
22	0xbe01d092	-0.1267722
23	0xbde652c4	-0.11246255
24	0xbdb15c1c	-0.086601466
25	0xbe0d430c	-0.13795108
26	0xbe4b69a1	-0.19864513
27	0x3bcb4f5f	0.00620453
28	0xbd366add	-0.044535507
29	0xbd6ca280	-0.05777216
30	0xbda7c340	-0.08191538
31	0xbd879e09	-0.0662194
32	0xbe4ce622	-0.20009664
33	0xbdb78a49	-0.08961923
34	0xbdf34b72	-0.118796244
35	0xbdd59e32	-0.10430564
36	0x3dec3789	0.1153403
37	0xbdba0939	-0.0908379
38	0xbdbfa902	-0.093584076
39	0xbc8f1250	-0.017464787
40	0x3c5d5163	0.013508174
41	0xbde0c7d0	-0.10975611
42	0xbdad4685	-0.08460716
43	0x3cbba8f7	0.022907717
44	0xbd98475b	-0.07435485
45	0x3d01c293	0.0316797
46	0x3d1f5263	0.03889693
47	0xbdd744a3	-0.10511138
48	0xbb8ff1ea	-0.004392852
49	0xbda86c92	-0.08223833
50	0xbe1c523e	-0.15265748
51	0x3bd26c52	0.006421604
52	0xbcd5bf5d	-0.026092226
53	0xbdb30db7	-0.0874285
54	0x3d376236	0.044771396
55	0xbe690931	-0.22757412
56	0xbcaab1dd	-0.020836765
57	0xbdfee83d	-0.1244664
58	0xbe293259	-0.16523112
59	0x3e08a27c	0.13343233
60	0xba18593d	-0.00058116374
61	0x3d7e8255	0.062136013
62	0xbd503913	-0.05083568
63	0x3c653890	0.013990536
64	0xbdc859e0	-0.09782767
65	0xbe20cb63	-0.15702586
66	0xbe0df467	-0.13862763
67	0xbc4880c6	-0.012237733
68	0xbc472dce	-0.012156917
69	0xbdc7d03d	-0.09756515
70	0xbe259e1a	-0.16173592
71	0xbe04c181	-0.12964441
72	0xbda9cdea	-0.08291228
73	0xbe2885b5	-0.16457255
74	0x3cc94e10	0.024573356
75	0xbe182f06	-0.14861688
76	0x3da69f8a	0.081358984
77	0x3c4e7f8d	0.012603653
78	0xbd9edf4a	-0.07757433
79	0x3cab0f1b	0.020881226
80	0x3de0d630	0.10978353
81	0xbe44ff3f	-0.19237994
82	0xbd735a30	-0.05941218
83	0xbe180e09	-0.14849104
84	0xbdd5eb84	-0.10445312
85	0xbc1dce23	-0.009631666
86	0x3ddeb6cb	0.10874709
87	0xbe1a7cd0	-0.15086675
88	0xbe650fb0	-0.22369266
89	0xbe0b66a6	-0.13613376
90	0x3cd2510f	0.025673417
91	0xbdc736f3	-0.097272776
92	0x3de90794	0.113783985
93	0xbc8d1d98	-0.017226025
94	0xbd3be49f	-0.045872327
95	0x3d68b2e6	0.056811236
96	0xbca74fc0	-0.02042377
97	0x3d03ead5	0.032206375
98	0xbe29da7d	-0.16587253
99	0xbdf7188d	-0.120652296
100	0xbc6df8f5	-0.014524688
101	0xbde7ba8a	-0.113148764
102	0xbdb56a06	-0.08858113
103	0x3d8a5be6	0.067558095
104	0xbe193752	-0.1496251
105	0xbdb0cb60	-0.08632541
106	0x3d9e67fe	0.07734679
107	0x3d535884	0.051598087
108	0xbd95f1b1	-0.073214896
109	0x3d9aeff6	0.075653
110	0x3d3b48c7	0.045723703
111	0xbdd4ebc3	-0.103965305
112	0xbe36e3ac	-0.17860287
113	0x3ccdd11e	0.025124129
114	0xbca8cca3	-0.02060539
115	0xbd66b482	-0.05632449
116	0xbd8faf6a	-0.070158795
117	0xbd3187c6	-0.043342374
118	0xbdc075aa	-0.09397443
119	0xbdf05045	-0.1173406
120	0xbe035cf4	-0.12828428
121	0xbd0db018	-0.034591764
122	0xbe47786b	-0.1947953
123	0xbd9d055e	-0.07667039
124	0x3dd0a1f1	0.10187138
125	0xbdba49ad	-0.09096084
126	0xbe11ed52	-0.14250687
127	0xbdc24612	-0.09486021

linear_relu_stack.6.weight f4 [64, 128]
0	0xbd52d861	-0.051475886
1	0x3ddc77b8	0.10765022
2	0x3e42e68b	0.19033258
3	0xbcd67784	-0.026180036
4	0xbd88f46e	-0.06687246
5	0x3be1b4fa	0.006888029
6	0xbb613a85	-0.0034367156
7	0x3d0ed912	0.034874983
8	0xbca4b893	-0.020107543
9	0x3d35b0ac	0.04435794
10	0xbdbfa936	-0.09358446
11	0x3e549bc5	0.20762546
12	0x3debc351	0.11511863
13	0x3d3d1313	0.04616077
14	0x3e3630ae	0.17792007
15	0x3d39b1be	0.045335524
16	0x3d442cc5	0.047894258
17	0x3ba5e70c	0.0050629433
18	0x3db79890	0.08964646
19	0xbdb9e0ed	-0.09076104
20	0x3e1792a1	0.14802028
21	0x3d500092	0.050781794
22	0x3d922adf	0.07137083
23	0x3c018208	0.007904537
24	0xbd8332e9	-0.06406195
25	0x3b855ec3	0.0040701344
26	0x3ae95559	0.0017801925
27	0xbcd57af9	-0.026059614
28	0x3bbec84a	0.005822216
29	0x3d85acb6	0.065270826
30	0x3da54393	0.080695294
31	0x3e046f0b	0.12932985
32	0x3e2ad7e3	0.16683917
33	0xbcc4e0d2	-0.024032984
34	0x3e76176a	0.2403237
35	0x3d34ace3	0.04411019
36	0xbc6b4b91	-0.014361278
37	0x3cbda7ac	0.023151241
38	0xbd8a63cc	-0.06757316
39	0xbdc48551	-0.095957406
40	0xbd1274f6	-0.035756074
41	0x3e066342	0.13123801
42	0x3c9afbef	0.01891896
43	0x3dd9729a	0.10617562
44	0x3dfe4479	0.12415404
45	0x3de7a131	0.11310042
46	0x3cc20084	0.023681886
47	0x3cdab64b	0.026698252
48	0xbdab47d7	-0.08363312
49	0xbd698690	-0.057013094
50	0xbcd747fe	-0.026279446
51	0xbbd45f54	-0.0064810906
52	0x3de41404	0.1113663
53	0x3d92fcde	0.07177137
54	0x3d2a9588	0.04164651
55	0x3d4c03b6	0.049808227
56	0xbdc44eef	-0.09585368
57	0x3daff3d2	0.08591427
58	0x3d4210b2	0.047379203
59	0x3d45f3a7	0.048328068
60	0x3d2f9ae2	0.042872317
61	0x3e5453da	0.20735112
62	0x3d9e2080	0.07721043
63	0xbb0c2f58	-0.0021390524
64	0x3e010300	0.125988
65	0xbddd16c7	-0.1079536
66	0x3ddae228	0.10687667
67	0xbc1a2dcd	-0.009410334
68	0x3c8517fe	0.016246792
69	0x3db22dae	0.08700119
70	0x3e22cf54	0.15899402
71	0x3dd0af07	0.10189634
72	0xbd240117	-0.0400401
73	0x3ca5ad4e	0.02022424
74	0x3dc13448	0.094338
75	0xbdd95759	-0.10612363
76	0x3d8960f3	0.06707945
77	0x3d624632	0.055242725
78	0xbcbd8aee	-0.023137536
79	0x3dd00e48	0.10158974
80	0x3c6a45c1	0.014298857
81	0xbd0cbc7c	-0.03435944
82	0xb6ee32ed	-7.0988813e-06
83	0x3dac3601	0.08408738
84	0xbd00fb4f	-0.031489667
85	0x3e8e5c91	0.27804998
86	0xbdc3f48c	-0.09568128
87	0x3ce7b832	0.028286073
88	0x3e17f729	0.14840378
89	0x3e0a75f3	0.13521557
90	0x3b27e5d8	0.0025619175
91	0x3ce146ed	0.02749964
92	0x3dff2784	0.12458709
93	0x3d0202c9	0.031740937
94	0x3d8e7801	0.06956483
95	0x3d71ba14	0.05901535
96	0xbc311ad0	-0.010809615
97	0x3d243c90	0.04009682
98	0x3e17bc1d	0.14817853
99	0x3d146fc3	0.036239397
100	0x3d987fae	0.07446228
101	0x3e0c098c	0.13675517
102	0xbd3d90c3	-0.046280634
103	0xbb3b4018	-0.0028572138
104	0xba48dc34	-0.00076622074
105	0xbd82a540	-0.06379175
106	0x3c89b786	0.016811144
107	0x3d311c95	0.04324015
108	0x3cb1f551	0.021723421
109	0xbd488375	-0.048953492
110	0x3bcd87dc	0.006272299
111	0x3d1d0ffb	0.03834532
112	0x3de7d075	0.11319057
113	0xbd10840c	-0.03528218
114	0x3c81a526	0.01582582
115	0x3e796194	0.2435363
116	0xbd2b757d	-0.041860092
117	0x3d892ee7	0.06698399
118	0x3d6bf0fc	0.057602867
119	0x3e00df66	0.1258522
120	0x3d87415a	0.06604262
121	0x3dea5379	0.114417024
122	0x3ce7eb62	0.028310481
123	0x3dedc482	0.116097465
124	0x3d19e951	0.037576023
125	0x3e1e9a77	0.15488611
126	0xbd2b92bd	-0.041887987
127	0x3d8862f9	0.066595025
128	0x3e0618bd	0.13095374
129	0xbcd23d58	-0.025664017
130	0x3c45f2fa	0.012081856
131	0xbdf88700	-0.12135124
132	0x3c8b7484	0.017023332
133	0xbe365cd2	-0.17808846
134	0xbd6b5e7d	-0.057463158
135	0xbe4480c2	-0.19189742
136	0xbe3d8232	-0.18506697
137	0xbc9c038b	-0.019044658
138	0xbe21c7cb	-0.15798871
139	0x3e3200be	0.17383096
140	0xbd929c12	-0.07158674
141	0xbc97798b	-0.018490573
142	0x3d90f140	0.07077265
143	0xbe3e95ab	-0.18611781
144	0xbe2af117	-0.16693531
145	0xbe859359	-0.2608898
146	0x3da45af2	0.08025159
147	0xbb95c490	-0.004570551
148	0xbdbef1c4	-0.09323457
149	0x3d8ad6e4	0.067792684
150	0xbd9b6f2a	-0.07589562
151	0xbd601ce1	-0.05471504
152	0x3bdee805	0.006802561
153	0x3e4f394d	0.20236702
154	0x3e20cdcb	0.15703504
155	0x3d902ff0	0.07040393
156	0xbe094e14	-0.1340869
157	0x3d654bdb	0.055980545
158	0xbcfcfd83	-0.030882603
159	0xbcddcf0b	-0.027076265
160	0x3df45fb4	0.119323164
161	0xbde3080d	-0.1108552
162	0x3d82dba2	0.06389548
163	0x3abb7d61	0.0014304334
164	0xbe97007a	-0.2949255
165	0x3dc8088d	0.09767256
166	0x3ce86453	0.02836815
167	0xbe55ef99	-0.2089218
168	0x3d26f20c	0.040758178
169	0xbdbf1267	-0.09329682
170	0xbdab587d	-0.08366487
171	0xbd9f619c	-0.077822894
172	0xbc902e0a	-0.017600078
173	0xbd4540ac	-0.04815738
174	0x3da148b2	0.07875194
175	0xbd326255	-0.043550808
176	0x3e495fff	0.19665526
177	0x3c8089c7	0.015690697
178	0xbdb10743	-0.08643963
179	0x3e5cbec7	0.21557151
180	0x3e009b77	0.12559305
181	0xbe8607ad	-0.2617773
182	0x3de63c33	0.11241951
183	0xbd02dff3	-0.031951856
184	0x3d8aed51	0.06783546
185	0x3da6d63b	0.0814633
186	0x3e1c5422	0.15266469
187	0x3db40df4	0.08791724
188	0x3c4d1a89	0.0125185335
189	0xbd5a47a8	-0.053290993
190	0xbdcaef3e	-0.09908913
191	0x3d800f4b	0.06252917
192	0x3e0d0bd6	0.13774046
193	0xbdd54ead	-0.10415397
194	0x3e10abc4	0.14128023
195	0xbc72c94d	-0.014818502
196	0xbdc43182	-0.09579755
197	0xbe06c51e	-0.13161132
198	0xbbf61a65	-0.0075104707
199	0xbe86d7d2	-0.26336533
200	0x3df1bcc4	0.11803582
201	0xbc17df93	-0.009269613
202	0xbdce6a78	-0.10078901
203	0xbccaaa77	-0.024739487
204	0xbe5fc248	-0.21851456
205	0x3d87dae2	0.066335455
206	0x3e0d9964	0.13828045
207	0x3c854183	0.01626659
208	0x3d3ed259	0.046587322
209	0xbe19fd64	-0.15038067
210	0xbce60ce6	-0.028082322
211	0x3d7e6ec8	0.062117368
212	0xbb2c14af	-0.0026257446
213	0xbd0879a5	-0.033319134
214	0x3d7fbc10	0.06243521
215	0x3d208245	0.039186735
216	0xbe10656b	-0.14101188
217	0xbda5949b	-0.08084985
218	0x3e40f970	0.18845153
219	0xbdea5a4e	-0.114430055
220	0x3d9a5ed6	0.0753762
221	0x3c7089cc	0.014681291
222	0x3d7b30c3	0.0613258
223	0x3d4fbec5	0.05071904
224	0xbdd58474	-0.10425654
225	0xbd718440	-0.058964014
226	0x3c929741	0.01789439
227	0xbd9496ad	-0.072553016
228	0x3cc09202	0.023507122
229	0x3beac517	0.007164608
230	0xbe0b3874	-0.13595754
231	0xbba47e77	-0.0050199586
232	0xbd6dd4ec	-0.058064386
233	0xbd4eafa1	-0.05046046
234	0x3be719cd	0.0070526362
235	0xbc803913	-0.015652215
236	0xbda64a09	-0.0811959
237	0xbc863202	-0.016381267
238	0xbdd88bcf	-0.105735414
239	0xbd57b58d	-0.052663375
240	0xbd881c68	-0.06646043
241	0x3bca822e	0.0061800694
242	0x3d089a06	0.033350013
243	0xbd93501c	-0.07193014
244	0xbe164b2f	-0.14677118
245	0xbcf10b8f	-0.029424457
246	0xbd8eecfd	-0.06978796
247	0xbd03756c	-0.032094404
248	0xbc8fa040	-0.017532468
249	0x3cf78308	0.030213848
250	0x3ba8f3eb	0.0051560304
251	0xbdeb5146	-0.11490111
252	0x3d961dcf	0.07329904
253	0xbde87248	-0.113499224
254	0x3dc6d253	0.09708085
255	0x3db9382b	0.09043916

linear_relu_stack.6.bias f4 [64]
0	0xbc359a79	-0.011084192
1	0x3d918c39	0.071068235
2	0xbd711137	-0.058854308
3	0xbdf92adb	-0.12166377
4	0x3d14e821	0.036354188
5	0xbdceda65	-0.10100249
6	0xbe02c5f3	-0.12770824
7	0xbe1e3199	-0.15448608
8	0xbdd4aeb9	-0.10384888
9	0xbd17fef4	-0.037108377
10	0xbe196d79	-0.14983167
11	0xbd974c8b	-0.07387646
12	0x3c0746ad	0.0082565965
13	0xbe490bdc	-0.1963343
14	0x3d8c287c	0.06843659
15	0xbd8cb704	-0.06870845
16	0x3d523294	0.051317766
17	0xbd87a008	-0.066223204
18	0x3d44cfbb	0.04804967
19	0x3d5062a6	0.05087533
20	0xbe0e7d22	-0.13914922
21	0xbb7aaa62	-0.0038248529
22	0xbe11151e	-0.14168212
23	0xbcfa61f8	-0.030564293
24	0xbd66e043	-0.056366216
25	0xbe2fbd36	-0.17162022
26	0xbd0a1655	-0.033712704
27	0xbd5fff2a	-0.054686703
28	0xbd75d26b	-0.060015123
29	0x3d5573ef	0.052112516
30	0xbd0d66c8	-0.034521848
31	0xbd4e77e6	-0.050407313
32	0xbccf179e	-0.025279816
33	0x3daf8035	0.085693754
34	0xbdcf94b2	-0.10135783
35	0xbd9518f8	-0.07280153
36	0x3dd9cda0	0.10634923
37	0xbc27c913	-0.010240811
38	0x3c9afe5c	0.018920116
39	0xbd5161bd	-0.0511186
40	0xbd8df5eb	-0.06931671
41	0x3c1b77c1	0.009489001
42	0x3b37db41	0.002805427
43	0xbc211fd1	-0.009834246
44	0xbd4c9b55	-0.049952824
45	0xbba5e479	-0.0050626365
46	0xbd846a61	-0.06465603
47	0xbbf7d54c	-0.0075632688
48	0xbdf25da6	-0.11834268
49	0xbd3e8097	-0.04650935
50	0x3d0805fe	0.03320884
51	0x3cf83a60	0.030301273
52	0xbd9706cd	-0.07374344
53	0xbe5ea82d	-0.21743841
54	0xbd8d059b	-0.06885835
55	0xbd3f0ab6	-0.046641074
56	0xbdadb5cb	-0.0848194
57	0xbd873de8	-0.066036046
58	0x3d9299b0	0.0715822
59	0x3d1cfd4f	0.03832751
60	0xbdc46824	-0.09590176
61	0xbd3be1ea	-0.045869745
62	0xbce48c0e	-0.027898815
63	0xbd3ec063	-0.046570193

linear_relu_stack.8.weight f4 [32, 64]
0	0xbd7d8590	-0.061894953
1	0xbd3eab1d	-0.046549905
2	0xbd6864e3	-0.056736838
3	0x3d65f0e1	0.056137923
4	0xbcec19f7	-0.028820975
5	0x3b157656	0.002280613
6	0x3d36f502	0.04466725
7	0xbc9a1242	-0.018807534
8	0xbd7b73d3	-0.061389755
9	0x3d8ead71	0.06966675
10	0x3d758554	0.059941605
11	0xbd3a6353	-0.04550488
12	0xbd25f2b0	-0.040514648
13	0xbc533d40	-0.012893021
14	0xbdbece55	-0.093166985
15	0xbb4b21c0	-0.0030995458
16	0x3d885cbb	0.06658312
17	0x3db9461c	0.090465754
18	0x3d45529f	0.048174497
19	0x3dc896df	0.097944014
20	0x3d51b5c5	0.05119874
21	0xbc08e89e	-0.0083562415
22	0xbe0b3be4	-0.13597065
23	0xbc25f1ee	-0.010128481
24	0x3c04bbfb	0.008101459
25	0xbda030be	-0.07821797
26	0xbc7ad34c	-0.015309166
27	0x3da8cb06	0.08241849
28	0xbe4bf9e2	-0.19919541
29	0x3c9aeed5	0.018912712
30	0x3dc670cd	0.09689484
31	0xbc815cfe	-0.015791412
32	0x3d42d60c	0.047567412
33	0xbc553088	-0.013012059
34	0x3dafb646	0.08579688
35	0xbcfddc94	-0.030988969
36	0xbd6d6b81	-0.05796385
37	0xbc142828	-0.009042777
38	0xbd03b4e3	-0.03215493
39	0xbd3d19ef	-0.04616731
40	0x3c80e3c8	0.015733615
41	0xbbd0e492	-0.006374904
42	0xbe0fac8a	-0.14030662
43	0xbd617ecf	-0.055052575
44	0x3c43beff	0.0119473925
45	0xbdb8bf82	-0.09020902
46	0xbd0e4f71	-0.03474373
47	0xbda9f7d5	-0.08299223
48	0xbaf935cb	-0.0019013224
49	0x3b97ed94	0.004636476
50	0xbce5578f	-0.027995853
51	0x3b8ab00a	0.0042324113
52	0x3d6c7a89	0.057734046
53	0xbd8578dc	-0.06517193
54	0xbc465795	-0.012105842
55	0xbd0703d7	-0.032962646
56	0xbd56ad1a	-0.052411176
57	0x3bb23358	0.0054382496
58	0x3d7d3092	0.0618139
59	0x3c42c4b3	0.011887717
60	0x3bf02946	0.007329139
61	0xbc2ee8d0	-0.010675624
62	0x3c6a3dcc	0.01429696
63	0x3d3a3eee	0.04547017
64	0x3df7d3df	0.12100958
65	0xbdce098c	-0.10060415
66	0xbbe80b1a	-0.0070814015
67	0xbd27d791	-0.040977065
68	0x3dd662e1	0.104680784
69	0xbe75d3f9	-0.24006642
70	0x3e277fa6	0.16357288
71	0xbd36eb36	-0.04465791
72	0xbe31947b	-0.17341797
73	0xbdb243f7	-0.087043695
74	0x3cf2e7c9	0.02965154
75	0xbdff6b7d	-0.12471674
76	0xbe1a0778	-0.15041912
77	0x3df46b66	0.11934547
78	0x3d852070	0.065003276
79	0xbd7dc73e	-0.06195759
80	0xbe7afcfc	-0.24510568
81	0x3da1ac4b	0.078941904
82	0xbe1c0bbb	-0.1523885
83	0x3dced4ed	0.10099206
84	0x3d2fe92d	0.042946983
85	0x3c2180b7	0.009857348
86	0xbd37c058	-0.044861168
87	0x3cfef19b	0.031121066
88	0xbb9e7512	-0.004835733
89	0x3e28f0b3	0.1649807
90	0x3cb41c4f	0.021986155
91	0x3cfd6546	0.03093208
92	0xbb9dc17e	-0.004814326
93	0xbd0440ed	-0.03228848
94	0x3d85dd12	0.065363064
95	0xbdf2db69	-0.118582554
96	0x3dfa704e	0.12228452
97	0x3e858697	0.26079246
98	0xbe45866d	-0.1928956
99	0x3d0f8eac	0.035048172
100	0xbdf3dbe0	-0.11907172
101	0x3d061ee1	0.032744292
102	0xbcfe42b9	-0.031037675
103	0xbd766675	-0.060156304
104	0xbddd09a3	-0.10792854
105	0x3e557dd1	0.20848776
106	0xbd59140c	-0.052997634
107	0xbd2864a1	-0.041111592
108	0x3cfa444c	0.030550145
109	0xbba39659	-0.004992288
110	0xbd6d07ed	-0.057868887
111	0xbe3ac4e2	-0.18239167
112	0xbe33cfdb	-0.1755976
113	0xbe726766	-0.23672256
114	0xbe29a8f9	-0.16568364
115	0x3da09922	0.07841708
116	0x3c4f48ae	0.0126516055
117	0xbdcc69e0	-0.099811316
118	0xbdac8dd2	-0.084254876
119	0x3d666801	0.05625153
120	0x3d90c060	0.070679426
121	0xbe2ed383	-0.17072873
122	0x3ce1e9b1	0.027577253
123	0x3d2c3a10	0.04204756
124	0xbe5a424a	-0.2131435
125	0x3e4b6c65	0.19865568
126	0x3d21dd80	0.03951788
127	0xbdc3b482	-0.095559135
128	0xbb5f85d5	-0.003410687
129	0x3c449911	0.0119993845
130	0x3d458e83	0.048231613
131	0x3e2a558e	0.16634199
132	0xbc43ed1a	-0.011958385
133	0xbe2e1ee2	-0.17003968
134	0xbe0725e2	-0.13198045
135	0x3d5416e6	0.05177965
136	0x3ab7b377	0.0014015277
137	0x3c881480	0.016611338
138	0x3e3c8bf9	0.1841277
139	0xbdd5bd97	-0.10436552
140	0x3d56dfba	0.052459456
141	0x3a232f9a	0.000622505
142	0x3da7a88f	0.08186447
143	0x3d31eb3d	0.04343723
144	0xbdc2272a	-0.09480126
145	0x3dc93733	0.098249815
146	0xbe000169	-0.12500538
147	0xbdec7e1b	-0.1154749
148	0xbda1b33a	-0.07895513
149	0x3d922b1e	0.0713713
150	0xbc94ca78	-0.01816295
151	0xbcbf2fd7	-0.023338242
152	0x3b449c4b	0.0030000384
153	0x3de23ace	0.11046372
154	0x3dde4809	0.10853583
155	0x3d28eb55	0.041240055
156	0xbda2a3bb	-0.07941385
157	0x3d1c4826	0.038154744
158	0x3ddd5fb5	0.1080927
159	0x3d939c0a	0.072074965
160	0x3d935072	0.07193078
161	0x3b097c26	0.002097854
162	0x3d0f5b0e	0.034998946
163	0x3e6e8ed0	0.23296666
164	0xbca635b9	-0.020289289
165	0x3cdc1e4a	0.026869912
166	0x3da7b6f4	0.081891924
167	0x3b182458	0.0023215022
168	0x3e4b726c	0.19867867
169	0xbd522d52	-0.051312752
170	0xbd805550	-0.06266272
171	0x3c25077d	0.010072586
172	0x3cf13dbb	0.02944838
173	0xbdaccba7	-0.08437281
174	0x3d2870f8	0.04112336
175	0xbdb91e1a	-0.090389445
176	0xbd029edf	-0.031889793
177	0x3d860362	0.06543614
178	0xbd9620a6	-0.07330446
179	0xbdb88146	-0.09009032
180	0xbdcfcdad	-0.101466514
181	0x3d83d2bb	0.06436678
182	0x3d6419c7	0.055688646
183	0xbd384153	-0.044984173
184	0x3d8d1b94	0.06890026
185	0x3cb2490f	0.021763353
186	0xbd31c325	-0.043398995
187	0xbe09b3d8	-0.13447511
188	0xbcfebc40	-0.031095624
189	0x3d53b4e3	0.05168618
190	0x3d48a1f5	0.04898258
191	0x3d33fda6	0.04394307
192	0x3d867c1c	0.06566641
193	0xbd4f7880	-0.050652027
194	0xbc3c3a14	-0.011488456
195	0x3c8feef3	0.017569995
196	0xbde9c3d1	-0.11414302
197	0xbca0a3ef	-0.01960942
198	0x3ceeb870	0.029140681
199	0x3ca29f5c	0.01985138
200	0x3dbb3b02	0.09142114
201	0xbc1d6b86	-0.009608155
202	0xbc43d621	-0.011952908
203	0x3da3b6de	0.079938635
204	0xbd6a9b14	-0.0572768
205	0x3c3d1a63	0.011541936
206	0x3e026976	0.12735543
207	0xbdcc7802	-0.09983827
208	0xbb478b49	-0.003044801
209	0x3e49a077	0.19690119
210	0x3e2994f3	0.16560726
211	0x3daa83bf	0.0832591
212	0xbd82d702	-0.06388666
213	0x3d2022d0	0.0390957
214	0x3e2f6c65	0.17131193
215	0x3d9aa95d	0.07551835
216	0x3ce1d57e	0.027567621
217	0x3e13a1d6	0.14417204
218	0x3d8000b2	0.062501326
219	0xbc8ef692	-0.017451558
220	0xbdd23908	-0.10264784
221	0xbe32a734	-0.17446595
222	0xbba78f11	-0.0051134904
223	0x3d6b8cc6	0.0575073
224	0xbde428a2	-0.111405626
225	0x3d7cf6a6	0.06175866
226	0x3d338637	0.04382917
227	0x3cba94ad	0.022775972
228	0xbe238338	-0.15968025
229	0xbd18fcde	-0.037350528
230	0xbd4bf5fd	-0.04979514
231	0x3e957f03	0.29198465
232	0xbe2cd558	-0.16878259
233	0xbbb4d4d6	-0.005518536
234	0x3db32f9b	0.087493144
235	0xbde2b543	-0.11069729
236	0x3db915c9	0.09037358
237	0xbcfb4f38	-0.030677423
238	0xbc0b220b	-0.008492003
239	0xbc9fe835	-0.019519905
240	0xbe65f648	-0.2245723
241	0xbcad2e30	-0.021140188
242	0xbc2be0e7	-0.010490633
243	0xbe829457	-0.255038
244	0x3d2d9acf	0.042383965
245	0xbd780757	-0.060553875
246	0xbda3e3f1	-0.08002461
247	0x3c15adb1	0.00913565
248	0xbd4b58b8	-0.049645156
249	0xbd7e44d4	-0.06207736
250	0x3e3712fc	0.17878336
251	0x3d9d5ded	0.076839305
252	0x3bed6916	0.0072451932
253	0x3df6e117	0.12054651
254	0x3d870d68	0.06594354
255	0x3a27df5d	0.0006403828

linear_relu_stack.8.bias f4 [32]
0	0xbe0e9ee8	-0.13927805
1	0x3daaf1fb	0.08346935
2	0xbdcaabe4	-0.09896067
3	0x3d3e5314	0.04646595
4	0xbdf66ed7	-0.1203286
5	0xbb2360ad	-0.002492945
6	0xbcdd0ec7	-0.026984585
7	0x3d503552	0.0508321
8	0xbd72ebf8	-0.05930707
9	0xbd992f8a	-0.074797705
10	0xbe0f21b0	-0.13977695
11	0xbd1a5f95	-0.03768881
12	0xbd7a7485	-0.061146278
13	0x3ce9d50e	0.028543975
14	0x3cd30c34	0.025762655
15	0xbd898462	-0.06714703
16	0x3da237f7	0.07920831
17	0x3ddf6e9e	0.109097704
18	0xbddf76f9	-0.10911364
19	0xbdbe62f4	-0.092962176
20	0xbcbc70a3	-0.023002928
21	0x3c02578b	0.007955442
22	0xbc9eb5fe	-0.01937389
23	0xbd389062	-0.04505957
24	0xbd676a34	-0.056497768
25	0xbd4bed4d	-0.049786855
26	0xbd693f83	-0.056945335
27	0xbd91f4e1	-0.07126785
28	0x3d94fb29	0.072744675
29	0x3d569625	0.052389283
30	0xbc7eb439	-0.015545898
31	0xbd960b92	-0.073264256

linear_relu_stack.10.weight f4 [1, 32]
0	0xb969ca6b	-0.00022296018
1	0x3d93475f	0.07191347
2	0x3e1b2e4d	0.15154381
3	0xbe26090c	-0.16214389
4	0x3d31457e	0.043279164
5	0x3a87f551	0.0010372793
6	0x3b303873	0.0026889115
7	0x3de5a651	0.11213363
8	0xbbfc8646	-0.0077064363
9	0xbd977410	-0.07395184
10	0xbd7bfe49	-0.061521802
11	0x3d822219	0.0635416
12	0x3e1a31c9	0.15058054
13	0x3e247caf	0.16063188
14	0xbd9edb18	-0.077566326
15	0xbd7592d9	-0.059954498
16	0xba0d8f3f	-0.00054000685
17	0x3d4fe9bc	0.050760016
18	0xbd09f000	-0.033676147
19	0x3cb6446f	0.022249429
20	0xbd9c91e8	-0.07645017
21	0x3dc97cde	0.0983827
22	0x3af3af6b	0.0018591707
23	0xbdc61708	-0.096723616
24	0x3d2fe978	0.042947263
25	0x3c8a67e1	0.016895236
26	0xba9b43ab	-0.0011845728
27	0xbafdde65	-0.0019368647
28	0x3cbe4bdb	0.02322953
29	0xbd2408e1	-0.04004753
30	0xbddd4ddc	-0.10805866
31	0xb9b86c87	-0.00035176074
