model/pendulum_model_20.pth (torch, 88722 bytes, 11 tensors)

linear_relu_stack.0.weight f4 [32, 3]
000000 4c 23 f7 3e ee bf 05 bf 8d 0e 8c 3e 86 c7 08 3f
       0.48269117 -0.52245986 0.2735485 0.5342945
000010 b1 e6 64 be 0c 4e 11 3e d0 32 ba be ab 92 6f 3d
       -0.22353627 0.14189929 -0.36366892 0.058489483
000020 7e 48 88 3e 41 7a d1 bd bf af ff 3e d1 ff 5e bd
       0.26617807 -0.10228396 0.4993877 -0.054443184
000030 13 4e 01 be 1c ab c9 3e da 6e 99 3e 0b fc 79 be
       -0.12627439 0.3938836 0.29967386 -0.24412553
000040 de a2 ef bd 44 a1 92 be 0e 46 d2 be 2e 55 94 3e
       -0.11700986 -0.2863866 -0.41069072 0.28971237
000050 01 8b e3 be 43 0d cc 3e 05 bc c5 be a5 8f b4 be
       -0.4444199 0.39853868 -0.3862001 -0.35265842
000060 ae 0e 0c 3f 5b 29 06 3f 2e b2 c3 3e a3 db 55 3e
       0.547099 0.52406853 0.38221878 0.20884566
000070 70 8c f5 be c3 68 8b 3c 9f 6a d4 3e 2a e9 c6 be
       -0.47958708 0.017017728 0.41487595 -0.38849765
000080 66 7f 00 bf 5f c8 c4 be 35 29 99 bb 84 28 12 bf
       -0.50194395 -0.3843412 -0.0046741017 -0.5709307
000090 f4 5d 02 bf 42 f1 ce bd b2 16 7d be e3 70 2f 3e
       -0.5092461 -0.1010461 -0.24715689 0.17132907
0000a0 a8 94 e3 be 32 ea 23 3e 0e dd 22 bc 7b 21 8a be
       -0.44449353 0.16007307 -0.009940399 -0.2697867
0000b0 5a 6d ae be 45 d5 d2 bd 05 f9 3a 3e 50 b3 6f be
       -0.34067804 -0.10294584 0.18259056 -0.23408246
0000c0 81 38 e4 be 6a 5c 4b be f8 1b e9 be 63 58 ee 3e
       -0.4457436 -0.19859472 -0.4552915 0.4655181
0000d0 54 4f d9 3e 5e 9c 5c be 19 ce 02 3e ce 8e 34 be
       0.42443335 -0.21544024 0.12773933 -0.176326
0000e0 b6 da 6b 3d a0 e2 96 bd db 8b c3 be 47 ab ea 3e
       0.057581626 -0.07367444 -0.3819264 0.458338
0000f0 d7 68 de 3e bf 54 a8 be 5b b6 34 3e 20 ef eb be
       0.4343936 -0.32877156 0.17647688 -0.46080875
000100 5c 89 df 3d aa c9 ec 3e 20 9b 84 3e ab 4a 24 be
       0.10914871 0.46247607 0.258996 -0.16044109
000110 b9 0e fe 3d 26 3d e2 3e 70 e3 df bd 8c c1 55 bc
       0.12405152 0.44187278 -0.10932052 -0.013046633
000120 aa 0f c9 3e b8 e7 12 3f 8c 0c 94 be 8a 54 8a 3e
       0.39269763 0.57384825 -0.28915823 0.27017623
000130 4b 8e 91 3d cc 14 c0 be 23 42 98 be 65 a6 bc 3e
       0.07107218 -0.37515867 -0.29737958 0.368457
000140 dd 41 12 bf 36 d5 e7 3e 82 9d be 3e 57 9b 01 bf
       -0.5713175 0.45279855 0.37229544 -0.50627655
000150 d5 7f 95 be ee 59 04 3d 92 77 09 bf cd a3 a2 be
       -0.2919909 0.032312326 -0.53698075 -0.31765595
000160 a1 2d fe 3e 00 ab 93 be 3d 29 e6 be 07 27 e7 be
       0.49644187 -0.288414 -0.44953337 -0.45146963
000170 92 2f bf 3d 3d af fa be 97 df cf be e8 a7 89 3d
       0.09335245 -0.4896182 -0.40600273 0.06721479

linear_relu_stack.0.bias f4 [32]
000000 82 af da 3e 96 f0 36 be 23 94 e7 be d0 05 ed bd
       0.42712027 -0.17865214 -0.45230207 -0.11573374
000010 a5 53 92 be 51 66 80 3d 06 ec 5e 3c 44 a9 8a 3e
       -0.2857944 0.06269515 0.013606077 0.27082264
000020 68 d1 b7 3e 49 b9 18 3f ed 21 4b bc 8b dc d7 3d
       0.35901952 0.5965772 -0.012398225 0.10540112
000030 52 65 c4 bd bf 49 75 3e 78 79 db 3e f5 32 cd 3d
       -0.09589638 0.23953913 0.4286611 0.10019485
000040 39 30 88 be bb 92 a7 bc 5e a5 e4 3d 71 6b dd 3e
       -0.2659929 -0.020455709 0.11164354 0.43246034
000050 13 e4 e9 be 98 85 0c 3f 5b 8a f7 3e 7e 49 f0 3e
       -0.4568182 0.5489135 0.48347744 0.4693107
000060 18 20 9b be 21 22 a4 be 67 b9 fe be 08 66 05 3d
       -0.30297923 -0.32057288 -0.49750826 0.032568008
000070 d6 33 0a 3f 19 0d a7 3c 6f 49 a2 3d 91 1b d8 3e
       0.53985345 0.020391988 0.079241626 0.42208531

linear_relu_stack.2.weight f4 [64, 32]
000000 2b 26 cd 3d c8 ab 2e 3e e5 27 42 bd 9b b6 48 bd
       0.100170456 0.17057717 -0.047401328 -0.04900227
000010 a0 73 34 3e cf df 01 3e 21 1a f8 bd 6a f8 ad 3d
       0.17622232 0.12683032 -0.12114359 0.08494647
000020 bb 53 ce bd b8 b2 7f 3d 2a 3d 9e 3c 8e c8 a8 bd
       -0.10074564 0.0624263 0.019316275 -0.08241378
000030 09 88 d7 bb 8f cb 62 3e a3 09 cb 3d 94 dc 32 3e
       -0.006577496 0.22147964 0.099139474 0.17466956
000040 da 2f 66 bd ba c9 df bd b6 5e 7c bc 1f 6b 42 3d
       -0.05619798 -0.10927148 -0.01540344 0.04746544
000050 c9 1f 85 bc 13 e9 27 be 68 e2 3e be 89 fa c7 3b
       -0.016250508 -0.16397505 -0.18641055 0.006102864
000060 40 c6 59 bd 81 2d fd 3d 1c da 15 bc 21 d7 61 3c
       -0.05316758 0.12362195 -0.00914624 0.013784201
000070 eb 1c 9c bd 80 99 8f bc b7 6b 4a 3c 14 9d 04 3e
       -0.07622703 -0.01752925 0.012354783 0.12950546
000080 5c 9e 2b be 4a f3 0f be d8 8a 1f 3d b9 3d 6b 3b
       -0.16759628 -0.14057651 0.03895077 0.0035894944
000090 4d 12 1a 3d 82 fa 3f 3e f6 4e 8b 3c 1f 5e f6 3d
       0.03761511 0.18747905 0.017005425 0.12029671
0000a0 e0 a4 e8 3d b4 72 82 3c e6 fe 28 3e b8 6c 60 bd
       0.113595724 0.015923835 0.16503486 -0.054791182
0000b0 f4 a1 25 3e 38 03 b4 3d e1 90 23 3e 27 f5 1e 3e
       0.16175061 0.087896764 0.15973236 0.15523206
0000c0 50 b7 13 bb 1d 20 03 be 6c 49 0c be 8e aa 06 3d
       -0.0022539683 -0.12805219 -0.13699883 0.032877497
0000d0 d4 e5 f4 3d 01 1f 12 bc c5 f8 85 3d 04 5a 0a bd
       0.11957899 -0.008918525 0.0654159 -0.03377725
0000e0 4f 13 51 be 01 cc ac 3d a0 ed 52 bc bd 17 b5 3b
       -0.20417522 0.08437348 -0.012874037 0.0055265115
0000f0 26 e7 cc 3d 59 ae 18 3c 6c d8 45 3e ef 6c a0 bd
       0.100050256 0.0093189115 0.1932084 -0.078332774
000100 9d 27 2a 3e db 21 94 bc 1e b2 a3 bd 59 01 02 bd
       0.16616674 -0.01808255 -0.079929575 -0.031739566
000110 e3 e5 bf 3d b5 82 9f bd d5 53 03 3e 37 f1 07 bd
       0.09370019 -0.07788602 0.12824948 -0.033189025
000120 f1 9d 22 3d 56 02 0a bd f2 69 75 bd 6c 70 15 be
       0.039701406 -0.033693634 -0.05991549 -0.14593667
000130 ba 20 6f 3d 1e 25 16 3e 21 70 4c 3e c2 26 23 be
       0.05838082 0.14662597 0.19964649 -0.15932754
000140 3f f6 0e 3e 10 fc 3a be f2 2b 3a 3e 7e df e6 bd
       0.13961123 -0.18260217 0.18180826 -0.112730965
000150 d4 58 35 bd 67 97 89 3d 39 51 6a 3d d5 17 c3 3d
       -0.044274166 0.06718331 0.057206366 0.0952603
000160 5c 78 58 be 45 dc d8 bd e7 b0 32 3d 3f 2b 56 be
       -0.21139663 -0.10588888 0.04362574 -0.20914935
000170 ef d0 f6 3d 31 08 52 be 8b 62 dd bd fd 8e 0e bd
       0.1205157 -0.20510937 -0.10809811 -0.034804333
000180 53 56 fe bd b3 46 10 3e 3c 26 8b 3d 5a 26 87 bd
       -0.12418809 0.1408947 0.06794402 -0.06599112
000190 1d 8c 96 bd 08 fd 0f 3d 81 a1 47 3e 80 a5 23 bd
       -0.07350943 0.03515342 0.19495203 -0.039952755
0001a0 7a 84 16 3e d1 f2 28 be 67 fd b7 3d 76 1a b2 ba
       0.14698973 -0.16498877 0.089838795 -0.0013588208
0001b0 06 7a 8b 3c 3c 8e 22 3e fa fb ca 3d 07 80 66 bd
       0.017025959 0.1587457 0.09911342 -0.05627444
0001c0 50 7b 7f 3d c2 5b 80 3c 7f 32 00 3d cb 79 61 bc
       0.06237346 0.015668754 0.031298157 -0.013761948
0001d0 e3 82 c9 3d d0 87 13 3e ed 6c 59 b9 5a 97 0a 3d
       0.09839418 0.14407277 -0.0002073531 0.033835746
0001e0 12 6e 6e bd 24 d1 ab 3c 3a 51 e7 3d 4b 4d 98 3d
       -0.05821044 0.02097375 0.112947896 0.074366175
0001f0 a6 e0 25 3e b9 3a cc bb 4e 3e 26 bd e9 5a 06 be
       0.16198978 -0.006232586 -0.040586762 -0.13120617
000200 b1 7f c1 bd d8 5d 2c be ff 81 d9 3d a0 89 24 be
       -0.09448183 -0.16832674 0.10620498 -0.16068125
000210 9a 80 83 3d 6e 8c 0f 3c c1 dd 0b be 5d 3b 0e be
       0.06421013 0.008761508 -0.13658811 -0.13889833
000220 97 fb 19 be 5c 23 9d 3d ca e8 81 bd b9 6f 9d 3d
       -0.1503738 0.0767276 -0.06343229 0.07687325
000230 e7 95 36 3d 75 f0 1e 3e 0e 8d be bd a9 fd 54 3e
       0.04457655 0.15521415 -0.09304248 0.20799889
000240 28 68 3d be b6 a0 45 be 82 e5 18 be 8e eb b4 3d
       -0.18496764 -0.19299588 -0.149313 0.08833991
000250 b1 0f 15 be 5a 6e dc 3d 20 9a 25 be b1 f0 d4 3d
       -0.14556767 0.107632354 -0.16172075 0.10397471
000260 de 63 fb bd fc 73 f1 bd c4 f2 ab 3d ff 6f 28 be
       -0.122749075 -0.117897004 0.08395913 -0.16448973
000270 99 89 22 3e 35 8f 25 bd ef 55 94 3d 47 4b 4e be
       0.15872802 -0.040419776 0.07242953 -0.20145904
000280 3b f7 e2 bd 92 31 ab 3c 05 52 f8 bd ed 48 b1 3d
       -0.11082312 0.02089766 -0.12125019 0.086564876
000290 17 db 84 bd f5 8c 0a be 0f d5 29 bd 95 e4 e4 3d
       -0.064871006 -0.13530333 -0.041462954 0.11176411
0002a0 12 17 d2 3d 6b 7f 1f 3e 1f 55 22 be de 18 dc 3d
       0.102583066 0.1557595 -0.15852784 0.107469305
0002b0 e7 97 85 bd ed 8a 52 3c 9c 61 36 be 6e fb f6 bd
       -0.06523114 0.012850505 -0.17810673 -0.12059675
0002c0 a6 f5 fb bd 23 63 27 3e 15 cd 90 39 fb ae dc 3d
       -0.12302713 0.16346411 0.00027618618 0.107755624
0002d0 5f 84 5d 3d f3 cc e2 3d cf 88 36 3e d6 b0 33 3e
       0.054081317 0.11074247 0.17825626 0.17547926
0002e0 52 c6 0b 3e ba a6 30 3d 69 c9 0f 3e 29 36 85 bd
       0.13649872 0.043127753 0.14041676 -0.06504471
0002f0 1f 07 be 3d 58 66 0d 3e 40 f8 14 3e 0f 7d 77 bd
       0.09278702 0.13808572 0.14547825 -0.060422
000300 92 3f 65 3d 20 a0 ec 3d a0 18 0d be f0 d0 8a bd
       0.05596883 0.11553979 -0.13778925 -0.06778133
000310 cc 11 20 be 3a 1d 14 3e 0d a9 2a 3e 85 7b 25 3e
       -0.15631789 0.14464274 0.1666605 0.161604
000320 51 ab 6c 3d b3 b6 1f 3e da 9b 04 be 84 aa c4 bc
       0.057780568 0.15597038 -0.12950078 -0.02400709
000330 98 2b 45 bd d8 45 6e 3d aa 88 a5 3d ef 14 b1 3d
       -0.048137277 0.058172077 0.08082707 0.08646571
000340 77 40 b3 bd 6c 3c f3 bc 6c e4 6b 3d 89 dc 41 be
       -0.0875253 -0.029691897 0.057590887 -0.18931784
000350 e1 af 1d 3e 2e e9 40 bd a5 1c be 3d 9a a5 15 3e
       0.15399124 -0.047097377 0.09282807 0.14613953
000360 64 75 e7 bd 38 94 65 bd a0 8a d0 3d 48 23 26 3d
       -0.11301687 -0.056049556 0.101826906 0.04056099
000370 ec 6b 1e 3e a3 6c eb 3d 35 8e a3 3d e3 57 50 3e
       0.15470856 0.1149533 0.07986108 0.20346026
000380 22 fc 55 3c 66 8b 78 3d 80 43 8f bd 72 e9 11 be
       0.013060601 0.060679816 -0.069952965 -0.14249209
000390 17 95 c6 3d ac c4 38 bd ae c3 18 3e e9 c6 b9 bc
       0.096964054 -0.045109436 0.14918396 -0.022677856
0003a0 1a 8a 89 bb 74 d6 d6 3d 14 03 c7 3d d1 ed 2a 3e
       -0.004197371 0.104901224 0.09717384 0.16692282
0003b0 b1 d2 80 3d ea 27 08 bd 34 33 0a 3e 12 54 c8 3d
       0.06290186 -0.03324119 0.13496095 0.0978166
0003c0 52 eb 50 3d ad a9 1b be d9 42 18 3c 13 79 62 3d
       0.05100567 -0.15201445 0.0092932815 0.055291247
0003d0 82 17 84 bd 88 6c f4 bd d3 8e fb bd 1e c3 1a 3e
       -0.06449796 -0.11934763 -0.12283101 0.15113494
0003e0 16 88 3e be 5b b1 77 bc 66 fc 09 be de 8d e3 3d
       -0.186066 -0.015117968 -0.13475189 0.111110434
0003f0 e5 79 89 3d a6 83 8d 3b 40 37 46 3e a8 88 9e bc
       0.06712703 0.004318672 0.19357014 -0.019352272

linear_relu_stack.2.bias f4 [64]
000000 26 e6 11 be f9 5e 8a bd b6 a1 9d bd db d2 9e bb
       -0.14247951 -0.06756396 -0.076968595 -0.0048469133
000010 ab ba ee 3d 01 7d ac 3d de 34 87 3d 14 79 32 be
       0.11656698 0.0842228 0.066018805 -0.17429
000020 65 32 13 bb f3 1a 0d be ba c6 02 be 82 74 8b 3d
       -0.0022460457 -0.13779812 -0.1277112 0.068093315
000030 3a 7e 48 be 67 d2 80 3d b1 30 8f bc b9 65 00 be
       -0.19579402 0.06290131 -0.017479273 -0.12538804
000040 95 ee 07 bd 2a 26 fc 3d 14 09 e9 bd 5a ba 33 bd
       -0.033186514 0.12311967 -0.11378685 -0.04387889
000050 8c fa 20 be 75 5f 0d be 3e 56 ee bd c4 42 9c 3d
       -0.15720576 -0.13805945 -0.11637543 0.07629922
000060 df 4f 9d bd 2a fb b8 bc 2c f4 a1 3d 46 ed 1b be
       -0.0768125 -0.022580702 0.079079 -0.15227231
000070 b4 4d 67 bc dc 55 0c 3e 82 f9 9f bd 74 44 82 3d
       -0.014117647 0.13704628 -0.07811262 0.06360713
000080 aa b7 1a be 79 f7 15 3e 3b 99 8f 3d 67 5e 80 bd
       -0.15109125 0.14645185 0.07011648 -0.06268006
000090 13 ce 14 be 99 d1 fd bc 01 d7 dd bc bb 04 cf bd
       -0.14531736 -0.030983733 -0.02708006 -0.10108324
0000a0 bc e5 2f be 05 10 4c 3e aa 24 36 bd c7 3a cc 3d
       -0.1717748 0.19927986 -0.04446856 0.099721484
0000b0 da 48 65 3d 4c a2 8f bc c0 e7 de 3d 3e e8 53 bc
       0.05597768 -0.017533444 0.108840466 -0.012933789
0000c0 b4 ab f3 3d f5 24 b5 bc 63 bd 6d bd d1 5b 23 bd
       0.11897984 -0.022112349 -0.05804194 -0.039882485
0000d0 86 4e 81 bb 7e 13 b6 bd f1 4c c0 3d ff 75 cc bc
       -0.0039461283 -0.088904366 0.093896754 -0.024958609
0000e0 50 0e c6 3c 5d 40 df bd 05 be 0b 3e 5d 30 2e be
       0.024176747 -0.10900948 0.13646705 -0.17010637
0000f0 b8 2b 2f be d8 16 10 be b8 42 cc 3d 6b c7 ca 3d
       -0.17106521 -0.14071214 0.09973663 0.09901317

linear_relu_stack.4.weight f4 [128, 64]
000000 49 9d f8 3d 82 e9 93 bd 49 75 09 3e 66 ed e6 bd
       0.12139375 -0.072222725 0.13423647 -0.11275749
000010 48 04 c3 3b 8d 37 12 3d f1 2c 8d 3d ea e4 fc 3c
       0.005951438 0.03569751 0.068933375 0.030870873
000020 f3 33 ed bd d5 67 7c bb b1 c1 91 3d 67 62 75 3d
       -0.11582174 -0.0038514037 0.07117022 0.059908297
000030 5e 08 a0 3d 83 c5 d0 3d de f4 e9 bc b2 2e e7 bd
       0.07814096 0.10193922 -0.028559145 -0.11288203
000040 0c 67 9c bd 63 fb ba 3d 24 c2 6b 3d a5 f1 ad bd
       -0.07636842 0.091299795 0.057558194 -0.08493356
000050 da d2 fe 3d 85 47 2e bd a5 d9 ad 3d 55 1e 1d 3d
       0.124425605 -0.042548675 0.08488778 0.038359005
000060 52 16 0e bd c4 4a d7 3d d3 6d c6 3b c8 08 30 bd
       -0.034689255 0.10512307 0.0060555725 -0.042977124
000070 c6 c5 95 3d 08 19 f4 bd 13 c1 e6 3d ab c8 21 3e
       0.07313113 -0.11918837 0.11267295 0.15799205
000080 ab 86 bc 3d ec 4c df 3d f9 5c e5 3b 5e 76 e2 bd
       0.092053734 0.109033436 0.0069996086 -0.11057733
000090 5c c0 28 3d 4f 96 6b 3d d2 17 4e 3c 87 64 c8 bd
       0.041199073 0.057516392 0.012578921 -0.09784799
0000a0 00 ee 50 3d cf 48 da bc bd e7 f3 bd 6c c4 75 bd
       0.051008224 -0.026646046 -0.11909435 -0.060001776
0000b0 ec 24 eb 3c f3 23 db 3c e8 59 9d 3c c8 a5 cb bd
       0.02870413 0.02675054 0.01920791 -0.0994373
0000c0 8b 1b 15 3d a0 03 9f 3d 28 07 ec bd 79 03 4b bd
       0.03640322 0.07764363 -0.115248024 -0.04956386
0000d0 8c 91 2a bd 44 3e 4b 3d df ed ce 3d 79 f3 8b bd
       -0.04164271 0.049619928 0.10103964 -0.06833548
0000e0 04 de 7f bc cd 5d d6 3b 80 dd d7 bc 13 c7 01 3d
       -0.0156168975 0.0065419436 -0.026350737 0.031683993
0000f0 11 68 51 3d 30 7b 1b 3c 50 3d f5 3d 96 89 e2 3d
       0.051124636 0.009489819 0.11974585 0.11061399
000100 a6 c8 94 bd 87 f2 07 3e 00 82 e9 3d ce b4 73 3d
       -0.07264833 0.1327611 0.11401749 0.0594986
000110 26 22 b0 3d c3 42 24 3d 4c cc 27 bc 37 26 73 3d
       0.08600263 0.04010273 -0.010241579 0.059362616
000120 9b 2f 3a bd fd d5 02 3d 32 35 b7 bd 25 8b b2 bd
       -0.045455556 0.031942356 -0.08945693 -0.08717946
000130 6e 3f d3 bd 17 b0 39 3d 6a 05 41 3d d4 14 a7 bd
       -0.10314833 0.045333948 0.047124304 -0.081582695
000140 69 81 a7 bc 09 cd bb 3d f2 70 5a 3d 5d 37 b3 bc
       -0.02044745 0.09169967 0.05333037 -0.021876985
000150 f3 ae 92 bd 82 8d 87 3d e0 2a b7 3c e0 0b 1e 3c
       -0.07162275 0.06618787 0.022359312 0.009646386
000160 54 92 c9 bd 74 bd b8 3d bc 66 0e bc 19 e9 f9 3d
       -0.09842363 0.0902051 -0.008691486 0.12202663
000170 93 88 e9 bd 56 14 01 3e 22 53 b9 bd 37 ff a2 bc
       -0.114030026 0.12605414 -0.090490595 -0.019897087
000180 e2 82 6a bd 8d 3d 53 3d 50 e0 d9 3c d5 4f 4f 3e
       -0.057253726 0.05157237 0.026596218 0.20245297
000190 d8 47 16 3e 97 1c 43 3d d3 e1 e7 3d 4d 01 52 bb
       0.14675844 0.047634687 0.113223694 -0.0032044232
0001a0 e6 d2 f3 3d 27 0c 35 3c 4b 27 30 3e 4e 65 91 3d
       0.1190546 0.011050261 0.17202489 0.070994005
0001b0 dc 99 40 bd fe 9b f1 bd 07 08 26 bc 1c 12 2c be
       -0.04702173 -0.11797331 -0.01013375 -0.16803783
0001c0 17 fa 0e bd 18 90 53 3d 11 23 2d 3e 99 42 e7 bd
       -0.034906473 0.05165109 0.16907908 -0.11291999
0001d0 d0 fe 9c bc 2f 9b 8e 3d 7e 5a 0e 3e 1e 33 af bd
       -0.019164473 0.06963193 0.13901708 -0.08554672
0001e0 b0 e9 2e 3d bb bd 99 3d 0e 66 31 3d ee e9 c1 3d
       0.04270333 0.07506891 0.043310218 0.09468447
0001f0 3c 6b 0a be d7 5e f6 bb d8 16 c6 3c 24 47 94 3d
       -0.13517469 -0.00751863 0.024180815 0.072401315
000200 c1 c1 20 3d b7 28 ba 3d 0f 3c 05 3c b3 1d 20 3d
       0.039247278 0.09089797 0.008131995 0.039090823
000210 d5 29 04 3e f4 c6 4f bd 49 86 02 bc ef 86 8c bd
       0.12906583 -0.050726846 -0.007966586 -0.06861674
000220 b4 3a aa 3d 79 a0 8b 3d e4 db fe bb 49 92 6c bd
       0.08311978 0.06817717 -0.007777678 -0.057756696
000230 c0 a2 06 bd 4d f8 50 3d d3 29 e1 3d 84 14 fa bd
       -0.032870054 0.051018048 0.109943055 -0.12210944
000240 da 45 b4 bb ad 27 18 bd a6 a2 88 bd 03 cf 7f 3d
       -0.005501491 -0.037147213 -0.06671648 0.06245328
000250 c9 bb 0f ba ee 91 8f 3d 1b 02 37 bc e1 e9 6d 3c
       -0.0005482999 0.07010256 -0.011169936 0.014521093
000260 25 86 ee bd c5 87 81 3d 05 ce 51 3d 47 a0 b4 3c
       -0.1164668 0.06324724 0.051221866 0.022049082
000270 b0 67 1a 3d a2 fb b3 3d ac 07 dd bd 57 85 81 3c
       0.03769654 0.087882295 -0.10792479 0.015810652
000280 8d d3 ff 3d f8 81 2b 3d db 69 a8 3d 3c 16 02 bb
       0.12491522 0.041871995 0.08223315 -0.0019849679
000290 46 01 db 3c e8 7d 1f bd 59 1c 91 3c 10 73 85 3d
       0.026734006 -0.038938433 0.017713713 0.06516087
0002a0 fe 33 0c bd 91 d4 b4 bc 73 6b 54 bc 06 30 ea 3c
       -0.03422927 -0.022074016 -0.012965071 0.028587352
0002b0 2d 22 a8 bd 90 69 96 3d f9 37 aa bd e4 f9 fc 3c
       -0.082096435 0.07344353 -0.08311457 0.030880876
0002c0 34 87 12 3d ee 7e 0c 3b 25 7e 05 bc 26 80 50 3d
       0.03577347 0.002143796 -0.008147751 0.050903462
0002d0 e3 4f 07 be a4 7b 59 3d d7 df bd bd fb 94 dc bc
       -0.13214068 0.05309643 -0.0927121 -0.026926508
0002e0 71 63 cf 3c 9c 7b 96 3d f0 3f f5 bc 6d c6 8b 3d
       0.025315972 0.07347795 -0.029937714 0.06824956
0002f0 a8 ae b0 3d 7e 2f d3 bc 4a 1f 03 3e e1 20 7b 3d
       0.08627063 -0.025779482 0.12804905 0.061310653
000300 5c f2 89 3d 3d 0a e4 bd c8 37 85 bd 32 66 53 3d
       0.067356795 -0.11134765 -0.0650478 0.051611133
000310 94 95 b7 3d 79 28 f3 bb 1c 4d b2 bd b7 e0 17 3d
       0.08964077 -0.007420596 -0.08706114 0.03707954
000320 e6 93 52 bc 5a 8b b9 3d ac 6b 3c 3d 53 4e a5 3d
       -0.012852645 0.09059782 0.04600112 0.0807158
000330 6a 0e c3 3c f5 c1 4c bd 6e b0 e5 bd a7 66 e4 bd
       0.023810584 -0.04998966 -0.11215292 -0.11152392
000340 9f d9 8b bd 68 ca b2 3d 45 8b cf 3d ab 4f 6d 3d
       -0.06828617 0.08730012 0.101339854 0.057937305
000350 70 f4 e6 3d 1c 3e db bd 3b d3 8c 3d 59 3d 89 3d
       0.112770915 -0.10705206 0.068762265 0.06701154
000360 22 d8 a3 3d bf bb 9a bd 15 c2 c0 3c 77 ff 49 bd
       0.080002084 -0.07555341 0.023530046 -0.049315896
000370 b6 44 9a 3d d9 38 2e 3d bd c0 19 bd 63 89 ac bc
       0.07532637 0.042534683 -0.037537325 -0.021061605
000380 5e 25 12 3e 79 80 d6 3d fb f4 b7 bc 4f a3 6e bd
       0.14272067 0.10473723 -0.022455683 -0.058261212
000390 6c 04 d3 bd 96 ad dd 3c 03 f6 e4 3c 5e cb 9b 3d
       -0.10303578 0.027060311 0.027949339 0.076071486
0003a0 37 a2 53 bd 9a 23 3a 3d d7 e7 a7 bd 07 b6 81 3d
       -0.051668372 0.04544411 -0.08198517 0.06333547
0003b0 df fd a1 bd 4f 86 1a bc 7b 2a 87 3d 2a 88 a9 3d
       -0.0790975 -0.009431436 0.065998994 0.08277924
0003c0 68 3d ad bd 06 d3 37 bd 81 41 88 3c 91 8d bf 3d
       -0.08458978 -0.044878982 0.016632797 0.093531735
0003d0 94 af 4b bd 21 38 38 bd 91 5e f6 bd 63 51 cd 3d
       -0.04972799 -0.044975404 -0.12029756 0.10025289
0003e0 9a 17 8a 3d f8 36 37 3d c9 24 1c 3c 65 3e ff bd
       0.06742783 0.044730157 0.009530255 -0.12463073
0003f0 b4 60 b4 3c c5 b9 19 3e 66 d1 2b b9 d7 4e 20 3d
       0.022018768 0.15012272 -0.00016385838 0.039137688

linear_relu_stack.4.bias f4 [128]
000000 8f 65 7b 3d a9 d8 a5 3d bc d5 ac bd 75 bb b5 bc
       0.06137615 0.08097965 -0.08439204 -0.022184113
000010 44 df 94 3d 43 fb 64 3d a3 0e cf 3d 66 93 09 3d
       0.07269147 0.055903684 0.101102136 0.033587836
000020 e2 21 9a bc 26 2a 06 3d 63 29 c2 ba 22 c6 ab 3d
       -0.018814985 0.03275504 -0.001481336 0.083874
000030 51 b4 17 bd a1 ef 24 3b 3a 81 62 bc c2 8e 36 bc
       -0.037037198 0.0025167244 -0.013824755 -0.011142435
000040 29 31 75 3c 1e 88 c9 3b 69 ae 6d 3d 36 62 15 39
       0.014965334 0.0061502596 0.05802766 0.00014246334
000050 94 6e 8d bd 46 02 5a 3c 51 d8 66 3c 52 19 00 be
       -0.06905857 0.013306206 0.01408966 -0.12509659
000060 02 0f 9f 3d b1 f0 fa 3c 2f c3 59 3c 65 ce ec 3d
       0.077665344 0.030632349 0.013291164 0.11562804
000070 a4 b1 9a bc 48 c2 00 3d d6 d2 4e bd 48 71 d4 3d
       -0.018883534 0.03143528 -0.050494038 0.10373169
000080 d1 19 cd 3d 22 a6 90 3d a4 70 9e bd f2 6f 28 3d
       0.1001469 0.07062937 -0.07736328 0.041122384
000090 17 ac eb bc ae 70 de bd 75 37 a9 bd 19 bd 8a 3d
       -0.028768582 -0.10861336 -0.08262531 0.06774349
0000a0 a2 da af bd 50 7d 26 bc 3b 07 ac 3d a0 c1 e6 3b
       -0.08586623 -0.010161713 0.083998166 0.007042125
0000b0 55 03 be bd a8 ed 29 3d 41 4d 93 3d 89 30 c6 3d
       -0.09277979 0.041486412 0.071924694 0.09677226
0000c0 38 3f cd 3d b0 ad e7 bd 16 20 97 3b 6f fe d6 bd
       0.10021824 -0.11312425 0.0046119792 -0.10497748
0000d0 37 94 34 bd b0 87 12 3d e6 cb d2 3c b4 bc 2f bc
       -0.04408666 0.035773933 0.025731992 -0.010726143
0000e0 88 ed 5f 3d c8 3b 88 bd ca 41 9f 3d eb 96 20 3c
       0.054669887 -0.06652027 0.0777622 0.009801607
0000f0 96 15 d2 bd bd 81 29 bd b8 fa f5 bd 63 47 09 3e
       -0.102580234 -0.041383494 -0.120107114 0.13406138
000100 e9 d7 96 3d 27 29 28 bd 3e bb 0b 3e a1 20 3a 3d
       0.073654 -0.04105487 0.13645646 0.045441274
000110 26 75 8a bd 34 1b 43 bc b2 ba 31 3d d1 5a 7b bc
       -0.067606255 -0.011908341 0.043390937 -0.015341477
000120 36 c2 63 bd dc de 8a bd 1a 49 49 3c 08 cd ed bd
       -0.055605136 -0.06780788 0.012285495 -0.11611372
000130 c0 f2 15 bd 8f fa c4 bd 2e 05 95 bd cc 1c d1 bd
       -0.036608458 -0.09618103 -0.072763786 -0.10210571
000140 3d 4b 55 3d 6d a9 84 3d 5f b7 93 3d 4e 2c 4f 3d
       0.052073706 0.06477628 0.0721271 0.05057936
000150 9d 65 f5 bc 7b 9e 15 bd 36 f2 91 3c f3 fe 65 3d
       -0.02995568 -0.036528092 0.01781569 0.05615134
000160 a9 3d 02 3e 21 49 1c bd e4 a3 0f 3d 79 cc 49 3d
       0.12718834 -0.03815568 0.035068408 0.049267266
000170 1e 5f d4 3b 73 10 93 bc a7 a0 73 bd 09 1e 8d 3b
       0.0064810654 -0.01795218 -0.059479382 0.004306559
000180 15 90 c7 3d 3f 85 28 bd dc 9a fc 3d b7 44 33 bd
       0.09744278 -0.0411427 0.123342246 -0.043766703
000190 b2 1d b4 bd 3b cc 7d 3d ea 35 61 3d b5 00 04 3e
       -0.087947264 0.061962347 0.054983057 0.12890895
0001a0 15 9d d7 bc f1 c7 8f bd ff 72 79 bd 31 10 eb bd
       -0.02632002 -0.07020558 -0.060900684 -0.11477698
0001b0 64 8c 82 bd 27 c9 aa 3c 37 a0 1f bd 6b 0d 90 3d
       -0.06374434 0.02084787 -0.038971152 0.07033809
0001c0 1a 44 d5 bd 23 d7 75 3c 6d 20 ed 3d 6f 9f 6a 3d
       -0.1041338 0.015004906 0.1157845 0.057280954
0001d0 df 6b 33 3c a1 63 17 be 8d 39 79 3d ff 2f 0c be
       0.010951011 -0.14784099 0.0608459 -0.13690184
0001e0 10 f8 f2 bd 18 cb 8f 3d 1e 50 cf 3d b8 83 b8 bd
       -0.118637204 0.07021159 0.10122703 -0.09009498
0001f0 7e 8a f2 bc b7 9f 86 3d 7d f8 e8 bd 1f 97 73 3d
       -0.029607054 0.06573432 -0.113755204 0.059470292

linear_relu_stack.6.weight f4 [64, 128]
000000 32 5e 84 bc 05 3f 02 3e 0c 92 3e bd 32 78 a1 bd
       -0.016158197 0.12719353 -0.046526 -0.078842536
000010 b4 01 fd bb d0 36 98 3d 7b de c1 3c cf 61 9a 3d
       -0.0077211503 0.0743233 0.023665657 0.07538187
000020 4c 08 84 3c 2e ae bf bd a1 b7 7b 3d ce f9 a7 3d
       0.016117238 -0.09359394 0.06145442 0.08201943
000030 48 d4 e3 bd a6 d3 9b bd 26 c7 3d bd 74 3f 2b 3d
       -0.11124474 -0.07608728 -0.0463325 0.04180856
000040 52 fa 38 bd 14 4c 9c bd 63 37 e5 bc d1 17 c7 3d
       -0.0451606 -0.07631698 -0.027980512 0.097213395
000050 ea 95 8e bc ed 25 92 bd e9 cf 52 3d 99 3d 72 bd
       -0.017405469 -0.0713614 0.05146781 -0.059140775
000060 6c a7 a2 bd 73 ab df bc b1 42 48 bd 82 3a 93 bd
       -0.079420894 -0.027303433 -0.048891727 -0.07188894
000070 2c f6 52 3d cb 7e 82 3d f1 e7 8b bd e7 64 d2 3c
       0.0515043 0.0637184 -0.06831349 0.02568288
000080 e2 49 82 bb d4 55 cb 3d 81 5d 13 bc 44 56 c3 bd
       -0.0039760927 0.0992848 -0.008994461 -0.09537938
000090 5e 74 24 bb 91 94 76 3c 3a 21 9f bd 01 df 8c 3d
       -0.0025093774 0.015050069 -0.07770009 0.06878472
0000a0 c2 bd 58 bc ed 09 99 3b 5b 07 ff bd 46 23 47 bd
       -0.013228836 0.0046703727 -0.12452575 -0.048617624
0000b0 b8 fe 61 3d ac 31 01 be 02 2d a3 bd 09 71 61 3c
       0.05517456 -0.12616605 -0.07967569 0.01375986
0000c0 3d e9 8c bd e5 79 17 3d 6e 75 ad bd 8b 82 e4 bd
       -0.06880424 0.036981482 -0.084696636 -0.111577116
0000d0 fc e9 cc bd 03 8e 33 3d c6 8c da bc a5 d1 a2 3d
       -0.100055665 0.043836605 -0.026678454 0.07950143
0000e0 41 c1 e8 ba 21 6e 88 bd a9 16 ad 3d 66 2f 6f bd
       -0.001775779 -0.066616304 0.08451588 -0.058394812
0000f0 a8 ad a8 bd 0b a2 19 bc 8a 0d 17 bb e1 dd c4 bd
       -0.08236247 -0.009377013 -0.0023048841 -0.096126325
000100 1f 2d b5 3b ad af 0b bd 2d a8 95 bc 63 ac b4 3d
       0.0055290605 -0.034103084 -0.018268669 0.08821943
000110 27 f4 03 bc 8e 72 c0 3d 96 4f a8 3c 53 0e 5c 3d
       -0.008053816 0.093968496 0.020545762 0.0537246
000120 6d be 55 3d 6d 8a 15 bd 35 28 ac bd a0 ee ba bc
       0.052183557 -0.036508966 -0.084061064 -0.022818863
000130 84 6b 7c bd a7 98 59 3d 8e 75 01 3d bd 0c 8a 3d
       -0.061625972 0.053124096 0.03160625 0.06740711
000140 df a8 cc 3d 06 79 33 3c 4f bf b6 3d 3d 6a f4 b9
       0.09993147 0.010954147 0.08923208 -0.0004661846
000150 96 5f 8c 3b e9 dc ac 3d c0 3f 9b bc 0b 1d 24 3d
       0.0042838557 0.08440573 -0.018951297 0.04006676
000160 16 bb 4f bd 54 01 56 bd 0d 60 21 3d 34 e1 8c bd
       -0.05071553 -0.05224736 0.03939824 -0.068788916
000170 95 34 b7 bd c4 06 88 bb 8e 1c 83 3d 7c 76 82 bd
       -0.08945576 -0.004151197 0.06401931 -0.06370255
000180 fa 4b e3 bc ee da 72 3d d3 0a bf bd 4e f7 c6 3c
       -0.02774619 0.05929082 -0.093282364 0.024287846
000190 f9 17 4f 3c a5 26 d8 3c 93 c9 f7 3d d5 04 1b bd
       0.012639993 0.026385615 0.12098994 -0.037846405
0001a0 60 51 32 bc 39 cc 59 3c b7 f1 13 3c f0 b2 55 3d
       -0.010883659 0.013293319 0.009029797 0.0521726
0001b0 d7 9a 84 3d fc 4b a5 3a e3 01 62 3c ac 0d 52 3d
       0.06474846 0.0012611146 0.013794395 0.05128257
0001c0 ec a7 a5 3d cc 56 19 bd 31 f3 ff 3c 66 45 83 bb
       0.08088669 -0.03743629 0.031243892 -0.0040060757
0001d0 5a ec 60 3c 35 09 80 bd 4f 93 16 be 78 97 a4 3d
       0.013728226 -0.06251756 -0.14704631 0.08036703
0001e0 32 05 88 3d d7 7d 21 3d 8d 18 0b bd 71 1a 79 bb
       0.06641616 0.03942665 -0.03395896 -0.0038010145
0001f0 53 df 2a 3d 5a 46 9c bd 26 54 ea 3d 03 a8 ae bc
       0.041716885 -0.07630606 0.11441831 -0.021320349
000200 bc 37 5f 3d 88 91 35 3d ca f5 3a bd 2d 59 9c bd
       0.05449651 0.044328243 -0.04564456 -0.076341964
000210 f0 12 9f bc e5 72 09 3d bc 97 ff 3d dd 6c 90 bd
       -0.01941821 0.033556838 0.12480113 -0.07052014
000220 af f7 ff 3c c0 1b 21 be 89 a7 b7 3c 27 3e 91 3d
       0.031246034 -0.15733242 0.022418754 0.07091933
000230 86 ca c3 3d be 17 40 3d c1 ee b9 b9 22 f1 8e 3d
       0.09560113 0.046897642 -0.00035463835 0.06979586
000240 a3 31 88 3d 7f 08 73 bc 77 6e a6 bc 7d 4d 18 3c
       0.066500925 -0.014833569 -0.020316346 0.009295818
000250 a0 a4 08 bd 5e d1 5a 3d 34 7c 13 3d 34 a7 54 3d
       -0.033360124 0.053422324 0.03600712 0.05191727
000260 4b e7 c0 bc bf 81 90 3c bc 3d de 3d 3b d7 49 bd
       -0.02354779 0.017639993 0.10851619 -0.049277525
000270 83 76 63 bd c7 b5 a1 bb 3e 39 ac bd 30 23 cc bc
       -0.055532943 -0.0049349996 -0.084093556 -0.024919122
000280 72 28 fd 3a 88 fe 3b 3d 14 37 37 3d b4 8d 5b bb
       0.0019314422 0.045897037 0.04473026 -0.003350121
000290 9c 4e 67 bd ba d5 d7 bd 92 29 ba bd d9 14 c1 3d
       -0.056471452 -0.10538812 -0.0908996 0.094278045
0002a0 8f 81 07 3d 12 bc aa 3d 14 08 77 3d c0 3a d8 bd
       0.03308254 0.08336653 0.06031044 -0.10558081
0002b0 3a 18 34 bd a2 92 7a bd b7 17 5e 3d b2 cb 8d 3d
       -0.043968417 -0.061174996 0.054221835 0.069236174
0002c0 ab 52 36 3c 0f 9c 2a 3c 77 eb 0c bd 8b e9 28 bd
       0.011128108 0.010413184 -0.034404244 -0.04123835
0002d0 d2 90 b5 bd e0 a5 dc bc ae 4d cc 3d c7 d7 8b 3d
       -0.08865513 -0.026934564 0.09975754 0.06828266
0002e0 c0 aa a5 bc c6 92 d6 3c ba 02 fd 3d 72 46 da 3d
       -0.020223022 0.026193034 0.12354036 0.106579676
0002f0 77 2d 0f bd ea b9 0a 3c 3c c7 08 bd 42 8c 24 3c
       -0.034955468 0.008467177 -0.03339313 0.010043206
000300 4b 6e 76 3d df 02 a6 3d 98 c6 4b 3d d6 23 86 3d
       0.060163777 0.08106016 0.04974994 0.06549804
000310 50 56 ff 3a 94 38 cc bc 6f 68 5e bd 30 15 ae bc
       0.0019480679 -0.024929322 -0.054298814 -0.021250337
000320 65 45 03 bd 3a a8 9e bd 0d c8 1a 3d a2 e5 56 bd
       -0.0320486 -0.077469304 0.03778844 -0.05246509
000330 bb 77 a3 bc 83 1b 9f 3c 77 04 b7 3d be 19 e7 3c
       -0.019954553 0.019422298 0.089363985 0.028210517
000340 c0 a9 b6 3d 79 f5 67 bd 0c ba 9a 3d e2 cd 07 bd
       0.08919096 -0.056630585 0.07555017 -0.03315533
000350 32 7d 9d bb f5 2d b4 bc a6 c7 9b bd 5e 53 89 bd
       -0.004806184 -0.02199457 -0.07606439 -0.06705354
000360 ed a5 97 3d f5 09 cd bb 0e 28 81 bc 1c 64 67 bd
       0.07404695 -0.0062572905 -0.01576617 -0.056491956
000370 03 1a 82 bc 36 39 81 3c 8e 36 75 bd d6 12 53 3d
       -0.015881544 0.01577435 -0.05986648 0.051531635
000380 e4 0e 88 3d 35 20 cf 3d 76 9a 12 3d 4a 3c f9 3c
       0.06643465 0.10113565 0.035791837 0.030424256
000390 f1 0c a7 3d 6c a5 f4 bc f7 fd 81 3d 9f dd 0a 3d
       0.08156765 -0.029864036 0.06347268 0.03390276
0003a0 dc 0d 72 3d ff de 7d bc c2 f2 84 bb af e3 f2 bc
       0.05909525 -0.015495061 -0.0040572593 -0.029649584
0003b0 aa 85 a0 bd c9 2e 7e bd 9d dc 44 bd d1 40 53 3d
       -0.078379944 -0.062056337 -0.048061956 0.051575486
0003c0 ed d3 0f 3d b8 2d df 3d 5b 4c 19 bd 3a e6 a8 bd
       0.035114218 0.10897392 -0.037426334 -0.08247037
0003d0 4e b0 06 3d c9 91 02 3d e0 bb 76 bd e5 37 41 3d
       0.03288298 0.031877313 -0.060237765 0.047172446
0003e0 8d 41 d0 3d 69 74 97 3d c8 ad 68 bd eb c5 0c 3d
       0.10168753 0.0739525 -0.056806356 0.034368437
0003f0 73 43 d3 3d 3c 1e a5 3d 3e 0c 34 3d e8 97 c0 3d
       0.10315599 0.080624074 0.043956988 0.09403974

linear_relu_stack.6.bias f4 [64]
000000 6a 18 40 bc a7 18 b2 3d b3 f9 92 bd dc 7a eb 3b
       -0.011724571 0.08696108 -0.071765326 0.007186277
000010 11 4e a9 3d ad 5f 40 bd 76 82 81 bd 0c 44 b0 3d
       0.08266843 -0.046966244 -0.063237116 0.08606729
000020 11 f0 2e 3d f4 de 62 3c 7a 08 7a 3d 91 34 c3 bb
       0.042709414 0.0138471015 0.06104324 -0.005957194
000030 75 f0 39 bc df 64 c6 3a c2 94 01 bd af 36 be bc
       -0.011348833 0.0015136263 -0.031636007 -0.023219435
000040 1e 78 89 3d 26 a4 99 3d 0e 6d 1a bd 81 c5 fe 3c
       0.06712364 0.07502012 -0.03770166 0.031100037
000050 4f 7a 77 3d c7 b1 49 3d 7f 85 fa bb a2 68 a0 3d
       0.060419377 0.049241807 -0.0076453085 0.07832457
000060 7d 97 5b 3d 5f 5b e5 3b ed 7b 0c 3d e7 05 f4 3c
       0.053611267 0.0069994177 0.034297872 0.02978797
000070 c6 d0 7f bd 80 01 e1 bc dc e5 58 bd 71 c7 0d bb
       -0.06245496 -0.027466536 -0.052953586 -0.002163377
000080 5a 55 6c 3d 36 ea 51 bb ca 0d 91 3c 15 e8 4c bc
       0.057698585 -0.003203047 0.01770677 -0.012506505
000090 44 31 2c 3d de 4e a2 bc 2d c6 f2 bc 3d f0 c0 bc
       0.04203917 -0.019812997 -0.029635513 -0.023552055
0000a0 dc 07 13 3d 40 56 71 3d a1 85 b7 3d 51 e1 ac bc
       0.035896167 0.058920145 0.089610346 -0.021103533
0000b0 b9 51 83 bd cf 8f da 3c 3c 59 e1 bc 33 6e 76 3c
       -0.06412072 0.026679901 -0.02750837 0.015040922
0000c0 b5 07 5f bd 65 49 ac 3d f5 98 50 bd 70 7a a4 3c
       -0.05445071 0.084124364 -0.05092712 0.020077914
0000d0 03 ee 98 3d 5a a5 cf bc 00 c7 99 3c 64 a8 0e bb
       0.07467272 -0.0253474 0.018771648 -0.002176785
0000e0 b3 98 1e bd 51 f5 cb bc 9b 0f a2 3d 29 0d 75 bd
       -0.038719844 -0.02489725 0.07913133 -0.059827004
0000f0 9d 6b 7c 3c fe b1 d2 bc bb cf 8e bd 55 c2 88 bd
       0.015406516 -0.025719639 -0.06973215 -0.06677691

linear_relu_stack.8.weight f4 [32, 64]
000000 8e 68 18 3e d6 28 02 3d d5 e4 7c 3d 52 2f 04 be
       0.14883634 0.031777225 0.06174167 -0.12908676
000010 fe 91 7c 3d d0 f8 0c be 4a dc 8b 3d 12 1b d5 bd
       0.061662666 -0.1376679 0.06829126 -0.10405554
000020 0a 92 1a 3d d5 e7 eb bd 4c a3 50 bd 57 d9 83 3d
       0.03773693 -0.11518828 -0.050936982 0.06437939
000030 f7 8c 7f 3d 3c c2 92 bd 48 d9 10 bd 0b 0e a3 bd
       0.062390294 -0.071659535 -0.035363466 -0.07961663
000040 a7 0b b8 b9 0b 5f c5 3d 18 31 86 bd 4e 3c fc bc
       -0.00035103897 0.09637269 -0.06552333 -0.030790474
000050 1a 7c be bd 80 a3 bf bd 16 cf cb 3c ca 2d 6d bd
       -0.09301014 -0.09357357 0.02487902 -0.057904996
000060 db 50 ed bd c6 06 76 3c d7 32 f0 bc ff a1 06 be
       -0.115876876 0.015016263 -0.029321117 -0.13147734
000070 81 dd 85 3d dd 1b 91 3d 5e 31 df bd b7 64 9e bd
       0.06536389 0.070853926 -0.10898088 -0.077340536
000080 8a 2c a4 3d 92 29 52 bd 31 94 04 be 62 42 c5 3d
       0.08016308 -0.051309176 -0.12947156 0.09631802
000090 80 c5 58 3d 12 14 84 bc 13 36 61 3d 19 eb 02 3e
       0.052922726 -0.016122852 0.05498321 0.12784995
0000a0 5a 62 a6 3c 58 9d 80 3c 03 9f 99 3d 3a 1c 2e bd
       0.02031057 0.015700027 0.07501032 -0.042507388
0000b0 b0 1b 86 bd 6a ef 88 bd 85 e8 f5 3d d2 0c 47 3d
       -0.0654825 -0.066862896 0.1200724 0.04859621
0000c0 07 8d dd 3d 82 b2 ea bc 04 f8 91 3c d2 0f b4 bd
       0.108179145 -0.028649572 0.017818458 -0.0879208
0000d0 05 57 b5 bc d8 00 ec 3d 07 a1 9b bd 37 ec 0f 3d
       -0.02213622 0.115235984 -0.07599073 0.03513738
0000e0 c4 34 37 3d 40 73 02 3e 44 61 08 bd 78 66 c6 3d
       0.044728056 0.12739277 -0.033295885 0.09687513
0000f0 cd 28 26 3c cf 3a 0d be 24 aa 2d bd c1 73 05 3e
       0.010141564 -0.13791965 -0.042398587 0.13032438
000100 dd 21 71 bd 8e e1 10 3d 69 77 9a 3d 8d 16 9d 3d
       -0.058870185 0.035371356 0.07542307 0.07670317
000110 97 8b 0c 3e bb 5a d2 bb ee a0 a5 bd 78 d1 be bc
       0.13725124 -0.0064195073 -0.080873355 -0.023293242
000120 d2 3d c7 bd 3c 9f f7 3a ff 4f b7 bd 6b ae 6a 3d
       -0.09728588 0.001889206 -0.08950805 0.057295244
000130 71 f5 0c 3e 83 3a 26 be 9b d5 f0 3d 35 14 8a bd
       0.13765503 -0.16233258 0.11759492 -0.067421354
000140 f4 7e fb bd 7d 8c a7 3d 5b 81 02 3c a3 32 14 bd
       -0.12280074 0.08181093 0.007965411 -0.036181103
000150 94 fa b4 bd cc 71 2c 3b 6b f8 cf 3d d5 5f c8 bd
       -0.088368565 0.0026312945 0.10154804 -0.097839035
000160 5b 0d f0 bc 06 2f c5 bd 15 25 a0 3d 3b 4b a5 bd
       -0.029303243 -0.0962811 0.07819573 -0.0807099
000170 70 d3 92 bd c4 36 0d 3d cb 52 c6 3d 4c 6a 6f 3c
       -0.07169235 0.034476057 0.0968376 0.0146127455
000180 91 f4 17 3b e4 b0 ab bd 11 e3 8a 3b 62 7c 84 3d
       0.0023186544 -0.083833486 0.004238494 0.06469037
000190 d4 9e 06 bd 0e 69 e6 3d 89 0a b7 bd 88 7d f5 3c
       -0.032866314 0.11250506 -0.08937556 0.029967085
0001a0 59 e1 c8 bc fd 76 62 3d b4 9c a7 3c 84 62 2b bd
       -0.024521517 0.055289257 0.020460464 -0.041842
0001b0 17 6a a5 3d 48 40 89 3d 31 d8 79 3d 19 9e 08 bd
       0.08076876 0.06701714 0.06099719 -0.0333539
0001c0 01 d8 ea 3d f1 69 84 bc df b1 85 bd 22 d5 91 3d
       0.11466981 -0.016163798 -0.06528067 0.0712073
0001d0 ca a9 90 3d d2 40 a1 3d 78 a3 d8 bd e7 c7 fc 3d
       0.07063635 0.078736916 -0.10578054 0.12342816
0001e0 79 8c 74 3d 50 fe 23 3e 58 9c a1 3d c5 7d 4f bd
       0.059704278 0.16014981 0.07891148 -0.050657053
0001f0 50 87 96 3d 34 f2 e4 bb 44 70 d5 3c 15 71 bc bd
       0.073500276 -0.0069868807 0.026054509 -0.09201256
000200 0e 28 bd bd 81 a1 f1 bd 53 f0 9f 3d 49 1a 5c 3d
       -0.092361555 -0.117983826 0.0780951 0.053736005
000210 33 c9 12 3d d4 f3 d9 3c 34 55 62 bc b3 0e b9 bc
       0.03583641 0.026605524 -0.013814259 -0.022590017
000220 13 8c 0d 3d 2b 18 62 3d 86 5a ac 3d 7a 83 13 bd
       0.034557413 0.05519883 0.084157035 -0.036014058
000230 43 22 89 bc a2 04 31 bc 44 b8 a5 3d 49 6c a7 3d
       -0.01673997 -0.010804327 0.080917865 0.08174951
000240 10 ce b4 3d 0e 24 83 bd 79 1b 47 3d 65 f4 3a 3c
       0.08828366 -0.06403361 0.048610184 0.011410807
000250 0d b0 8f bd e6 41 ad bd 78 70 70 3d ac 1f 02 bd
       -0.07016001 -0.08459835 0.05870101 -0.031768486
000260 04 3a b4 bc 90 9e ce bb 73 f2 db bd 07 ae a0 bc
       -0.02200032 -0.006305523 -0.10739603 -0.019614233
000270 a1 d4 8c 3d 61 07 19 3d 70 bb ef 3d e3 5d ab 3d
       0.06876493 0.037360553 0.11705673 0.08367517
000280 d8 78 44 bc 57 20 16 3d 03 cb a5 3c 23 2c 96 bd
       -0.011991702 0.036651935 0.020238405 -0.07332637
000290 b4 1f 95 bd 6f 13 d5 3d 89 b8 cc 3d d5 fa c9 3d
       -0.072814375 0.10404097 0.09996135 0.098622955
0002a0 4d 5a b0 bd 12 1c 1e 3d 00 3a 9c bd 99 10 5b 3d
       -0.086109735 0.03860099 -0.0762825 0.053482626
0002b0 f3 ee c0 bd 60 42 f6 bd 17 22 d6 3d 85 f9 e0 bd
       -0.09420576 -0.12024379 0.10455721 -0.10985092
0002c0 e9 4f a7 bc 35 04 94 3d 16 09 f4 bc 61 da 62 3d
       -0.020423846 0.07227365 -0.029789489 0.055384044
0002d0 9c 82 8a 3d 5d 3e 86 bd a3 fa cd bd 88 0b c2 bc
       0.06763193 -0.065548636 -0.10057571 -0.02368714
0002e0 4a 99 b7 3d 62 f3 9c 3c 79 b0 a9 bd d5 4b ea bd
       0.089647844 0.019159023 -0.082856126 -0.11440245
0002f0 2e 51 e9 bd 92 aa ca bd 64 18 02 bd c4 b3 4b 3a
       -0.11392437 -0.09895815 -0.031761542 0.00077706226
000300 93 4c c9 3d 55 3f ce 3d ed fa ee 3d cb 5c c2 3b
       0.098290585 0.100706734 0.11668954 0.005931472
000310 96 0b e5 bc 2a 72 31 be d8 2a 45 3d 7b 4a e4 3d
       -0.027959626 -0.17328706 0.048136562 0.111470185
000320 28 a1 9c 3c f0 55 56 bd df e9 e5 bd 04 97 d7 bc
       0.019119814 -0.05232805 -0.11226248 -0.026317127
000330 46 12 e5 bd 0e 4f b6 bd da f9 b6 bd b6 f5 b2 3d
       -0.11185126 -0.08901797 -0.08934374 0.08738272
000340 62 4d 16 be e3 54 98 3c ab cd 37 bd 11 9b e0 3d
       -0.14677957 0.018595165 -0.044873875 0.109670766
000350 88 89 4c 3d 88 a6 d6 bd e2 c6 0e 3e e6 11 9b bd
       0.049935848 -0.10480982 0.13943055 -0.07571773
000360 b5 e5 3c 3d 52 8a 33 3e 0e 16 23 bb f3 28 77 bc
       0.046117503 0.17533234 -0.0024884972 -0.015085447
000370 50 b0 81 3c 7e 94 45 3c d2 99 ff 3d 42 85 80 bd
       0.015831143 0.012059329 0.12480511 -0.06275417
000380 0d ca 4d 3b ce d7 b6 3b c1 d6 c6 bd 0e 5c d7 3b
       0.003140095 0.005579925 -0.0970893 0.006572253
000390 32 6f 0c be 7b 25 aa 3d a0 e2 dd 3d a9 c3 2b 3e
       -0.13714293 0.0830793 0.10834241 0.16773857
0003a0 0b 27 3f bd e8 86 f6 bd 8a 65 5a bd 1a b1 b3 bd
       -0.046668094 -0.1203745 -0.05331949 -0.08774014
0003b0 24 94 bc bd 6f aa 2d bd 6e 61 8d bc fc 8b 91 bd
       -0.09207943 -0.042398866 -0.017258372 -0.07106778
0003c0 63 1a 63 3d 87 78 f6 bd ad 5a 12 3d 6f a4 2e bd
       0.055445086 -0.120347075 0.035731006 -0.042637285
0003d0 7c 55 a5 3d e0 74 45 bc f2 f3 d0 3d c3 69 08 3e
       0.080729455 -0.012051791 0.10202779 0.13321595
0003e0 3b 6c c4 bd a5 9e ab 3d 7d 51 98 3d 91 5d a8 bd
       -0.09590956 0.083798684 0.07437418 -0.082209714
0003f0 0c 6c 82 bc 43 64 f5 bb ba d6 7c 3d 3d 8c 88 bd
       -0.015920661 -0.007488759 0.061728217 -0.06667373

linear_relu_stack.8.bias f4 [32]
000000 a3 43 e0 3c 6b e0 af 3c 0d 57 c2 bd e3 87 e8 bd
       0.027376002 0.021469316 -0.0948926 -0.11354043
000010 eb 9d 38 bd a1 15 27 bd 7b 3d 29 3d 44 a1 f2 bc
       -0.045072477 -0.04079211 0.041318398 -0.029617913
000020 bb 91 a8 3d a2 ae 8b bd 7a ea 5d bd 96 5d b1 bd
       0.08230921 -0.06820418 -0.054178692 -0.08660428
000030 84 42 bb bb 29 d0 90 bd 8f 0a 83 3d 3c b7 6d bd
       -0.0057147164 -0.070709534 0.06398498 -0.058036074
000040 39 27 6c 3d a1 20 90 3d f9 4b 99 bc 57 ce 95 3d
       0.057654593 0.070374735 -0.018712984 0.07314747
000050 e4 36 89 3d c9 4c ec 3c 04 46 ae bd 0f 93 ac 3d
       0.06699923 0.028845208 -0.08509448 0.08426487
000060 6e c6 00 3e 78 d4 4d 3a 2b 11 74 3b 1f c1 76 3d
       0.12575695 0.00078517897 0.0037241678 0.06024277
000070 87 67 41 3d 71 14 d1 bd fa ac eb 3d 11 75 1d 3d
       0.047217872 -0.10208977 0.11507602 0.03844172

linear_relu_stack.10.weight f4 [1, 32]
000000 f3 7c 66 be 16 bb b7 bd 47 1d 16 bb 27 a2 40 be
       -0.22508602 -0.08971231 -0.0022905634 -0.18811856
000010 19 c4 83 3e 8e 59 e5 3d 85 37 4e be 5e 6a b0 3d
       0.25735548 0.11198722 -0.20138367 0.08614038
000020 99 b0 49 be d2 98 0d be a3 33 17 3e a7 5f 4c be
       -0.19696273 -0.13827828 0.14765792 -0.19958363
000030 ce 59 2f 3e fa 97 8c be cf f1 fa bd ca 29 3a be
       0.17124102 -0.274597 -0.122531526 -0.18180004
000040 c6 30 87 3e 7d 82 08 bd fe bb 26 be f5 74 6c be
       0.264044 -0.03332757 -0.16282651 -0.2309149
000050 32 e1 46 be 1b f0 2f be 97 3c 23 be 4f c5 a6 be
       -0.19421843 -0.17181437 -0.15941082 -0.3257241
000060 bd 03 a0 3d 81 bf 1c 3e 76 fc 60 be 40 9e f2 3d
       0.07813213 0.15307428 -0.21971306 0.1184659
000070 6b 3e 3b 3e c1 1d 2c be 9b ea 84 3e 2a e9 44 3e
       0.1828553 -0.16808225 0.2596024 0.1922957
