model/pendulum_model_8.pth (torch, 88706 bytes, 11 tensors)

linear_relu_stack.0.weight f4 [32, 3]
0.4496461 -0.07666149 0.37619668 0.06763148 0.017246203 -0.36132294 -0.4369354 -0.382396
-0.46965533 -0.3279432 -0.45491904 -0.20809491 0.42798868 -0.07156745 0.08194125 -0.4991998
-0.36549717 -0.10659468 -0.08096875 -0.49381143 0.36716044 -0.21103825 0.04606148 0.23118931
-0.12552887 0.50318867 0.4008645 0.49768388 0.11846391 -0.07730867 -0.18766598 -0.39410156
-0.22929193 -0.1672492 -0.30406398 0.5051487 0.48539624 0.33789584 -0.41250208 -0.37821797
0.1795861 -0.09788895 -0.31503698 -0.16552754 -0.4780201 -0.061764263 0.47537044 0.25945848
0.2439598 0.4141125 0.19963667 0.41837716 -0.520746 0.35826042 0.41543335 0.5880119
0.34048724 -0.41825488 0.54817915 0.15067777 0.023947518 0.12324074 -0.2427959 -0.3965458
0.2742098 0.14281309 0.13943158 -0.49446326 -0.14726987 -0.06351586 0.2640758 0.33552969
0.550423 0.5314927 -0.27426204 -0.067689426 -0.010435597 0.19878805 0.03273544 0.4759883
-0.5635407 -0.5345224 0.4376256 0.33635145 -0.1880996 0.34123325 -0.08139443 0.38336876
0.45837775 -0.27672607 0.16152526 -0.4404226 0.48621997 0.256871 -0.45259917 -0.5540795
00000000: 0338 e63e b300 9dbd da9c c03e 6082 8a3d
00000010: e947 8d3c 52ff b8be ffb5 dfbe 69c9 c3be
00000020: aa76 f0be 2ce8 a7be 26eb e8be d516 55be
00000030: 5521 db3e f591 92bd d0d0 a73d 1e97 ffbe
00000040: 7222 bbbe 504e dabd f2d2 a5bd dad4 fcbe
00000050: 74fc bb3e 691a 58be f6aa 3c3d e4bc 6c3e
00000060: a48a 00be f9d0 003f 1d3e cd3e 6cd0 fe3e
00000070: 359d f23d 0254 9ebd 832b 40be aec7 c9be
00000080: 81cb 6abe 6043 2bbe 46ae 9bbe 6d51 013f
00000090: db85 f83e af00 ad3e 7933 d3be c9a5 c1be
000000a0: 6be5 373e 007a c8bd 874c a1be 0d80 29be
000000b0: 0dbf f4be 86fc 7cbd c163 f33e bed7 843e
000000c0: 99d0 793e 8e06 d43e 8e6d 4c3e 8835 d63e
000000d0: 9c4f 05bf e96d b73e aeb3 d43e f387 163f
000000e0: 5854 ae3e 8125 d6be 7855 0c3f 464b 1a3e
000000f0: 962d c43c a465 fc3d 7d9f 78be 0d08 cbbe
00000100: 3a65 8c3e 983d 123e 27c7 0e3e 4a2a fdbe
00000110: eacd 16be 9a14 82bd f134 873e 8cca ab3e
00000120: 86e8 0c3f e80f 083f 136c 8cbe c1a0 8abd
00000130: 11fa 2abc 188f 4b3e 9915 063d bdb4 f33e
00000140: 3444 10bf 76d6 08bf 7610 e03e 4236 ac3e
00000150: 2e9d 40be 20b6 ae3e 1fb2 a6bd e948 c43e
00000160: 7db0 ea3e 0aaf 8dbe e166 253e 127f e1be
00000170: d3f1 f83e 9984 833e 14bb e7be 27d8 0dbf

linear_relu_stack.0.bias f4 [32]
0.14031383 -0.4882417 0.234475 -0.16744821 -0.4831263 0.06802167 -0.25642338 -0.3241066
0.037759144 -0.11227528 0.21628606 0.21130334 -0.13688226 0.08160858 0.55310637 -0.5074632
0.013618942 0.09311659 -0.1814961 0.474175 -0.43571475 0.35016686 0.019962896 0.08380665
-0.290488 0.3840384 0.42407897 -0.11163483 -0.31996515 0.3557493 -0.18246135 0.36518738
00000000: 6eae 0f3e d1fa f9be 371a 703e 8b77 2bbe
00000010: 555c f7be f24e 8b3d ed49 83be 4df1 a5be
00000020: 55a9 1a3d 95f0 e5bd 187a 5d3e e75f 583e
00000030: dd2a 0cbe 6622 a73d 6198 0d3f 1ce9 01bf
00000040: fc21 5f3c e9b3 be3d 1dda 39be 11c7 f23e
00000050: 0116 dfbe 1249 b33e 3a89 a33c d2a2 ab3d
00000060: d8ba 94be aea0 c43e e120 d93e cda0 e4bd
00000070: 79d2 a3be c624 b63e 26d7 3abe d7f9 ba3e

linear_relu_stack.2.weight f4 [64, 32]
0.1610218 0.21628636 -0.19548093 0.13067167 -0.17565462 -0.1917119 0.055204578 -0.20183542
-0.11928322 0.11639478 -0.07958149 -0.11814293 -0.11833491 0.13510056 0.14783436 0.16505142
-0.015373383 -0.1481671 0.08382373 -0.08312223 0.17675772 0.0073483777 0.03471801 -0.20843036
-0.06474181 -0.080971435 -0.22674827 0.02463031 0.14456615 -0.009195824 0.076816685 0.14758532
-0.128327 0.056839347 -0.06260402 0.10174211 0.050354514 -0.064599246 0.25908738 0.015089987
-0.28725997 -0.037283637 0.012138975 0.20015272 -0.14533326 -0.07473526 0.07095898 -0.09356123
0.11806817 -0.19160339 0.053733934 -0.03289131 -0.0019967689 -0.10522673 0.13874069 -0.1896821
0.018039271 -0.16064762 -0.014770737 -0.18831407 0.03805598 -0.0414652 -0.18409525 -0.14710662
-0.045197144 0.20413592 -0.09585093 -0.0036744731 0.14300898 0.16282244 -0.25850224 -0.099445455
0.18196943 0.06275228 0.100541875 -0.112837374 -0.12354898 0.11212502 0.08637046 0.15584084
0.081549756 0.012304299 0.0077568525 -0.15630955 0.0034743156 0.10956279 0.15023074 -0.32622895
0.0536756 0.023934579 -0.13086642 0.10297698 0.04744403 0.009934437 0.04140456 0.116631195
-0.12649219 -0.00859984 0.26944852 -0.06132921 -0.033548743 0.089747146 -0.16358349 0.15319489
0.0309026 -0.05973052 -0.13603029 -0.06254165 0.0666084 -0.07334567 0.018903654 -0.0012476131
-0.21545608 0.12638964 -0.053153712 0.20475097 0.14359103 -0.075371094 0.13608947 0.036097467
0.047180824 -0.020873444 0.079158224 -0.09893541 0.005016173 0.17585899 -0.04323857 0.14107238
-0.11966552 0.21528776 -0.016747784 0.097374 0.09189815 -0.022611208 0.095773265 0.074494064
0.0039318954 -0.13170668 0.027328018 0.15776183 -0.028996594 -0.1320763 -0.16530426 -0.26283184
0.11621447 0.15767413 -0.15946971 -0.14106569 -0.033888772 0.009599209 -0.20517057 0.08022066
-0.14726953 -0.058070943 0.37689722 -0.07538798 -0.18169625 -0.07501245 0.055556856 -0.16958673
0.12749867 0.11394466 0.19230036 -0.1696407 -0.045988835 0.26147312 -0.009697746 0.14795594
-0.17046492 0.202949 0.041886184 -0.10747087 0.05030666 0.051869232 -0.07681203 0.12267945
0.107428506 -0.1349663 -0.2596705 0.138898 0.16848527 -0.14545758 -0.15655138 -0.1884071
0.12660111 -0.09776258 0.09697836 -0.088174306 0.08142381 0.050389435 0.10656449 0.13477537
-0.00040634823 0.15056224 -0.26932102 -0.0784268 -0.18837476 -0.05877008 0.038193054 -0.18794233
-0.13415112 -0.19887586 0.07036591 -0.07715608 0.012301997 -0.16084255 0.2066728 -0.046671905
0.092668094 0.14362577 -0.091507815 0.1541873 -0.03028411 0.09349773 0.17524411 -0.06639907
0.073613144 -0.0886704 0.0021285638 0.10765046 0.23568083 -0.061044205 -0.10664897 0.04564348
-0.06717326 0.07538046 -0.2376898 -0.26546416 -0.1318841 0.14193961 -0.061576676 0.12919535
-0.084917225 0.12597013 0.017819555 -0.077087864 -0.025806863 0.104454175 0.017149135 0.0037455347
-0.15319704 0.057899106 -0.16424383 -0.109889925 -0.02908965 0.086831965 -0.18746473 0.23134111
-0.07684098 0.11634066 0.10532436 -0.03903743 0.03836028 -0.07961769 0.10853335 0.011214157
00000000: e6e2 243e 2c7a 5d3e 272c 48be cbce 053e
00000010: cede 33be 2050 44be 321e 623d f2ad 4ebe
00000020: c34a f4bd 6360 ee3d 9ffb a2bd ecf4 f1bd
00000030: 9359 f2bd cd57 0a3e e461 173e 3d03 293e
00000040: a4e0 7bbc 1eb9 17be c7ab ab3d fd3b aabd
00000050: faff 343e a9ca f03b 7934 0e3d c56e 55be
00000060: 5b97 84bd 5ad4 a5bd b330 68be 81c5 c93c
00000070: 2609 143e 15aa 16bc 1152 9d3d 9b20 173e
00000080: 2768 03be 60d0 683d 8936 80bd 2b5e d03d
00000090: 8940 4e3d 9c4c 84bd 1aa7 843e fe3b 773c
000000a0: bd13 93be bab6 18bd 8de2 463c d6f4 4c3e
000000b0: 3ed2 14be cd0e 99bd f152 913d 089d bfbd
000000c0: bacd f13d ae33 44be 1d18 5c3d 0ab9 06bd
000000d0: 39dc 02bb 1d81 d7bd 0a12 0e3e 063c 42be
000000e0: 18c7 933c cf80 24be f600 72bc 67d5 40be
000000f0: 96e0 1b3d 6ad7 29bd 7783 3cbe 1ea3 16be
00000100: a420 39bd 0209 513e 7e4d c4bd 6ecf 70bb
00000110: f270 123e edba 263e 685a 84be 0faa cbbd
00000120: 3256 3a3e 4484 803d e6e8 cd3d 4817 e7bd
00000130: 3f07 fdbd cda1 e53d ffe2 b03d be94 1f3e
00000140: 8f03 a73d f897 493c 322d fe3b 9c0f 20be
00000150: 58b1 633b 7562 e03d 16d6 193e 7b07 a7be
00000160: f2da 5b3d 7312 c43c d901 06be 98e5 d23d
00000170: ac54 423d 0dc4 223c d497 293d 56dc ee3d
00000180: 2b87 01be 58e6 0cbc 28f5 893e 5634 7bbd
00000190: 686a 09bd 5acd b73d 6e82 27be 1fdf 1c3e
000001a0: 7327 fd3c fda7 74bd 864b 0bbe d615 80bd
000001b0: fc69 883d 4136 96bd d6db 9a3c f386 a3ba
000001c0: 85a0 5cbe 496c 013e b5b7 59bd 3daa 513e
000001d0: 8709 133e 295c 9abd 0a5b 0b3e f0da 133d
000001e0: ae40 413d c9fe aabc b51d a23d a69e cabd
000001f0: b55e a43b 6114 343e ed1a 31bd 4775 103e
00000200: 3213 f5bd 6574 5c3e a632 89bc 056c c73d
00000210: 1935 bc3d 243b b9bc c624 c43d 5890 983d
00000220: 21d7 803b 1ede 06be 02df df3c 518c 213e
00000230: 448a edbc 023f 07be 8545 29be e591 86be
00000240: da01 ee3d 5475 213e 074c 23be 8673 10be
00000250: f4ce 0abd 0046 1d3c 3c18 52be bb4a a43d
00000260: d3cd 16be ccdb 6dbd acf8 c03e 0365 9abd
00000270: 950e 3abe 21a0 99bd 968f 633d 25a8 2dbe
00000280: 038f 023e d15b e93d 63ea 443e 4bb6 2dbe
00000290: ca5e 3cbd cedf 853e 4be3 1ebc c381 173e
000002a0: 5b8e 2ebe ddd1 4f3e d990 2b3d b019 dcbd
000002b0: 5b0e 4e3d d574 543d a04f 9dbd 5d3f fb3d
000002c0: 7a03 dc3d 9b34 0abe 88f3 84be 473b 0e3e
000002d0: 6787 2c3e d5f2 14be 014f 20be caed 40be
000002e0: b9a3 013e bf37 c8bd 979c c63d bb94 b4bd
000002f0: 87c1 a63d 2765 4e3d 7c3e da3d 8e02 0a3e
00000300: 230b d5b9 fd2c 1a3e 72e4 89be 3b9e a0bd
00000310: 50e5 40be e5b8 70bd 5270 1c3d f473 40be
00000320: e95e 09be 1da6 4bbe 011c 903d 0204 9ebd
00000330: 518e 493c e9b3 24be 09a2 533e 0a2b 3fbd
00000340: c5c8 bd3d a212 133e 7368 bbbd 47e3 1d3e
00000350: 6216 f8bc bd7b bf3d 3173 333e 3cfc 87bd
00000360: 7dc2 963d d498 b5bd 607f 0b3b d877 dc3d
00000370: 5156 713e 7d09 7abd c66a dabd a8f4 3a3d
00000380: 2292 89bd 1261 9a3d f464 73be ebea 87be
00000390: a00c 07be 9e58 113e d337 7cbd c94b 043e
000003a0: 15e9 adbd 50fe 003e 51fa 913c 3ee0 9dbd
000003b0: ea68 d3bc 12ec d53d 587c 8c3c a577 753b
000003c0: afdf 1cbe 9d27 6d3d 892f 28be f80d e1bd
000003d0: 6b4d eebc f5d4 b13d c1f6 3fbe afe4 6c3e
000003e0: ce5e 9dbd 0344 ee3d 4cb4 d73d b6e5 1fbd
000003f0: ab1f 1d3d 990e a3bd bc46 de3d 95bb 373c

linear_relu_stack.2.bias f4 [64]
-0.08344036 0.0010311202 -0.025901018 -0.07115035 -0.115149245 0.089368016 -0.02443672 -0.047795035
-0.080134764 -0.06159548 -0.08395553 0.010941111 -0.1445661 0.1782373 -0.042458426 0.073549785
0.13069017 0.04513086 -0.1626272 -0.01514381 0.09617637 -0.06316163 0.08725221 0.11184494
-0.08446157 0.13891178 0.02214907 0.0838589 -0.14955929 0.097031325 -0.0289405 -0.08119194
-0.13584949 0.0398672 0.122472405 -0.24609308 0.10019458 0.060926974 0.18845479 -0.08639806
-0.057159908 -0.014557847 0.11121708 0.042689133 0.16393737 -0.025389647 0.10421547 0.018273987
0.034223888 0.04386021 -0.0040883604 0.03498585 -0.14192694 -0.117282264 -0.06614875 -0.07845577
0.09382616 0.048904028 -0.21654549 0.1135823 -0.21626383 0.07075414 -0.1422237 0.121448785
00000000: c8e2 aabd a726 873a 5f2e d4bc 46b7 91bd
00000010: 5ed3 ebbd 9406 b73d 842f c8bc bac4 43bd
00000020: b21d a4bd 8b4b 7cbd e0f0 abbd 5842 333c
00000030: 2309 14be d783 363e e3e8 2dbd 45a1 963d
00000040: a5d3 053e 23db 383d bf87 26be be1d 78bc
00000050: 1ef8 c43d e25a 81bd 49b1 b23d f60e e53d
00000060: 30fa acbd e43e 0e3e f771 b53c 37be ab3d
00000070: 1226 19be 5cb8 c63d a114 edbc f647 a6bd
00000080: 211c 0bbe ca4b 233d d0d2 fa3d d3ff 7bbe
00000090: d132 cd3d 908e 793d 4bfa 403e 77f1 b0bd
000000a0: 8220 6abd 0984 6ebc c8c5 e33d cdda 2e3d
000000b0: 33df 273e f3fd cfbc ec6e d53d 54b3 953c
000000c0: 592e 0c3d c3a6 333d a7f7 85bb 534d 0f3d
000000d0: 4c55 11be af31 f0bd ff78 87bd 6bad a0bd
000000e0: ee27 c03d 974f 483d 1abe 5dbe d69d e83d
000000f0: 4474 5dbe 8ce7 903d 17a3 11be 24ba f83d

linear_relu_stack.4.weight f4 [128, 64]
-0.08893767 0.0021655967 -0.084043086 -0.078776434 0.053236037 0.17068502 -0.018960519 0.07191519
0.08845421 0.084102444 -0.15881687 0.08604133 -0.06818137 -0.091092415 0.013044204 -0.067191266
-0.035771623 -0.054160118 0.10168542 -0.048601564 -0.010071075 -0.073637135 0.046421934 -0.12503885
-0.08723265 0.1169067 -0.072087504 -0.11947143 0.09674129 -0.20568189 -0.045182362 -0.116920836
0.041777372 -0.091845326 0.057520114 0.05885964 0.07596299 0.06740532 -0.1699969 0.07385105
-0.11421595 -0.074133664 0.081932336 -0.0211208 -0.2450514 0.07823969 -0.4031364 0.18426254
0.11897173 -0.058522087 0.027988307 0.14992625 -0.10790084 0.014748235 0.07361247 0.19679819
0.044398732 0.10591824 0.03913104 -0.008494766 -0.10137542 0.079014674 -0.013376146 -0.0436866
0.19998379 -0.044532783 -0.009607308 0.01964437 -0.046485543 -0.078825906 -0.09992991 0.12308516
-0.052590914 -0.01379491 0.070766345 0.039059617 -0.077513374 0.012253129 -0.0026704639 0.14885432
0.2626885 0.05839895 -0.03919757 -0.032796726 -0.08925583 0.31138673 0.12838924 0.12693462
0.12249855 0.09118145 0.033023678 0.12073041 0.0030944755 0.04729002 0.0753301 0.0017322791
0.17449753 -0.044496387 0.13897185 0.051217224 -0.1755125 0.033088673 0.052624345 0.17067267
-0.047447313 0.08949322 -0.040217664 -0.021042338 0.07829018 -0.102038756 0.1278005 0.1737681
-0.029595027 -0.15482609 0.07859847 0.087904744 0.12142561 0.0005145758 0.036249354 0.14771646
0.026333941 0.100601435 0.13549282 -0.105953306 0.10690004 -0.09999326 0.060431506 -0.01300465
-0.06600384 0.04544026 -0.11758108 -0.11856868 -0.021190489 -0.031892132 0.08320003 -0.07602251
-0.08756731 -0.063833125 -0.14552853 -0.086694 0.054203197 -0.052003983 -0.068799645 0.06673363
0.0552281 0.13971812 0.061009042 -0.17739694 -0.082323074 0.054611493 0.100677155 0.17201291
0.16586752 -0.005472358 0.05819862 -0.06383488 -0.011248592 -0.04112825 -0.01713554 0.009625633
0.2110644 -0.02049457 0.21710739 -0.05324851 -0.02311289 -0.02463565 0.03450295 0.12180918
-0.0070012044 -0.0009041311 0.025873907 -0.21454972 -0.084798224 0.01882514 0.19699098 -0.0147044435
-0.03757903 0.035958666 0.12219833 0.12277018 0.06625481 -0.019994097 -0.0075316974 -0.02221564
-0.00095198775 -0.013601839 0.0062761297 -0.04905634 0.02303464 0.02390215 0.04681455 -0.04616573
-0.08655606 0.084136285 -0.004872538 -0.045685947 -0.0019948974 -0.14690961 0.1417232 0.08365849
-0.100446515 0.049084462 -0.101598434 0.01105045 0.059729256 0.07851863 -0.087967835 -0.04957025
0.14979799 0.12551562 -0.15230744 -0.040743377 -0.056307193 -0.038522348 -0.010536304 -0.08259726
-0.06143943 0.057859123 0.18852359 0.1618667 -0.07891462 -0.16180257 0.12285696 -0.10683602
-0.14331165 -0.14081277 0.064330705 0.101687185 0.1766603 0.105258614 -0.039971802 -0.10492722
0.102153935 -0.033447232 -0.0032579445 0.078576386 -0.18052925 0.03626695 -0.0964686 -0.11112376
-0.01065996 -0.06660367 -0.086432315 0.008763888 0.15077509 0.052045994 -0.07063323 0.09121124
-0.14263098 0.07628033 -0.048604332 0.05775046 0.059943292 -0.035075273 0.13737823 -0.017361665
00000000: f424 b6bd afec 0d3b c81e acbd 8a55 a1bd
00000010: 080e 5a3d 0ec8 2e3e 1753 9bbc 4548 933d
00000020: 7b27 b53d e73d ac3d e4a0 22be 7036 b03d
00000030: ada2 8bbd a98e babd 5bb7 553c 939b 89bd
00000040: 4485 12bd 00d7 5dbd 7240 d03d 6f12 47bd
00000050: 2601 25bc 11cf 96bd ed24 3e3d 2f0a 00be
00000060: 08a7 b2bd c86c ef3d 9da2 93bd 70ad f4bd
00000070: 4c20 c63d 469e 52be 2411 39bd 3174 efbd
00000080: c01e 2b3d 6719 bcbd 369a 6b3d ce16 713d
00000090: 7c92 9b3d cd0b 8a3d ab13 2ebe 383f 973d
000000a0: 0dea e9bd 64d3 97bd 24cc a73d 8705 adbc
000000b0: c1ee 7abe 213c a03d e567 cebe 52af 3c3e
000000c0: 73a7 f33d dbb4 6fbd bc47 e53c 4486 193e
000000d0: 1efb dcbd 95a2 713c 22c2 963d 7785 493e
000000e0: 72db 353d aaeb d83d df47 203d a22d 0bbc
000000f0: eb9d cfbd 72d2 a13d 9f27 5bbc b8f0 32bd
00000100: 8dc8 4c3e 0268 36bd f867 1dbc 3bed a03c
00000110: a067 3ebd 7a6f a1bd 0da8 ccbd 1314 fc3d
00000120: 9269 57bd 0c04 62bc f2ed 903d fafc 1f3d
00000130: 55bf 9ebd 59c1 483c f302 2fbb 446d 183e
00000140: 1b7f 863e bd33 6f3d a28d 20bd dc55 06bd
00000150: c3cb b6bd 156e 9f3e 7878 033e 26fb 013e
00000160: 85e0 fa3d 57bd ba3d d643 073d 8141 f73d
00000170: afcc 4a3b 2eb3 413d ab46 9a3d a40d e33a
00000180: 7baf 323e d841 36bd a34e 0e3e 27c9 513d
00000190: 8cb9 33be fd87 073d a08c 573d d1c4 2e3e
000001a0: 1d58 42bd 3948 b73d 47bb 24bd fb60 acbc
000001b0: 9a56 a03d b2f9 d0bd 22de 023e 44f0 313e
000001c0: 4571 f2bc bb8a 1ebe 3cf8 a03d 6707 b43d
000001d0: fdad f83d 99e4 063a 347a 143d fc42 173e
000001e0: 47ba d73c 2008 ce3d a1be 0a3e 0cfe d8bd
000001f0: 68ee da3d 44c9 ccbd 0787 773d 7511 55bc
00000200: 052d 87bd 911f 3a3d 59ce f0bd 23d4 f2bd
00000210: ad97 adbc 53a1 02bd c764 aa3d b1b1 9bbd
00000220: 7d56 b3bd f1ba 82bd 6e05 15be a08c b1bd
00000230: 2c04 5e3d 2102 55bd d4e6 8cbd a4ab 883d
00000240: dc36 623d 4412 0f3e 9ee4 793d 8ba7 35be
00000250: 0099 a8bd 4db0 5f3d d32f ce3d 2724 303e
00000260: 2dd9 293e 7751 b3bb ad61 6e3d ddbb 82bd
00000270: 044c 38bc 1976 28bd d55f 8cbc d5b4 1d3c
00000280: 4421 583e 3ae4 a7bc 6651 5e3e 1c1b 5abd
00000290: 3e57 bdbc b4d0 c9bc f752 0d3d 1777 f93d
000002a0: 5c6a e5bb 3603 6dba 84f5 d33c ecb2 5bbe
000002b0: b1aa adbd 2e37 9a3c 01b8 493e e8ea 70bc
000002c0: 78ec 19bd 6549 133d 1e43 fa3d ef6e fb3d
000002d0: 9ab0 873d a9ca a3bc 75cc f6bb 93fd b5bc
000002e0: d18e 79ba 3fda 5ebc fea7 cd3b 4def 48bd
000002f0: 24b3 bc3c 71ce c33c 9dc0 3f3d 4718 3dbd
00000300: 4e44 b1bd a54f ac3d d0a9 9fbb 3021 3bbd
00000310: d3bc 02bb 796f 16be e31f 113e 2455 ab3d
00000320: e7b6 cdbd ca0c 493d d712 d0bd f20c 353c
00000330: aaa6 743d 60ce a03d 7b28 b4bd 2d0a 4bbd
00000340: a564 193e 2b87 003e 7bf6 1bbe 87e2 26bd
00000350: 5fa2 66bd 9cc9 1dbd 76a0 2cbc c128 a9bd
00000360: e9a7 7bbd b0fd 6c3d 540c 413e 62c0 253e
00000370: fd9d a1bd 93af 25be 6e9c fb3d d8cc dabd
00000380: 4ac0 12be 3931 10be d1bf 833d 5f41 d03d
00000390: 70e6 343e d491 d73d 79b9 23bd 15e4 d6bd
000003a0: 1536 d13d f7ff 08bd 3d83 55bb a8ec a03d
000003b0: a9dc 38be a78c 143d 5491 c5bd db94 e3bd
000003c0: 1da7 2ebc 8167 88bd 6d03 b1bd 6996 0f3c
000003d0: c964 1a3e 2e2e 553d 28a8 90bd f5cc ba3d
000003e0: db0d 12be dd38 9c3d 5615 47bd bf8b 6c3d
000003f0: 1987 753d 17ab 0fbd e1ac 0c3e 0d3a 8ebc

linear_relu_stack.4.bias f4 [128]
0.0072056907 -0.03229692 -0.037248284 0.099116996 0.09124212 0.024735106 -0.042755507 -0.039550047
-0.1549168 -0.1096403 -0.029985914 0.00077177153 -0.09259302 -0.10591975 0.027967062 0.043733496
-0.13520859 0.11910807 0.039182212 0.019560818 0.014014607 -0.029817622 -0.12863353 -0.085688904
-0.068815485 -0.11399638 -0.14410745 0.025359094 -0.03332322 -0.083733276 -0.05225077 -0.068130866
-0.1720242 -0.072263256 -0.09787908 -0.07631667 0.13520467 -0.0498062 -0.081759416 -0.017855747
0.01862671 -0.06398787 -0.06175819 0.061091628 -0.07210923 0.02675016 0.072762944 -0.085221924
0.021328518 -0.06959861 -0.12792844 0.042568 -0.0031103143 -0.079972304 0.06807625 -0.17549227
-0.016041754 -0.09384187 -0.14817932 0.09387122 0.008612302 0.042755738 -0.054130673 0.029655788
-0.041771267 -0.12705167 -0.120951995 -0.016880028 -0.006291951 -0.07146854 -0.14858265 -0.116810374
-0.033213127 -0.12690794 0.049588334 -0.133859 0.08263374 0.015782828 -0.07731934 0.035141457
0.12622434 -0.16302082 -0.08826152 -0.09959795 -0.08668901 0.021911522 0.090556465 -0.11157687
-0.18914793 -0.11904446 0.06428177 -0.09567962 0.13544896 0.0023555 -0.010031694 0.056073822
-0.029017245 0.045267224 -0.13945456 -0.09812685 0.009590243 -0.12404489 -0.07366641 0.069039635
-0.1397719 -0.10270435 0.07724537 0.035986297 -0.029961511 0.08140263 0.06693898 -0.09636806
-0.16073298 0.064393476 -0.007110081 -0.06525921 -0.04233521 -0.039428998 -0.09227141 -0.08254273
-0.13052054 -0.006051242 -0.18896672 -0.04212997 0.04370579 -0.052854892 -0.11310499 -0.08669475
00000000: b71d ec3b c649 04bd a891 18bd dafd ca3d
00000010: 26dd ba3d 47a1 ca3c 6620 2fbd 3bff 21bd
00000020: 82a2 1ebe 188b e0bd 05a5 f5bc b650 4a3a
00000030: 69a1 bdbd 74ec d8bd 2e1b e53c e521 333d
00000040: 1f74 0abe efee f33d 877d 203d 023e a03c
00000050: 869d 653c 1644 f4bc 82b8 03be aa7d afbd
00000060: 22ef 8cbd ef76 e9bd e790 13be e0bd cf3c
00000070: ee7d 08bd 5a7c abbd e704 56bd 3288 8bbd
00000080: 1d27 30be c2fe 93bd d474 c8bd ea4b 9cbd
00000090: 1873 0a3e 9601 4cbd 7b71 a7bd 3746 92bc
000000a0: 0b97 983c 130c 83bd 28f6 7cbd 373b 7a3d
000000b0: 01ae 93bd 2723 db3c bd04 953d d588 aebd
000000c0: 25b9 ae3c b789 8ebd acff 02be c85b 2e3d
000000d0: 6ad6 4bbb 85c8 a3bd 906b 8b3d 3fb4 33be
000000e0: ff69 83bc 2b30 c0bd 52bc 17be 8e3f c03d
000000f0: 9d1a 0d3c a420 2f3d 20b8 5dbd b2f0 f23c
00000100: 5918 2bbd d519 02be aeb5 f7bd fc47 8abc
00000110: b62c cebb 195e 92bd 0d26 18be 473a efbd
00000120: 7d0a 08bd 28f4 01be 231d 4b3d 5512 09be
00000130: e13b a93d fd4a 813c 9a59 9ebd 7df0 0f3d
00000140: f440 013e eeee 26be 75c2 b4bd 03fa cbbd
00000150: 028a b1bd cb7f b33c ab75 b93d 6a82 e4bd
00000160: ffaf 41be 95cd f3bd 29a6 833d adf3 c3bd
00000170: 22b3 0a3e bb5e 1a3b f95b 24bc aaad 653d
00000180: 93b5 edbc 206a 393d 2dcd 0ebe bbf6 c8bd
00000190: 6520 1d3c 3f0b febd 6ade 96bd a764 8d3d
000001a0: 5d20 0fbe a956 d2bd d232 9e3d 5e66 133d
000001b0: d871 f5bc 6cb6 a63d 4e17 893d 9e5c c5bd
000001c0: 3097 24be bae0 833d affb e8bb 9fa6 85bd
000001d0: af67 2dbd 4d80 21bd cbf8 bcbd 2a0c a9bd
000001e0: 2da7 05be 7f49 c6bb 7e80 41be 7a90 2cbd
000001f0: d804 333d 5f7e 58bd 97a3 e7bd 048d b1bd

linear_relu_stack.6.weight f4 [64, 128]
-0.069726005 0.050470047 0.09897376 -0.0494657 -0.04066697 0.006113294 -0.04882673 0.038653217
0.009297867 -0.010711033 -0.10222729 0.112224154 0.086479984 0.07427651 0.12085446 0.060453244
0.05379987 -0.02610517 0.07435772 -0.05636225 0.14308158 0.0176972 0.0052806814 0.04821888
0.002516862 -0.07133734 0.014452688 -0.014549588 0.010939645 -0.015592567 0.04710347 0.08071111
0.110822015 -0.021659592 0.19565979 0.05646168 -0.033325806 -0.017516367 -0.053267196 -0.058888603
-0.016900811 0.105829984 -0.0341038 0.060399145 0.083882615 0.04369177 0.016150134 0.007198359
-0.12613331 -0.0561085 -0.0658557 -0.009188078 0.0301563 0.06531591 0.10310985 -0.025289966
-0.102828555 0.048798155 0.018338472 0.067080356 0.059324447 0.1537148 0.11074486 -0.065353364
0.10341038 -0.12891248 0.11349149 -0.002916892 -0.009735938 0.10474197 0.039430045 0.05328993
-0.09749298 0.037632916 0.06353435 -0.06925986 0.01622701 0.10059413 -0.035941415 -0.026022675
0.03529728 -0.012211189 -0.036824454 0.024225358 -0.053099982 0.22112072 -0.04402265 0.00021485567
0.11494242 0.14571649 0.059148677 -0.0027359014 0.12357667 0.08079458 0.028528895 0.059519686
0.04156532 0.01013632 0.15795717 0.032199856 0.09842955 0.09126674 -0.07343219 0.0730078
0.0116079515 0.0037863136 -0.0066698375 -0.028603712 -0.04272202 -0.08455911 -0.063617796 0.028070042
0.0744276 -0.049719185 0.026544182 0.19724712 -0.062467217 0.022987336 -0.018554216 0.121165924
0.0027819017 0.0711963 0.03450539 0.09334596 0.06246828 0.16094987 -0.008212808 0.07305081
0.11776733 -0.030363452 0.030967873 -0.11019604 -0.0029242616 -0.16041423 -0.03590097 -0.13969849
-0.13638347 0.0026123812 -0.11704801 0.10207635 -0.08713797 -0.008985134 0.044865128 -0.13467266
-0.12532216 -0.13415565 0.05703718 -0.009545604 -0.059958365 0.05263002 -0.04208148 -0.06234265
0.024621982 0.14017512 0.09127042 0.023913564 -0.08791625 0.059671037 -0.018229155 -0.0327525
0.07848285 -0.083919644 0.05446829 -0.019990059 -0.21830688 0.11652826 0.02265161 -0.17932624
0.0019696816 -0.022569835 -0.10165822 -0.05256223 -0.027157601 -0.05514324 0.057182584 -0.03786137
0.12647668 0.0046012998 -0.028435193 0.15235138 0.12733142 -0.18653947 0.15247145 -0.023639653
0.023636676 0.031623412 0.07314081 0.05630185 0.027030516 -0.06888742 -0.08813468 0.066240355
0.10971771 -0.053607788 0.13153273 -0.035250288 -0.08591487 -0.09940703 -0.035836462 -0.22395848
0.12744288 0.0013511991 -0.074670985 0.014639214 -0.12888035 0.017886396 0.10887549 0.006476104
0.07312402 -0.085736476 -0.06691286 0.0756297 0.02811993 -0.020684233 0.035162438 0.054938383
-0.13214205 -0.080132216 0.15212777 -0.04926114 0.04017854 0.021426449 0.06348259 0.1077126
-0.06434277 -0.028876668 -0.010442514 0.022897933 0.0025327532 0.0070458315 -0.11570282 -0.015026718
-0.06971449 -0.04808253 -0.033822678 -0.012532661 -0.04533485 -0.041564308 -0.0892519 -0.06686899
-0.06297802 0.009495753 -0.005897402 -0.06407875 -0.07087366 0.014390275 0.016351257 -0.017354345
-0.003704027 0.04026406 0.031690188 -0.1010734 0.06068632 -0.09329115 0.14178413 0.087420456
00000000: 82cc 8ebd aeb9 4e3d c1b2 ca3d 8c9c 4abd
00000010: 6992 26bd 0752 c83b 8afe 47bd d652 1e3d
00000020: 1556 183c 547d 2fbc 8b5c d1bd c7d5 e53d
00000030: 6b1c b13d 481e 983d 8b82 f73d d29d 773d
00000040: 415d 5c3d 82da d5bc dc48 983d 1adc 66bd
00000050: fa83 123e b8f9 903c 9109 ad3b 2981 453d
00000060: f0f1 243b 5019 92bd f8ca 6c3c 6561 6ebc
00000070: 323c 333c f777 7fbc 91ef 403d de4b a53d
00000080: a7f6 e23d 756f b1bc 0a5b 483e 5d44 673d
00000090: a480 08bd 7c7e 8fbc b42e 5abd 2d35 71bd
000000a0: 9273 8abc 64bd d83d 6db0 0bbd 1865 773d
000000b0: a6ca ab3d 24f6 323d 494d 843c 36e0 eb3b
000000c0: 1729 01be 07d2 65bd 5adf 86bd 9889 16bc
000000d0: 580a f73c 59c4 853d 422b d33d e72c cfbc
000000e0: c797 d2bd 93e0 473d 903a 963c 6d61 893d
000000f0: 31fe 723d 6a67 1d3e 33ce e23d fcd7 85bd
00000100: d2c8 d33d a201 04be 3a6e e83d 5429 3fbb
00000110: 7c83 1fbc f582 d63d 6681 213d 8b46 5a3d
00000120: 66aa c7bd f924 1a3d 4c1e 823d 1dd8 8dbd
00000130: 82ee 843c 4c04 ce3d 4e37 13bd 812d d5bc
00000140: e193 103d 7011 48bc 3dd5 16bd 4274 c63c
00000150: 5e7f 59bd 786d 623e 1851 34bd e14a 6139
00000160: ee66 eb3d b436 153e e245 723d cf4c 33bb
00000170: c415 fd3d a177 a53d 6eb5 e93c eaca 733d
00000180: 6640 2a3d cf12 263c 86bf 213e ffe3 033d
00000190: 6f95 c93d 0eea ba3d 9e63 96bd 1d85 953d
000001a0: 472f 3e3c cd23 783b a78e dabb 5552 eabc
000001b0: 49fd 2ebd 542d adbd 0c4a 82bd 25f3 e53c
000001c0: 7f6d 983d 58a6 4bbd 2f73 d93c 26fb 493e
000001d0: a0dd 7fbd f04f bc3c 03ff 97bc d725 f83d
000001e0: 9150 363b 5ecf 913d 8655 0d3d 2b2c bf3d
000001f0: bdde 7f3d 0bd0 243e 038f 06bc aa9b 953d
00000200: ff2f f13d c6bc f8bc 56b0 fd3c 76ae e1bd
00000210: f8a4 3fbb a143 24be e50c 13bd 1f0d 0fbe
00000220: 1ca8 0bbe 7c34 2b3b deb6 efbd 680d d13d
00000230: 6475 b2bd 6236 13bc 7fc4 373d a1e7 09be
00000240: 7454 00be 1960 09be d19f 693d 2a65 1cbc
00000250: e796 75bd 9392 573d a15d 2cbd 025b 7fbd
00000260: 0ab4 c93c 118a 0f3e fceb ba3d 61e6 c33c
00000270: 6f0d b4bd 9e69 743d 4f55 95bc 7c27 06bd
00000280: 9ebb a03d 10de abbd 241a 5f3d 31c2 a3bc
00000290: d78b 5fbe 5ea6 ee3d df8f b93c 4ca1 37be
000002a0: c615 013b 60e4 b8bc 2f32 d0bd 7e4b 57bd
000002b0: 9e79 debc e1dd 61bd 4938 6a3d 8614 1bbd
000002c0: 1a83 013e 80c6 963b ecf0 e8bc 0002 1c3e
000002d0: 2b63 023e 3404 3fbe 7a21 1c3e f2a7 c1bc
000002e0: b4a1 c13c 8d87 013d d9ca 953d c59c 663d
000002f0: 1a6f dd3c d914 8dbd f57f b4bd 06a9 873d
00000300: aeb3 e03d d793 5bbd 84b0 063e 9b62 10bd
00000310: 23f4 afbd ea95 cbbd 41c9 12bd 5f55 65be
00000320: 6380 023e b81a b13a 1aed 98bd 50d9 6f3c
00000330: 36f9 03be 7e86 923c 1dfa de3d 7f35 d43b
00000340: 0cc2 953d 9b96 afbd 9c09 89bd bfe3 9a3d
00000350: c45b e63c fb71 a9bc 7d06 103d 1207 613d
00000360: 3f50 07be 5c1c a4bd 62c7 1b3e 0dc6 49bd
00000370: 4192 243d 8586 af3c 2903 823d 6c98 dc3d
00000380: 24c6 83bd c38e ecbc 1417 2bbc 7294 bb3c
00000390: 8cfc 253b b8e0 e63b 9af5 ecbd a032 76bc
000003a0: 78c6 8ebd 30f2 44bd a689 0abd ca55 4dbc
000003b0: 09b1 39bd 563f 2abd b3c9 b6bd 9cf2 88bd
000003c0: 9ffa 80bd 1394 1b3c fe3e c1bb b83b 83bd
000003d0: 3626 91bd 30c5 6b3c 12f3 853c b32a 8ebc
000003e0: 43bf 72bb edeb 243d 92cd 013d 92ff cebd
000003f0: 3892 783d 6e0f bfbd dc2f 113e 7f09 b33d

linear_relu_stack.6.bias f4 [64]
0.028687952 0.082425326 -0.031706028 -0.09656758 0.013776213 -0.105825484 -0.10284782 -0.12711895
-0.109529935 -0.0038461715 -0.12049076 -0.062980875 0.00057032454 -0.15393813 0.06405897 -0.048182774
0.078079306 -0.043759152 0.060400356 0.07164585 -0.124612175 0.04282689 -0.08446609 -0.0005067421
-0.02466392 -0.15428755 0.008859404 -0.06550852 -0.026521094 0.061930653 -0.024318505 -0.02272766
0.025422882 0.09741648 -0.072519585 -0.07374189 0.10688384 0.0125256395 0.04428257 -0.049869902
-0.029564742 0.01318131 0.0043080887 -0.0017520601 -0.025566233 0.031598143 -0.053162754 0.008263149
-0.11766151 -0.023700492 0.035848524 0.015828986 -0.037848298 -0.16894323 -0.07192851 -0.03384406
-0.03629727 -0.035910543 0.06504225 0.02208331 -0.060766116 -0.048814386 -0.03372157 -0.04687849
00000000: ff02 eb3c 9cce a83d 2ede 01bd 39c5 c5bd
00000010: a0b5 613c 08bb d8bd e1a1 d2bd 782b 02be
00000020: 3b51 e0bd 0d10 7cbb dcc3 f6bd 1efc 80bd
00000030: d581 153a f5a1 1dbe 5931 833d 4d5b 45bd
00000040: 0be8 9f3d cc3c 33bd 5d66 773d 0fbb 923d
00000050: ab34 ffbd 406b 2f3d 8ffc acbd e3d6 04ba
00000060: fd0b cabc 8efd 1dbe 0927 113c 5529 86bd
00000070: c442 d9bc ffaa 7d3d 9a37 c7bc 5c2f babc
00000080: a643 d03c 4b82 c73d 2685 94bd fd05 97bd
00000090: eae5 da3d 5738 4d3c a461 353d 6244 4cbd
000000a0: c231 f2bc 6cf6 573c de2a 8d3b 62a5 e5ba
000000b0: 4770 d1bc 0e6d 013d 30c1 59bd 2962 073c
000000c0: 85f8 f0bd 8927 c2bc e7d5 123d caab 813c
000000d0: d106 1bbd 74ff 2cbe 414f 93bd 12a0 0abd
000000e0: 72ac 14bd ef16 13bd df34 853d 0fe8 b43c
000000f0: e4e5 78bd 98f1 47bd a11f 0abd a903 40bd

linear_relu_stack.8.weight f4 [32, 64]
-0.10299864 -0.113364555 -0.05728774 0.15596747 0.047455356 -0.09931496 0.0067597236 -0.06906896
-0.06621716 0.09995893 0.038004864 -0.073271364 -0.031162838 0.08722944 -0.15804507 -0.041552093
0.048509937 0.033846162 0.009145118 0.030789435 0.115442544 -0.02515791 -0.15511985 -0.057539888
0.035824776 -0.012909251 -0.007961813 0.1183765 -0.18582053 -0.063026175 0.097809896 0.016205203
0.108641535 -0.026623122 0.11831774 0.032264106 -0.054629326 0.046090763 0.060211096 -0.088413335
0.040166195 0.0038942506 -0.20435609 -0.16077629 0.0074155186 -0.10235246 0.025863588 -0.13637766
-0.004010768 0.03248902 -0.07203023 -0.023761755 0.11294742 -0.034601316 -0.023767224 -0.021471236
-0.001059379 -0.0069756308 -0.0047503933 -0.00011315882 -0.048294816 -0.071990095 0.06763103 0.065487385
0.1373776 -0.061342712 0.02009566 0.018453361 0.07489528 -0.20364869 0.14122896 -0.043129902
-0.12888852 -0.057238363 -0.016476812 -0.07082184 -0.13852672 0.092325315 0.08384634 -0.0692045
-0.16708396 0.064459056 -0.13092498 0.04422458 0.05501375 0.021271007 -0.024579737 0.020839319
0.022314575 0.11682616 -0.0004130771 0.058189232 -0.004205219 0.032172214 0.03827667 -0.106909946
0.10864905 0.19310506 -0.21128505 0.03422192 -0.10871307 0.05536724 0.018059516 -0.06651971
-0.12692519 0.13633378 -0.053177502 -0.029779192 0.07800288 0.012804141 -0.0294196 -0.14720765
-0.13948166 -0.2162088 -0.12648351 0.03707902 0.081330106 -0.10839153 -0.047185227 0.06371125
0.03518683 -0.11996529 0.06212486 0.035901852 -0.15242098 0.16228011 0.002795421 -0.057674903
-0.0066736755 0.026386542 0.06269072 0.1499732 -0.02574437 -0.12829752 -0.13720956 0.08058781
0.03799661 0.020036764 0.17327051 -0.10258228 0.05690825 0.0029011392 0.11463804 0.077545635
-0.1264316 0.07184526 -0.07361203 -0.08530152 -0.055120148 0.060604345 -0.010641369 -0.031231603
-0.0073008784 0.11653961 0.08870864 0.020780336 -0.07647756 0.04015679 0.122366995 0.06333646
0.046739142 -0.03971539 0.036700957 0.18845998 -0.036172144 0.001979745 0.029197784 -0.054218493
0.18783966 -0.08409447 -0.0906493 0.018472182 0.025358588 -0.07236 0.051137604 -0.060943853
-0.00802523 0.024431614 -0.07032896 -0.09010153 -0.09581248 0.060921613 0.04204354 -0.06594583
0.07556068 0.024749547 -0.046238627 -0.15255223 -0.058408 0.02125768 0.039208617 0.03436533
0.11928222 -0.042217724 -0.012352495 0.031151455 -0.10151516 0.016527714 0.01587905 0.039751887
0.07366064 -0.029774318 -0.021258578 0.05391188 -0.059779983 -0.010417879 0.12026451 -0.0966161
0.020296576 0.18599384 0.18222381 0.0989373 -0.035616048 0.0151514 0.14859964 0.09424135
0.018825501 0.14695083 0.035852324 -0.024777494 -0.0716278 -0.12526892 0.024429534 0.051561933
-0.1305746 0.059218876 0.051766217 0.036721006 -0.1671354 -0.057029128 -0.011554095 0.2422184
-0.16667363 0.0029278707 0.07430144 -0.14592633 0.06452001 -0.07294967 -0.004754095 -0.029151967
-0.19054516 -0.010426015 -0.013601732 -0.22043115 0.034079257 -0.03789297 -0.07910593 -0.023383332
-0.033687513 -0.10969288 0.1431336 0.08508561 0.0020098626 0.1098344 0.09051603 -0.033629213
00000000: f3f0 d2bd ad2b e8bd 8da6 6abd f0b5 1f3e
00000010: 8c60 423d a465 cbbd ac80 dd3b 0774 8dbd
00000020: dd9c 87bd 44b7 cc3d fdaa 1b3d 4c0f 96bd
00000030: 3549 ffbc 59a5 b23d 91d6 21be 8732 2abd
00000040: 5bb2 463d 46a2 0a3d 68d5 153c 203a fc3c
00000050: 246d ec3d f617 cebc bdd7 1ebe f2ae 6bbd
00000060: 00bd 123d 5381 53bc 4472 02bc 616f f23d
00000070: bd47 3ebe de13 81bd 8e50 c83d c6c0 843c
00000080: 747f de3d bc18 dabc 9250 f23d 5e27 043d
00000090: 00c3 5fbd abc9 3c3d e99f 763d 0d12 b5bd
000000a0: 4f85 243d af36 7f3b b942 51be 8aa2 24be
000000b0: e1fd f23b 2b9e d1bd e0df d33c 96a6 0bbe
000000c0: c36c 83bb 3513 053d 9684 93bd 03a8 c2bc
000000d0: fa50 e73d 1cba 0dbd 7bb3 c2bc 72e4 afbc
000000e0: dcda 8aba d593 e4bb 30a9 9bbb ae4f edb8
000000f0: c9d0 45bd 8b6f 93bd 2382 8a3d 401e 863d
00000100: b7ac 0c3e 7f42 7bbd a79f a43c 812b 973c
00000110: b262 993d 4889 50be 539e 103e fba8 30bd
00000120: 5afb 03be c672 6abd 61fa 86bc 0a0b 91bd
00000130: f3d9 0dbe 0e15 bd3d a1b7 ab3d 17bb 8dbd
00000140: 0f18 2bbe 1c03 843d 3311 06be d524 353d
00000150: 1956 613d 8940 ae3c 725b c9bc 38b7 aa3c
00000160: 0ecd b63c 8e42 ef3d 4592 d8b9 d557 6e3d
00000170: efcb 89bb 03c7 033d ffc7 1c3d 9af3 dabd
00000180: 6583 de3d 55bd 453e 1c5b 58be 492c 0c3d
00000190: f5a4 debd c2c8 623d 8df1 933c 7c3b 88bd
000001a0: adf8 01be 159b 0b3e a7d0 59bd 7ef3 f3bc
000001b0: f9bf 9f3d 76c8 513c 5f01 f1bc 9abd 16be
000001c0: 48d4 0ebe d765 5dbe e584 01be 2ce0 173d
000001d0: 6690 a63d 61fc ddbd 4c45 41bd 0b7b 823d
000001e0: 1120 103d 5db0 f5bd a376 7e3d d20d 133d
000001f0: 3f14 1cbe c22c 263e 6233 373b 853c 6cbd
00000200: d9ae dabb 9728 d83c fe63 803d 9392 193e
00000210: dbe5 d2bc 6d60 03be aa80 0cbe 390b a53d
00000220: 55a2 1b3d 2424 a43c d36d 313e a916 d2bd
00000230: a018 693d 0a21 3e3b 59c7 ea3d 3fd0 9e3d
00000240: 4977 01be 9c23 933d e7c1 96bd 90b2 aebd
00000250: aac5 61bd 433c 783d 2359 2ebc 6bd9 ffbc
00000260: 353c efbb 52ac ee3d e0ac b53d 863b aa3c
00000270: 44a0 9cbd 727b 243d 8c9b fa3d 8cb6 813d
00000280: 8b71 3f3d 9bac 22bd be53 163d a7fb 403e
00000290: 3e29 14bd 9cbe 013b 3130 ef3c 3614 5ebd
000002a0: 0a59 403e b939 acbd 57a6 b9bd f952 973c
000002b0: d0bc cf3c 7b31 94bd aa75 513d 43a0 79bd
000002c0: 417c 03bc cf24 c83c a108 90bd 2787 b8bd
000002d0: 5539 c4bd f188 793d d935 2c3d 9b0e 87bd
000002e0: 8fbf 9a3d 90bf ca3c b764 3dbd a736 1cbe
000002f0: 3a3d 6fbd 9624 ae3c 3799 203d a9c2 0c3d
00000300: 3d4a f43d 7eec 2cbd 1f62 4abc 5631 ff3c
00000310: 2ee7 cfbd 2165 873c c814 823c e0d2 223d
00000320: 64db 963d 45e9 f3bc 7826 aebc b4d2 5c3d
00000330: dbdb 74bd c0af 2abc 3d4d f63d a9de c5bd
00000340: 0145 a63c 2b75 3e3e e198 3a3e a49f ca3d
00000350: 22e2 11bd 943d 783c 812a 183e 9c01 c13d
00000360: f037 9a3c 477a 163e e3d9 123d 2cfa cabc
00000370: 99b1 92bd 7f46 00be 7220 c83c 9b32 533d
00000380: 59b5 05be 7e8f 723d d008 543d c468 163d
00000390: 8b25 2bbe 6097 69bd 634d 3dbc 1a08 783e
000003a0: 7eac 2abe 85e1 3f3b 5a2b 983d b66d 15be
000003b0: 1123 843d a366 95bd 3dc8 9bbb 1bd0 eebc
000003c0: 451e 43be e0d1 2abc cdd9 5ebc b4b8 61be
000003d0: b196 0b3d a935 1bbd 4a02 a2bd 678e bfbc
000003e0: ebfb 09bd a9a6 e0bd 9d91 123e 5d41 ae3d
000003f0: e6b7 033b dcf0 e03d 7860 b93d c9be 09bd

linear_relu_stack.8.bias f4 [32]
-0.15193196 0.06069415 -0.08783334 0.061104752 -0.09667399 0.015289602 -0.021034393 0.040383346
-0.012300625 -0.075058766 -0.024367446 -0.036399864 -0.06519133 0.011722516 0.060277 -0.043775115
0.047004025 0.10635069 -0.070841104 -0.11188079 -0.033241313 -0.029931938 0.02174218 -0.03768165
-0.04021462 -0.0018801033 -0.05531765 -0.09505868 0.08420245 0.04658623 0.0045984415 -0.07038423
00000000: 0d94 1bbe 6e9a 783d f7e1 b3bd fa48 7a3d
00000010: 03fd c5bd 3d81 7a3c 5250 acbc 0269 253d
00000020: 9088 49bc 69b8 99bd 3d9e c7bc 0618 15bd
00000030: 0883 85bd cc0f 403c 04e5 763d 894d 33bd
00000040: 4b87 403d 64ce d93d 2415 91bd c121 e5bd
00000050: 0b28 08bd d333 f5bc a81c b23c 1358 1abd
00000060: 16b8 24bd cc6d f6ba c394 62bd 20ae c2bd
00000070: 5672 ac3d 34d1 3e3d 86ae 963b 9b25 90bd

linear_relu_stack.10.weight f4 [1, 32]
-0.009755371 0.08165241 0.17015097 -0.18773355 0.047340084 -7.706461e-05 -0.0033835084 0.12934242
-0.016050119 -0.08121254 -0.06828254 0.07958825 0.17356886 0.18029651 -0.067523666 -0.0690096
-0.00021633145 0.0798973 -0.04051954 0.044864573 -0.10616428 0.112562835 -0.0003108055 -0.12282168
0.048855316 0.024463203 0.002473251 -0.0006966828 0.07598797 -0.075625084 -0.13785091 0.0005907046
00000000: fed4 1fbc 6139 a73d 0e3c 2e3e 393d 40be
00000010: ade7 413d bf9d a1b8 dabd 5dbb 5772 043e
00000020: 8a7b 83bc c352 a6bd b7d7 8bbd 2aff a23d
00000030: 09bc 313e a69f 383e d949 8abd e854 8dbd
00000040: 08d7 62b9 32a1 a33d d1f7 25bd eac3 373d
00000050: a86c d9bd 5887 e63d 9cf3 a2b9 ef89 fbbd
00000060: 831c 483d 0e67 c83c 4416 223b 97a1 36ba
00000070: 959f 9b3d 53e1 9abd ca28 0dbe 84d9 1a3a
