model/pendulum_model_19.pth (torch, 88722 bytes, 11 tensors)

linear_relu_stack.0.weight f4 [32, 3]
00000000: 54f8 dd3e 03a6 a0bd da9c c03e c75f 893d
00000010: f971 933b 52ff b8be f5a8 d8be 2057 cbbe
00000020: aa76 f0be 6356 aebe d366 f2be d516 55be
00000030: 3445 b33e f3ca a3bd d0d0 a73d 7536 f6be
00000040: b662 c9be 504e dabd 8975 9dbd 2ac4 f9be
00000050: 74fc bb3e 2576 21be fb33 a53b e4bc 6c3e
00000060: 1bee f0bd 2907 fe3e 1d3e cd3e 89e3 f13e
00000070: 885c 033e 0254 9ebd f049 2cbe c9a2 d6be
00000080: 81cb 6abe 75e5 19be bcfd 8ebe 6d51 013f
00000090: 268b f13e 2e00 a73e 7933 d3be 27c2 b8be
000000a0: b103 463e 007a c8bd aa08 a1be 52e8 10be
000000b0: 0dbf f4be 51c1 56bd 2d56 f43e bed7 843e
000000c0: 7bb3 683e 47e4 e23e 8e6d 4c3e b306 d83e
000000d0: a2b2 0ebf e96d b73e a91e d63e 7eac 1f3f
000000e0: 5854 ae3e 7ed1 d4be cdb9 0d3f 464b 1a3e
000000f0: 2d0c 813c 86d0 283e 7d9f 78be 856e c6be
00000100: ce0c 973e 983d 123e 42f8 c13d ea45 febe
00000110: eacd 16be 1a6a 5ebd 1fdf 9d3e 8cca ab3e
00000120: 5115 083f 8e16 033f 136c 8cbe 2821 86bd
00000130: 0fc4 c73b 188f 4b3e 5ba9 703c 5d6d ff3e
00000140: 3444 10bf 62bd 04bf ac72 e03e 4236 ac3e
00000150: 8b98 0cbe e020 ab3e 1fb2 a6bd c2e9 c03e
00000160: 5326 f43e 0aaf 8dbe cab2 203e 8bdd f9be
00000170: d3f1 f83e ebe1 813e fbb7 e9be 27d8 0dbf
0.43353522 -0.07844164 0.37619668 0.06707721 0.0044996706 -0.36132294 -0.42316404 -0.3971491
-0.46965533 -0.34050283 -0.47344074 -0.20809491 0.35013735 -0.07997694 0.08194125 -0.48088422
-0.39333123 -0.10659468 -0.07688434 -0.48782474 0.36716044 -0.15767725 0.005041597 0.23118931
-0.11764165 0.49614838 0.4008645 0.47243908 0.12828267 -0.07730867 -0.1682508 -0.4192107
-0.22929193 -0.15028937 -0.2792796 0.5051487 0.47176474 0.32617325 -0.41250208 -0.36085626
0.19337346 -0.09788895 -0.31451923 -0.14151123 -0.4780201 -0.052430455 0.47721997 0.25945848
0.22724716 0.44314787 0.19963667 0.4219261 -0.5574132 0.35826042 0.41820267 0.6237258
0.34048724 -0.4156608 0.55361634 0.15067777 0.015752876 0.16485795 -0.2427959 -0.38756195
0.29501957 0.14281309 0.094711795 -0.49662715 -0.14726987 -0.054300405 0.3083429 0.33552969
0.53157526 0.5120629 -0.27426204 -0.06549293 0.00609637 0.19878805 0.014688815 0.49888125
-0.5635407 -0.51851475 0.43837488 0.33635145 -0.13730066 0.3342352 -0.08139443 0.37678343
0.4768549 -0.27672607 0.15693203 -0.48801836 0.48621997 0.25367674 -0.45648178 -0.5540795

linear_relu_stack.0.bias f4 [32]
00000000: 0789 f23d 1331 efbe f968 8e3e 1416 a8bd
00000010: 618c 1dbf c486 c73d b846 8dbe 7e5e 5abe
00000020: dcd0 37bc 1206 15be 9c5b 2e3e f960 1f3e
00000030: 0685 4bbe a9fa 0c3e aec4 1a3f c4d0 06bf
00000040: f0cf 2ebd e641 263d ff2f 7abe 7e2d ff3e
00000050: cad9 f2be 3362 bc3e 8986 513e 3d18 7e3d
00000060: eec3 abbe 8594 9b3e e475 193f ac59 91bd
00000070: 0f72 a3be ce8e 803e 33cb 05be 3ec9 b03e
0.11842542 -0.46717128 0.27814463 -0.08207336 -0.61542326 0.097425014 -0.27593017 -0.21325108
-0.01121923 -0.14553097 0.17027134 0.15564336 -0.19874963 0.13767494 0.6045636 -0.526623
-0.042678773 0.04059019 -0.24432372 0.49839395 -0.47431785 0.3679367 0.20461477 0.062034834
-0.3354792 0.3038675 0.5994551 -0.07097182 -0.31922957 0.2510895 -0.13065796 0.34528536

linear_relu_stack.2.weight f4 [64, 32]
00000000: 40cb 1e3e 086d 8a3e 8a9a 69be d11f 063e
00000010: 51df 43be 436a 5dbe c8ed 223d 9fef 3abe
00000020: c148 d7bd a987 d13d 5e62 a4bd ee68 c1bd
00000030: 90bb 1dbe d281 0f3e 8f5f 2a3e e62b 363e
00000040: 58e7 efbc 0c44 2fbe 9a50 d83d b3b6 96bd
00000050: 873e 2f3e c721 6a3c bcff 0f3d ba8a 6bbe
00000060: 071e f5bd 863e a5bd 88a8 68be 997e 2e3d
00000070: 4cf5 283e 4b21 debc 426a 983d e6eb 1b3e
00000080: 7fcb 07be f63b 7b3d 450c 6bbd c644 cc3d
00000090: 63a4 653d 666b 91bd b1f4 9f3e 30b2 073d
000000a0: 79fd a4be 573c 29bd f27c 0f3d 9331 563e
000000b0: b4ca 06be 1f85 86bd 2e31 593d 9be1 1fbe
000000c0: f310 113e e5d8 5cbe 0944 ad3d 0114 2fbd
000000d0: 02df 703c b74b e4bd 87e1 ac3d 3cb9 3fbe
000000e0: ead4 193d 70e4 2ebe b0cd 9f3d 3b3e 36be
000000f0: d8cd 0c3d 8af7 89bc b9e4 62be 0363 36be
00000100: df80 8cbd 68b0 7a3e bd93 fbbd 3f29 643b
00000110: d3a0 0b3e b76d 413e 56bb 61be 59ea 42bd
00000120: 2489 303e fdc7 a03d d38b 063e a7c1 99bd
00000130: a3ef dcbd c0b4 cc3d bf16 ed3d e3ab 003e
00000140: 65a6 223e 9faa 973b 4ccb 04bd 59af 29be
00000150: de68 9a3d b1d8 e83d cede e83d fe7b 7fbe
00000160: 80bc 7d3d b78c 6dbd 880f cabd 1c28 0b3e
00000170: 3448 cb3c 9b73 9ebc b9a2 783c a223 b53d
00000180: ac10 21be 108f 863d 736e ba3e 2fdc 56bb
00000190: 0163 20bd 0b1b 073e edab 46be ee38 2a3e
000001a0: 09ae 693c b55f 8cbd 690d 36be c85d 98bd
000001b0: 10af b43d cf30 9fbd 358e 493d b332 bd3c
000001c0: 7977 6dbe 95aa d93d 3660 57bd 7e4b 623e
000001d0: 9cc4 4d3e 9b5e a4bd f3a0 dd3d 892d a43c
000001e0: 9d15 a33d 13ee 18be 07d9 f63c b3d6 febd
000001f0: 778c 733c 998d 3b3e ddf7 8ebd 3052 023e
00000200: 8e7a 02be e368 7a3e 8298 1cbd 0a5b c33d
00000210: 1280 be3d cd1c 34bd 22e1 233e 4b0f 923d
00000220: afec adbd f35b 0ebe 8da8 663d 5b23 253e
00000230: f393 2dbd 636d 10be dcf3 85be 1b99 acbe
00000240: 61bc c53d 3a6e 283e d53b 2dbe a5ba 1abe
00000250: 76b9 933a cccd bcba f25c 7fbe 1e58 a93d
00000260: 8736 32be dbbc 01be 671f ff3e 5e52 a5bd
00000270: 8963 58be b98b d6bd 8a7b ba3c ed91 38be
00000280: 15c4 e03d fa89 e63d e66a 4f3e 13cd 3cbe
00000290: b660 8cbd 72b6 aa3e 24d5 77bb 2d7d 1b3e
000002a0: beb4 3dbe d2b1 533e b7b0 2b3d 8475 d9bd
000002b0: 7084 863d 6e81 283d 2fd4 b9bd 80e3 f63d
000002c0: 1890 b13d d6a7 2bbe d9e1 a5be 1363 2e3e
000002d0: cfc2 493e 864c 21be c844 30be 5505 56be
000002e0: 450a 0c3e e6f7 8dbd 110a 9e3d 06d0 edbd
000002f0: 7ce4 b53d 2e14 193d 6060 c33d c1b1 f83d
00000300: 5272 67bd 2d5d 743e a8ee b4be 06eb f4bd
00000310: d989 34be 5981 afbd a7a9 803d aa71 4bbe
00000320: bf70 0abe b7b7 7ebe 9eba c53d c91a f4bc
00000330: 58eb a1bc 738b 5ebe 390f 233e f90a 13bd
00000340: 84bc d63d b9f3 263e 8183 d2bd 4e45 3b3e
00000350: d02f 8e3c 3852 e43d 7fe5 393e c804 a7bd
00000360: 2d49 df3d dcae 33be cdb1 9bbc 4443 a93d
00000370: 2ac6 a33e 3cb1 d5bd 0bc7 a3bd 9d7d 603d
00000380: 9987 85bd 8e0b 233c 237f 8abe c2d2 9bbe
00000390: c45d 16be aa4f 393e 891d cabd 9ae2 b73d
000003a0: 6f2e e1bd 37bf 1c3e 6b62 4dbd 9feb 1fbe
000003b0: 4085 0c3c 393c 9f3d 2172 77bd c9e6 8cbc
000003c0: ef81 4fbe 45bf d73d 2893 50be f6f4 94bd
000003d0: 3a18 83bd 9a00 c33d ae7a 3ebe a6ac 7f3e
000003e0: e6b2 c1bd 7764 7e3e 0fed f73d 9c9b 52bd
000003f0: 214b 353c 143d 5bbd 476e cd3d 84ff 283d
0.15507221 0.2703631 -0.22812858 0.13098074 -0.19128157 -0.21622567 0.039777547 -0.1825547
-0.105119236 0.10230953 -0.080265746 -0.09443842 -0.1540358 0.14014366 0.16638015 0.17790183
-0.029285118 -0.17115802 0.105622485 -0.07359066 0.17113696 0.01429028 0.035155997 -0.23002139
-0.11968618 -0.08068566 -0.2272054 0.0426012 0.16499823 -0.027115485 0.07442142 0.15226707
-0.13261221 0.06133648 -0.057384748 0.09974055 0.056064975 -0.07100563 0.31241372 0.033128917
-0.32224634 -0.04131731 0.035031267 0.20917349 -0.13163263 -0.065683596 0.053025417 -0.15613405
0.14166622 -0.21567114 0.08460242 -0.042743687 0.014701607 -0.11147254 0.084414534 -0.18723005
0.037556566 -0.1707933 0.07802904 -0.17797177 0.034375995 -0.016841669 -0.22157563 -0.17811207
-0.06860518 0.24481356 -0.12284038 0.0034814624 0.13635568 0.18889509 -0.22044119 -0.047586773
0.17239815 0.07850645 0.13139276 -0.075076394 -0.107878946 0.09995413 0.11576604 0.1256557
0.15883787 0.004628494 -0.03242044 -0.16570796 0.07539533 0.113694556 0.113706216 -0.24949643
0.061947346 -0.057995524 -0.098662436 0.1358952 0.024814703 -0.019342234 0.015175515 0.08844687
-0.15729016 0.06570256 0.3641239 -0.0032785048 -0.039156917 0.1319391 -0.19401522 0.1662328
0.014262685 -0.06854192 -0.17778553 -0.07439762 0.08822453 -0.077729814 0.049207885 0.023095464
-0.23190106 0.10628239 -0.05258199 0.2209911 0.20094532 -0.08025857 0.10821714 0.020041244
0.07963107 -0.14934568 0.030132784 -0.124432944 0.014865032 0.18315734 -0.0698087 0.12726665
-0.12742063 0.24454074 -0.03823138 0.09538849 0.09301771 -0.04397278 0.1600385 0.07131823
-0.084924094 -0.13902263 0.056313086 0.16126768 -0.042377423 -0.14104228 -0.26162612 -0.3371056
0.09655071 0.16448298 -0.16917355 -0.15110262 0.0011270482 -0.0014404594 -0.249378 0.0826876
-0.17403613 -0.12669699 0.49828646 -0.08072351 -0.2113172 -0.10475869 0.022763986 -0.18024416
0.109749 0.11256786 0.20255622 -0.18437605 -0.06854384 0.3334232 -0.003781625 0.1518447
-0.18525979 0.20673302 0.041916575 -0.106181175 0.06568229 0.04113906 -0.09073674 0.12055111
0.08670062 -0.16763243 -0.3239887 0.17029981 0.1970322 -0.15751848 -0.17213738 -0.20900472
0.13675793 -0.069320485 0.07716764 -0.11611943 0.088814706 0.03737276 0.095398664 0.12143279
-0.05650551 0.23863669 -0.3533833 -0.1195889 -0.1763071 -0.08569593 0.062823586 -0.19867578
-0.13519572 -0.24874769 0.09654735 -0.029797928 -0.019765541 -0.21732883 0.15923776 -0.035899136
0.10485175 0.1630391 -0.10278989 0.18288156 0.017356783 0.111484945 0.18153952 -0.08155209
0.10902629 -0.17547172 -0.01900568 0.08264783 0.31987125 -0.104341954 -0.07996949 0.054807294
-0.06520004 0.009951485 -0.27050123 -0.30434233 -0.14684206 0.18096796 -0.09868915 0.08978768
-0.10995185 0.15307318 -0.050142687 -0.15617226 0.008576691 0.077751584 -0.060411576 -0.01719989
-0.2026441 0.10534529 -0.20368636 -0.07273285 -0.06401105 0.09521599 -0.18601486 0.24968204
-0.0945795 0.24843012 0.12105762 -0.051417932 0.011065275 -0.053525046 0.10030799 0.041259304

linear_relu_stack.2.bias f4 [64]
00000000: eced a6bd f388 883b d051 81bd bc04 05be
00000010: dba4 0fbe 4c21 693d 2c8d b2bd 7a27 9cbb
00000020: c02e fcbd 3754 b0bd a7a2 e3bd 7920 52bc
00000030: 59f6 1abe 5fbd 363e 5b03 90bd dee4 993d
00000040: 70d3 093e e2bf 023c 513e 3fbe 551e 3dbc
00000050: 86e0 9d3d f26f 5dbd 269b 853d 37e5 df3d
00000060: 2bf9 35bd e32c 0b3e c287 49bc 1037 053e
00000070: 34e3 4bbe 005c 813d 191e 143c d314 00be
00000080: 3081 1dbe 3e7d 893d c2d2 e93d 8b74 96be
00000090: dd00 be3d 087b 6a3d 90f5 483e 5c66 e7bd
000000a0: 69c8 8bbd cd1b b5bc eb80 da3d 4ff9 ac3c
000000b0: 3c43 1d3e 8598 a0ba e3cd 013e 80d1 743c
000000c0: 46ee 2abb ceea bd3b cbd0 4fbc 2720 e53c
000000d0: 9b75 12be 410b 0fbe 1771 4fbd 8689 acbd
000000e0: 5e3e 553c afd1 e73c 2e19 66be 64fb e23d
000000f0: 5349 80be ef67 793c 8d2b 2bbe 7934 e63d
-0.08150849 0.0041667162 -0.063144326 -0.12990087 -0.14027731 0.05691652 -0.08718333 -0.004765448
-0.12313604 -0.08609813 -0.11115008 -0.012825125 -0.15133037 0.17845677 -0.0703189 0.07514356
0.13459563 0.007980319 -0.18676116 -0.011542876 0.0770884 -0.054061837 0.06523733 0.10932391
-0.04442708 0.13591342 -0.012300434 0.13009286 -0.1991089 0.06316376 0.009040379 -0.12507944
-0.15381312 0.06713341 0.11417152 -0.2938579 0.092775084 0.057246238 0.19624925 -0.112988204
-0.068253346 -0.022107983 0.106691204 0.021114973 0.15357679 -0.0012252486 0.12676196 0.014942527
-0.0026081963 0.005795813 -0.0126840575 0.027969433 -0.14302675 -0.13969137 -0.05064496 -0.08424668
0.013015358 0.028298227 -0.22470543 0.11083105 -0.25055942 0.015222534 -0.16715832 0.11240477

linear_relu_stack.4.weight f4 [128, 64]
00000000: e7ed 52bd 152d 5ebc 908c 9bbd d285 3bbe
00000010: 7a3b fe3c 7d69 2d3e 36ae 50bd 7902 703d
00000020: 9437 a03d ff47 153e 988c 54bd 9f8f bc3d
00000030: a5fa 15be ef8a 58bd 2144 923b 566e 71bd
00000040: 4bdd 8f3c 706f eeb9 3d94 f93d cf51 d7bd
00000050: 7ee5 5b3c be54 3bbd f6cc ab3d 33f4 00be
00000060: 0683 a9bd c703 ef3d 1bb8 a6bd 1224 18be
00000070: 5ad9 943d 7c8f 20be f5bd 95bd 7bfd 15be
00000080: 8d39 4e3d 5e7d febc 432d 663d a8b7 e13d
00000090: c58b 1b3e 222f 483d e2ab 2dbe 05cc 11bd
000000a0: 7aa6 fabd fcd0 43bd 34b7 b83d 1507 cabb
000000b0: bb4a a4be f6b7 853d 9d67 fcbe 5679 543e
000000c0: 2e15 263e e1e7 34bd ceb3 003d f2a1 2a3e
000000d0: 97d7 d9bd c10c 103c b537 9a3d fe3e 143e
000000e0: 7f14 b33d b5b5 313e 563f 83bb 7e7b 243d
000000f0: b601 6ebd a51e 643d a706 583d 0c5b 0cbd
00000100: 65b6 4b3e 4dab bcbc 110b 13bd d94a 34bd
00000110: 4f52 fdbd fda9 c1bd ccdd 21be c326 e63d
00000120: 6df3 32bd 2139 00bc cece ab3d ac9b 3f3d
00000130: 7291 41bd 605b 8f3d 2a9d c5bd 55a4 0f3e
00000140: c6d5 703e eed8 623d 25d3 4fbd 4410 45bd
00000150: 7e5a bbbd 998c 983e 218e 053e d518 2d3e
00000160: 3251 073e 9670 c23d d8fb 083d 1cc0 113e
00000170: ae6d 523e fc45 213e 6ca2 6c3d 341d d1bb
00000180: 9da9 633e 7785 2e3d c16a 083e 0ac4 7b3d
00000190: b1da 2fbe 2bef 8b3b 307f 8b3d e22f 203e
000001a0: 2668 2abd cd3b 683e 332c 24bd 048a 31bb
000001b0: 7e1f 983d ebae a5bd 3533 1d3e 4dc0 373e
000001c0: c228 963b c112 16be f81f 7e3d 2813 523d
000001d0: e1eb 9c3d d170 403d b6f2 a13d 0e89 413e
000001e0: e712 643d 3534 d83d 0890 f73d 7ae2 f9bd
000001f0: 9654 0c3e 5373 3ebd 1f7a 5d3d ae0e 563c
00000200: 0c74 b5bd 6c5c fb3d 0ceb 14be 390f 39be
00000210: 8960 76bc 457e a4bc 357b d33d 6529 21bd
00000220: c8fb 24be 6415 99bd 92b5 84bd 3f12 03be
00000230: d989 99ba 2e5e d3bc 65e5 ffbd c0b3 0a3e
00000240: f669 15bd 10e3 583e dc14 263d 9dda 2abe
00000250: 15b8 f73b cf69 a43d 202d c63c 90b3 1d3e
00000260: 3029 d53d 6004 cabc 4c5c 043d fd98 99bd
00000270: bb3c 693c cf4a aa3d 3dfe cbbc 27c0 7ebc
00000280: f6ea 813e 74b4 2fbd 4fdf 5c3e 2071 973c
00000290: d897 debb 4ef8 c5bd f2cc 45bc e67c 3a3e
000002a0: 5c6b 06bd 7ead a6bb cec9 593c 84ca 31be
000002b0: c83d c6bd 7d04 013e b995 bb3d db1f acbc
000002c0: df82 a0bd e798 04bc a23f 1a3e f5ff dd3d
000002d0: 0bd9 053e 277e 973d 2098 923d 534f 6d3d
000002e0: 914d 803d 9acd 783b b5d0 9d3d fce2 0dbe
000002f0: 2d90 893d ccc5 443d da1a 063e 6642 5d3d
00000300: 6d2e 7abd 7156 b73c e9d8 df3d 7393 cd3d
00000310: 7590 cf3c daa0 14be 645f 043e 4dd1 b33d
00000320: 41e9 fbbd 1ae6 343d 6865 37be 5aff 1dbc
00000330: 2a5b bd3d 9085 7d3d 8737 1fbe f858 9bbd
00000340: be14 4d3e 3c46 7f3d 79da 1dbe cfc1 c6bc
00000350: 324d 5abd 8254 3fbd 5587 133c 2e0b febd
00000360: 5677 dabc 541e 863d 1e90 0f3e 78ea 213e
00000370: dba5 f93b d650 6cbe b872 e73d 0cc9 bcbd
00000380: 2fb0 36be 5ae3 28be e4fe bd3d a5d0 8a3d
00000390: ca30 373e 8633 253e 629a 2dbd a4b6 c5bc
000003a0: e9a3 f03d 6c00 bbbb d1cc 1abd 09dc 84bc
000003b0: 3bf0 43be e50b fd3c 32d8 04bd 8d52 d2bd
000003c0: b9fe 21bc b521 abbc 736c acbd c988 9fbc
000003d0: dc1d 213e 3e6e 3dbd abb3 d7bd c9fc af3d
000003e0: f3e3 26be 8067 c9bb 5ddf f6bc 227a e2bc
000003f0: 186f 0c3e c572 a5bc f826 0e3e 512b 93bd
-0.051496413 -0.013560553 -0.075951695 -0.18312767 0.03103422 0.16934772 -0.05094739 0.058596108
0.07823101 0.14578246 -0.051891893 0.09207081 -0.14646395 -0.052866872 0.004463688 -0.058943115
0.017561575 -0.00045477925 0.12186477 -0.105136506 0.013421414 -0.045735113 0.083887026 -0.12593155
-0.08276944 0.11670642 -0.08140584 -0.1485751 0.07268019 -0.15679735 -0.07311622 -0.14647476
0.050347853 -0.03106564 0.05619551 0.11021358 0.15190037 0.048873074 -0.169601 -0.03559496
-0.12238784 -0.047806725 0.09019318 -0.006165395 -0.32088265 0.065292284 -0.492978 0.20749411
0.16219017 -0.04416645 0.031421475 0.1666334 -0.106368236 0.008792103 0.075301565 0.14477155
0.08744144 0.17354472 -0.004005353 0.040156834 -0.0581071 0.055693287 0.05274072 -0.034266517
0.19893797 -0.023030901 -0.035899226 -0.044016693 -0.12369215 -0.09456251 -0.15807265 0.11237862
-0.04368918 -0.007826121 0.08389054 0.04677932 -0.047257848 0.0699985 -0.09649117 0.14027531
0.23519048 0.05538266 -0.050738472 -0.048111215 -0.091481194 0.29794767 0.13042499 0.16904004
0.13214567 0.0949413 0.033443302 0.1423344 0.20549652 0.15749353 0.057772085 -0.006381655
0.22232671 0.04260775 0.13321973 0.061466254 -0.17173268 0.0042704544 0.068113685 0.15643266
-0.04160323 0.22679062 -0.040081214 -0.002709032 0.07427882 -0.080900036 0.15351565 0.1794445
0.0045824954 -0.14655592 0.062042207 0.0512878 0.07662178 0.04698259 0.079076216 0.18899938
0.05568209 0.10556833 0.12088019 -0.122014 0.13704142 -0.0464967 0.054071542 0.013065023
-0.08860025 0.122734874 -0.14542788 -0.18072213 -0.015037664 -0.020079741 0.10326234 -0.039346118
-0.16111672 -0.07474783 -0.06479944 -0.12799929 -0.0011714055 -0.025801744 -0.124949254 0.13545132
-0.036478005 0.21180367 0.040547237 -0.16684957 0.007559786 0.08027994 0.02419144 0.15400529
0.104082465 -0.02466029 0.032314584 -0.07499883 0.014235671 0.0831505 -0.024901504 -0.015548742
0.25374573 -0.042896703 0.2156956 0.01848656 -0.0067930035 -0.09666501 -0.012072789 0.18211707
-0.03281723 -0.0050866 0.013292743 -0.1736241 -0.096797526 0.12599368 0.09159417 -0.021011284
-0.07837462 -0.008093095 0.15063336 0.108398356 0.13071077 0.073971085 0.07157922 0.057936978
0.062647946 0.0037964345 0.07705823 -0.13856119 0.067169525 0.048040196 0.1309618 0.0540184
-0.06107943 0.022380086 0.10930044 0.10037889 0.025337437 -0.14514485 0.12927014 0.08780155
-0.12300349 0.044164754 -0.17909777 -0.0096434 0.09245904 0.061894953 -0.15548526 -0.07585329
0.20027444 0.06232284 -0.15415372 -0.024262337 -0.053296275 -0.046711452 0.009004434 -0.12404476
-0.026668232 0.065487534 0.1401982 0.15812099 0.0076186485 -0.23077711 0.11301178 -0.09218034
-0.17840646 -0.16492978 0.09277132 0.06778077 0.17889705 0.16132936 -0.04238356 -0.024134941
0.117500134 -0.0057068374 -0.037792984 -0.016218202 -0.1913461 0.03088946 -0.032432742 -0.102696516
-0.009887391 -0.020890096 -0.084191225 -0.019474404 0.15734047 -0.046247713 -0.10532316 0.08593137
-0.16297893 -0.0061463714 -0.030135805 -0.027646128 0.13714254 -0.020196328 0.13882053 -0.07185996

linear_relu_stack.4.bias f4 [128]
00000000: 4e2d 92bc 7de5 53bd 1b19 c1bd b3dc 9c3d
00000010: 0f6b bc3d 5df8 313c 7355 0fbc 9260 d1bc
00000020: 58a2 4bbe f6c6 04be a626 4dbd 486b 5dbc
00000030: 66b2 3bbe 1402 15be dc59 13bc b8cd 6cbc
00000040: 3e48 18be b682 053e 44d3 d93c dfd2 0abc
00000050: bb90 a1bb 5855 18be ff1e 02be 7592 efbd
00000060: 0404 b6bd 8bdc 18be 8cac 5ebe fb5d 643b
00000070: 9848 56bd f257 46bd 443f ddbd a07d 96bd
00000080: b0a4 4abe c11c c1bd e805 01be 24ed e8bd
00000090: a1d6 cd3d 18d8 cdbd 26c1 c8bd ad0d c3bc
000000a0: 404b 253c e734 f5bd 44e4 e4bd 8d16 2c3c
000000b0: 68d1 aabd 5503 d43c 9ce1 fc3c 8918 dcbd
000000c0: 1721 70bc 8796 b5bd fd26 2dbe bfbe 47ba
000000d0: f53d ccbc b825 adbd 3104 f23c 45ab 80be
000000e0: 5fd1 d3bc 5cd0 11be 6b07 2dbe cf71 153e
000000f0: 77b6 993b 2e35 3e3d bd07 61bd a767 993c
00000100: 058d 01be e5ab 33be 6e38 1abe 2652 29bc
00000110: 8121 9cbc 8622 c9bd c7ee 2cbe 4a14 08be
00000120: 94f8 a5bd be89 2ebe 2e44 633c 5c2b 1bbe
00000130: 3822 ad3d d7a5 853c 756d 9ebd 48c2 a53c
00000140: 68e3 d73d 82d0 4bbe e34c 5cbd d96d 31be
00000150: fcd2 dcbd 1efc 9ebc 309a ee3d 26ef 20be
00000160: ae22 6bbe 578b 13be 23ee 833c 92f2 b7bd
00000170: e870 d43d 343e cdbc eabf 71bd 6300 863d
00000180: 9167 98bc 903b b93c 26a4 33be ff44 05be
00000190: 524f d9bc 388b dbbd a409 bebd 4de3 813d
000001a0: 9ce8 16be f645 d6bd f053 803d a7e8 5f3d
000001b0: 4747 adbd 0fa4 913d 6891 1d3d 65a6 e8bd
000001c0: 7581 49be 0983 083c a266 fbbc 29f8 60bd
000001d0: a04b 8cbd 3c79 31bd ed86 bdbd 8a96 febd
000001e0: 5b25 02be c844 34bd f438 52be af29 b1bd
000001f0: dd83 e73d 45bb d4bd f6f3 17be 8b12 ccbd
-0.017843869 -0.05173253 -0.094286166 0.076592825 0.09200107 0.010862437 -0.0087484 -0.025558744
-0.19886148 -0.12966523 -0.050085686 -0.013514347 -0.18329772 -0.14551574 -0.008993592 -0.014453344
-0.14871308 0.13038144 0.026589997 -0.008473127 -0.0049305833 -0.14876306 -0.12707137 -0.11697856
-0.08887485 -0.1492788 -0.21745509 0.0034846056 -0.052315325 -0.048423715 -0.108030826 -0.0734818
-0.19789386 -0.094293125 -0.1259991 -0.11373356 0.10050703 -0.10050982 -0.09802465 -0.023810232
0.010088742 -0.11972981 -0.11176351 0.010503423 -0.08340722 0.025880495 0.030869298 -0.10746867
-0.014656327 -0.088666014 -0.16909404 -0.0007619671 -0.024931887 -0.0845446 0.029543014 -0.25130668
-0.025856672 -0.14239639 -0.16897361 0.14594196 0.004690941 0.046437435 -0.05493902 0.018726183
-0.12651451 -0.17546041 -0.15060589 -0.010334527 -0.019058945 -0.09821038 -0.16887961 -0.1328899
-0.08104053 -0.17044732 0.013871236 -0.15153259 0.08453792 0.01631443 -0.07735721 0.020234242
0.10541421 -0.19903758 -0.053784262 -0.1732706 -0.107824296 -0.019407328 0.11650503 -0.15716228
-0.22962448 -0.14408623 0.016104763 -0.089818135 0.10373098 -0.025054075 -0.059020914 0.065430425
-0.018604072 0.02261141 -0.17543086 -0.13014601 -0.02652708 -0.10719913 -0.092791826 0.06342182
-0.14737171 -0.10462563 0.0626601 0.054665234 -0.08460861 0.0711137 0.03846875 -0.11359862
-0.1967829 0.0083320225 -0.030688588 -0.054924164 -0.06850362 -0.04332851 -0.09254251 -0.12431057
-0.12709562 -0.044010907 -0.20529538 -0.08650529 0.11304448 -0.10387281 -0.14839157 -0.09964474

linear_relu_stack.6.weight f4 [64, 128]
00000000: c6f3 85bd 1ec7 f83d 77f9 5a3e d4a6 6fbd
00000010: e099 90bd 5249 223c 5f4e d8bb 81ec e93c
00000020: de48 863b 743e 673d 6621 a4bd e4d2 4a3e
00000030: d7d0 d13d e8a5 953c 91ec 343e 9ec6 c53c
00000040: fdb1 eb3c aa0c dd3c 2d12 e03d e783 d8bd
00000050: 33ca 1a3e 5eca 513d ffc7 d33d a661 8fbc
00000060: b58a cabd 79ca 5b3c 7bda 88bb eac9 27bd
00000070: 7fbb 22bb f993 a23d e807 c53d 0ecb 0a3e
00000080: d1e4 4a3e 1b27 adbc db55 783e 5c07 b23c
00000090: f91d 903c cacb 383d 9e52 b2bd eb49 e0bd
000000a0: 4b4c 5dbd 283d 153e 66a1 b23c 5a14 c83d
000000b0: 452d dd3d 429a cf3d d5a8 0c3d 1807 8b3d
000000c0: 1001 b4bd 943c 8abd c755 0bbc 4dc2 8b3c
000000d0: e364 053e b574 8c3d f8da f93c 8448 973d
000000e0: 7613 c9bd 461e a03d bb16 183d c2d9 5a3c
000000f0: 92de 5f3d e9c9 3a3e 7c30 5a3d 6939 863c
00000100: 7eb1 023e af52 debd ea66 d73d f97f 36bc
00000110: e552 8a3c c41c bb3d 0e6f 273e 8562 d93d
00000120: bf98 36bd 0cf3 de3b b587 7e3d 6b09 b8bd
00000130: 8267 af3d 0e3b 263d f154 a2bb 8544 f13d
00000140: 93d3 833c f93f 1abd 5708 253c 08c2 a93d
00000150: 8503 11bd fe72 9d3e 41d2 ddbd 06c3 333d
00000160: 7f73 203e 2cc1 e33d 5200 36bc 819f 793c
00000170: 1faa ed3d a0ef cb3c b53b eb3d e20b f83c
00000180: 8fe0 6bbc d0a7 7b3d fc84 1b3e 7898 b43c
00000190: 2c92 883d 748f 103e 6acb 1fbc 0ea6 90bc
000001a0: 4dfe 8a3b a2d1 74bd 8e25 783d c6e1 0d3d
000001b0: 7971 353d 2240 29bd 2c27 cb3c 1db6 623d
000001c0: e009 f73d a544 22bc 762a 17bc 61ec 763e
000001d0: 74a8 d4bc 3d60 463d 9ffa c03d 5497 093e
000001e0: 41c6 9a3d f836 153e 5598 da3b bdee eb3d
000001f0: d1da 2c3c d894 283e 0211 98bd 81b8 a63d
00000200: 3de0 183e e9f3 19bc 5df1 953c 403b d6bd
00000210: 80c1 503d 781b 29be 32b6 0fbd 0b0e 5fbe
00000220: 70de 4ebe be48 96bc 44e8 20be 20ff 3f3e
00000230: ae56 7cbd 3183 1dbd 0365 5b3d 1587 3fbe
00000240: 0c49 37be 53b9 91be 03b6 8b3d 9b1b 34bc
00000250: 7e5a d4bd ed08 ae3d 997b 8ebd 4b32 71bd
00000260: c9ec 4a3c ae17 5d3e 5eb4 383e 9c07 9c3d
00000270: 47be 02be 4730 bf3d 7156 febc 3e28 03bd
00000280: 6f65 1e3e 38c4 d3bd fc44 6e3d 0fb5 75bc
00000290: b9fa 9dbe 9dc4 e63d 5552 503c 3148 41be
000002a0: 612a 1c3d 29ce bbbd 24ab 79bd 663f 73bd
000002b0: d806 0bbc 6d71 a9bc 0714 9a3d 219e 29bd
000002c0: 7266 5c3e 5896 bd3b be7f c4bd c018 593e
000002d0: ac34 f03d 9ce5 91be 9bcc f13d 6dd2 37bd
000002e0: 6d77 9e3d 731c de3d a667 3a3e 250e a73d
000002f0: 80a1 c03c b3dc 3cbd 2732 c0bd 199a 423d
00000300: 3a1f 1c3e 0adb d6bd 90be 0d3e 426e fb3b
00000310: a98d b3bd 631b febd 0554 aabb 490d 76be
00000320: 33fb e13d 3a76 ac3c faa7 c6bd e895 25bd
00000330: 5418 7fbe 0049 983d 3ec8 163e 7a0f c53c
00000340: 8e8e 4f3d 0d70 11be a2f4 95bc 1235 9e3d
00000350: e18a 83bb 692a cabc 349c 633d ea42 3a3d
00000360: 43c3 13be bf4b 95bd 40b7 1f3e 21ef f0bd
00000370: e917 b63d f81e dbbb 3ff1 743d 288c 903d
00000380: 5ff0 d4bd ba95 82bd c946 103d b3b1 80bd
00000390: a52e 0d3d 137d d7ba 0a29 0ebe 3ccd 33bc
000003a0: 790c 3bbd f9f3 eabc a954 953c 933c 0b3c
000003b0: 1f32 a9bd ca5e febb 18ab 96bd ae2d 42bd
000003c0: 454e 7cbd aa00 913c 132d ea3c 3491 64bd
000003d0: 9a4b 3dbe 0f19 6fbd c480 bcbd 57b9 1dbd
000003e0: ebcc 38bd f341 d33c 5c5c 3f3c 97ec f7bd
000003f0: 949d 973d 35d9 e5bd ad73 cd3d 88ab a33d
-0.06540637 0.121473536 0.21384226 -0.05850871 -0.07060599 0.009905176 -0.0066011394 0.028555157
0.004098042 0.056456044 -0.08014183 0.19807011 0.10244911 0.018267587 0.17668368 0.02414256
0.028771395 0.026983578 0.10940967 -0.105720334 0.15116195 0.051218383 0.103408806 -0.017502617
-0.098897375 0.013414972 -0.0041764355 -0.040964045 -0.0024830995 0.0793838 0.096206486 0.13554022
0.19813849 -0.021136811 0.24251501 0.021732025 0.017592417 0.045116223 -0.08707164 -0.10951599
-0.054027837 0.1457411 0.021805476 0.09769507 0.1079965 0.10136844 0.0343407 0.067884624
-0.08789265 -0.067498356 -0.008504338 0.017060423 0.13026766 0.068581976 0.03049992 0.07386878
-0.09818165 0.07818274 0.037131052 0.013357582 0.05465562 0.18241085 0.053268895 0.016384797
0.1276302 -0.108556144 0.10517676 -0.0111389095 0.01688523 0.09136346 0.16350958 0.10614494
-0.044579264 0.006803876 0.06214114 -0.08986171 0.085646644 0.040583663 -0.0049539735 0.11780647
0.016092097 -0.037658665 0.010072789 0.08288962 -0.035403747 0.30751795 -0.108311184 0.04388716
0.15669058 0.11120829 -0.011108475 0.015235783 0.11604714 0.024894536 0.114859976 0.030279104
-0.014396801 0.061439335 0.15187448 0.022045359 0.06668505 0.14117223 -0.009753088 -0.017657306
0.004241741 -0.059770234 0.06058269 0.034639142 0.04429767 -0.041320927 0.024798952 0.055349458
0.120624304 -0.009904061 -0.009226432 0.24113609 -0.025959231 0.048431624 0.09422802 0.13436633
0.07557345 0.1457175 0.0066709914 0.11520145 0.010550217 0.1646303 -0.07425119 0.0814066
0.1492929 -0.009396532 0.018303568 -0.1046052 0.050965786 -0.16514385 -0.035085864 -0.217827
-0.2020204 -0.018345233 -0.15713602 0.18749666 -0.0616061 -0.038455192 0.05356313 -0.18703873
-0.17898959 -0.28461704 0.06821825 -0.01099291 -0.103688225 0.08497796 -0.06957168 -0.058885854
0.012385556 0.21591064 0.18037555 0.07618639 -0.12767898 0.0933538 -0.031047078 -0.0320208
0.15468381 -0.1034016 0.058171257 -0.014996781 -0.3085535 0.1126797 0.012714942 -0.18875195
0.038126353 -0.09170181 -0.060954228 -0.059386633 -0.008485518 -0.020683968 0.07523351 -0.04141057
0.21523455 0.0057857446 -0.095946774 0.21200848 0.11728796 -0.2849549 0.118066035 -0.044878412
0.077376224 0.1084527 0.18203601 0.08156995 0.02351451 -0.046108913 -0.09384566 0.04751024
0.15246287 -0.10490997 0.13842225 0.007673056 -0.08767254 -0.12407567 -0.005198004 -0.24028505
0.110342406 0.021052469 -0.09700008 -0.040426165 -0.24911624 0.07435799 0.14724824 0.024055231
0.05067306 -0.142029 -0.018305127 0.07724966 -0.0040143584 -0.024678426 0.05556889 0.04547397
-0.14429955 -0.07289838 0.15597248 -0.1176436 0.08891279 -0.0066870414 0.059800383 0.07057983
-0.1039741 -0.06376214 0.035223756 -0.062838934 0.03446831 -0.0016440473 -0.13882843 -0.010974225
-0.04566619 -0.028680788 0.018228846 0.008498329 -0.08261513 -0.0077627646 -0.07356852 -0.047406845
-0.06159808 0.017700512 0.028585946 -0.05580254 -0.18485871 -0.058373507 -0.092042476 -0.038506832
-0.0451173 0.025788283 0.011679735 -0.12105673 0.074031025 -0.112230696 0.10031829 0.07991701

linear_relu_stack.6.bias f4 [64]
00000000: 70df adbc 0ba5 7f3d 0f44 9cbd d087 fabd
00000010: d145 513d c61f ccbd c63b 06be 3c69 26be
00000020: 1c33 d5bd 6e67 38bd 38d8 1bbe 695a a9bd
00000030: fcde f43b a44f 50be f9ae 893d 169a 8cbd
00000040: 8a24 253d 39b3 9cbd be31 193d 6841 173d
00000050: 8b18 0dbe a89b 5abc 9dc1 27be b280 f0bc
00000060: 34d6 84bd ce3a 33be d8bf 33bd bada 50bd
00000070: 1ef8 86bd 15af 223d 4539 15bd aea2 6ebd
00000080: dc93 3bbd 79ca 9e3d 4cee c4bd ea69 8abd
00000090: fb7e c93d 5346 4bbc 968a 7c3c 76f4 53bd
000000a0: 1f75 a4bd 3660 043c b771 c13b 6fa7 f7bc
000000b0: 1516 56bd 5d50 21bc 9ba0 aebd 4697 20bc
000000c0: b919 f4bd e503 5cbd dd25 073d 4158 0a3d
000000d0: 2f54 b6bd b399 55be e46a 86bd bf8b 3ebd
000000e0: b5b5 c3bd d6f2 a6bd 26b0 873d 404c 2b3d
000000f0: 337b cdbd 1f53 4ebd fcf4 9cbc d81e 57bd
-0.021224707 0.062413257 -0.07630169 -0.122329354 0.051091973 -0.09966998 -0.1310874 -0.16251081
-0.10410139 -0.045020513 -0.152192 -0.082691975 0.007472871 -0.2034288 0.067228265 -0.06865327
0.04031805 -0.076513715 0.037400953 0.03692761 -0.13778894 -0.013342775 -0.16382451 -0.029358242
-0.064861685 -0.17502901 -0.04388413 -0.050989844 -0.06590293 0.039717752 -0.03643157 -0.058260612
-0.045795307 0.07753462 -0.09615764 -0.06758483 0.09838673 -0.012406903 0.015413901 -0.051746808
-0.080301516 0.008079579 0.0059034484 -0.030231206 -0.052267153 -0.00984582 -0.08526727 -0.009801691
-0.11918969 -0.05371465 0.032995094 0.03377557 -0.089027755 -0.20859413 -0.065633565 -0.04651999
-0.09556142 -0.08151786 0.066253945 0.041820765 -0.10033264 -0.05037224 -0.019159786 -0.05251965

linear_relu_stack.8.weight f4 [32, 64]
00000000: 5e81 13bd 3bff 02bd 95ea 9dbd a9ee 04bb
00000010: 83bc 45bc 8676 d83c 0dcc 313d 4ccc f1bb
00000020: fd13 34bd 6c04 ec3c 1334 493d 6b30 1abd
00000030: a847 57bd 5648 76bd 7c9a 81bd ae11 8dbc
00000040: d22f 7d3d e1e1 c43d 4762 2f3c 9797 c43d
00000050: 5a0e 483d 1854 a93b 1a9a 06be 3400 1fbd
00000060: 2967 4ebc 1576 6fbd 9bec c9bc 7e02 8b3d
00000070: 9042 4ebe c7f1 2a3d 98b4 b43d 14e3 45bc
00000080: 7def 8f3d 8f53 3abc 05cf 933d 840a 6fbd
00000090: 6afb 41bd 9602 21bd 948c 79ba 3006 28bd
000000a0: 37a9 8b3c 41e8 babc af25 02be 9917 0cbd
000000b0: 9c05 933c c212 44bd 92b4 b13c b4af 7abd
000000c0: e6ac 7a3c 1d84 253c 2dcf 093d ca29 963c
000000d0: 5656 553d d6de a7bd e895 d0bc 7fdb 03bc
000000e0: a7c5 96bd 646d aabc 3d88 3e3d 665b 253d
000000f0: 4b66 203c 417d 9fbc 78fc c73b 7586 2dbc
00000100: 7031 e23d 84fc debd f53b 763c 3d18 34bd
00000110: 8997 d43d f091 66be 10ff 333e 3e81 38bd
00000120: 51ca 30be f46b 92bd 0338 273d 3df9 08be
00000130: 7a73 19be 4eec f83d 0ac8 7d3d 3f03 7bbd
00000140: 8019 84be 5ad8 9b3d 1df2 17be 5da8 e03d
00000150: 3fc8 d43c 077a e9bb 41a0 5abd e882 f53c
00000160: 5803 24bc c950 403e b48c 373d 8846 c03c
00000170: 83c3 16ba 8d31 45bd e5a4 9d3d e54f e9bd
00000180: b1ff 013e 53c7 8c3e b5f4 46be d7c0 1e3d
00000190: 8a85 05be 4d70 253d d0cc 0fbd 5c84 26bd
000001a0: e14a cebd a55f 633e 3f01 5abd 06c3 94bd
000001b0: 1c43 953c 8dd9 99bc 68ff 5dbd 434d 41be
000001c0: 7f89 2bbe adca 69be 6720 14be c1fe b43d
000001d0: a2e2 053c fe97 c2bd fc74 babd ecb6 343d
000001e0: d65c 8c3d 296f 32be cdb1 8c3c 4912 653d
000001f0: 40e0 60be be4a 503e 87c9 733d c190 eebd
00000200: 07c1 a6bb bd23 e13b 3ebd 4e3d c947 303e
00000210: 192d a9bb 8461 2cbe 8adf 01be 25c7 473d
00000220: 6f42 1bbb ee83 903c f984 463e 491a cabd
00000230: 1621 553d 7864 a13b ea6a 8e3d 7bb3 483d
00000240: 8cc3 d9bd 628e d83d 701e 05be 1f78 f2bd
00000250: 7887 b5bd af6d 953d b50c a0bb 1a49 a2bc
00000260: 6c54 213c b51c d23d 0f51 e33d bf29 3a3d
00000270: 09c7 8dbd 6c2b 2c3d a1d8 cb3d d7a0 9b3d
00000280: ceb6 813d 4be9 9b3c b4f0 223d f86e 773e
00000290: ad38 a1bc 97e8 013d 1e87 ce3d bc01 593c
000002a0: 4e67 4c3e 1c22 1bbd 35f7 52bd def8 b23a
000002b0: 977b 0a3d 4060 9dbd 1844 223d 2caa ccbd
000002c0: 780c 30bd 8aeb a83d 8ceb b4bd 325c c8bd
000002d0: d3fc c7bd 2c79 823d ecf7 643d f640 36bd
000002e0: 5ca8 873d 5395 823c 4e35 39bd 6e3c 05be
000002f0: 67f4 bcbc 6fb1 3c3d a17b 3a3d 1b23 293d
00000300: b5b9 6e3d 7bb1 62bd d342 ddbb 712e 4f3c
00000310: 2cbf fcbd 6268 f1bc 2384 003d 510c c03c
00000320: 1e38 b33d 5ea4 d5bb e839 74bc 7a9c cb3d
00000330: a334 5fbd 82bd 1e3c e080 033e e300 c9bd
00000340: a8ee 26bc 61a6 503e 5f3c 2d3e 09a9 8c3d
00000350: 078e 9bbd a3b8 383d 61b2 393e cd34 8a3d
00000360: a657 263d d579 183e 969c 8d3d 766a e6bb
00000370: d986 d4bd b912 44be 9714 91bc 44a6 803d
00000380: 9709 ecbd 845e 813d f296 093d 955c 763c
00000390: bbe4 20be 984a 55bd 1bcd 8fbd d9d6 983e
000003a0: 77b9 32be 928d 60bc ce56 cf3d bf36 b4bd
000003b0: a44d b53d 9d31 87bc e242 e0bb 804e 88bc
000003c0: 6ec0 73be eb1f a3bc d69d 54bc dedf 86be
000003d0: 37f3 3c3d 57a1 86bd 0ec0 a6bd 0049 763c
000003e0: 6a11 63bd d195 7fbd 6b67 413e 87c3 883d
000003f0: f709 873b 5d03 fc3d 86b8 793d 8174 49bb
-0.036012046 -0.031981688 -0.077107586 -0.0020283854 -0.0120688705 0.026423704 0.04340749 -0.0073790904
-0.043964375 0.028810702 0.049121927 -0.03764383 -0.05255857 -0.06012758 -0.06328294 -0.017220344
0.061813183 0.096133955 0.0107045835 0.09599226 0.04884181 0.0051674955 -0.13144723 -0.038818553
-0.0125978375 -0.05846222 -0.024648955 0.06787585 -0.20142579 0.041734483 0.08823508 -0.012078065
0.07028101 -0.011372461 0.0721722 -0.058359638 -0.047358908 -0.039309107 -0.0009519544 -0.041021526
0.017048461 -0.022815825 -0.12709688 -0.034202192 0.01794701 -0.04786945 0.021692548 -0.06120272
0.015300011 0.010102299 0.033644844 0.018330473 0.05208429 -0.081967995 -0.025462106 -0.008047937
-0.07361918 -0.020804115 0.046516646 0.040370367 0.009790014 -0.019468905 0.0061030947 -0.010591139
0.11044586 -0.10888007 0.015028943 -0.043968428 0.103804655 -0.22516608 0.17577767 -0.04504513
-0.17264678 -0.07149497 0.0408249 -0.13376327 -0.14985457 0.121544465 0.06195835 -0.061282393
-0.25800705 0.07609625 -0.14838453 0.10969613 0.025974391 -0.0071251425 -0.053375486 0.029969648
-0.010010563 0.18780817 0.04481192 0.023471132 -0.00057511794 -0.04814296 0.07697467 -0.11392192
0.12695195 0.27495822 -0.19429286 0.038758125 -0.13039222 0.0403903 -0.035107434 -0.04065357
-0.10072876 0.22204454 -0.053223845 -0.0726376 0.018220477 -0.018780494 -0.054198653 -0.1887713
-0.1675167 -0.22831221 -0.14465486 0.08837653 0.008171709 -0.095016465 -0.09104344 0.04411976
0.068536445 -0.17425217 0.017174626 0.05592564 -0.21960545 0.20341012 0.059518363 -0.11648703
-0.0050889286 0.0068707154 0.050473444 0.17214884 -0.0051628468 -0.16834074 -0.1268293 0.048773903
-0.002369072 0.017641034 0.19386663 -0.09868295 0.052033506 0.004925307 0.06953986 0.04899929
-0.10633001 0.10574032 -0.12999892 -0.118393175 -0.08863729 0.07296311 -0.0048843273 -0.019810248
0.009846788 0.10259382 0.11099445 0.04544997 -0.069227286 0.042033598 0.09953428 0.07599037
0.06333695 0.019032141 0.039780334 0.24163425 -0.019680345 0.031715956 0.10084365 0.013245042
0.19961283 -0.037874326 -0.051505286 0.001365449 0.03380927 -0.07684374 0.03961572 -0.09993395
-0.04298064 0.082480505 -0.088339895 -0.0978321 -0.09765019 0.06370768 0.0559005 -0.044495545
0.06623909 0.015940344 -0.04521685 -0.13011333 -0.023065759 0.04606765 0.045528058 0.041293245
0.058282573 -0.05534504 -0.006752351 0.01264535 -0.12341151 -0.029468719 0.031376015 0.023443373
0.08750938 -0.0065198382 -0.014906384 0.09941955 -0.054493558 0.009688737 0.1284213 -0.09814622
-0.010188736 0.20375969 0.16917561 0.068681784 -0.07595449 0.04509796 0.18134452 0.06748352
0.04061093 0.14890225 0.06914632 -0.007031734 -0.10377283 -0.19147767 -0.017710013 0.06281713
-0.115252666 0.063168555 0.03359122 0.015036722 -0.15712254 -0.05207309 -0.07021543 0.29851416
-0.17453562 -0.013705628 0.101239786 -0.087995045 0.088526994 -0.01650315 -0.0068439106 -0.016638994
-0.23803875 -0.01991268 -0.012977084 -0.26342672 0.046130385 -0.06573742 -0.081421 0.015032053
-0.05543653 -0.062398735 0.18887107 0.06677919 0.004121061 0.12305329 0.06096699 -0.0030739608

linear_relu_stack.8.bias f4 [32]
00000000: 7f55 f8bd 56cd bb3d fba2 dcbd 62d6 1c3d
00000010: 887c 0cbe f454 14bc 3d58 1abd 32c7 5e3d
00000020: 8688 56bd 29c4 afbd 9a22 35be 3337 19bd
00000030: 736a 7cbd 4ffd 0b3d 71bf 963c 0ae1 abbd
00000040: b34f 593d 3e47 de3d 2e5c eebd 16cb b9bd
00000050: 6e5e a7bc a169 9f3c 9f60 06bd e06c 3fbd
00000060: d7bb 72bd 9c64 41bd b089 5ebd 75ea 8cbd
00000070: e2c4 7f3d becd 423d 7641 c6bc dde7 9cbd
-0.12125682 0.09170024 -0.107732736 0.03829039 -0.1371938 -0.0090534575 -0.037681807 0.054389186
-0.052376293 -0.085823365 -0.1768898 -0.037406158 -0.061624955 0.03417712 0.018401833 -0.08392532
0.053054523 0.10853432 -0.11638676 -0.09071939 -0.02043077 0.019459547 -0.03280699 -0.04673469
-0.05926117 -0.04721509 -0.054330528 -0.06880657 0.06244362 0.047559492 -0.024201136 -0.07661412

linear_relu_stack.10.weight f4 [1, 32]
00000000: cdee 10bb 1a5b 8a3d 431f 123e 887e 1dbe
00000010: a368 173d eb10 443a 9dfd 8dba 9352 da3d
00000020: 0136 abbb 79ac 9ebd 180a 7cbd 3b32 7d3d
00000030: 07fe 073e 596d 1c3e 45ba 9abd 4d7f 60bd
00000040: 115f 08bc 2d3f 493d 77a8 0dbd 041e b83c
00000050: 6b97 8abd 18e0 ba3d d6ca de3b adf6 b9bd
00000060: fd1e 083d 10cf 823c 5955 ed3a 6a13 f5bb
00000070: 5647 3e3c a514 16bd 3c84 c8bd 4a47 8f3a
-0.0022114993 0.067556575 0.14269738 -0.15380299 0.036965024 0.00074793276 -0.0010833029 0.10660281
-0.0052249436 -0.0774774 -0.061533064 0.06181548 0.13280497 0.15276088 -0.07555059 -0.054808903
-0.008323447 0.049132515 -0.03458449 0.02247525 -0.06767162 0.09124774 0.0067990823 -0.09080253
0.033232678 0.015967876 0.0018107101 -0.007479121 0.0116136875 -0.036640782 -0.09790847 0.001093128
