model/pendulum_model_0.pth (torch, 88706 bytes, 11 tensors)

linear_relu_stack.0.weight f4 [32, 3]
00000000: 98d0 f43e 4b49 04bf 8d0e 8c3e 2535 063f
00000010: d8b3 5abe 0c4e 113e 7da9 bcbe 280d 543d
00000020: 7e48 883e 0393 d3bd 1196 fd3e d1ff 5ebd
00000030: 3f46 0abe 84c9 c93e da6e 993e 5e64 79be
00000040: 68fa efbd 44a1 92be c0dd cfbe f659 943e
00000050: 018b e3be eb06 cb3e eafe c0be a58f b4be
00000060: f328 0b3f 9836 043f 2eb2 c33e d3f2 553e
00000070: 13e4 f0be c368 8b3c 1fbc d43e 13e0 c7be
00000080: 667f 00bf 1c3c c5be f905 bebb 8428 12bf
00000090: 961f 03bf 06a0 c9bd b216 7dbe d39d 303e
000000a0: fe07 e2be 32ea 233e f552 83bb a810 8cbe
000000b0: 5a6d aebe 3efe d3bd ee95 393e 50b3 6fbe
000000c0: dc38 e6be 38e1 49be f81b e9be a9e9 f03e
000000d0: 0e21 da3e 5e9c 5cbe 1e68 053e af44 2ebe
000000e0: b6da 6b3d 4d5f a0bd 97b5 c3be 47ab ea3e
000000f0: c2f0 dd3e b4e6 a5be 5bb6 343e dc51 eabe
00000100: 873e e03d aac9 ec3e 0be3 883e 1db9 21be
00000110: b90e fe3d a121 e43e c579 ebbd 8cc1 55bc
00000120: 75af c93e b9ef 123f 8c0c 94be ec89 883e
00000130: e08f 8e3d cc14 c0be 627b 95be 8922 ba3e
00000140: dd41 12bf bae3 e53e 6956 c43e 579b 01bf
00000150: ff35 90be 02f3 143d 9277 09bf f988 a1be
00000160: f7a9 fc3e 00ab 93be 4120 e6be 986b e7be
00000170: 922f bf3d f495 febe 623c d1be e8a7 893d
0.47815394 -0.51674336 0.2735485 0.5242484 -0.21357667 0.14189929 -0.3684806 0.05177036
0.26617807 -0.10330775 0.49528554 -0.054443184 -0.1350336 0.39411557 0.29967386 -0.24354693
-0.11717683 -0.2863866 -0.4059887 0.28974885 -0.4444199 0.39653715 -0.37694484 -0.35265842
0.5435936 0.51645803 0.38221878 0.20893411 -0.47049007 0.017017728 0.41549775 -0.39038143
-0.50194395 -0.38522422 -0.005799052 -0.5709307 -0.5122007 -0.09844975 -0.24715689 0.17247705
-0.44146723 0.16007307 -0.004007692 -0.27356458 -0.34067804 -0.10351227 0.181236 -0.23408246
-0.44965255 -0.1971482 -0.4552915 0.4705327 0.42603344 -0.21544024 0.13027999 -0.17018388
0.057581626 -0.07830677 -0.3822448 0.458338 0.43347746 -0.32402575 0.17647688 -0.4576558
0.10949426 0.46247607 0.2673572 -0.15793271 0.12405152 0.44556907 -0.11497835 -0.013046633
0.39391676 0.5739704 -0.28915823 0.26667726 0.06961036 -0.37515867 -0.29195696 0.36354473
-0.5713175 0.44900304 0.38347176 -0.50627655 -0.28166196 0.036364563 -0.53698075 -0.31549814
0.49348423 -0.288414 -0.44946483 -0.45199275 0.09335245 -0.4972378 -0.4086638 0.06721479

linear_relu_stack.0.bias f4 [32]
00000000: 38ba db3e f24f 3cbe 2ae0 f0be e396 ecbd
00000010: ad4a 95be 7d1e 7d3d cbd0 5d3c 9039 8c3e
00000020: d140 b63e 0c0a 183f 74c3 00bc 9bcc d53d
00000030: 356d d8bd 53e1 773e 6b5c dd3e e698 c63d
00000040: 3138 8cbe fcff 81bc 77d2 e13d a39a db3e
00000050: 8b66 e8be d048 0c3f 0a2e f93e 855e f73e
00000060: 580a 98be 084c a4be 8c22 fdbe ab2e 193d
00000070: d5ac 0a3f 6ff6 a53c d913 aa3d db61 d63e
0.4291551 -0.18389872 -0.47046024 -0.11552217 -0.29158536 0.061796654 0.01353855 0.27387667
0.35596326 0.5939033 -0.0078591 0.10439416 -0.105677046 0.24207048 0.43234572 0.09697132
-0.2738662 -0.015869133 0.11026471 0.42891416 -0.45390734 0.54798603 0.48667938 0.483143
-0.29695392 -0.32089257 -0.4944042 0.03739802 0.5416997 0.02025911 0.08304567 0.41871533

linear_relu_stack.2.weight f4 [64, 32]
00000000: 6418 ca3d 30a3 2d3e 05de 45bd 0e35 26bd
00000010: d9ab 323e 1c19 023e b31a eebd 516a b43d
00000020: cbd7 c2bd aa36 833d 138f be3c c511 a7bd
00000030: f8c2 d9bb 4c79 603e 12f0 d63d 9857 323e
00000040: dd3a 68bd ea80 dabd 4535 88bc 8ea5 5e3d
00000050: e11c 38bc 7796 24be e72f 38be cec7 f63b
00000060: d852 53bd 8864 003e a7c7 0fbb 597f 893c
00000070: aeb7 8dbd 9f99 2bbc aef7 143c 4356 013e
00000080: 99d8 2cbe f27c 0abe 314f 153d af72 dfb9
00000090: bfd5 293d a578 3b3e 3cac 333c 3667 f23d
000000a0: 60d0 e53d 2b92 8c3c 3c0e 273e d255 7dbd
000000b0: b0b3 213e cac7 b83d c7af 1d3e 9894 1c3e
000000c0: 81b3 d5bb f46f 01be 3328 0bbe b85a e43c
000000d0: 3dd1 ef3d d214 bdbc 2697 803d 6613 fdbc
000000e0: 892a 4cbe 6235 b23d 1688 88bc 7ebc d93b
000000f0: 123e ae3d b1b5 2c3c 5c6d 443e 9814 a4bd
00000100: 118f 273e d577 96bc 6f19 a8bd 85ed d8bc
00000110: e2b3 c63d 1ec2 a1bd 358c 013e cf78 0ebd
00000120: cdee 203d 3ce2 0fbd 4f7a 79bd 29d6 18be
00000130: 5ac3 683d 247f 143e 65d8 4b3e d7ed 1abe
00000140: 7a92 0c3e 5b4a 38be 196a 393e ac16 eabd
00000150: dbe4 35bd 76ce 7f3d 1060 643d 9e95 c33d
00000160: ac89 54be a52e d4bd 36f9 343d c77e 53be
00000170: dce2 f43d c6c4 4ebe c699 debd 8f51 0dbd
00000180: 7e90 fdbd 386a 123e bda2 7d3d d141 88bd
00000190: e161 97bd b6d3 f73c b67e 443e 0150 1cbd
000001a0: 9ca3 193e 900c 25be e53c ba3d ba7b 50bc
000001b0: ea39 563c a89a 213e 0456 bc3d 7a26 7bbd
000001c0: b40e 673d 0676 a83c fc2a f23c 5fca 92bc
000001d0: 7688 c63d edb7 053e ae60 d83a 25e0 1b3d
000001e0: 8705 52bd 6d39 cb3c d209 ee3d e4ea a03d
000001f0: 8f35 263e 721f c0b9 e3e9 31bd 489d 09be
00000200: 84fd bfbd 0e0d 2cbe 915a dd3d 44c0 27be
00000210: 4dce 803d 012f 143c 5f85 0cbe e637 0ebe
00000220: 6ef1 19be 6ed3 a23d 294c 82bd debe a13d
00000230: c006 433d bc8c 243e 5c4a b5bd 7981 503e
00000240: 4a49 3abe b2bc 45be 9a75 16be 9689 ba3d
00000250: e129 15be 0a1a e13d f5aa 24be f03e d83d
00000260: ce37 febd dafd f5bd 9c07 a53d 751d 28be
00000270: 8c39 223e 42f4 2ebd 74c7 973d 4455 4bbe
00000280: 96aa dbbd 4a12 ca3c c8d5 f7bd 20c7 a73d
00000290: 8978 8bbd eb22 0bbe 31ca 2bbd ae01 ec3d
000002a0: 7b98 d33d 3950 223e fdce 1ebe 4209 db3d
000002b0: b7d6 8abd 2d19 893c e55f 33be a050 ffbd
000002c0: 0572 00be 65a3 263e 9a5a 5a3b fe66 e33d
000002d0: 62e2 693d ab55 e23d 622e 393e c386 363e
000002e0: 1d19 0b3e d1d1 2f3d 733d 0c3e 7475 87bd
000002f0: 360a b13d 9d8e 093e 6807 163e f09b 7abd
00000300: 4828 743d ee67 f13d b766 0dbe b150 7cbd
00000310: 2010 1bbe 7930 153e 9df2 293e f241 283e
00000320: f6c7 683d 75ce 213e 9118 02be 7251 c0bc
00000330: 251c 42bd 3f31 803d dccb b13d 2fe0 c03d
00000340: d573 b1bd 5eea f5bc c26b 793d 3114 3dbe
00000350: 7572 1f3e caf9 3bbd 133e c13d afb6 173e
00000360: 0509 e7bd faba 68bd 5600 ca3d 30dc 243d
00000370: 53d2 1e3e 0e39 e73d 61c4 a73d 925c 533e
00000380: 94e6 423c 2006 763d 1fef 92bd 4bd9 09be
00000390: 96d9 cf3d 6510 3ebd e3b5 1a3e 988d b5bc
000003a0: a319 adbb 8ccc cd3d c125 c83d 1b95 263e
000003b0: 1fe3 763d 3b59 15bd 2bc3 083e aa3b d03d
000003c0: 2bc7 423d 16e9 1bbe 7eb1 d03b 78c0 563d
000003d0: e76f 85bd ac48 fcbd ab9b ffbd 3e3b 1a3e
000003e0: 42ee 3abe 7a4d 67bc 405c 06be 7f41 e23d
000003f0: c02c 893d df93 dc3b 2d6b 443e 01c7 a9bc
0.098679334 0.16956782 -0.048307437 -0.04057794 0.17448367 0.12704891 -0.11626186 0.08809341
-0.095138155 0.06406911 0.023261582 -0.08157686 -0.0066455565 0.21921271 0.104950085 0.17416227
-0.05669676 -0.1066912 -0.016626963 0.054357104 -0.011237354 -0.16073023 -0.17987023 0.007531143
-0.051592678 0.1253835 -0.002193907 0.016784357 -0.069198 -0.010473638 0.009092255 0.12630562
-0.168795 -0.13524225 0.036452476 -0.0004261932 0.04146361 0.18307741 0.010966357 0.11836092
0.11221385 0.017159542 0.16314024 -0.061849423 0.15791202 0.09022482 0.15399085 0.15291059
-0.0065216427 -0.12640363 -0.13589554 0.02787529 0.11709831 -0.023081217 0.06278829 -0.030893039
-0.19938101 0.08701588 -0.016666453 0.0066447845 0.08507933 0.0105413655 0.19182342 -0.080117404
0.16363169 -0.018367687 -0.08207976 -0.026480446 0.09702279 -0.07898353 0.12651141 -0.03478318
0.03929024 -0.035127863 -0.06090766 -0.14925446 0.056826927 0.14501625 0.19906767 -0.15129791
0.13727751 -0.17997114 0.1810688 -0.114301056 -0.044407707 0.062452756 0.055755675 0.095500216
-0.20755643 -0.10360459 0.04418298 -0.2065383 0.119573325 -0.2019225 -0.10869174 -0.03450161
-0.12381075 0.14298332 0.061922777 -0.066531785 -0.07391716 0.030252319 0.19188961 -0.038162235
0.15003818 -0.16118073 0.09093646 -0.012724811 0.013075331 0.15781653 0.09196094 -0.06131599
0.056410506 0.02056409 0.029561512 -0.017918764 0.096939966 0.13058443 0.0016508305 0.038055558
-0.051274803 0.024807656 0.11622967 0.07857302 0.16231368 -0.00036644522 -0.043435942 -0.13438904
-0.09374526 -0.16801855 0.1080829 -0.16381937 0.06289349 0.00904441 -0.13722752 -0.13888511
-0.15033504 0.07950483 -0.06362183 0.07897733 0.04761386 0.16069311 -0.088520736 0.2036189
-0.1819202 -0.19310263 -0.14693299 0.09108274 -0.14566757 0.10991295 -0.1608084 0.105588794
-0.12412988 -0.12011309 0.08058092 -0.16417487 0.15842265 -0.04271341 0.074110895 -0.19856745
-0.10725896 0.024666924 -0.121013224 0.08192277 -0.068101 -0.13587539 -0.04194087 0.11523758
0.10331818 0.15850915 -0.15508647 0.10695125 -0.06779235 0.016735638 -0.1751705 -0.1246655
-0.12543495 0.16273268 0.0033318163 0.111036286 0.05710066 0.11051496 0.180841 0.17824845
0.13583799 0.042924706 0.13695316 -0.06614199 0.08644526 0.13433309 0.14651263 -0.06118387
0.059608728 0.11787401 -0.13808714 -0.06160039 -0.1514287 0.14569272 0.16596456 0.16431406
0.056831323 0.15801413 -0.12704684 -0.023476336 -0.047390122 0.06259393 0.08681461 0.094177596
-0.08664671 -0.030018982 0.06089378 -0.18464734 0.15571006 -0.045892514 0.09435668 0.14815782
-0.11281017 -0.05681894 0.09863345 0.04024905 0.1550992 0.11290179 0.08191753 0.20640782
0.011895794 0.060064435 -0.07174515 -0.13461797 0.10148923 -0.046402354 0.15108447 -0.022162244
-0.005282597 0.1004878 0.09772826 0.16267817 0.060275193 -0.03646205 0.133557 0.1016763
0.047553223 -0.15225634 0.006368815 0.052429646 -0.06515484 -0.123185486 -0.12480863 0.15061662
-0.1825495 -0.014117593 -0.13121128 0.11047649 0.066979885 0.006731495 0.1918151 -0.020724775

linear_relu_stack.2.bias f4 [64]
00000000: e604 0abe 394f 93bd 5ca6 a0bd a085 9dba
00000010: 166f f43d 0a90 b03d 0dc7 8e3d 8c07 34be
00000020: 319d 93bb 75fc 0abe d594 ffbd 9395 8d3d
00000030: 10c4 44be fd20 6d3d b82d 85bc d674 fbbd
00000040: 209e eabc fad6 fc3d 976b e3bd 09ee 2cbd
00000050: 5ab9 1cbe 63df 0dbe 4aeb d3bd 55d0 9f3d
00000060: bdc5 a0bd 6f69 b8bc a3a4 a13d 6b1f 1cbe
00000070: 8bca 04bc b38b 0e3e 4320 98bd 79a0 823d
00000080: 2f74 19be 15ce 173e fc9b 933d 7578 80bd
00000090: e58c 11be 0c8e fabc 2e3d ecbc fe60 cbbd
000000a0: 71b3 30be 634e 4d3e 7ab0 36bd dfe3 c63d
000000b0: e15e 663d 6911 87bc c7dc e43d 1731 6fbc
000000c0: e840 f73d 51c6 8ebc 52b9 75bd 107c 47bd
000000d0: 6562 f5bb 50ab acbd f04e c43d 1610 9dbc
000000e0: 9f58 e23c 1b14 ddbd 41c0 0c3e f8ff 2dbe
000000f0: ee92 2ebe 71dc 11be 4b38 ce3d 365f c33d
-0.13478431 -0.07192845 -0.078442305 -0.0012017973 0.119352505 0.08621223 0.0697156 -0.17581004
-0.0045048227 -0.13572867 -0.12479559 0.06913295 -0.19215417 0.05789279 -0.016257152 -0.12278144
-0.028639853 0.12345691 -0.111045055 -0.042219196 -0.15305081 -0.13854747 -0.10347612 0.07803408
-0.078502156 -0.022511212 0.0789273 -0.1524636 -0.008104931 0.13920479 -0.074280284 0.06378264
-0.14985727 0.14824708 0.07207486 -0.06272975 -0.14213903 -0.030585311 -0.028837766 -0.09930609
-0.17255951 0.20049433 -0.044601895 0.09711432 0.056242827 -0.016487794 0.111749224 -0.014599106
0.12072927 -0.017428549 -0.05999119 -0.0487023 -0.007488536 -0.08431113 0.09585369 -0.01917271
0.027630148 -0.107948504 0.13745214 -0.16992176 -0.17048237 -0.14244248 0.10069331 0.095396444

linear_relu_stack.4.weight f4 [128, 64]
00000000: 5356 f13d 594d 9dbd 3c2a 043e 7374 eabd
00000010: 6803 b63b 6214 0d3d c110 8c3d d309 d03c
00000020: 6b4f f3bd 6ba6 c73a 393f 953d 333a 643d
00000030: 646b 903d 343a cf3d e5f4 02bd 484b e4bd
00000040: b929 9ebd 7f63 b93d 8047 6a3d b021 a1bd
00000050: f6a2 fc3d 2393 2abd 21fd a93d 5d01 153d
00000060: 07e7 0fbd 6f17 d13d e636 dbbb 4dc9 39bd
00000070: 8d2c a43d 78da f1bd 7700 e73d db4d 113e
00000080: e496 bf3d da77 ec3d 2a1f 1f3c 4574 e0bd
00000090: 80c1 243d d374 5e3d e6da 4c3b 208e c7bd
000000a0: f163 073d f1b1 b7bc ea4e f0bd db4d 78bd
000000b0: d3ff e23c 491b c83c 27cb 923c 04c7 c5bd
000000c0: d06d 153d 01a8 9d3d d381 edbd d94c 50bd
000000d0: 69a8 20bd 0a82 473d 3bdc d33d e288 8ebd
000000e0: e425 3bbc a6a0 983b 3690 e1bc 6b21 013d
000000f0: d4be 513d c3ef 8b3b 8381 f33d 373d cd3d
00000100: 91ff 7fbd 2f84 013e 4cb8 ec3d 9f49 713d
00000110: 5fe8 a93d 7547 1e3d 2055 2bbc 7792 713d
00000120: 1c76 4abd b8f3 c53c 6da9 babd d235 b0bd
00000130: 5ba4 d6bd 33ef 1e3d 0384 363d ed95 99bd
00000140: c44f b2bc 8887 a23d 745f 6b3d 9407 23bc
00000150: fd95 92bd a777 a53d 5d7d fe3c 3c63 ec3b
00000160: d77b c0bd 4a5a b63d 1600 89bc 9b0f fb3d
00000170: 4a42 eebd f3bc fb3d 41cf b2bd 57a8 d6bc
00000180: c07f 80bd b146 513d d80e d13c a0a4 453e
00000190: 434b 153e a5e5 4d3d 4eb0 ff3d 6167 db39
000001a0: fe22 ed3d eeca 5c3c 553d 2e3e 61de 963d
000001b0: 32ad 0ebd ce59 ecbd 1db0 11bc f83f 28be
000001c0: 9da2 1abd cc1c 5d3d 3385 2b3e d808 c9bd
000001d0: 018f b1bc 0db8 a53d 96a3 113e 74bb a0bd
000001e0: f391 1d3d 6990 943d a505 503d 9f36 c13d
000001f0: c4bb 04be e107 13bc dec9 e63c e5fd a73d
00000200: cd08 223d 92ac c43d b533 3e3c cd0c 0d3d
00000210: 6663 053e ecdb 59bd c53c 03bc a907 84bd
00000220: 077d b73d a9df 823d 2634 b0bb d91c 70bd
00000230: 8e05 eabc 9f61 603d 0273 d03d df06 02be
00000240: fb67 c5bb 4796 19bd 869d 8bbd 1824 743d
00000250: ec82 faba de06 8a3d 54d6 35bc 0472 653c
00000260: 387d e7bd 01bd 903d 65e9 523d 7ab9 9c3c
00000270: 9903 193d 5266 a63d 4dbe ddbd df5d 913c
00000280: 2698 003e 7a21 1e3d b06f 9d3d c6e8 04bc
00000290: f89c cc3c 6468 22bd 14f6 973c 69b9 813d
000002a0: 692f 0dbd a780 e1bc dcc7 91bc 77a5 c13c
000002b0: c51f abbd b446 9b3d 7520 aabd 7613 f83c
000002c0: d243 223d ac54 0e3b 54b6 52bc efd9 523d
000002d0: cf0d 07be 0c72 573d f309 bcbd 497f e0bc
000002e0: eaab b93c 8ed4 963d 2e22 00bd ba93 8d3d
000002f0: a10d ae3d f2fa c8bc 7f9a 043e 18e8 7e3d
00000300: 784d 8c3d e239 e1bd 111a 7fbd 18b0 723d
00000310: 8ad3 ae3d c8cf 4bbb e357 9ebd 9152 1b3d
00000320: c88b 7cbc fc91 b03d e33f 2a3d be6c a93d
00000330: 9ebe d93c 63c4 50bd 863f e4bd cf1c ddbd
00000340: 8051 73bd b740 a83d 1c5a d63d a9a3 833d
00000350: c2bf f03d 207d cebd bacd 963d 2143 ad3d
00000360: dda9 9e3d 8428 99bd 195a ac3c e0bd 32bd
00000370: ff70 8a3d a5dc 3d3d b9ca 04bd 7269 a2bc
00000380: 3cf4 073e aa24 d53d 5c41 a0bc 5c55 69bd
00000390: bf64 c7bd f17c 033d 7f99 803c 7d89 a23d
000003a0: 0b88 45bd 1405 4f3d 8c17 a0bd 6453 893d
000003b0: 06b1 a2bd e207 69bc 08e9 893d 87a1 933d
000003c0: 42ef aebd fbed 22bd 7a77 a03c ec0b ac3d
000003d0: 17d7 64bd 83a3 27bd b150 e2bd e827 d33d
000003e0: 1aee 7b3d 0cad 6c3d b731 4d3c c120 01be
000003f0: 7366 df3c d242 133e f4f9 343b 2fc7 043d
0.11784043 -0.076807685 0.12906736 -0.11447992 0.0055546053 0.034443267 0.06839133 0.02539531
-0.11880382 0.0015232092 0.072874494 0.055719566 0.07051733 0.10118523 -0.03197183 -0.11147171
-0.07722802 0.090521805 0.057197094 -0.078677535 0.1233577 -0.041644227 0.08300234 0.036378253
-0.035132434 0.10209548 -0.006689894 -0.04535799 0.0801631 -0.11809248 0.112793855 0.14189856
0.09354952 0.11546297 0.00971202 -0.10959677 0.0402236 0.05431063 0.0031258403 -0.09743905
0.033054296 -0.022423716 -0.11733802 -0.060621124 0.027709877 0.024427073 0.017919136 -0.096571
0.03648168 0.0769806 -0.11597028 -0.050854538 -0.03922311 0.048708 0.1034474 -0.06959702
-0.011422608 0.0046578227 -0.027534585 0.03152601 0.05120738 0.004270525 0.11889937 0.100214414
-0.062499586 0.1264808 0.11558589 0.0589081 0.082962744 0.038642365 -0.010457307 0.05897757
-0.049429044 0.024164066 -0.09114347 -0.086040154 -0.10480567 0.038802337 0.04455949 -0.07499299
-0.02176655 0.07936007 0.057464078 -0.009950537 -0.07157514 0.080794625 0.031065637 0.007213978
-0.093986206 0.0890394 -0.016723674 0.12258836 -0.116337374 0.122918986 -0.08730937 -0.026203318
-0.062743664 0.051092807 0.025519773 0.1930108 0.14579491 0.050267834 0.12484799 0.00041847958
0.1157894 0.013476117 0.17015584 0.07366634 -0.03483314 -0.115405664 -0.008892086 -0.16430652
-0.037752736 0.05398254 0.1675003 -0.0981614 -0.021674635 0.080917455 0.1422256 -0.07848254
0.038469266 0.072541066 0.050786633 0.09434246 -0.12962252 -0.008974046 0.02817243 0.082027234
0.039559174 0.09603228 0.011609008 0.034436036 0.13026199 -0.05318825 -0.008010094 -0.064467736
0.08959394 0.06390316 -0.0053773103 -0.05862126 -0.028567102 0.0547806 0.10178186 -0.12697934
-0.0060243583 -0.03749683 -0.068171546 0.059604734 -0.0019112504 0.06739591 -0.011098463 0.014004234
-0.113031805 0.070673 0.051492114 0.01913141 0.037356947 0.08124985 -0.108273126 0.017744957
0.1255804 0.038606144 0.07687318 -0.008112138 0.024977192 -0.039650336 0.018549956 0.06334192
-0.034469042 -0.027527167 -0.017795496 0.02363847 -0.08355669 0.07581845 -0.08306972 0.030282717
0.03961546 0.002171795 -0.012860853 0.05147737 -0.13188861 0.052598998 -0.09181585 -0.027404444
0.022664983 0.0736476 -0.031282596 0.06912942 0.08498693 -0.024533723 0.1294956 0.06223306
0.068507135 -0.109973684 -0.06228072 0.059249967 0.085364416 -0.003109919 -0.07731607 0.03792054
-0.015414186 0.08621594 0.041564833 0.08272694 0.026580151 -0.05096854 -0.11144929 -0.107965104
-0.059403896 0.082154684 0.10466406 0.064277 0.11755325 -0.100824594 0.07363458 0.084600694
0.077472426 -0.07478431 0.021039056 -0.04363811 0.067598335 0.046353 -0.032419894 -0.01982567
0.13276762 0.10407384 -0.019562416 -0.05696617 -0.09736013 0.032101575 0.015698193 0.0793638
-0.048225444 0.050541952 -0.07816991 0.067053586 -0.07943921 -0.014223071 0.067339 0.07208543
-0.085417286 -0.039777737 0.01958822 0.084007114 -0.05586919 -0.04092742 -0.11050547 0.10310346
0.06150637 0.057782218 0.01252406 -0.12610151 0.027270531 0.14380959 0.0027614804 0.03241652

linear_relu_stack.4.bias f4 [128]
00000000: b20e 783d 5500 a33d dbfc adbd dc36 89bc
00000010: e66e 983d 7e62 6c3d 5758 d23d bc8c 103d
00000020: 1a69 a1bc 9d41 043d a817 00bb e65d b43d
00000030: 9017 1abd e0c0 063c 0c7c 3abc 4951 29bc
00000040: 0d6d 9a3c 353a ae3b 71c0 7d3d 98ae 263b
00000050: e3af 8cbd ee35 4e3c c08d de3b ed4b f3bd
00000060: f95e a03d 8477 de3c 69d8 5a3c 21d5 e63d
00000070: 7550 9bbc 4792 023d aa46 56bd 504e ec3d
00000080: b6f1 da3d 4e24 963d 9ac3 9cbd 7d59 4f3d
00000090: e29e dcbc bcbd d6bd eafd 9ebd bf97 913d
000000a0: 970b b5bd e8f8 2fbc c74c a93d 2338 033c
000000b0: 6c91 bbbd 6e03 2f3d a152 973d 7102 ba3d
000000c0: 22e3 cc3d 9bb5 e3bd 6e1d d63b 9a1a dcbd
000000d0: 9ded 2abd 7f00 0d3d 3ea5 dd3c 7a14 5abc
000000e0: 6cf8 803d 8cb4 83bd 010f a13d edba 293c
000000f0: 2bd6 c7bd b1b1 1dbd 9c99 f1bd ef07 0a3e
00000100: 09f4 a73d fb45 25bd 95f3 0b3e f8ec 3e3d
00000110: e747 88bd 3bcd 6cbc bea2 4a3d 6f7c 5fbc
00000120: 544a 7bbd c87a 85bd e4b7 733c fa04 ecbd
00000130: 359a 12bd 1f55 cebd 8be9 93bd 8c20 d7bd
00000140: f344 653d 150c 8e3d 4062 9c3d 7c71 533d
00000150: 917b debc 045e 12bd ab29 773c 0f3a 673d
00000160: f08b 033e aaba 1ebd 60e1 153d a531 523d
00000170: 57c8 073c 4503 b0bc dd81 6dbd 052e 9b3b
00000180: 6eb7 cc3d a2d1 17bd 283e 013e 41ca 27bd
00000190: 4100 b2bd 510e 7c3d 9d95 6e3d 4f18 013e
000001a0: 3c5f bfbc 6050 8ebd 2a8a 7dbd 9c4d ebbd
000001b0: 7f46 7bbd 1f9f a63c b14b 22bd f92d 973d
000001c0: ead9 d1bd 08ff 4f3c 6558 d63d 0f39 713d
000001d0: c571 3b3c 3756 12be c5e5 7e3d 3abb 07be
000001e0: 7c46 f3bd a340 943d d907 d93d 7c15 afbd
000001f0: 9d86 ecbc 4947 8a3d 5744 e6bd b9b8 6d3d
0.06056089 0.07959048 -0.08495494 -0.016749792 0.07443027 0.057711117 0.10270756 0.035290465
-0.019703437 0.032289136 -0.001954535 0.08806972 -0.037620127 0.008224696 -0.011382114 -0.010334321
0.018850828 0.0053169974 0.061951105 0.0025433656 -0.06869485 0.0125861 0.0067918003 -0.11879716
0.078306146 0.027156599 0.01335726 0.1127112 -0.018959263 0.031877782 -0.052313484 0.115383744
0.10690634 0.07331143 -0.076544955 0.050622452 -0.02693123 -0.10485408 -0.07763274 0.071090214
-0.08840101 -0.010740496 0.08266597 0.0080089895 -0.091585964 0.04272788 0.07388807 0.09082497
0.1000426 -0.11118623 0.00653427 -0.10747261 -0.041730512 0.0344243 0.027056333 -0.013310546
0.06297383 -0.06430921 0.0786419 0.010359508 -0.09757646 -0.038499538 -0.11796877 0.13479589
0.08200843 -0.04034994 0.13667138 0.04661271 -0.06654339 -0.014453228 0.04947161 -0.013640507
-0.06135018 -0.06517559 0.014875386 -0.11524387 -0.035791595 -0.10074829 -0.07222279 -0.10504255
0.05597396 0.06935898 0.07635927 0.0516219 -0.02715853 -0.03573419 0.015085618 0.056451853
0.1284635 -0.038752235 0.036591887 0.051316876 0.008287511 -0.021485934 -0.057985175 0.0047357106
0.09995924 -0.037065156 0.12621367 -0.04096437 -0.08691455 0.06153709 0.05824815 0.12606929
-0.023360841 -0.06948924 -0.06189934 -0.11489412 -0.061346527 0.020339547 -0.039622966 0.073818155
-0.10246642 0.0126950815 0.10466079 0.058892306 0.011440699 -0.14290701 0.062230844 -0.13255015
-0.11878678 0.07238891 0.105972 -0.0854902 -0.028872782 0.06751878 -0.112435035 0.058037493

linear_relu_stack.6.weight f4 [64, 128]
00000000: 68cf 5fbc 130b 013e c8b1 33bd f92c 95bd
00000010: b00b 96bb 4a23 a33d e558 d63c e599 923d
00000020: 7cd4 443c 20e9 c1bd 18b1 853d 1dd9 ad3d
00000030: 8728 dbbd aff1 99bd 2c56 26bd 22cd 2d3d
00000040: 3150 33bd dc65 9dbd 576b fcbc c6bc bf3d
00000050: 37df 8bbc 301c 9fbd ca44 583d b8e7 72bd
00000060: 3f83 9cbd 773e a6bc 04a4 31bd 1343 85bd
00000070: 94df 583d 3cfd 8a3d 0bf4 91bd 7e27 893c
00000080: f514 b4bb 3121 bc3d 9faf 3fbb 6ebc bcbd
00000090: 05a0 afba de4f 8a3c 8396 94bd 8b9a 8f3d
000000a0: cd22 95bc e5aa 8e3b 183e fbbd a697 3fbd
000000b0: 36db 5c3d ba64 f8bd 4640 a3bd 04c3 193c
000000c0: 3ca0 8ebd d04d 1a3d 2d9e a5bd e568 e2bd
000000d0: 465e bcbd 3653 183d b0c4 06bd 7783 a43d
000000e0: 24e4 4abb 895c 85bd f325 ac3d f7e7 60bd
000000f0: 980e acbd c669 1abc 4d75 f1bb 8da1 c4bd
00000100: f308 903b f7dd 0fbd 3078 a6bc cbf8 b03d
00000110: 30a9 89bc 00e3 b93d 8800 b73c 2692 473d
00000120: 682b 3f3d 67c6 07bd 4180 a7bd 47f3 57bc
00000130: bf77 7bbd f813 543d 4974 003d 4bf2 7b3d
00000140: b01f c73d 5576 833c 8205 ba3d e40f 00bc
00000150: e7c0 a73b 5592 a73d c4dd 98bc f63c 3e3d
00000160: d4f0 42bd e0e6 50bd 8c04 223d e3d9 88bd
00000170: e0f1 b8bd 871f 90ba 9afd 923d e8ba 65bd
00000180: a57e e5bc e6ae 823d cd1a a8bd 3645 b53c
00000190: c161 ca3b 8e0d d93c 5025 f63d 5bf2 2dbd
000001a0: aa35 afbc fb76 253c 2ac0 183c 2e81 533d
000001b0: c899 8f3d 4c72 a83b 3e56 943c b154 413d
000001c0: 2264 9b3d bc68 0cbd d638 013d 609f d9bb
000001d0: 6493 8d3b 7a0b 63bd 6129 0dbe 5198 a73d
000001e0: 66ef 803d ce3c 273d 70cb 0bbd 8d5b febb
000001f0: b10c 273d b99b 97bd 9ac4 e43d d338 e2bc
00000200: 50b0 673d 7ca5 2d3d e414 42bd 1912 8dbd
00000210: 65b0 acbc 97d2 283d 24cd f63d 5f9c 98bd
00000220: 1915 e93c 9361 21be b93d 433c 73d9 8f3d
00000230: fcc8 c33d 48b2 363d 62b5 2a3c 82ec 973d
00000240: d5ec 823d 8d11 95bc d6e8 b8bc 6c41 1a3c
00000250: 177f 05bd 2949 4b3d 0f4d 113d 66c9 643d
00000260: 45aa adbc 7523 be3c c553 db3d 9ab9 21bd
00000270: 2e17 50bd a5fc 5dbb 62a7 b1bd 13d1 fdbc
00000280: 8ced 47ba 2fb2 163d 0d5c 513d 47e2 82bb
00000290: aa96 61bd ab25 d4bd 96b6 b7bd e175 bc3d
000002a0: 3aac f83c b9cf a93d 27d9 6e3d f727 cfbd
000002b0: ece6 1fbd c73d 7dbd e93c 5b3d fa01 823d
000002c0: a7f1 913b 0661 833c 3e78 02bd 5ca7 31bd
000002d0: ae8d aabd dbdc 00bd a169 c13d 4c20 863d
000002e0: 15f2 1bbc 6792 c43c 6828 023e e42c d53d
000002f0: cc89 14bd 3362 9c3b 217c 1bbd de8f 943b
00000300: 2f17 673d 1f5f a13d 6966 353d bd33 833d
00000310: d1b1 ac3a aa37 eabc 6fb4 6dbd d8a8 e8bc
00000320: 6943 edbc 28e2 79bd 77b8 173d a511 2cbd
00000330: f7ee a9bc d68b a63c 3a79 b33d f94e 013d
00000340: 920d ae3d 8e0d 67bd 82d2 a93d a349 f8bc
00000350: 5b68 c1bb 2445 e2bc f00d 92bd 989c 61bd
00000360: 0544 953d fe3f dbbb f214 56bc 1c94 5fbd
00000370: b301 84bc 608b 753b 5d95 82bd 9095 623d
00000380: c626 853d c4fc db3d 6de9 273d 08d5 8f3c
00000390: fd3b a53d 51a2 f4bc 788a 923d c710 033d
000003a0: 33f1 4c3d 5be0 6fbc 14a5 beba 9dba 00bd
000003b0: 57b0 8fbd ceec 88bd 3c71 34bd d530 463d
000003c0: a1c3 043d e2d5 dd3d 418f 19bd 9e82 b0bd
000003d0: 36e3 e93c c601 023d 5ae9 58bd a6e8 3e3d
000003e0: 7fba c73d 5249 943d 1e15 8fbd ebfa e53c
000003f0: 8e1e cd3d 8ac5 a73d da98 1e3d 94c1 b63d
-0.013660289 0.1260188 -0.043870717 -0.072839685 -0.00457903 0.07965715 0.026165435 0.07158259
0.012013551 -0.09468293 0.065279186 0.08488677 -0.10701089 -0.075168006 -0.040609524 0.042431958
-0.04377765 -0.07685444 -0.030812902 0.093621776 -0.01707421 -0.07769048 0.052799977 -0.059303015
-0.07642221 -0.020293457 -0.043369308 -0.06506934 0.052947596 0.06786582 -0.071266256 0.016742464
-0.0054956623 0.09186018 -0.0029248965 -0.092156276 -0.001339913 0.016883787 -0.0725527 0.070118986
-0.01820507 0.0043538683 -0.12267703 -0.046775483 0.053919993 -0.12128587 -0.079712436 0.009384874
-0.06964156 0.037671864 -0.0808681 -0.11055163 -0.09197669 0.03718873 -0.03290242 0.080328874
-0.0030958736 -0.0651179 0.08405676 -0.05490872 -0.08401221 -0.009424632 -0.0073687197 -0.09601126
0.004395598 -0.03512379 -0.020320982 0.086412035 -0.016804308 0.090765 0.02233912 0.048723362
0.046672255 -0.033148196 -0.08178759 -0.01318056 -0.061393496 0.051776856 0.0313609 0.061510365
0.09722841 0.016047636 0.09083082 -0.007816289 0.0051194313 0.081822075 -0.018660434 0.046444856
-0.047592953 -0.05100143 0.039555117 -0.066821836 -0.09030509 -0.0010995724 0.07177277 -0.05608645
-0.02801449 0.063810155 -0.08208237 0.022127729 0.006176204 0.026495721 0.120188355 -0.042467456
-0.021387894 0.010099168 0.009323159 0.051636867 0.07011753 0.0051405784 0.01810753 0.04719991
0.07587458 -0.03427957 0.031548344 -0.0066413134 0.004320549 -0.055430867 -0.13785316 0.08183349
0.06295662 0.040829472 -0.03412956 -0.0077623785 0.040783588 -0.074027486 0.11170311 -0.027614987
0.05656463 0.042394146 -0.047383204 -0.068882175 -0.021080205 0.04121646 0.12050846 -0.074517004
0.028452443 -0.15759878 0.011916571 0.07023897 0.09559819 0.044603616 0.010419222 0.07418157
0.063928284 -0.018196845 -0.022571962 0.009415012 -0.032591905 0.049630318 0.03547388 0.05585613
-0.021199355 0.023210267 0.10709337 -0.039483644 -0.050803356 -0.0033872512 -0.08674504 -0.030983483
-0.0007626645 0.036791023 0.051113177 -0.0039942595 -0.055075325 -0.10358747 -0.089703724 0.09202171
0.030355562 0.08291573 0.05831256 -0.101150446 -0.039038584 -0.061826494 0.053524885 0.06348033
0.004453856 0.016037475 -0.031852953 -0.043372497 -0.083278045 -0.031460624 0.09443975 0.06549129
-0.009518166 0.023995591 0.12710726 0.10408953 -0.036264226 0.0047724484 -0.037960175 0.004533752
0.056418594 0.07879471 0.04428712 0.06406353 0.0013175552 -0.028590996 -0.058033403 -0.028400823
-0.028962808 -0.061006695 0.037041154 -0.042009015 -0.02074383 0.02033035 0.087633565 0.031569455
0.08498682 -0.05640941 0.08292104 -0.03030855 -0.0059023327 -0.02762086 -0.071315646 -0.05508098
0.07288364 -0.006690978 -0.013066517 -0.054584607 -0.016114092 0.0037467107 -0.06376145 0.055318415
0.06501536 0.107415706 0.040994097 0.017557636 0.080680825 -0.029862555 0.07155317 0.031998422
0.050034713 -0.014640893 -0.0014545047 -0.03142797 -0.07016056 -0.06685792 -0.0440533 0.048386414
0.03241313 0.108318105 -0.037490133 -0.08618663 0.028550725 0.031739973 -0.052956916 0.04660859
0.09752368 0.07240547 -0.0698645 0.028073749 0.100155935 0.081919745 0.03871999 0.08923641

linear_relu_stack.6.bias f4 [64]
00000000: 63ed 2fbc 3364 b23d 8283 97bd 0bf0 ef3b
00000010: 5cfc a83d 1b86 45bd 0929 83bd 3fa8 aa3d
00000020: 85ba 423d 6d2f 6e3c d8df 7e3d 51cf e4bb
00000030: 9026 60bc 8ec4 08bb 88aa c2bc 9a1a b5bc
00000040: 49f4 883d efb7 9b3d c4d8 1bbd b8cb 0b3d
00000050: f73f 753d 1bc2 533d 6066 e0bb 3778 a23d
00000060: 2cff 6e3d e168 033c 19f0 0f3d 1d2e dc3c
00000070: c3ee 7ebd abee d7bc e6f8 4ebd 90b4 f4ba
00000080: 7f75 553d 124c 9a3a b23d 3c3c 41cd 81bc
00000090: 8d46 2e3d baad cfbc 5ab4 eabc 4096 a3bc
000000a0: 5aa2 093d 9b14 6c3d 0d0e b63d c64c b2bc
000000b0: cb2e 85bd 0932 f93c b83c e2bc c0bd a03c
000000c0: 38cc 5fbd 80a3 b13d 704e 2dbd 091a a13c
000000d0: 8482 9c3d f737 c4bc 024e a93c 9115 ef39
000000e0: 1dab 25bd fe7c c1bc 3b96 a53d 7709 77bd
000000f0: 964a be3c 6db7 f8bc f34c 8abd ac98 81bd
-0.01073775 0.08710518 -0.0739813 0.0073223165 0.08251259 -0.048223596 -0.06404311 0.08332872
0.04754116 0.014537674 0.062225193 -0.006982722 -0.013681069 -0.002086911 -0.023762956 -0.022107411
0.06687219 0.07603442 -0.03804852 0.03412983 0.059875455 0.051698785 -0.0068481416 0.079330854
0.05834882 0.008020611 0.035141084 0.026877457 -0.06223942 -0.026358923 -0.050530337 -0.0018669534
0.052114006 0.0011771938 0.011489319 -0.015844943 0.04254775 -0.025351394 -0.028650451 -0.019969106
0.033602096 0.05763684 0.08889399 -0.021765124 -0.06503066 0.030419366 -0.027616844 0.01962173
-0.054638118 0.08673763 -0.042311132 0.019665735 0.076420814 -0.023952467 0.02066708 0.000456017
-0.04044639 -0.023619171 0.08085295 -0.06031176 0.023228925 -0.030360902 -0.06752958 -0.06327948

linear_relu_stack.8.weight f4 [32, 64]
00000000: eede 153e 0621 e83c 004b 913d d6be 02be
00000010: 2ca1 7d3d f16f 0dbe a33c 823d c772 cfbd
00000020: 2c6f 663d 82d4 02be 00c3 45bd 5660 7d3d
00000030: 8bcd 7b3d 47eb 93bd 11d0 3bbd 2ce0 a5bd
00000040: 9f6d c3bb d924 c93d 517b 6bbd addd 02bd
00000050: 94f8 b5bd bd83 d0bd e1ab 053d 9406 6bbd
00000060: 3c23 ecbd ff21 bc3c ba91 86bc 1c1d f2bd
00000070: be0f 8c3d 6985 a53d 1517 dabd 673a aabd
00000080: 4048 9c3d 9931 7fbd e768 f9bd 7725 cb3d
00000090: 5787 6a3d 1894 22bc ca30 883d f559 083e
000000a0: b5e0 903c 4036 633c 03c5 8f3d d179 28bd
000000b0: 105a 6bbd 4e1d 42bd afc0 f13d 8892 6b3d
000000c0: 6677 e23d 2bec 47bd f6cc 5e3c ae3f bfbd
000000d0: 7d10 a3bc a43d e63d dacf 77bd d3ec 183d
000000e0: 5fc4 293d ad1b 003e a714 05bd f757 ba3d
000000f0: 04d6 703c 149c 07be f1dc 0bbd 50e1 0b3e
00000100: 3aa0 80bd b24a 023d 7768 a03d 67c9 a63d
00000110: 067f 0f3e 6349 4ebc ee63 aebd 7661 b4bc
00000120: d759 96bd 1454 10bc c4cf b6bd 1125 573d
00000130: 9f0e 0b3e 4ec5 26be af4a df3d e040 8cbd
00000140: 7e21 ffbd 2efc a63d be1e 283c 8b7b 17bd
00000150: 3a4d babd 311f 23bc 7c36 d93d a52d c5bd
00000160: 24f8 06bd b16c bcbd f047 c33d 493c 97bd
00000170: 5922 8fbd 8e8f 333d 0bec b33d 4d78 553b
00000180: 1bf5 473b 0b83 b5bd a3f2 c53b 6dce 873d
00000190: 03ae e4bc 4532 ef3d f17d 96bd d622 393d
000001a0: c414 d7bc 211c 6b3d 9d14 8b3c ce51 18bd
000001b0: 588f b03d 147e b33d 5ce1 853d b776 d1bc
000001c0: 0dec ec3d 680f 07bd 40d3 94bd 329d 873d
000001d0: 68a3 933d d0e6 a23d 6bd7 c7bd aacf 013e
000001e0: c2dd 683d 090d 283e c46d a43d e430 54bd
000001f0: 36d0 9a3d a6aa 43bb 5585 143d bbde acbd
00000200: ceee bebd d8eb e8bd 7248 9f3d 9459 533d
00000210: a8b9 343d 2741 d03c b6ce 3fbc f045 c3bc
00000220: 81aa 153d 3205 603d 90d1 b63d 38bb 0cbd
00000230: 4a2f 1bbc 85a4 47bc 2b14 a53d 3e6e b73d
00000240: 1a5e b23d 8bd2 6ebd 2014 523d 8dd0 133c
00000250: f1cc 90bd 15ce aebd d6b2 6a3d ede8 06bd
00000260: 6a26 c6bc f4ad d3bb 8135 dbbd d474 89bc
00000270: ab63 993d a235 283d b61c f23d 5fec a93d
00000280: 2c32 36bc b26c 153d 1cb7 913c 1f8e 98bd
00000290: 467b 95bd 655f d43d 7b70 ce3d f9b1 ca3d
000002a0: 254a acbd accd 153d 99f5 8ebd 6ccc 533d
000002b0: a495 bcbd 1c1a f3bd 1225 d33d 85cc e1bd
000002c0: ad1e 5ebc 7480 923d 7591 e8bc bd34 723d
000002d0: 647a 953d e233 74bd fe24 cfbd 6903 cfbc
000002e0: 4f01 c53d 5d16 813c be74 a1bd 3933 ecbd
000002f0: 2410 e9bd 268e d1bd 43bc f9bc f7a6 973b
00000300: 2bf7 b63d bb74 d83d 5be9 ed3d 1181 5e3a
00000310: 29e3 59bc 6c61 2fbe 9b73 583d 0540 de3d
00000320: ec00 d83c a865 5bbd ede9 dabd 7135 babc
00000330: 4a5a dabd a7eb c0bd 9f4c b9bd 26eb bb3d
00000340: a2be 14be 5fb7 bd3c 3572 37bd e538 ce3d
00000350: e5a5 183d db16 ecbd 0fd9 0c3e 6e7c 96bd
00000360: 2b54 3a3d 3688 2b3e 2a4a 51bc 5da9 13bc
00000370: 480f c83c 9987 083d a0e8 ff3d 4361 8abd
00000380: f2ba c73b f141 593a 0470 cbbd 78dd dc3a
00000390: 551d 09be 5965 a33d b5f5 d23d b587 1f3e
000003a0: 3c77 42bd d50d 00be 6abc 4dbd 9640 bbbd
000003b0: 9778 a9bd 2e61 efbc 7fb3 febc 60ae 95bd
000003c0: 6904 7f3d fb17 01be 8827 143d 73e8 1fbd
000003d0: 4f10 b93d 3774 a5bb bf51 c83d 34a1 083e
000003e0: e1a1 b8bd a04e 643d 0c2a 9e3d e593 afbd
000003f0: 9309 cbbc 01b7 41bc 7ce3 863d cff2 57bd
0.14635822 0.02833606 0.07094383 -0.1276811 0.061921284 -0.13812234 0.06359222 -0.10129314
0.056258366 -0.12776378 -0.04828167 0.06185945 0.061475318 -0.0722261 -0.045852724 -0.08099398
-0.0059639956 0.09821481 -0.05749065 -0.031949688 -0.08885303 -0.10181377 0.03263462 -0.05737932
-0.11530158 0.02296543 -0.01642691 -0.118219584 0.0683894 0.080820866 -0.10648934 -0.083119206
0.07630968 -0.06230316 -0.12178212 0.09919255 0.057257976 -0.009923004 0.06649931 0.13315566
0.017685274 0.013867915 0.07019999 -0.0411318 -0.057458937 -0.04739123 0.118043296 0.05751279
0.1105793 -0.04880921 0.013598671 -0.09338318 -0.019905323 0.11242226 -0.060500957 0.03733523
0.04144704 0.12510557 -0.0324904 0.09098809 0.014699463 -0.13243133 -0.034146253 0.13660169
-0.06280561 0.031809516 0.07832425 0.08143883 0.140133 -0.012590739 -0.08515154 -0.02201913
-0.07341354 -0.008809108 -0.08926347 0.052525584 0.13579796 -0.16286203 0.10902917 -0.068483114
-0.1245756 0.08153568 0.010261236 -0.036983054 -0.09096761 -0.009956167 0.10606095 -0.09627847
-0.03295149 -0.09200419 0.09535205 -0.07384545 -0.06988973 0.043838076 0.08785256 0.0032572926
0.0030511084 -0.08862885 0.0060408874 0.066311695 -0.027915007 0.1167951 -0.0734824 0.045199238
-0.026255019 0.057399873 0.016977603 -0.03718739 0.08621091 0.08764282 0.065371245 -0.025569303
0.115684606 -0.032973677 -0.07266855 0.066217795 0.07208902 0.0795418 -0.097578846 0.12676874
0.05685211 0.16411223 0.08028749 -0.05180444 0.07559244 -0.0029856353 0.036259968 -0.0844092
-0.09322892 -0.113731086 0.0777749 0.0515991 0.044122368 0.025421692 -0.011706999 -0.02383706
0.03653956 0.054692455 0.089266896 -0.034358233 -0.009471724 -0.012185221 0.08060487 0.08956574
0.08709355 -0.05830626 0.051288724 0.00902189 -0.070703395 -0.08535401 0.057299457 -0.03293698
-0.02418824 -0.006459946 -0.107035644 -0.01677934 0.07489713 0.041066773 0.118218824 0.08297037
-0.01112036 0.036480613 0.017787509 -0.074489824 -0.07298903 0.103697576 0.10080048 0.09897227
-0.084125794 0.036573097 -0.06980438 0.051708624 -0.09208229 -0.11870214 0.10309805 -0.11025337
-0.013557118 0.07153407 -0.028389672 0.059132326 0.07298735 -0.05961979 -0.101144776 -0.02527018
0.0961939 0.015757734 -0.07883595 -0.115332074 -0.11380032 -0.10232191 -0.030485278 0.004628058
0.08933862 0.105691396 0.11616775 0.00084878603 -0.013298788 -0.17127007 0.052844625 0.108520545
0.026367627 -0.053563744 -0.10689149 -0.022730561 -0.106617525 -0.09419947 -0.090478174 0.091757104
-0.14525846 0.023158727 -0.04478665 0.100694455 0.037267584 -0.11527797 0.13754676 -0.07347952
0.045490425 0.16751179 -0.01277403 -0.009012547 0.02442135 0.03333244 0.124955416 -0.067568325
0.0060952837 0.0008287719 -0.09933475 0.0016850671 -0.13390096 0.07978315 0.10300771 0.15579112
-0.047476992 -0.12505277 -0.050228514 -0.09143178 -0.08274954 -0.029221144 -0.03109145 -0.0730865
0.062260065 -0.12606804 0.036170512 -0.03904004 0.09036314 -0.0050492543 0.09781217 0.13342744
-0.09015251 0.055739045 0.077228636 -0.085731305 -0.024784839 -0.011823417 0.06586358 -0.052721795

linear_relu_stack.8.bias f4 [32]
00000000: a67b d53c ba14 a93c fdde babd a7a8 ddbd
00000010: bf44 22bd d331 11bd 1349 3a3d f036 eabc
00000020: 47f7 b53d 2b9d 89bd 51ff 70bd d382 a3bd
00000030: 983d 21bb 11ef 8cbd dd4f 7e3d 0af9 4ebd
00000040: a165 5e3d cb41 953d 0028 98bc 316d 9e3d
00000050: 618a 903d 8a20 f53c ab30 a7bd 784f b03d
00000060: 6432 033e f333 6bbb 6077 9d3b d420 863d
00000070: 3019 563d 58c0 cabd cc60 f33d bcea 323d
0.026059937 0.020639766 -0.09124563 -0.108231835 -0.039616343 -0.035447907 0.045479845 -0.02859065
0.08885055 -0.067194305 -0.05883724 -0.07983937 -0.0024603363 -0.06881536 0.062087882 -0.05053047
0.05429614 0.0728794 -0.018573761 0.0773567 0.07057644 0.029922742 -0.081635796 0.086089075
0.12812191 -0.0035889118 0.0048054904 0.0654923 0.052270114 -0.09899968 0.11883697 0.04368089

linear_relu_stack.10.weight f4 [1, 32]
00000000: a547 6abe 12db c4bd 6967 a3ba 129c 3ebe
00000010: 6662 8d3e fe13 da3d cb08 61be a8c4 b33d
00000020: d44a 60be 99d1 0cbe a4a0 1d3e 1fc0 59be
00000030: 1420 383e f6a8 8dbe 88ea 00be 3dbc 40be
00000040: 1de3 873e 1fc1 00bd 7cc2 26be 8a25 7cbe
00000050: da9c 51be 8052 30be 6d4b 33be 2bfc a4be
00000060: 43a0 a63d afa2 1f3e 9d5d 51be c695 053e
00000070: fc3f 493e 6759 37be 0a21 8b3e a888 523e
-0.22878893 -0.09612097 -0.0012466732 -0.18614224 0.27614135 0.106483445 -0.2197601 0.087777436
-0.21903545 -0.1375183 0.15393311 -0.21264695 0.17980987 -0.2766797 -0.12589467 -0.18821807
0.2654046 -0.031434175 -0.16285127 -0.24623695 -0.2046999 -0.17218971 -0.17509241 -0.3222364
0.08136036 0.15589403 -0.20445867 0.13045415 0.19653314 -0.17905198 0.27173644 0.20559943
