model/pendulum_model_6.pth (torch, 88706 bytes, 11 tensors)

linear_relu_stack.0.weight f4 [32, 3]
000000 bd 60 ea 3e 52 7e a3 bd da 9c c0 3e 1d 11 93 3d
       0.4577693 -0.07983078 0.37619668 0.071809985
000010 4b 9c a1 3c 52 ff b8 be 9d 47 e3 be 0d 4e c1 be
       0.019727847 -0.36132294 -0.44390574 -0.3775486
000020 aa 76 f0 be 2d ec a5 be 6c 3d e6 be d5 16 55 be
       -0.46965533 -0.3240675 -0.44968736 -0.20809491
000030 ff ef e0 3e d4 1b 8f bd d0 d0 a7 3d 1c 00 01 bf
       0.43933102 -0.0698773 0.08194125 -0.5039079
000040 ea a0 b8 be 50 4e da bd 6a 6f a7 bd 6c 47 fe be
       -0.36060268 -0.10659468 -0.081755474 -0.49663866
000050 74 fc bb 3e 92 61 62 be e0 d5 5f 3d e4 bc 6c 3e
       0.36716044 -0.22107533 0.054647326 0.23118931
000060 f4 e7 02 be 87 3b 01 3f 1d 3e cd 3e c6 ab 00 3f
       -0.12783796 0.50481457 0.4008645 0.50262105
000070 e1 8e e4 3d 02 54 9e bd 1c e7 46 be 72 10 c8 be
       0.111600645 -0.07730867 -0.19424099 -0.39075047
000080 81 cb 6a be b1 f1 32 be 6f 9a 9f be 6d 51 01 3f
       -0.22929193 -0.1747501 -0.3117251 0.5051487
000090 09 e6 f9 3e 39 78 ae 3e 79 33 d3 be d8 3c c4 be
       0.48808315 0.34076098 -0.41250208 -0.3832767
0000a0 90 16 30 3e 00 7a c8 bd da 3b a0 be 8f 32 2e be
       0.17196107 -0.09788895 -0.31295663 -0.17011474
0000b0 0d bf f4 be d4 49 87 bd df d3 f2 3e be d7 84 3e
       -0.4780201 -0.066058785 0.4742727 0.25945848
0000c0 15 76 7d 3e 4d 98 ce 3e 8e 6d 4c 3e e3 09 d5 3e
       0.24752076 0.4035057 0.19963667 0.41609105
0000d0 86 c3 02 bf e9 6d b7 3e fc 74 d5 3e bf e3 12 3f
       -0.51079595 0.35826042 0.41690814 0.5737876
0000e0 58 54 ae 3e 13 54 d7 be 94 d8 0c 3f 46 4b 1a 3e
       0.34048724 -0.4205633 0.5501797 0.15067777
0000f0 e2 02 c8 3c 24 7b e8 3d 7d 9f 78 be 59 51 cd be
       0.024415437 0.11351612 -0.2427959 -0.40101126
000100 38 6c 88 3e 98 3d 12 3e 3e e4 15 3e 91 9c f8 be
       0.26645064 0.14281309 0.14637849 -0.4855695
000110 ea cd 16 be bc 4c 84 bd ed 2a 82 3e 8c ca ab 3e
       -0.14726987 -0.064599484 0.25423375 0.33552969
000120 95 e5 0d 3f 51 6a 09 3f 13 6c 8c be 3e 7e 7f bd
       0.5542844 0.5367785 -0.27426204 -0.062376253
000130 35 d8 6c bc 18 8f 4b 3e 3e 7b eb 3c 0d 39 ef 3e
       -0.014455845 0.19878805 0.02874529 0.46723214
000140 34 44 10 bf 65 a4 0a bf 70 e8 df 3e 42 36 ac 3e
       -0.5635407 -0.54157096 0.43732023 0.33635145
000150 48 8c 4c be f1 63 b2 3e 1f b2 a6 bd 5b b1 c5 3e
       -0.19975388 0.34841874 -0.08139443 0.38611874
000160 a1 39 e7 3e 0a af 8d be f5 58 28 3e 43 53 d9 be
       0.45161155 -0.27672607 0.16440184 -0.42446336
000170 d3 f1 f8 3e 31 65 84 3e e6 ee e9 be 27 d8 0d bf
       0.48621997 0.25858453 -0.45690078 -0.5540795

linear_relu_stack.0.bias f4 [32]
000000 71 22 17 3e 60 da f6 be 56 75 64 3e e2 79 3e be
       0.14759232 -0.48213482 0.22310385 -0.18601182
000010 c4 9b eb be 7b 5f 78 3d ff 42 80 be 48 24 b0 be
       -0.46017277 0.060637932 -0.25051114 -0.3440268
000020 07 05 48 3d 0d ba d9 bd cb 75 67 3e 5f b1 60 3e
       0.04883292 -0.106311895 0.22603528 0.21942662
000030 37 a6 02 be 73 a3 8e 3d 99 2f 0b 3f 6b 68 01 bf
       -0.12758718 0.06964769 0.54369503 -0.50549954
000040 a6 be df 3c 92 aa d3 3d 36 ee 28 be da e6 f0 3e
       0.027312588 0.10335268 -0.1649712 0.47051126
000050 13 fd db be 7c 51 b1 3e 0b 3f e3 bb cc b8 b5 3d
       -0.42966518 0.3463248 -0.0069350055 0.08873138
000060 99 ef 8f be 61 6e c7 3e 54 15 c6 3e c8 5b f5 bd
       -0.28112486 0.389514 0.38688147 -0.119803965
000070 ad 8d a7 be 0a de be 3e 3a dd 40 be 85 60 bc 3e
       -0.32725278 0.37278777 -0.18834391 0.3679239

linear_relu_stack.2.weight f4 [64, 32]
000000 5e fc 24 3e 98 76 4e 3e 18 c2 3f be 1b a2 06 3e
       0.16111895 0.20162427 -0.18726385 0.13147776
000010 c5 59 31 be ac 72 3d be e8 3e 84 3d 89 ea 4d be
       -0.173194 -0.18500775 0.06457311 -0.20109
000020 1e 8c 00 be b4 a0 ef 3d 90 82 9a bd 8b d7 ed bd
       -0.1255345 0.117005736 -0.07544434 -0.11613377
000030 d9 44 e9 bd af 6a 0b 3e 14 3d 1a 3e db 82 20 3e
       -0.11390085 0.13614915 0.15062362 0.15674917
000040 f9 af a0 bc 4d 39 11 be a7 15 a1 3d 63 08 ab bd
       -0.01961516 -0.14182015 0.07865458 -0.08351209
000050 df 35 35 3e 00 32 13 3c e1 7d 10 3d 83 36 47 be
       0.17696331 0.008984089 0.035276297 -0.19454388
000060 27 bf 6a bd 8e 9c a4 bd a1 18 68 be a1 42 a1 3c
       -0.057311203 -0.08037673 -0.22665645 0.019685091
000070 d3 ae 0c 3e 09 d9 ec bb 50 40 a0 3d dd d4 17 3e
       0.13738565 -0.007228021 0.07824767 0.14827295
000080 2c 9c 03 be 1b fb 57 3d e5 af 83 bd 84 ca d0 3d
       -0.12852544 0.052729707 -0.064300336 0.10194877
000090 6e 30 49 3d 0a 47 80 bd b6 a9 79 3e 35 ad 23 3c
       0.04911845 -0.062635496 0.24381146 0.009990026
0000a0 0f 34 8d be 26 e5 14 bd d3 1a bb 3b f7 5e 47 3e
       -0.2757878 -0.036351345 0.005709985 0.1946982
0000b0 fd 4d 16 be 47 98 9c bd a9 8e 9e 3d 2f 21 9a bd
       -0.14678188 -0.07646232 0.07742054 -0.075258605
0000c0 77 10 ec 3d 94 bc 3d be eb a7 46 3d f5 fb e2 bc
       0.11526578 -0.18528968 0.048499983 -0.027708033
0000d0 e1 43 12 bc 7d af d3 bd b0 d0 18 3e 6a ef 41 be
       -0.008927316 -0.10336206 0.14923358 -0.18938985
0000e0 83 f4 7c 3c 26 55 23 be c8 7e 0c bd 6f f8 42 be
       0.0154391555 -0.1595045 -0.034300596 -0.19040082
0000f0 09 1c 1d 3d d9 a8 38 bd e0 a4 35 be 35 65 10 be
       0.038356815 -0.0450829 -0.17738676 -0.14101107
000100 8f 6f 15 bd 2d 75 54 3e c7 84 d7 bd 1f 28 c1 bc
       -0.036483344 0.20747824 -0.10523372 -0.023578702
000110 84 39 19 3e f5 5e 14 3e 19 8c 7d be 4c 6b df bd
       0.14963347 0.14489348 -0.24760474 -0.10909137
000120 18 73 31 3e a0 20 8e 3d 7e a0 ce 3d 80 75 e7 bd
       0.17329061 0.069398165 0.10089205 -0.11301708
000130 1b a6 ed bd 94 8a d7 3d 6a 4e 74 3d fb a4 14 3e
       -0.11603948 0.105244786 0.059645094 0.1451606
000140 6d e9 a7 3d a8 0f 98 3c 46 45 bd 3c 11 86 23 be
       0.08198819 0.018562153 0.023104321 -0.15969111
000150 78 9a 49 3b 86 d0 cf 3d 68 fe 1a 3e 66 c2 a5 be
       0.0030762237 0.101471946 0.15136111 -0.32374877
000160 1d b7 7c 3d 2e 87 dc 3c 7b 33 c5 bd b2 8d ca 3d
       0.061698068 0.026919927 -0.0962896 0.098903075
000170 4a e2 3b 3d 54 24 c5 3c 33 7a 31 3d ad e8 fa 3d
       0.045870103 0.024065174 0.04332943 0.12251411
000180 11 de f5 bd 2a 53 7e bc e0 ab 84 3e 55 15 87 bd
       -0.120052464 -0.015522758 0.2591238 -0.06595866
000190 5d 68 0b bd 6b 74 aa 3d 62 d8 23 be 0a 8a 18 3e
       -0.034035075 0.08322986 -0.16000512 0.14896408
0001a0 36 3b 02 3d e1 5f 66 bd d6 64 04 be ef 6c 74 bd
       0.03179475 -0.05624378 -0.12929091 -0.0596742
0001b0 04 f0 87 3d 94 48 9a bd dd 5e f5 3b f2 97 9b bb
       0.06637576 -0.075333744 0.007488115 -0.004748338
0001c0 e4 56 55 be 20 d6 03 3e c5 43 4a bd a3 59 4d 3e
       -0.20833927 0.12874651 -0.049381036 0.20053725
0001d0 56 45 0b 3e 5c 8c 9f bd 9a 26 0e 3e d2 12 05 3d
       0.13600668 -0.07790443 0.13881913 0.03248865
0001e0 52 1b 31 3d 60 de 87 bb 30 a7 b1 3d 4d 42 bc bd
       0.043238945 -0.004146382 0.086744666 -0.09192333
0001f0 eb ad ac 3b a6 f4 35 3e 48 aa 26 bd 6d ad 12 3e
       0.005269756 0.17769107 -0.040689737 0.14323969
000200 21 74 f2 bd 6f 3f 52 3e 85 0f 3c bc 75 42 cb 3d
       -0.11838556 0.2053201 -0.0114783095 0.09924785
000210 71 d8 ba 3d 83 42 92 bc e0 f7 a9 3d 7b be 96 3d
       0.09123314 -0.01785398 0.082992315 0.0736055
000220 9b cb cc 3c 10 91 06 be 54 6a af 3c 92 87 1e 3e
       0.02499943 -0.13141274 0.021413006 0.15481403
000230 52 94 d6 bc 0e 24 03 be 25 5e 0f be 13 5b 7c be
       -0.026193772 -0.12806723 -0.14000757 -0.24644117
000240 2d 1e 0b 3e 66 f3 1f 3e cb fc 1c be 3f bc 0b be
       0.1358573 0.15620193 -0.15330808 -0.13646029
000250 b3 63 37 bd 8b bf 6f 3c 9f f2 4a be b2 0a 90 3d
       -0.044772815 0.01463307 -0.19819115 0.0703329
000260 bb c8 0d be eb fb 35 bd d8 f2 ad 3e cd 86 95 bd
       -0.13846104 -0.0444297 0.33974338 -0.07301102
000270 fe d8 32 be be 98 88 bd dc 65 71 3d 57 b3 2a be
       -0.17465588 -0.06669758 0.05893503 -0.16669975
000280 72 44 06 3e c5 c2 ed 3d 20 a1 40 3e f9 c6 2d be
       0.13112047 0.11609415 0.18811464 -0.16970433
000290 d7 22 27 bd 24 c4 7a 3e 50 a5 65 bc 04 6f 18 3e
       -0.04080471 0.24488884 -0.014016464 0.14886099
0002a0 37 d3 28 be c0 6e 50 3e 74 08 18 3d 9b 16 e7 bd
       -0.16486822 0.20354748 0.037117437 -0.112836085
0002b0 68 86 4f 3d 10 a3 50 3d 6b cc 93 bd 97 79 fd 3d
       0.05066529 0.05093676 -0.07216724 0.12376707
0002c0 f9 27 ef 3d 03 b5 02 be db b3 78 be 90 8b 09 3e
       0.11677546 -0.12764363 -0.2428736 0.13432145
0002d0 b6 af 2b 3e 4c 11 13 be 27 19 20 be 3c 20 32 be
       0.16766247 -0.14362067 -0.15634595 -0.17395109
0002e0 b5 74 04 3e 46 e6 d3 bd a3 86 dc 3d 58 9d a5 bd
       0.12935145 -0.103466555 0.107678674 -0.080866516
0002f0 de ee 9f 3d ca 55 69 3d 36 8e da 3d 70 90 0c 3e
       0.07809232 0.05696658 0.10671656 0.13726974
000300 93 2b 68 3c d4 a5 07 3e 3c 60 84 be 36 a0 94 bd
       0.014170545 0.13246852 -0.2585467 -0.0725712
000310 f0 c9 37 be 45 17 50 bd 09 f3 ee 3c 2a 16 33 be
       -0.17948127 -0.05080344 0.029168623 -0.17488924
000320 d9 60 04 be 84 02 3e be 77 5b 6a 3d 21 4a ba bd
       -0.1292757 -0.18555647 0.057216134 -0.0909617
000330 47 e5 ac 3c 82 23 12 be 4c 23 51 3e 12 41 49 bd
       0.021105422 -0.14271358 0.20423621 -0.04913432
000340 fa 4d b3 3d a2 5f 0c 3e b4 c3 b5 bd 45 52 0f 3e
       0.08755107 0.13708356 -0.08875218 0.13996227
000350 2d 7f 1a bd b3 ca be 3d 06 f7 34 3e 31 e8 71 bd
       -0.03771894 0.093160056 0.17672357 -0.059059326
000360 70 93 8e 3d fa 6c 94 bd df 51 ae 3b 25 47 e2 3d
       0.06961715 -0.07247348 0.0053198184 0.11048726
000370 6f 15 5a 3e 99 f8 3a bd 2f 0f d7 bd ca e6 23 3d
       0.21297239 -0.045647237 -0.10500943 0.04001502
000380 04 23 a2 bd 45 22 a5 3d fa ed 54 be f3 c3 7b be
       -0.07916835 0.08063177 -0.20793906 -0.24586467
000390 80 79 0d be 0b 0f 21 3e 2b ff 71 bd 6b 74 15 3e
       -0.1381588 0.15728395 -0.059081238 0.14595191
0003a0 b7 ec 96 bd 1b 17 eb 3d c7 33 84 3c 0d 52 96 bd
       -0.073693685 0.114790164 0.01613797 -0.07339869
0003b0 19 20 f2 bc f9 a4 e4 3d 04 ac bf 3c a5 c6 61 3c
       -0.029556321 0.111642785 0.023397453 0.013780271
0003c0 91 14 30 be 58 f4 42 3d 5a 52 27 be 79 34 dd bd
       -0.17195345 0.047596306 -0.16340008 -0.10801024
0003d0 78 14 ac bc 63 f7 bc 3d f4 97 41 be 92 ba 65 3e
       -0.021005854 0.09226873 -0.18905622 0.22434452
0003e0 4d a5 a6 bd 12 16 bf 3d 75 75 c9 3d 4b a7 e6 bc
       -0.08136997 0.093303815 0.09836856 -0.028155943
0003f0 05 65 4d 3d 54 ee a1 bd 67 0e dc 3d 34 0f b3 3a
       0.050145168 -0.079067856 0.107449345 0.0013661147

linear_relu_stack.2.bias f4 [64]
000000 cf 50 a9 bd a5 53 12 3a 9a 76 85 bc c1 8a 7f bd
       -0.08267366 0.0005581922 -0.016291905 -0.062388185
000010 2c ec e0 bd ad a9 c8 3d 84 86 58 bc e6 a5 73 bd
       -0.10982546 0.09797988 -0.013215665 -0.059484385
000020 b3 b0 85 bd 62 52 74 bd 40 1c a3 bd e9 a3 54 3c
       -0.06527843 -0.05964888 -0.07964373 0.012978532
000030 05 77 12 be 3c de 35 3e e0 15 fe bc d0 3f 82 3d
       -0.14303215 0.17760557 -0.03101629 0.063598275
000040 e9 f4 09 3e 46 ab 6e 3d 02 c0 21 be c8 48 9b bc
       0.13472332 0.058268808 -0.15795901 -0.018955603
000050 ca 1e cc 3d a4 b9 82 bd b1 11 bf 3d c3 b4 ee 3d
       0.0996681 -0.063830644 0.09329546 0.11655571
000060 86 92 c0 bd 29 e3 0d 3e e2 bf ef 3c 0b da 94 3d
       -0.09402947 0.13856186 0.029266302 0.07268151
000070 30 c2 11 be e6 7e d2 3d 78 2b 0e bd ed 48 89 bd
       -0.14234233 0.1027811 -0.034709424 -0.067033626
000080 3a 9b 08 be 90 42 2c 3d c0 d6 fc 3d 06 e8 72 be
       -0.13340464 0.042055666 0.12345648 -0.23721322
000090 cf 9c d1 3d 94 67 80 3d 4f a2 40 3e c7 3a ae bd
       0.10234987 0.06269756 0.18811916 -0.08507305
0000a0 b0 22 5a bd d4 d2 29 bc dd 4e e9 3d bc 62 3b 3d
       -0.053255737 -0.010365207 0.11391995 0.045748457
0000b0 61 24 2c 3e 95 2c d4 bc 0d 9b ca 3d cb ce a0 3c
       0.16810752 -0.025900165 0.09892855 0.019629857
0000c0 45 7c 2f 3d c7 51 55 3d 2d 27 f3 b8 a4 85 13 3d
       0.042843122 0.052079942 -0.0001159444 0.03601612
0000d0 41 13 0c be 9b b3 db bd 58 44 83 bd f3 ee a6 bd
       -0.1367922 -0.107276164 -0.0640952 -0.08151045
0000e0 d5 c3 d0 3d 12 a6 5a 3d aa 8b 5b be 6e 82 ee 3d
       0.10193602 0.053381033 -0.21439996 0.11645971
0000f0 0a ea 52 be 24 99 91 3d d8 9b 0b be f4 35 ec 3d
       -0.20597091 0.071092874 -0.13633668 0.11533728

linear_relu_stack.4.weight f4 [128, 64]
000000 fc 69 b1 bd b4 95 c1 39 41 b5 a3 bd c1 1e 78 bd
       -0.08662793 0.00036923366 -0.07993556 -0.060576204
000010 87 56 65 3d 85 55 2d 3e 4d a0 ed bb ef 6b 93 3d
       0.055990722 0.16927154 -0.0072517754 0.07198321
000020 8e e1 c6 3d 3f 26 84 3d f1 26 2a be 44 93 b2 3d
       0.0971099 0.06452607 -0.16616417 0.08719495
000030 e2 3a 3e bd ea c3 ce bd ce ad 9d 3c e1 27 15 bd
       -0.046442874 -0.100959614 0.019247916 -0.036414985
000040 1e f4 1e bd 13 21 9e bd 3a 67 cc 3d a8 74 bb bc
       -0.038807027 -0.07721152 0.099806264 -0.022882774
000050 40 c0 a8 bc d9 ba 99 bd 1a f7 ce 3c 22 2e fc bd
       -0.020599484 -0.075063415 0.025264312 -0.12313487
000060 78 56 b8 bd 99 4f 03 3e 39 c0 84 bd df c7 f1 bd
       -0.090008676 0.12823333 -0.06481976 -0.118057005
000070 bc 05 aa 3d 12 e7 42 be d5 2b 2a bd 37 3e d7 bd
       0.08301875 -0.19033459 -0.041545708 -0.105099134
000080 ec f7 3b 3d cd 38 a5 bd ad af 70 3d 73 29 57 3d
       0.045890734 -0.080674745 0.058761287 0.052529763
000090 d3 db 64 3d 0b 98 97 3d 4e c0 2c be 15 a8 cc 3d
       0.055873703 0.07402047 -0.16870233 0.099929966
0000a0 8b 29 de bd 12 a2 9c bd 7b 2d a0 3d 29 59 d1 bc
       -0.108477674 -0.076481 0.07821175 -0.02555521
0000b0 25 14 5f be ea 68 7f 3d 47 13 b9 be 75 28 32 3e
       -0.21785028 0.062355913 -0.3614752 0.17398246
0000c0 d9 f1 e6 3d 31 cb 6f bd 84 89 ed 3c d0 5b 1e 3e
       0.112765975 -0.058543388 0.028996237 0.15464711
0000d0 7c 9b e0 bd ea 3f 94 3c 72 c1 8a 3d 8f b0 37 3e
       -0.10967156 0.018096883 0.06775178 0.17938446
0000e0 c2 94 33 3d 76 fc b6 3d 93 de 09 3d 9d 18 ce bc
       0.04384304 0.08934872 0.03365953 -0.02515822
0000f0 02 f6 d3 bd 16 62 91 3d 27 1c a6 bc d2 4a 29 bd
       -0.10349657 0.070987865 -0.020277096 -0.04133112
000100 d1 c9 4d 3e 7c c8 2a bd 2a 48 52 bc e0 96 07 3d
       0.20096518 -0.041695103 -0.012834588 0.03310287
000110 a0 cc 11 bd f7 45 90 bd 5c eb b0 bd 0b 4e fe 3d
       -0.035595536 -0.07044595 -0.08638641 0.12417229
000120 e2 cd 4d bd cb c3 cc bc d2 f6 65 3d ec 89 22 3d
       -0.050245173 -0.024995705 0.05614359 0.039682314
000130 6b bc a5 bd 6c c1 f4 3b a2 19 30 3c c1 20 19 3e
       -0.080925785 0.0074693467 0.010748299 0.14953901
000140 45 69 7a 3e 0a 7b 43 3d aa 6e 16 bd 6f 81 d9 bc
       0.2445422 0.04772476 -0.03672663 -0.026550977
000150 07 46 c8 bd 48 78 9d 3e 73 da ea 3d db 12 cd 3d
       -0.09778982 0.3075583 0.11467447 0.10013362
000160 fc d5 ef 3d 95 14 92 3d cd 05 29 3d 90 2c e6 3d
       0.11710736 0.07132832 0.041265298 0.11238968
000170 a9 78 b9 bc 48 b0 6f ba ac 2d 5c 3d 1d bd fa 3b
       -0.022640543 -0.00091433944 0.053754494 0.0076519386
000180 e4 90 19 3e 2c 41 4f bd 25 ae eb 3d 36 9b 63 3d
       0.14996678 -0.050599262 0.11507825 0.055567943
000190 6e d1 35 be 25 ea 04 3d 94 4d 42 3d 29 94 35 3e
       -0.17755672 0.03244986 0.047437266 0.177323
0001a0 09 b1 3e bd 90 8f 8b 3d 8e 03 1e bd 02 ee c4 bc
       -0.046555553 0.06814492 -0.03857761 -0.024039272
0001b0 6c 0a a3 3d 04 74 e1 bd d9 50 00 3e c1 a7 10 3e
       0.07960972 -0.11008456 0.12530841 0.14126493
0001c0 1b 2a 98 bc 9d 29 17 be 5b cd 93 3d d2 09 ad 3d
       -0.018574765 -0.14761968 0.07216903 0.08449139
0001d0 19 6d e3 3d 30 6d 43 bc ec c6 db 3c a8 ce 03 3e
       0.11104793 -0.011927888 0.026828252 0.12871802
0001e0 27 d9 b0 3c 51 57 c1 3d d0 0c 00 3e 6d 0c c0 bd
       0.021587921 0.094404824 0.12504888 -0.0937737
0001f0 a3 86 d9 3d 82 cc cf bd 45 ec 81 3d 51 bc aa bc
       0.10621383 -0.10146429 0.06343893 -0.02084175
000200 14 f3 98 bd 3e 4a f7 3c 33 4d e8 bd 3e a0 c4 bd
       -0.074682385 0.030186769 -0.113428496 -0.09600876
000210 ac ea b5 bc 61 9a fc bc 19 46 73 3d 93 d1 ae bd
       -0.022206627 -0.030835332 0.059393022 -0.08536067
000220 97 79 8b bd 17 cd 80 bd 62 5a 1f be c5 55 a9 bd
       -0.06810301 -0.06289118 -0.15561822 -0.08268312
000230 28 23 7d 3d ab 6b 7b bd a7 42 72 bd f1 03 52 3d
       0.061801106 -0.061381977 -0.059145596 0.05127329
000240 46 54 4f 3d 3e 58 01 3e 86 d5 84 3d 82 68 38 be
       0.05061748 0.12631318 0.06486039 -0.18008617
000250 df 67 ba bd 7f 7e 13 3d 5e 17 e6 3d b4 cf 19 3e
       -0.09101843 0.036009308 0.11234926 0.15020639
000260 ef d3 2b 3e d8 88 7c 3b be e2 90 3d 91 9c 61 bd
       0.16780065 0.0038533714 0.07074498 -0.055080954
000270 43 fa 7e 3c ec ca 5a bd f2 eb 40 bc d2 d9 7d 3c
       0.015562597 -0.053416178 -0.011775004 0.015493827
000280 b0 3e 50 3e 44 85 53 bc 1e 54 61 3e 66 b8 77 bd
       0.20336413 -0.012910191 0.22004744 -0.06047859
000290 ad 72 d1 bc c5 dc 35 bc 4f 24 1f 3d 33 79 08 3e
       -0.025567377 -0.011099999 0.038852986 0.13327484
0002a0 dd 47 86 3b fe ce 0a b9 fd 94 0e 3d d1 1d 52 be
       0.0040979222 -0.00013237816 0.034810055 -0.20519187
0002b0 bc 04 a3 bd 72 b9 4d bc 77 e1 51 3e 47 37 d8 bb
       -0.079598874 -0.012556421 0.20496164 -0.0065983864
0002c0 77 30 ab bc cd ab 24 3d db a9 fb 3d e8 4d 01 3e
       -0.020897133 0.040202904 0.12288257 0.12627375
0002d0 62 69 77 3d 32 a1 2a bd 1f 14 81 bc e5 f7 17 bd
       0.060403235 -0.041657634 -0.015756665 -0.037101645
0002e0 2c fd 63 bb c0 c5 29 bc 8b 69 40 bc 75 69 62 bd
       -0.0034788353 -0.010362089 -0.011743913 -0.055276353
0002f0 df b5 8f 3c dd fa fe 3c ce 66 1c 3d 8f 6c 4f bd
       0.017542778 0.03112548 0.03818398 -0.05064064
000300 e7 a9 b3 bd a0 de d4 3d e9 7d 2b bc e9 38 97 bd
       -0.08772641 0.10394025 -0.010467031 -0.073839016
000310 86 9f 17 bc a1 57 1a be 80 7a 0c 3e 9c 6c b4 3d
       -0.009254342 -0.1507249 0.13718605 0.08809778
000320 49 9e d0 bd b5 06 4b 3d 74 7b 86 bd d5 64 90 3c
       -0.101864405 0.049566943 -0.065665156 0.017626205
000330 27 d4 ee 3c 1d 01 a0 3d d8 95 bc bd 7e 59 81 bd
       0.029153896 0.07812712 -0.09208268 -0.063158974
000340 73 ba 12 3e 37 04 01 3e 94 ab 12 be 5d a3 40 bd
       0.14328937 0.12599264 -0.14323264 -0.047030795
000350 96 6a 63 bd 3b 68 10 bd 0f ad 24 bc bf 0f a1 bd
       -0.05552157 -0.035255652 -0.010051026 -0.078643315
000360 dc c8 86 bd 7d 54 64 3d 8e ce 31 3e 9d 49 1f 3e
       -0.0658128 0.055744637 0.1736395 0.15555425
000370 9c e2 94 bd 8e f2 16 be 3f bd 04 3e 59 0b cb bd
       -0.07269785 -0.14740965 0.12962817 -0.09914274
000380 e8 33 0a be 25 30 12 be 09 5d 7d 3d 1c 2e e5 3d
       -0.13496363 -0.14276178 0.061856303 0.11190435
000390 81 03 34 3e 0f f2 e2 3d fd 5c 09 bd 98 48 dd bd
       0.17579462 0.11081325 -0.033535946 -0.10804862
0003a0 52 1e ce 3d c9 1c 3d bd 88 4d 94 3b d9 50 af 3d
       0.10064377 -0.04617003 0.004525844 0.08560342
0003b0 c0 45 36 be 23 30 4f 3d 22 8b 8e bd 72 1c db bd
       -0.17800045 0.050583016 -0.06960131 -0.10698785
0003c0 8c cc 4e bc 3a c0 8e bd 20 bb bd bd 4e 3f 80 3c
       -0.01262201 -0.06970258 -0.09264207 0.015655186
0003d0 82 bf 10 3e 73 15 84 3d eb 8f 82 bd c8 f1 ce 3d
       0.14135554 0.064494036 -0.063751064 0.1010471
0003e0 42 06 e9 bd 0d 45 a5 3d e6 d7 2a bd b1 f7 38 3d
       -0.11378147 0.08069811 -0.041709803 0.045158092
0003f0 0d 8b 83 3d 28 ba 59 bd 51 71 11 3e 1f d6 08 bc
       0.06423006 -0.053156048 0.14203383 -0.008351832

linear_relu_stack.4.bias f4 [128]
000000 dc e2 83 3c 72 ce dc bc c6 8d f9 bc 64 f9 c6 3d
       0.016099386 -0.02695391 -0.03046311 0.09715536
000010 2e 5f ca 3d dd cc da 3c 77 45 64 bd 2a ef 2c bd
       0.09881435 0.026709015 -0.05573031 -0.042220272
000020 c5 2c 17 be 30 04 d4 bd 83 a9 a7 bc 4c 28 6c ba
       -0.14763172 -0.10352361 -0.020466572 -0.000900869
000030 ed 4d 9c bd b0 17 c9 bd 1a 35 37 3d 28 b2 58 3d
       -0.07632051 -0.09818971 0.044728376 0.052904278
000040 cc be 04 be e4 01 f5 3d 4e 3d 50 3d f7 b9 d5 3c
       -0.12963408 0.11963251 0.050839715 0.026089652
000050 57 89 be 3c a5 81 51 bc 42 20 03 be 44 30 ac bd
       0.023258848 -0.012787257 -0.12805274 -0.084076434
000060 ba e3 88 bd e5 74 d5 bd a9 ec 03 be 34 dd fd 3c
       -0.066840604 -0.104226865 -0.12883247 0.030989267
000070 23 3b 00 bd b8 21 c4 bd c5 58 52 bd f0 ab 91 bd
       -0.031306397 -0.09576744 -0.05135419 -0.071128726
000080 c6 73 27 be 2a bf 95 bd b8 58 be bd 31 3f 8a bd
       -0.16352758 -0.07311852 -0.092942655 -0.06750334
000090 dc ad 0c 3e 92 a5 28 bd ab c5 9d bd 77 79 82 bc
       0.13738197 -0.041173525 -0.07703718 -0.01592706
0000a0 3d 36 9e 3c ab a0 4f bd ed 0f 8b bd 80 d8 8d 3d
       0.019312972 -0.050690334 -0.06790147 0.0692606
0000b0 15 56 9e bd 60 37 29 3d 82 a6 9a 3d 6b 20 a7 bd
       -0.077312626 0.041312575 0.0755129 -0.0816048
0000c0 23 10 d5 3c 78 65 87 bd f0 c4 00 be 70 f6 52 3d
       0.026008671 -0.066111505 -0.12575126 0.051504552
0000d0 6b 40 d7 3b 20 12 9a bd 04 89 98 3d cb cc 1f be
       0.0065689585 -0.07522988 0.07448009 -0.15605466
0000e0 2b 2b 94 bc b5 09 a8 bd 33 f8 12 be 5d 2a aa 3d
       -0.01808699 -0.082049765 -0.14352493 0.083088614
0000f0 72 88 82 3b fd 5b 17 3d c7 15 74 bd 26 7d 4a 3d
       0.0039835507 0.03695296 -0.05959108 0.049435757
000100 e8 e9 e5 bc fa c7 fb bd dc b9 e8 bd 1f 70 a0 bc
       -0.028065637 -0.12294002 -0.11363575 -0.019584714
000110 6a 64 12 bc ec 27 7b bd 84 11 14 be 38 51 e7 bd
       -0.008935073 -0.06131737 -0.14459807 -0.11294788
000120 81 56 87 bc 75 27 f8 bd a7 f6 7b 3d 04 8f 02 be
       -0.01652074 -0.12116901 0.061514523 -0.12749869
000130 84 a2 a5 3d 0a f6 71 3c ed 45 9e bd 89 9f 1b 3d
       0.08087638 0.014768133 -0.07728181 0.03799394
000140 de 71 04 3e d8 f2 1a be 07 53 d4 bd 77 60 be bd
       0.12934062 -0.151317 -0.10367399 -0.09295743
000150 a3 5b a4 bd 54 d5 ee 3c da c8 b0 3d 16 db cd bd
       -0.08025291 0.029154457 0.086320594 -0.10051553
000160 ac f7 2f be 75 0c db bd ab 9f a6 3d b4 56 b2 bd
       -0.17184323 -0.10695735 0.08135923 -0.087079436
000170 fc 64 11 3e fa e9 4a 3c 6f af 5f bb e0 68 62 3d
       0.14198679 0.012384886 -0.0034131666 0.055275798
000180 91 a7 4b bd d4 de 49 3d a1 a2 03 be 1d d2 c0 bd
       -0.04972035 0.04928477 -0.12855007 -0.09415076
000190 20 53 87 3c d8 63 fb bd 83 69 86 bd 65 7d 89 3d
       0.01651913 -0.12274903 -0.065630935 0.0671337
0001a0 9a 01 07 be a1 55 dc bd 1d 11 8b 3d db d8 24 3d
       -0.13184205 -0.1075852 0.067903735 0.040245872
0001b0 b7 67 55 bc 1c 7e b5 3d e1 6d 8d 3d f4 14 c4 bd
       -0.013025216 0.08861944 0.06905723 -0.09574309
0001c0 21 11 1b be 03 1a 84 3d c4 7a 6a 3b 35 ac 8c bd
       -0.15143253 0.06450274 0.003577874 -0.068687834
0001d0 64 bc 0a bd 23 a1 29 bd 0e c5 aa bd 88 20 90 bd
       -0.03387107 -0.041413438 -0.083383664 -0.07037455
0001e0 02 e4 fd bd ab 52 e8 b7 72 28 42 be 46 d5 01 bd
       -0.12397005 -2.769505e-05 -0.18960741 -0.031697534
0001f0 ca a2 45 3d b7 16 2b bd fc d6 d3 bd 3a 4a a1 bd
       0.04825095 -0.04176971 -0.103437394 -0.07875486

linear_relu_stack.6.weight f4 [64, 128]
000000 d1 b1 96 bd 92 81 22 3d b2 a2 c6 3d e2 05 8a bd
       -0.073581345 0.03967435 0.096990004 -0.06739403
000010 4d 99 0e bd 89 5c 39 ba 33 75 54 bd 50 64 17 3d
       -0.034814168 -0.0007070979 -0.051869582 0.0369609
000020 36 8d df 3c 75 4c b9 bc 4f c8 eb bd 3b 0b 8f 3d
       0.027289014 -0.022619465 -0.11512815 0.06984564
000030 b0 4b 82 3d 0d 8c a1 3d 2e 1a d1 3d cc 0d 12 3d
       0.063620925 0.07888041 0.102100715 0.03565769
000040 bb b4 43 3d 8c 36 1e bd 3c a2 a1 3d 48 1f 51 bd
       0.04777978 -0.03862624 0.07892272 -0.051055223
000050 86 fd 19 3e f3 9d 0e 3a 3b 14 6a bc c0 56 73 3d
       0.15038118 0.00054404064 -0.01428705 0.059408903
000060 b0 d7 7d 3c b0 b3 93 bd f3 d3 10 3c 3d 63 6e bc
       0.015493318 -0.07212007 0.008839595 -0.014550027
000070 a8 54 f0 bb 41 01 1e 3c e9 6c 11 3d 33 7a 73 3d
       -0.0073343106 0.009643854 0.035504255 0.05944271
000080 17 a3 bc 3d d6 e8 0c bd 46 4d 30 3e 1b 28 30 3d
       0.092107944 -0.034401737 0.17216977 0.043006998
000090 04 8d e4 bc 5a 31 bb bc ae 84 68 bd c9 e7 2b bd
       -0.027899273 -0.022850681 -0.05676716 -0.041969094
0000a0 e6 2e 60 bc c0 88 b8 3d d1 b4 4f bd 98 bb 4d 3d
       -0.013683056 0.09010458 -0.05070955 0.05022773
0000b0 3f 00 8c 3d 2d 30 fc 3c e8 7e 2b 3c b9 21 59 3c
       0.068359844 0.03078469 0.0104672685 0.013252669
0000c0 5c e6 fe bd 8d 2e 6e bd d0 a6 aa bd 67 e5 4c b9
       -0.12446281 -0.058149863 -0.08332598 -0.00019540415
0000d0 42 ba a0 3c 89 8c 06 3d 25 28 f6 3d a8 82 34 bd
       0.019620065 0.03284887 0.12019376 -0.044069916
0000e0 f6 78 b1 bd db 8b 44 3d 9f 01 28 3c 9b bf ad 3d
       -0.086656496 0.04798494 0.010254293 0.084838115
0000f0 b3 2a aa 3d af 7a 0f 3e dd dd db 3d 83 cb 6b bd
       0.083089255 0.14011644 0.107356764 -0.05756713
000100 a9 4f c6 3d d8 56 06 be 53 85 f4 3d fd 63 df 3b
       0.09683163 -0.13119066 0.11939492 0.0068173395
000110 e5 1c b2 bc ac 9c dc 3d 46 64 24 3d 37 0a fc 3c
       -0.021742294 0.1077207 0.04013469 0.03076659
000120 2d 4f d9 bd 2e 0a c0 3c cd c1 58 3d 93 37 4d bd
       -0.10610805 0.023442354 0.052919198 -0.050101828
000130 dc 02 9e bb 7f 66 f5 3d 9e 13 d4 bc d7 57 17 bd
       -0.004822118 0.1198244 -0.02588826 -0.036949005
000140 8d 17 35 3d 05 e7 2b bc 59 ba 6b bd 07 4e 21 3c
       0.044211913 -0.010492091 -0.05755076 0.009845263
000150 72 7a 43 bd ba 77 50 3e fb cb 07 bd 39 65 6d 3b
       -0.047724195 0.20358172 -0.033153515 0.0036223663
000160 bf 1a d7 3d 7c 69 02 3e 44 2e 9f 3d c8 f9 28 bb
       0.10503148 0.12735552 0.07772496 -0.0025783647
000170 8b b0 00 3e d1 1a d3 3d 65 d2 f9 3c 88 7d a8 3d
       0.12567346 0.10307849 0.030495832 0.08227068
000180 68 2a 6d 3d cc 6f a1 3b 65 79 20 3e 61 78 12 3d
       0.05790177 0.0049266573 0.15671308 0.035759334
000190 3f a5 c7 3d 43 6f a3 3d 0c 30 9b bd 80 60 c6 3d
       0.09748315 0.07980206 -0.075775236 0.09686375
0001a0 95 fc 15 3c bb 33 9d bc cb 24 aa bc 4d c8 11 bd
       0.0091544585 -0.019189706 -0.020769497 -0.035591412
0001b0 70 d5 8e bd 74 04 a8 bd e2 b0 9e bd fb 29 8c 3c
       -0.06974304 -0.08203974 -0.077485815 0.017109862
0001c0 7d c6 67 3d 82 63 a6 bd dc ed 04 3d 54 fe 13 3e
       0.056585778 -0.08124448 0.032453403 0.14452487
0001d0 b5 dd 86 bd 09 ed d6 3b 63 a5 bf 3b 7c 11 f9 3d
       -0.06585256 0.0065590185 0.005848573 0.12161538
0001e0 af 4b 1f 39 ed 80 95 3d c9 11 b1 3c 05 cd a5 3d
       0.00015191616 0.07299981 0.021614926 0.08095745
0001f0 7e 91 81 3d 52 2a 20 3e e8 d9 77 3c 79 d4 9b 3d
       0.063265786 0.15641144 0.0151276365 0.07608885
000200 8d ae e8 3d b5 f7 8a bc 5b 93 ca 3c 63 77 e4 bd
       0.11361418 -0.016963819 0.024728468 -0.11155584
000210 a9 be 23 bc 7e 22 1c be 4d 96 d2 bc d2 f6 17 be
       -0.009994187 -0.15247533 -0.025706435 -0.14840248
000220 b8 94 fc bd 17 86 b4 39 78 b5 c5 bd 1f 1a b7 3d
       -0.12333053 0.0003443218 -0.09653753 0.08940529
000230 91 d2 d1 bd 21 a4 46 bc b5 69 6f 3d d8 6a 04 be
       -0.102452405 -0.012124092 0.05845042 -0.12931383
000240 38 4c ee bd 06 09 e1 bd de 2b 35 3d 6f 86 f9 bb
       -0.11635631 -0.10988049 0.044231288 -0.0076149027
000250 7c a0 73 bd 3f dc 84 3d 2b a3 1b bd 1f ef 89 bd
       -0.05947922 0.06487321 -0.037997406 -0.06735062
000260 fe 52 c7 3c c7 45 00 3e 35 98 ae 3d c4 50 9a bb
       0.024331566 0.12526618 0.08525125 -0.004709335
000270 f8 2f 93 bd d1 ae 10 3d 7c 11 89 bc 96 e4 f4 bc
       -0.07186884 0.035322968 -0.01673197 -0.029894155
000280 ef 3d 79 3d e3 e0 6f bd 49 94 53 3d 0f d3 fc bc
       0.06085008 -0.058564078 0.051655088 -0.03086236
000290 9d 9f 49 be ab 59 c5 3d d7 a5 4a 3c 4b e6 1b be
       -0.19689794 0.096362434 0.012368641 -0.15224569
0002a0 23 5f 67 bc 38 79 c6 bb e5 b1 cb bd 7c 84 2f bd
       -0.014121803 -0.006056931 -0.0994604 -0.042850956
0002b0 e1 d7 d5 bc 3d 6a 62 bd a3 79 43 3d 0b 65 1a bd
       -0.026103916 -0.055277098 0.047723424 -0.03769402
0002c0 51 ac e1 3d 33 4e ec ba a4 39 c1 bc d3 90 12 3e
       0.11019195 -0.0018028676 -0.023587056 0.14313059
0002d0 7f 17 e7 3d 93 7b 2c be 46 2b 1a 3e 53 03 b5 bc
       0.112837784 -0.16844015 0.1505557 -0.022096312
0002e0 8a 58 9c 3c 5d d1 3d 3d 12 f7 6a 3d 9b 6b 2d 3d
       0.019085187 0.046342243 0.05736453 0.04233895
0002f0 64 f1 a7 ba f9 c8 8a bd 65 9d b6 bd ca 42 94 3d
       -0.0012813029 -0.06776614 -0.089167394 0.072393015
000300 2b df d1 3d 76 89 2a bd df 41 04 3e 77 51 1a bd
       0.10247644 -0.041635 0.12915753 -0.037675347
000310 45 12 98 bd d3 e6 cc bd 9e ae 29 bd cf be 4f be
       -0.0742536 -0.10004964 -0.041426294 -0.20287631
000320 da 6a 06 3e 83 16 83 3b dc d7 92 bd a0 42 7d 3c
       0.13126698 0.0040004863 -0.07170078 0.015457779
000330 22 a6 bf bd 63 83 ad 3b 37 13 b8 3d 80 aa 81 bb
       -0.09357859 0.0052952035 0.0898804 -0.0039570928
000340 53 d5 90 3d 60 40 a5 bd 39 9c 90 bd 24 bd 9a 3d
       0.07071938 -0.08068919 -0.07061047 0.07555607
000350 a0 3f f5 3c 01 0b 95 bb a4 43 c1 3c 94 56 47 3d
       0.029937565 -0.004548431 0.023591824 0.04866655
000360 5b 5e 07 be 28 67 87 bd fe 70 08 3e 52 69 fd bc
       -0.13219588 -0.06611472 0.13324353 -0.03093401
000370 8d 68 bb 3c 33 3e 8a 3c e9 47 67 3d 11 b1 ca 3d
       0.022877002 0.016875362 0.056465063 0.09897054
000380 b8 b5 8d bd 6d b0 33 bd b5 39 2c bc f8 6e 09 3d
       -0.06919426 -0.043869425 -0.010511805 0.033553094
000390 27 62 c2 3b d3 68 be 3b 27 4b be bd c8 da 92 bc
       0.005932111 0.005810836 -0.09291678 -0.017926589
0003a0 54 4b 92 bd 79 a9 46 bd b6 51 87 bc 8c 83 13 bb
       -0.07143274 -0.048501465 -0.016518455 -0.0022508828
0003b0 36 fb 20 bd ac 8f 83 bd 5c bf 91 bd ac 30 61 bd
       -0.039302073 -0.064238876 -0.07116577 -0.054978058
0003c0 00 59 70 bd 94 d9 a1 3c 9b 53 a3 bb 4e f8 92 bd
       -0.058678627 0.01975707 -0.004984332 -0.071762666
0003d0 19 2e 86 bd ca 48 e0 3c 88 e5 d7 3c 26 66 e3 bb
       -0.06551761 0.027378459 0.026354566 -0.0069396673
0003e0 eb 46 7d 3b 92 e1 34 3d 1e 1e 13 3d 84 72 b5 bd
       0.0038647007 0.044160433 0.035917394 -0.08859733
0003f0 4a 36 66 3d be 1a 9b bd fc 8e 12 3e 3f 63 a8 3d
       0.056204118 -0.0757346 0.14312357 0.08222055

linear_relu_stack.6.bias f4 [64]
000000 af aa 37 3d ba bf a9 3d d2 41 54 bc 31 1f b3 bd
       0.04484051 0.08288522 -0.012955146 -0.08746184
000010 3c cf 80 3b ef 51 d7 bd ee 81 c9 bd 1a 0a ea bd
       0.0039309543 -0.105136745 -0.09839235 -0.11427708
000020 25 6c e5 bd 84 32 ae 3b 0a 9a da bd be ec 81 bd
       -0.112022676 0.0053160805 -0.10673912 -0.06343983
000030 e6 53 09 3a f4 aa 0c be c2 02 80 3d 18 e4 38 bd
       0.0005238637 -0.13737088 0.06250526 -0.045139402
000040 ba b4 9e 3d 72 f1 07 bd f1 d4 6a 3d a6 a1 a1 3d
       0.077493146 -0.033189245 0.057331983 0.0789216
000050 47 1b f4 bd ec 0f 6a 3d 2c 2f 8a bd 96 2a 8f 3c
       -0.11919265 0.05714409 -0.067472786 0.017476361
000060 de c9 31 bc 77 a5 0f be c5 a1 93 3c ca ce 8b bd
       -0.010851352 -0.14027964 0.018021474 -0.06826551
000070 ac 55 b2 bc a8 53 87 3d d2 ea 95 bc 59 4f 88 bc
       -0.021769367 0.06607753 -0.018300448 -0.016639398
000080 14 49 19 3d e6 c9 cd 3d e9 a1 42 bd 8d 11 96 bd
       0.03742321 0.10048275 -0.04751769 -0.07327566
000090 ad 6b cc 3d 61 4e d0 3c dc 81 3b 3d 31 d7 5a bd
       0.09981475 0.025427999 0.04577814 -0.05342788
0000a0 1b a5 a1 bc 27 01 51 3c 0d 1c 13 3b 05 e5 18 3b
       -0.019732049 0.012756622 0.002244714 0.0023329866
0000b0 06 0b a9 bc 21 7c 2a 3d 38 b6 3f bd 61 8d 64 3c
       -0.02063514 0.041622285 -0.046804637 0.013949723
0000c0 79 c0 e3 bd 9a 3a 7f bc 57 a1 c0 3c 4d 37 79 3c
       -0.111206956 -0.015577937 0.023514433 0.015210939
0000d0 aa 72 c8 bc 99 b9 17 be 57 c3 9c bd b7 d5 e4 bc
       -0.024468739 -0.14816894 -0.076544456 -0.027933938
0000e0 ca e9 ac bc 09 1b e0 bc a2 03 7c 3d 9b 2e 77 3c
       -0.021107573 -0.027356641 0.061526902 0.015086795
0000f0 fa 84 6d bd f7 b6 2b bd 0c 4e 1f bd 69 33 ea bc
       -0.057988144 -0.041922536 -0.03889279 -0.028588967

linear_relu_stack.8.weight f4 [32, 64]
000000 15 ad c9 bd 66 41 e6 bd 08 5a 86 bd 89 51 16 3e
       -0.09847466 -0.112429425 -0.06560141 0.1467954
000010 4a 64 8e 3d 39 69 94 bd 19 45 73 3c b3 71 8c bd
       0.06952722 -0.07246632 0.014848017 -0.06857624
000020 17 c0 87 bd 7f 0f a2 3d cd 6b 36 3d 33 d3 8c bd
       -0.06628435 0.07913112 0.0445364 -0.068762206
000030 76 be 03 bd 2d 6f b9 3d 8d a3 17 be f4 d0 1a bd
       -0.03216406 0.09054408 -0.14808483 -0.03779693
000040 87 a0 5a 3d c8 ce 3c 3d b0 ef 07 bc 9f 5e 21 3d
       0.053375747 0.04609564 -0.008296892 0.03939688
000050 0b 7b dd 3d 6d a7 63 bc 6a a3 23 be 63 6e 7b bd
       0.10814484 -0.013894898 -0.15980306 -0.06138457
000060 4f fd 10 3d 19 f3 6c bc ed b1 b3 bc da c7 f2 3d
       0.035397824 -0.014462256 -0.021935428 0.11854525
000070 b9 5c 3c be 91 e4 9c bd 85 f9 ae 3d c3 6c 17 3c
       -0.18394746 -0.07660783 0.08543686 0.009242239
000080 33 47 c9 3d 88 f6 10 bd 64 c8 c6 3d 34 28 78 3d
       0.09828033 -0.03539136 0.0970619 0.060585216
000090 47 e7 45 bd 43 82 5e 3d a1 e1 27 3d 09 4b c7 bd
       -0.048316266 0.054323446 0.04098666 -0.09731109
0000a0 72 a9 dd 3c 09 04 12 3b 73 c1 45 be 7c e6 26 be
       0.027058337 0.0022280237 -0.19312076 -0.1629886
0000b0 3b 62 35 3b 4f b7 d3 bd 13 dd 87 3c 74 f9 14 be
       0.0027676958 -0.10337698 0.016584909 -0.14548284
0000c0 28 38 2f 3c b7 92 e5 3c 4f 33 66 bd df 68 67 bc
       0.010694541 0.02802406 -0.056201275 -0.014124124
0000d0 5f a0 db 3d 9c 1c 60 bd 4b b4 c1 bc 33 14 a5 bc
       0.10723948 -0.054714784 -0.02364554 -0.020151233
0000e0 aa d5 1d 3c 64 d7 47 bc 69 c3 2a bc 69 2c f9 3b
       0.009633461 -0.012197349 -0.010422566 0.007604171
0000f0 13 43 2e bd eb 9d cb bd ac c4 9c 3d b0 d6 4d 3d
       -0.042544436 -0.0994223 0.076547 0.05025357
000100 d7 35 12 3e 4d ea 2f bd bd c5 0f 3d cf de 12 3d
       0.14278351 -0.042948056 0.035100687 0.035857018
000110 a3 6b 89 3d ee c0 45 be bb 30 11 3e fc f7 05 bd
       0.06709983 -0.19311878 0.14178745 -0.0327072
000120 df e8 ef bd a5 47 69 bd 6d e4 c0 bc f4 b6 4f bd
       -0.117143385 -0.05695309 -0.023546422 -0.050711587
000130 98 19 fa bd 9d 92 40 3d f8 07 b4 3d 29 45 8d bd
       -0.12211913 0.04701482 0.087905824 -0.06897957
000140 c1 e7 1e be 20 48 6b 3d 21 83 f8 bd 20 a7 23 3d
       -0.15518095 0.05744183 -0.12134386 0.039954305
000150 29 c9 68 3d d3 dd b4 3c 60 d5 25 bc 87 78 ae 3c
       0.056832466 0.02207843 -0.010121673 0.021297706
000160 a0 08 2c 3d 4c fd e2 3d 2e c2 8e bc fb 8c 68 3d
       0.042000413 0.11083469 -0.017426576 0.056775074
000170 75 7b 8f ba ff 2b 45 3d 34 90 2d 3d 65 b6 c2 bd
       -0.0010946827 0.04813766 0.04237385 -0.09507445
000180 0a 16 d5 3d d9 ad 20 3e 5b 17 51 be 2f 25 2e 3d
       0.10404594 0.15691318 -0.20419066 0.04251593
000190 74 1b f1 bd e6 8b 3e 3d 09 84 bf 3c dd 1b 85 bd
       -0.117728144 0.046520136 0.023378389 -0.06499455
0001a0 ab 8b fe bd 3f 75 02 3e 32 8e 3e bd 77 17 02 bd
       -0.12428983 0.12740038 -0.046522327 -0.03176066
0001b0 53 8a ba 3d 8f ab 50 3c 0c 79 f9 bc 15 87 14 be
       0.091084145 0.012736215 -0.030453227 -0.14504655
0001c0 ad e8 e9 bd 4c ad 52 be 86 ea c5 bd 46 76 fb 3c
       -0.114213325 -0.2057392 -0.096638724 0.030696046
0001d0 49 77 b1 3d 69 b6 d5 bd bd 2f 43 bd a1 32 97 3d
       0.0866533 -0.104351826 -0.04765295 0.073827036
0001e0 23 35 06 3d 49 97 f6 bd bc a8 99 3d 9a d3 2d 3d
       0.03276552 -0.12040574 0.07502887 0.042438127
0001f0 f6 c4 12 be ff fe 0d 3e 38 b7 89 3a 15 1a 81 bd
       -0.14332947 0.13866805 0.0010506874 -0.06303803
000200 ff f7 83 bc f5 36 00 3d f9 64 86 3d dd 58 1a 3e
       -0.016109465 0.03130241 0.06562228 0.15072961
000210 4a 2d f7 bc ec 1e e6 bd 39 d7 0c be e9 25 d3 3d
       -0.030172963 -0.11236367 -0.13753976 0.10309965
000220 12 c1 2f 3d 3d c4 17 3d f8 dd 29 3e 73 c7 c2 bd
       0.042908736 0.03705238 0.1658858 -0.09510698
000230 1d dc 70 3d 15 93 c9 3b 8e 19 e0 3d 0a 02 b7 3d
       0.058803666 0.0061515667 0.10942374 0.08935936
000240 11 c4 0d be a9 36 81 3d 9e 1c 91 bd 50 79 85 bd
       -0.13844325 0.06309254 -0.070855364 -0.06517279
000250 25 67 47 bd e0 f6 56 3d ce a1 6b bb 03 97 0a bd
       -0.04868235 0.052481532 -0.0035954597 -0.033835422
000260 21 7a 7a 39 2e 0c ed 3d d5 f4 b3 3d cf 33 99 3c
       0.00023887354 0.11574589 0.087869324 0.018701462
000270 95 ea a1 bd 60 4d 43 3d 4e d4 03 3e c9 60 85 3d
       -0.07906071 0.047681212 0.12873957 0.06512601
000280 cd 0e 1d 3d 67 ac 40 bd ec bd 17 3d ab 3b 2c 3e
       0.038344193 -0.047039416 0.037046358 0.16819637
000290 9a e0 07 bd b0 9f 70 39 16 42 ad 3c 29 4e 82 bd
       -0.03317318 0.00022947672 0.021149676 -0.06362564
0002a0 f6 1b 40 3e e7 5f b6 bd 87 f5 ba bd 1e 3d 19 3d
       0.18760666 -0.08905011 -0.09128862 0.0374118
0002b0 54 2e 95 3c 0c db 83 bd b1 c2 2c 3d 15 ad 73 bd
       0.018210568 -0.06438264 0.04217786 -0.059491236
0002c0 9b bf 11 bb 6e 62 ba 3c bf 67 a1 bd c6 53 ba bd
       -0.002223945 0.022752013 -0.07881116 -0.0909801
0002d0 0a be d3 bd c2 c6 90 3d 93 4c 2e 3d 59 aa 89 bd
       -0.103389814 0.0706916 0.042553496 -0.06721944
0002e0 6e 61 82 3d 02 43 c7 3c 20 8b 38 bd b5 e9 20 be
       0.063662395 0.024323944 -0.045054555 -0.15714152
0002f0 23 42 88 bd 9b 43 e8 3b 6d e8 19 3d c4 ce f5 3c
       -0.066532396 0.0070881373 0.037575174 0.03000582
000300 07 ee 03 3e e0 38 34 bd c5 fd 00 bc 05 bc 11 3d
       0.12883769 -0.043999553 -0.007873003 0.0355797
000310 56 15 cb bd 4c a7 b8 3c 2c ec 01 3c a5 c9 2c 3d
       -0.09916179 0.02254071 0.007929843 0.04218449
000320 f9 ad 92 3d 98 3a ee bc 49 2a c9 bc 53 0b 52 3d
       0.07162089 -0.029080674 -0.024556296 0.05128033
000330 06 21 6c bd 9f 5e eb bc 37 99 f2 3d 60 3f cd bd
       -0.05764868 -0.028731642 0.1184563 -0.100218534
000340 19 01 f6 3c 81 e7 3c 3e 44 b5 39 3e d1 8e d1 3d
       0.03002982 0.18447687 0.18135554 0.10232318
000350 50 38 04 bd 55 55 3e 3c 4a 3a 1a 3e fe b6 d0 3d
       -0.032280266 0.011617024 0.15061298 0.10191153
000360 04 1f ec 3c 4e d0 0e 3e be 98 f5 3c 76 84 dc bc
       0.028823383 0.1394665 0.02998006 -0.026918631
000370 40 f6 8d bd 75 03 e3 bd de 88 e1 3c 48 98 47 3d
       -0.06931734 -0.11084644 0.027531084 0.04872921
000380 ce 31 03 be 68 ce 7b 3d b6 87 6c 3d 41 88 30 3d
       -0.12811968 0.06147614 0.05774661 0.04309869
000390 9f 7a 30 be 1c a8 7d bd ca 6e 5a bb 83 7f 66 3e
       -0.17234276 -0.0619279 -0.0033330196 0.2250958
0003a0 18 8f 26 be 73 1a 72 3b d9 fb 98 3d 61 a7 10 be
       -0.16265523 0.0036942034 0.07469911 -0.1412635
0003b0 14 42 64 3d e9 9f a3 bd 5c a9 88 ba 51 98 cc bc
       0.05572708 -0.07989485 -0.001042645 -0.024974974
0003c0 c3 78 3a be 2a 5e 97 bc 51 87 33 bc 23 57 55 be
       -0.1821013 -0.018477518 -0.010957555 -0.20834021
0003d0 64 b8 12 3d 0c d3 fb bc 14 f5 aa bd 3d d4 f5 bc
       0.03582038 -0.030740283 -0.08347526 -0.03000843
0003e0 fe 65 fa bc 76 7c ef bd 96 f8 0d 3e 3c 1f b4 3d
       -0.030566212 -0.11693661 0.1386436 0.0879502
0003f0 d7 ec bf bb 28 f1 e7 3d 46 c4 b0 3d bd 0b 2a bd
       -0.005857091 0.11325294 0.08631186 -0.0415151

linear_relu_stack.8.bias f4 [32]
000000 21 4c 09 be d3 33 7a 3d c3 a4 a3 bd 54 65 7b 3d
       -0.13407947 0.06108458 -0.0799041 0.06137593
000010 74 e8 a5 bd 45 fb d4 3c f8 fe a1 3b a8 b6 01 3d
       -0.081009775 0.02599872 0.0049437247 0.031668335
000020 48 e7 55 3c 29 ce 9e bd 47 e1 72 bb ab 61 fb bc
       0.01305563 -0.07754166 -0.0037060545 -0.03068622
000030 4b 9c 82 bd 80 d1 f2 3b 16 06 90 3d f0 6c 35 bd
       -0.06377467 0.0074102283 0.07032411 -0.044293344
000040 b4 04 a3 3d ae 58 da 3d 04 b4 81 bd 80 3c dd bd
       0.079598814 0.106614456 -0.063331634 -0.10802555
000050 31 21 02 bd 11 6f 16 bd b4 ff 89 3c 8d df 0c bd
       -0.031769935 -0.036727015 0.016845562 -0.034392882
000060 84 13 e4 bc f3 0c 5f 3c 24 23 ea bc 2d 36 eb bd
       -0.027841337 0.013613927 -0.02858121 -0.114849426
000070 43 26 b8 3d ef f6 2f 3d 33 a2 40 3c 8f 0d 8f bd
       0.08991673 0.042960104 0.011757421 -0.06985008

linear_relu_stack.10.weight f4 [1, 32]
000000 f5 49 d0 bc c5 33 c0 3d 18 11 34 3e 9b 4d 45 be
       -0.02542589 0.09384874 0.17584646 -0.19267885
000010 e7 42 5c 3d f2 81 17 39 d7 04 1f bc 40 20 0b 3e
       0.05377474 0.0001444889 -0.009705744 0.13586521
000020 dc 11 a2 bc a4 6b b3 bd 8c 72 9a bd e6 d8 b0 3d
       -0.019783907 -0.08760765 -0.07541379 0.0863512
000030 ec fe 3c 3e cd 07 40 3e be d4 80 bd ac a6 9d bd
       0.1845662 0.18752976 -0.06290577 -0.07697806
000040 df ed 36 3a 94 c9 ce 3d d8 e2 30 bd 8a 75 5f 3d
       0.00069781946 0.10097042 -0.043185085 0.054555453
000050 c8 54 fa bd 53 19 ef 3d 96 77 09 bb 68 0e 0a be
       -0.12223202 0.11674752 -0.002097582 -0.13482058
000060 9d 0a 67 3d 2f bd 0b 3d eb e9 99 3b 7d 70 dc ba
       0.056406606 0.034115966 0.0046970746 -0.0016818192
000070 bc ee bb 3d da 94 ad bd 4a b0 16 be 2d ee 27 bb
       0.09176394 -0.08475657 -0.14715686 -0.0025624142
