model/pendulum_model_18.pth (torch, 88722 bytes, 11 tensors)

linear_relu_stack.0.weight f4 [32, 3]
000000 17 d5 de 3e 3e 2d a1 bd da 9c c0 3e 77 d4 83 3d
       0.4352195 -0.078699574 0.37619668 0.06437009
000010 18 5c 10 3c 52 ff b8 be 24 ff d8 be ad e0 c8 be
       0.008811019 -0.36132294 -0.42382157 -0.39233914
000020 aa 76 f0 be 35 e4 ad be 57 7c f1 be d5 16 55 be
       -0.46965533 -0.3396317 -0.47165176 -0.20809491
000030 85 d2 b6 3e 90 b5 a8 bd d0 d0 a7 3d 88 69 f6 be
       0.3570749 -0.08237755 0.08194125 -0.4812739
000040 53 ea c6 be 50 4e da bd 52 0d 9d bd 97 42 fa be
       -0.3885065 -0.10659468 -0.07668556 -0.4887893
000050 74 fc bb 3e 5e 72 28 be 08 cb eb 3b e4 bc 6c 3e
       0.36716044 -0.16449878 0.007195834 0.23118931
000060 6e d5 f1 bd b4 cb fe 3e 1d 3e cd 3e 88 8c f2 3e
       -0.118082866 0.49764788 0.4008645 0.47372842
000070 4f c8 01 3e 02 54 9e bd 82 9f 2c be 67 7b d6 be
       0.12674068 -0.07730867 -0.16857722 -0.41891024
000080 81 cb 6a be f4 80 18 be ff 2e 90 be 6d 51 01 3f
       -0.22929193 -0.14892942 -0.28160855 0.5051487
000090 e7 2c f1 3e 23 ef a7 3e 79 33 d3 be 1b 86 b9 be
       0.4710457 0.32799634 -0.41250208 -0.36235127
0000a0 fb 1b 45 3e 00 7a c8 bd e4 fd a0 be 8b 5c 13 be
       0.19248955 -0.09788895 -0.31443703 -0.14390771
0000b0 0d bf f4 be 35 ee 57 bd 6d ab f4 3e be d7 84 3e
       -0.4780201 -0.052717406 0.47787037 0.25945848
0000c0 5c 00 69 3e 35 e5 e1 3e 8e 6d 4c 3e e9 a4 d8 3e
       0.22754043 0.44120184 0.19963667 0.42313316
0000d0 06 3a 0e bf e9 6d b7 3e b7 55 d5 3e b1 8d 1f 3f
       -0.55557287 0.35826042 0.41666958 0.6232558
0000e0 58 54 ae 3e df cf d5 be 33 ac 0d 3f 46 4b 1a 3e
       0.34048724 -0.41760156 0.5534088 0.15067777
0000f0 56 70 88 3c f0 b6 26 3e 7d 9f 78 be 77 a0 c6 be
       0.016655128 0.16280723 -0.2427959 -0.387943
000100 45 6a 96 3e 98 3d 12 3e 9c 1c c7 3d 02 72 ff be
       0.29377952 0.14281309 0.09722254 -0.4989167
000110 ea cd 16 be 78 fd 62 bd 72 32 9c 3e 8c ca ab 3e
       -0.14726987 -0.055417508 0.30507237 0.33552969
000120 0a dc 08 3f d3 4b 03 3f 13 6c 8c be 13 cf 81 bd
       0.5346075 0.51287574 -0.27426204 -0.063383244
000130 47 14 e4 3b 18 8f 4b 3e 33 91 92 3c 3e 33 fd 3e
       0.006960425 0.19878805 0.017891502 0.49453157
000140 34 44 10 bf f1 63 04 bf fd 6a e0 3e 42 36 ac 3e
       -0.5635407 -0.51715 0.43831626 0.33635145
000150 20 c7 0e be db 82 ab 3e 1f b2 a6 bd 93 75 c0 3e
       -0.13943148 0.33498272 -0.08139443 0.37589702
000160 7f 32 f2 3e 0a af 8d be 64 c9 20 3e 80 5e fa be
       0.4730415 -0.27672607 0.15701824 -0.48900223
000170 d3 f1 f8 3e 93 db 81 3e 3c bb e9 be 27 d8 0d bf
       0.48621997 0.25362834 -0.4565066 -0.5540795

linear_relu_stack.0.bias f4 [32]
000000 2d 9c f8 3d 05 a8 f2 be 54 fd 8b 3e 25 1e b6 bd
       0.12139163 -0.47393814 0.27341712 -0.08892468
000010 df b0 1a bf fd cd c3 3d f9 04 8c be 56 38 67 be
       -0.60426134 0.095607735 -0.27347544 -0.22580084
000020 1b 28 e9 bb d7 68 12 be 5f 43 33 3e d1 28 26 3e
       -0.0071153766 -0.14297806 0.17506169 0.16226508
000030 ab fb 47 be 7a 09 08 3e 2b f7 19 3f 5c 6c 06 bf
       -0.19529597 0.13284865 0.60142773 -0.52509093
000040 d4 03 20 bd e7 31 3a 3d b9 ff 73 be ca ab fc 3e
       -0.03906615 0.045457747 -0.23828019 0.49349815
000050 2a a6 f0 be ae d5 bb 3e 84 74 3d 3e ba c6 83 3d
       -0.47001773 0.36686462 0.18501478 0.064343885
000060 de b4 a9 be e3 98 a0 3e 47 e3 15 3f 5b 9a 97 bd
       -0.33145803 0.31366643 0.5854992 -0.07402488
000070 bb 06 a2 be 3f ca 85 3e 06 5c 09 be 07 6d b1 3e
       -0.3164576 0.26130864 -0.1341401 0.34653494

linear_relu_stack.2.weight f4 [64, 32]
000000 75 12 21 3e 6c 04 89 3e bd a2 69 be 5a ce 01 3e
       0.15729697 0.26761186 -0.22815986 0.12676373
000010 ff 16 44 be e6 b5 5d be 4b 90 18 3d 16 e2 3f be
       -0.19149397 -0.2165142 0.037246983 -0.18738589
000020 ab 62 d6 bd 0d 68 d9 3d a9 3f a9 bd 6d 4e c5 bd
       -0.10468038 0.10615549 -0.08264095 -0.09634099
000030 0b e2 16 be 3e 49 0e 3e 6f 79 21 3e 48 d5 36 3e
       -0.14734666 0.13895127 0.1576898 0.17854798
000040 42 9a b2 bc ca 40 2e be fd c5 de 3d 7d bb 95 bd
       -0.021802071 -0.17016903 0.10877607 -0.07311151
000050 d0 5f 32 3e ff 32 57 3c ab 8f 05 3d 88 33 68 be
       0.17419362 0.013134717 0.032607716 -0.22675908
000060 6f 8d e2 bd 3c 98 9c bd 82 d7 5e be 0b 7e 2c 3d
       -0.110621326 -0.07646224 -0.21761897 0.04211239
000070 95 79 29 3e 67 c9 b2 bc e7 f5 93 3d 2a 41 1b 3e
       0.16550286 -0.021824552 0.072246365 0.15161577
000080 2a be 08 be ae 0b 7b 3d ac a3 62 bd af 63 d0 3d
       -0.13353792 0.061290435 -0.05533187 0.10175263
000090 6f 83 5b 3d 34 3b 8b bd 9c 93 9e 3e ec 75 06 3d
       0.05359214 -0.067984015 0.30971992 0.032827303
0000a0 e6 f7 a3 be 92 0b 2b bd f4 d9 0c 3d 9f b4 56 3e
       -0.3202507 -0.04175908 0.034387544 0.20967339
0000b0 ee a2 09 be d7 64 86 bd b6 10 62 3d 96 b0 1b be
       -0.13441059 -0.065622024 0.055191718 -0.15204081
0000c0 05 99 0c 3e 11 c0 5b be 93 05 a1 3d ae 13 2d bd
       0.13730247 -0.21459986 0.07862391 -0.042255096
0000d0 69 9b 60 3c 9d bf e2 bd ee 51 b6 3d 46 50 41 be
       0.013708928 -0.110717036 0.089023456 -0.18878278
0000e0 b3 d2 06 3d 00 3c 2c be 2c 3d 8c 3d c5 59 35 be
       0.032915782 -0.16819763 0.06847605 -0.17710026
0000f0 17 c0 13 3d cc da af bc e1 d2 5f be f7 37 34 be
       0.036071863 -0.021466635 -0.21857788 -0.17599474
000100 45 6f 7a bd 10 ad 76 3e c4 27 f6 bd fb a6 85 3b
       -0.06114127 0.24089456 -0.120193034 0.0040787435
000110 5a 1b 0b 3e 55 57 3c 3e 8a 02 67 be 66 25 80 bd
       0.13584653 0.1839269 -0.22559562 -0.06257133
000120 c2 d4 2e 3e 7e bc 9e 3d f5 9d 05 3e 09 56 9b bd
       0.17073348 0.07750796 0.13048537 -0.07584769
000130 96 fd df bd 0c a2 bd 3d 04 b9 ec 3d 53 0f 03 3e
       -0.109370396 0.092594236 0.115587264 0.12798814
000140 d1 c0 1a 3e c4 2e 3a 3c d1 f3 d6 bc 8e 62 2d be
       0.15112616 0.011363689 -0.026239308 -0.16932127
000150 ea 73 6d 3d 8b 16 d7 3d 3e 7f 01 3e 0d 4d 87 be
       0.057971872 0.105023466 0.12646195 -0.26425973
000160 01 79 81 3d 1e 48 51 bd 36 4d e1 bd cc 03 00 3e
       0.06321908 -0.051094167 -0.11001055 0.12501448
000170 86 e1 a5 3c b9 6d 8c bc f4 c1 d5 3c 16 2f c7 3d
       0.02024914 -0.017142164 0.02609346 0.09725778
000180 bc ce 21 be 1f 6c 7a 3d 16 cd b5 3e 67 6d 47 bc
       -0.15801519 0.06113827 0.3550803 -0.01217208
000190 79 c4 1f bd 76 fe 03 3e 16 17 44 be 41 31 2b 3e
       -0.03900573 0.12890038 -0.19149432 0.16718008
0001a0 4f f0 5e 3c 72 53 8e bd 18 11 37 be 26 ac a7 bd
       0.013607099 -0.0694951 -0.17877614 -0.081871316
0001b0 fe c2 ad 3d 0e 74 a4 bd d2 87 40 3d 59 d4 9e 3c
       0.084844574 -0.08029948 0.04700453 0.019388365
0001c0 79 01 72 be c6 1a dc 3d db 7d 65 bd d2 44 60 3e
       -0.23633374 0.10747294 -0.05602823 0.21901253
0001d0 81 48 4a 3e 84 a9 aa bd 7b b1 dd 3d 8f 7c cd 3c
       0.1975422 -0.08333114 0.10824867 0.025083808
0001e0 60 e6 98 3d 9a 6f 0e be 3c 46 0e 3d 39 51 f9 bd
       0.074658155 -0.1390976 0.03473495 -0.12173695
0001f0 c6 68 23 3c 17 5c 38 3e fd 26 8f bd 7b 12 00 3e
       0.00997371 0.1800388 -0.06989858 0.1250705
000200 1c 67 02 be 39 f6 76 3e 3c 4d 0d bd a4 13 c7 3d
       -0.12734646 0.24117364 -0.034497485 0.09720543
000210 0c 4e bd 3d cb 7f 22 bd 1c 54 1f 3e 20 dc 92 3d
       0.09243402 -0.039672654 0.15559429 0.07170892
000220 f5 31 9f bd 2e a5 0d be 40 8f 62 3d 5a 25 27 3e
       -0.077732004 -0.13832542 0.055312395 0.16322842
000230 35 b6 2b bd b0 2e 0f be 48 af 81 be 72 81 a9 be
       -0.041921813 -0.13982654 -0.2532904 -0.3310657
000240 a9 66 c0 3d f0 a0 27 3e 03 cd 2f be a9 51 1a be
       0.09394581 0.16369987 -0.1716805 -0.15070213
000250 62 ee ac ba 29 54 d3 b9 af 25 7a be 62 b3 a8 3d
       -0.0013193602 -0.0004030776 -0.24428438 0.082373396
000260 15 60 32 be d1 05 f3 bd 05 ba fa 3e f3 56 a4 bd
       -0.17419465 -0.11866344 0.48970047 -0.08024397
000270 62 3d 54 be 1f 70 d5 bd 6a 35 dc 3c 65 8f 37 be
       -0.2072654 -0.10421776 0.026880939 -0.17925794
000280 46 7a e3 3d 79 e2 ea 3d b0 49 4d 3e 80 18 3c be
       0.11107306 0.114689775 0.20047641 -0.18368721
000290 f4 9c 8a bd 02 54 a6 3e 0d 6f c0 bb 8e 5f 19 3e
       -0.06768218 0.32485968 -0.0058726133 0.14977857
0002a0 be a0 3c be 86 64 53 3e 64 d3 23 3d ac 28 e2 bd
       -0.18420693 0.20643815 0.03999652 -0.11042914
0002b0 5c cb 82 3d 1f af 26 3d 25 0e bc bd 6e 93 f8 3d
       0.06386444 0.040694352 -0.09182385 0.12137495
0002c0 3b cd b6 3d 8b 26 29 be 59 0a a3 be a8 d1 2a 3e
       0.08925863 -0.16518609 -0.31843832 0.1668154
0002d0 34 97 46 3e 3c 64 22 be cf 89 2f be ac 87 54 be
       0.19393617 -0.15858549 -0.17142414 -0.2075488
0002e0 6c 2f 0a 3e 02 20 94 bd 72 6d a0 3d 92 56 e7 bd
       0.13494653 -0.072326675 0.07833375 -0.11295809
0002f0 33 a3 b4 3d e9 18 1a 3d 30 3f c4 3d 82 2d f8 3d
       0.0882019 0.037621412 0.095823646 0.12118055
000300 47 f1 50 bd 31 b8 66 3e 69 ff b1 be ec 69 f6 bd
       -0.05101135 0.22531201 -0.34765175 -0.12031922
000310 3a 60 3a be 72 27 ac bd e6 97 58 3d e5 a0 52 be
       -0.1820077 -0.08405961 0.052879237 -0.20569189
000320 9b 70 05 be e3 db 76 be 49 b9 bc 3d 28 dc 21 bd
       -0.13031237 -0.24107318 0.09215028 -0.039516598
000330 df 9d 74 bc 0e 3f 5c be 30 67 26 3e 29 09 cf bc
       -0.0149302175 -0.21508428 0.162503 -0.025272923
000340 8c 15 d6 3d 79 75 28 3e 47 76 cf bd 00 97 40 3e
       0.104533285 0.16451062 -0.101299815 0.18807602
000350 7a 2c cd 3b 78 90 e2 3d 39 cb 3c 3e a9 81 a7 bd
       0.0062614055 0.110627115 0.18436898 -0.081790276
000360 18 ab d9 3d 0c c6 26 be 1a b0 96 bc 66 25 ab 3d
       0.10628337 -0.16286486 -0.018394519 0.083567426
000370 5d 42 a3 3e 5e 36 cf bd 53 a0 aa bd 4e 3c 6d 3d
       0.3188657 -0.101177916 -0.08331361 0.05791884
000380 5d ae 81 bd eb 76 8e 3c 16 a0 8b be b1 a0 9c be
       -0.06332085 0.017390689 -0.27270573 -0.30591348
000390 b5 dc 12 be 67 80 30 3e ee 72 c0 bd 1f 54 bd 3d
       -0.14342006 0.17236482 -0.09396921 0.092445605
0003a0 23 18 de bd cb 1a 1e 3e 09 70 31 bd af 6e 17 be
       -0.108444475 0.15439908 -0.043319736 -0.14788316
0003b0 af a3 fe 3b f3 39 9f 3d 6c 32 79 bd 94 67 84 bc
       0.0077709774 0.07774725 -0.0608391 -0.016162671
0003c0 5f ca 44 be 25 e0 cd 3d f7 2c 4a be f8 ee a3 bd
       -0.19217823 0.10052518 -0.19743715 -0.08004564
0003d0 e7 8e 6f bd f3 4d ba 3d 2a 47 3f be 82 ca 7f 3e
       -0.05848589 0.09096899 -0.1867949 0.24979594
0003e0 d0 9d b9 bd d5 72 6e 3e 76 33 f8 3d 0a 07 61 bd
       -0.090633035 0.23285992 0.121191904 -0.054938354
0003f0 59 f7 78 3c ec d7 63 bd 6d 5a d0 3d e4 fd 1b 3d
       0.015195691 -0.05562584 0.10173497 0.038083926

linear_relu_stack.2.bias f4 [64]
000000 78 1a a4 bd cf 6b 4a 3b 3c 65 67 bd da 44 02 be
       -0.08012861 0.0030887013 -0.05649303 -0.12721577
000010 d2 1e 0d be c7 22 70 3d 6c 5f 9d bd 99 01 15 bc
       -0.13781288 0.058626916 -0.07684216 -0.009094619
000020 b3 7e f8 bd 0c 67 aa bd c7 ec de bd f9 4b 0e bc
       -0.12133541 -0.08320436 -0.108850054 -0.0086851055
000030 2e 43 19 be 45 b8 37 3e 37 9f 8b bd 84 e5 9c 3d
       -0.14967033 0.17941387 -0.06817477 0.07660964
000040 d8 3c 07 3e 49 5f 85 3b bc cb 3e be 34 eb 38 bc
       0.13206804 0.0040701968 -0.18632406 -0.011286546
000050 20 de a5 3d 25 da 5d bd 03 fb 88 3d 06 51 e9 3d
       0.080990076 -0.054163117 0.06688502 0.11392407
000060 88 91 17 bd 9a 6e 0b 3e fc 19 da bb 36 5f 02 3e
       -0.037004024 0.1361641 -0.0066559296 0.12731633
000070 a3 6e 47 be 6f d3 8c 3d b3 74 82 3b 9d 8d fc bd
       -0.19475798 0.06876265 0.003981197 -0.12331698
000080 c3 88 1c be 38 c7 7f 3d 8f 9e ec 3d c3 56 94 be
       -0.15286545 0.06244585 0.1155368 -0.28972444
000090 dc 8b be 3d c7 f7 6a 3d 7a 5a 47 3e 18 01 de bd
       0.0930402 0.057365205 0.19468108 -0.10840052
0000a0 f8 e1 88 bd 50 7d b1 bc cb eb d8 3d 87 ff c2 3c
       -0.06683725 -0.021666199 0.10591849 0.023803486
0000b0 10 f6 1d 3e 1a f3 4b b8 ac bb ff 3d 7f 53 5f 3c
       0.15425897 -4.8625378e-05 0.124869674 0.013630747
0000c0 26 c8 88 3a 81 76 ef 3b 8c 08 5f bc 64 b2 e4 3c
       0.0010435625 0.007307828 -0.013612878 0.027917095
0000d0 6b e5 10 be 56 60 0f be be 0e 5b bd ff 43 a8 bd
       -0.14150016 -0.14001593 -0.053480856 -0.08216094
0000e0 2c bf e9 3c 64 c6 ff 3c c6 07 6f be d6 a5 e9 3d
       0.02853354 0.03122253 -0.23342809 0.11408584
0000f0 36 cd 80 be 5e f4 d2 3c 3d 6e 2b be ed 58 f9 3d
       -0.25156564 0.025751289 -0.16741271 0.12175164

linear_relu_stack.4.weight f4 [128, 64]
000000 eb df 4e bd 81 f4 63 bc b8 b1 a2 bd 05 b4 36 be
       -0.050506514 -0.013913275 -0.079440534 -0.1784211
000010 91 f5 dd 3c 08 92 2b 3e d8 05 51 bd a8 d2 5e 3d
       0.027094634 0.16754925 -0.051030964 0.054400116
000020 b0 5e 97 3d 36 c2 0e 3e 0a b2 66 bd 9c fe b7 3d
       0.07391107 0.13941273 -0.056322135 0.0898411
000030 e6 b2 0b be e4 0b 60 bd 90 19 7c 3b bc 70 80 bd
       -0.13642463 -0.05469884 0.0038467385 -0.062715024
000040 e6 44 2a 3c c4 b1 85 bb 93 ef f3 3d 3b 7f ce bd
       0.010392403 -0.004080029 0.119109295 -0.10082861
000050 1d b1 13 3c 77 28 4c bd ab 77 aa 3d 0e 56 02 be
       0.009014395 -0.049843278 0.08323606 -0.1272814
000060 d5 50 ae bd 68 56 ef 3d f0 62 aa bd 02 f4 13 be
       -0.08511511 0.116864026 -0.08319652 -0.1444855
000070 7d c6 a1 3d de a2 23 be 4c d8 92 bd 1c 84 14 be
       0.07899187 -0.15980098 -0.071701616 -0.1450352
000080 e6 33 59 3d 52 f0 3d bd 57 7d 7e 3d d4 84 d8 3d
       0.05302801 -0.046371765 0.062131252 0.1057221
000090 8d a1 0f 3e 93 b2 47 3d e4 bc 2c be 10 b7 16 bd
       0.1402647 0.048754286 -0.16868931 -0.036795676
0000a0 a8 9d fa bd ee 5f 4b bd 3f 13 b5 3d 6f 1e 25 bc
       -0.12237102 -0.049652033 0.088415615 -0.010078057
0000b0 e2 81 a2 be 5b a9 90 3d d8 5d fa be 88 7b 4e 3e
       -0.31739718 0.07063552 -0.48899722 0.20164311
0000c0 be af 21 3e a8 06 3b bd 5f 22 06 3d 62 41 2b 3e
       0.15789697 -0.045660645 0.032747623 0.1672416
0000d0 6e ea d1 bd c0 eb 41 3c af 3a 99 3d f9 56 15 3e
       -0.10249792 0.011835992 0.07481896 0.14583959
0000e0 6e 87 be 3d 4b 58 2a 3e 7a 81 6e bb bf 38 0b 3d
       0.09303175 0.16635244 -0.0036393092 0.033989664
0000f0 35 4b 5f bd f0 e6 70 3d 02 98 43 3d e4 1e 25 bd
       -0.054515082 0.05881399 0.047752388 -0.040312663
000100 8e c2 52 3e 30 e8 c8 bc 3e d8 d3 bc 2d 66 2e bd
       0.20582029 -0.024524778 -0.025859948 -0.04257791
000110 18 d9 eb bd b8 ed c5 bd 8d 17 22 be 0f 6e 0c 3e
       -0.11516017 -0.09664482 -0.15829296 0.13713859
000120 cb 8b 60 bd 03 77 ed ba 65 d0 be 3d 59 a0 31 3d
       -0.054820817 -0.0018117133 0.09317092 0.04336581
000130 48 7a 64 bd 96 33 8a 3d ca 28 be bd cc ae 13 3e
       -0.05578068 0.067481205 -0.09285124 0.14422148
000140 80 a5 7c 3e 2b 8f 84 3d d8 48 4d bd 8b d1 31 bd
       0.24672508 0.064726196 -0.050118297 -0.043412726
000150 5b 21 ad bd 5a 41 9b 3e fd 7d 10 3e 51 85 26 3e
       -0.08453628 0.30323297 0.1411056 0.16261794
000160 03 e0 ff 3d 04 31 c9 3d 54 b2 b6 3c ca 7b 0f 3e
       0.12493899 0.09823802 0.02230183 0.14012066
000170 fa 83 45 3e 2e ee 1f 3e 12 8e 82 3d 91 7e cd bb
       0.19288626 0.15618202 0.06374754 -0.0062711914
000180 bf 22 5e 3e 06 02 13 3d f0 c8 01 3e de bf 7e 3d
       0.21692942 0.0358906 0.12674308 0.062194698
000190 f9 74 2c be 20 8a 96 3b 11 95 9a 3d cc de 21 3e
       -0.16841497 0.0045941025 0.075479634 0.15807647
0001a0 7b 36 2a bd cb 7b 5f 3e ad 16 1e bd 79 f1 c6 b9
       -0.041555863 0.21824567 -0.038595844 -0.00037945414
0001b0 cf b3 92 3d 28 69 8b bd e4 76 20 3e 72 49 2f 3e
       0.07163202 -0.06807166 0.15670353 0.17117861
0001c0 e1 62 98 bb 93 2a 1d be bd 15 82 3d 39 19 3d 3d
       -0.004650459 -0.15348272 0.063518025 0.046166632
0001d0 52 ae aa 3d da d9 4d 3d 2c de aa 3d 31 75 4a 3e
       0.0833403 0.050256588 0.08343157 0.19771267
0001e0 1c ac 66 3d 2a fe d6 3d c9 3c 0a 3e 61 4f fd bd
       0.05631648 0.10497697 0.1349975 -0.12368656
0001f0 fa 65 12 3e 5d 0f 56 bd 2d 8a 70 3d ef 02 9c 3c
       0.14296713 -0.052260745 0.058725525 0.019044368
000200 a5 6d a6 bd 92 57 e6 3d e6 d4 23 be 2e 9f 4a be
       -0.08126382 0.112471715 -0.15999183 -0.19787285
000210 8c c4 8a bc d2 8e 48 bc af ef 9d 3d c8 a0 19 bc
       -0.016939424 -0.012241082 0.07711732 -0.009376712
000220 a5 5c 1a be 70 54 9d bd a9 71 b6 bd d4 e4 f3 bd
       -0.15074404 -0.07682121 -0.08908398 -0.1190888
000230 04 09 c3 3c f1 eb 10 bd 7d 8c f9 bd 79 9e f1 3d
       0.02380801 -0.03538126 -0.12184999 0.117978044
000240 4b a9 b5 bc 6d 03 57 3e 45 97 3e 3d 22 4c 39 be
       -0.022175452 0.209974 0.04653098 -0.18095449
000250 15 57 10 bc 96 fb 97 3d 60 d1 7a 3c b1 2f 28 3e
       -0.0088098245 0.07421033 0.015308708 0.16424443
000260 66 87 d3 3d 24 af 78 bc 77 cb 0c 3d d8 f5 85 bd
       0.103285596 -0.0151784755 0.034373727 -0.065410316
000270 6e 06 d4 bc 26 c4 65 3d b9 25 33 bc 96 6b 20 bc
       -0.025881972 0.056095265 -0.010934287 -0.0097912755
000280 29 73 83 3e e9 c1 9f bc 6a ce 6a 3e 66 6e 4c 3c
       0.25673798 -0.019501643 0.22930303 0.012477493
000290 7f a4 01 bc 9f 91 ce bd 15 a9 4d bc 3b cb 1b 3e
       -0.007912754 -0.10086369 -0.012552519 0.15214245
0002a0 db 04 0a bd 82 33 a3 3a e5 1b 9a 3b 7d 2d 41 be
       -0.033696037 0.0012451264 0.0047030323 -0.18865009
0002b0 af 51 ba bd 72 9c e1 3d 79 1a ad 3d 68 0d a4 bc
       -0.09097611 0.11016168 0.08452315 -0.020025924
0002c0 78 3b 9e bd db 9d 21 bc d8 dc 1c 3e 04 87 f9 3d
       -0.077261865 -0.009864296 0.1531862 0.12183955
0002d0 a1 b4 03 3e 3a e4 97 3d 0a 08 7d 3d 61 71 29 3d
       0.12861873 0.07416578 0.061775245 0.041367892
0002e0 d5 78 23 3d dd 52 e9 3b 5d 2e 90 3d cc dd 0a be
       0.039910156 0.007120474 0.07040093 -0.13561171
0002f0 db f5 70 3d 76 c8 b5 3c b8 32 ec 3d ea b1 2c 3d
       0.058828216 0.022190314 0.11533111 0.04216186
000300 da e1 83 bd 1a 4a 10 3d e1 8b e4 3d c7 b0 c6 3d
       -0.06439562 0.03522692 0.11159492 0.09701686
000310 4c 27 f5 3c fb 85 13 be 03 e8 02 3e 7d 48 95 3d
       0.029925965 -0.14406578 0.12783818 0.07289217
000320 3a 2c e9 bd 29 be 19 3d ab 08 2f be 2a 61 62 bb
       -0.11385389 0.037534866 -0.1709315 -0.0034542778
000330 0d 56 ca 3d 0e 28 91 3d 99 63 12 be 14 38 be bd
       0.09879694 0.07087718 -0.14295806 -0.0928804
000340 df 33 3d 3e e4 82 9d 3d e0 1c 1f be d4 05 d8 bc
       0.18476819 0.07690981 -0.15538359 -0.026369967
000350 d1 ff 60 bd a7 68 25 bd bf 6a 63 3b b2 38 f1 bd
       -0.054931466 -0.040383007 0.0034701077 -0.11778392
000360 2b 62 b1 bc 94 d7 56 3d 99 b5 14 3e 32 26 24 3e
       -0.021653255 0.052451685 0.14522399 0.16030195
000370 c3 bc a6 bb 4e c7 70 be 61 44 e2 3d 25 f1 be bd
       -0.00508842 -0.23513529 0.110481985 -0.093233384
000380 37 62 3b be 4e 9e 2e be 26 e0 ac 3d 59 1e 92 3d
       -0.18299185 -0.17052576 0.084411904 0.071346946
000390 7f 37 3b 3e 66 6f 21 3e 12 6b 1b bd ff 02 1b bd
       0.18282889 0.15765151 -0.037943907 -0.037844654
0003a0 2a 91 f0 3d 85 77 2f bc e6 d5 f8 bc 69 4a 20 bc
       0.11746438 -0.010709648 -0.030375432 -0.009783366
0003b0 6b ea 4a be 0c 6c b6 3c 32 da 20 bd 73 09 cd bd
       -0.19815986 0.022268318 -0.039270587 -0.10011568
0003c0 eb df fc ba 70 53 fb bc 6a b9 ab bd 17 78 d9 bc
       -0.0019292807 -0.030679435 -0.08384974 -0.026546521
0003d0 e8 8c 25 3e 1a 35 b8 bc 14 4c d7 bd d0 ff 9f 3d
       0.16167033 -0.022486258 -0.105125576 0.07812464
0003e0 c3 1a 36 be b2 f1 b7 ba 01 e1 25 bd 59 29 76 bc
       -0.17783646 -0.0014033823 -0.040497784 -0.0150245065
0003f0 ba ab fd 3d a3 d2 f6 bc 9f 05 0f 3e f3 1e 94 bd
       0.1238627 -0.030129736 0.13966988 -0.072324656

linear_relu_stack.4.bias f4 [128]
000000 90 f4 90 bc 4d ab 64 bd 83 1d a9 bd 12 df a7 3d
       -0.017694741 -0.055827428 -0.08257582 0.08196844
000010 e8 f9 b0 3d e4 96 42 3c 54 e1 4e bc 64 7b d9 bc
       0.08641416 0.011876795 -0.012626965 -0.026548095
000020 08 2d 48 be 6c 93 05 be ff 5c 5c bd 29 a7 46 bc
       -0.19548428 -0.13044518 -0.053799625 -0.012124815
000030 bf 32 36 be 48 f8 10 be 8a 40 a4 b9 74 fd 95 bb
       -0.17792796 -0.14157212 -0.00031328603 -0.004577333
000040 b2 02 16 be 72 10 07 3e e0 3c fe 3c 57 3e 1f bc
       -0.14649466 0.13189867 0.031034887 -0.009719453
000050 ca 56 b1 ba 60 6f 0e be 91 aa 03 be 0a 3d f0 bd
       -0.0013529893 -0.13909674 -0.12858035 -0.11730392
000060 fe e7 b0 bd 44 ab 15 be 3e 6b 59 be 86 9a 81 3b
       -0.08637999 -0.14616114 -0.21232316 0.003955188
000070 aa 9e 4a bd c8 d1 59 bd 28 f0 bc bd de 98 83 bd
       -0.04946772 -0.05317858 -0.09225494 -0.064256415
000080 45 94 49 be 74 a6 b8 bd ed 91 fd bd 18 bf e0 bd
       -0.19685467 -0.090161234 -0.12381349 -0.10973948
000090 30 7b d9 3d eb a9 ca bd ab 5e c6 bd a2 5f a8 bc
       0.10619199 -0.098956905 -0.09686025 -0.020553414
0000a0 dc b6 43 3c 28 fa f1 bd c7 02 c7 bd 4f 9c 68 3c
       0.011945453 -0.11815292 -0.097173266 0.014197423
0000b0 66 ee 9c bd 82 61 d4 3c 6e c9 15 3d b7 05 da bd
       -0.076626584 0.025925402 0.03656905 -0.10645621
0000c0 59 48 3b bc 86 9e ad bd f4 28 27 be 41 dd 05 3b
       -0.011430823 -0.084775016 -0.16324216 0.0020426067
0000d0 06 c5 c6 bc 79 bf b3 bd 72 79 0a 3d 1e 1e 71 be
       -0.02426387 -0.08776755 0.033807226 -0.23546645
0000e0 bd f1 c2 bc 8c 6a 07 be 70 9e 2b be 6e 48 0c 3e
       -0.02379691 -0.13224238 -0.16759658 0.13699505
0000f0 93 39 eb 3b 1b 72 63 3d 1f a8 5c bd 53 29 82 3c
       0.0071784942 0.05552874 -0.05387127 0.015888846
000100 22 7a e8 bd a9 8c 2a be eb d7 14 be c6 af 2b bc
       -0.1135142 -0.1665522 -0.14535491 -0.010478919
000110 16 e0 76 bc eb ea cd bd 71 3d 29 be b8 6d 07 be
       -0.015068075 -0.10054573 -0.16527344 -0.13225448
000120 64 b9 b0 bd 17 9b 2c be 9a eb 95 3c 29 3d 1c be
       -0.086291105 -0.16856037 0.01830082 -0.15257706
000130 ab 67 aa 3d 0e eb 7c 3c 81 c8 9c bd 31 d9 9c 3c
       0.08320554 0.015436901 -0.076554306 0.019146534
000140 56 b4 da 3d 82 c9 47 be f5 0e 7a bd a7 66 22 be
       0.106789276 -0.19510463 -0.06104942 -0.15859471
000150 8a 3d d5 bd 8e 10 81 bc f8 36 e8 3d 7a 79 1e be
       -0.10412128 -0.015754964 0.113386095 -0.15476027
000160 5e 1a 63 be 2d 08 0e be 56 af b4 3c 7f a3 c1 bd
       -0.22178027 -0.13870306 0.022056263 -0.094550125
000170 01 89 db 3d 7f f8 bc bc 27 ef 62 bd 25 17 7b 3d
       0.10719491 -0.02306771 -0.055403855 0.06130137
000180 6e 65 8c bc 83 14 c8 3c 6b 86 2a be 08 08 02 be
       -0.01713821 0.024423843 -0.16652839 -0.12698376
000190 06 8a a9 bc 3e c5 d5 bd 50 f7 b8 bd e7 22 82 3d
       -0.020695698 -0.104380116 -0.09031546 0.06354313
0001a0 2d 84 14 be 87 1c c0 bd 6a 0c 99 3d c4 b3 63 3d
       -0.14503546 -0.09380441 0.07473071 0.05559136
0001b0 6a 3b a0 bd 65 8d 92 3d b7 1c 2b 3d 11 01 dc bd
       -0.07823832 0.07155875 0.04177543 -0.10742391
0001c0 27 b5 45 be 23 00 8c 3c c2 22 d0 bc 74 ff 65 bd
       -0.19307385 0.017089909 -0.025407199 -0.056151822
0001d0 4e bc 8e bd 9c ce 41 bd 2a 8f bb bd 17 0f fc bd
       -0.0696951 -0.04731618 -0.09158166 -0.12307566
0001e0 2c 6d 04 be e6 8a 2e bd 78 ed 3d be 02 8c ac bd
       -0.12932271 -0.042612933 -0.18547618 -0.08425142
0001f0 50 5f de 3d 23 31 ca bd b2 fc 17 be 9a a3 c8 bd
       0.10858023 -0.09872653 -0.1484249 -0.097968295

linear_relu_stack.6.weight f4 [64, 128]
000000 72 ab 62 bd 1b 39 00 3e 15 e8 56 3e 59 14 5e bd
       -0.055339284 0.12521784 0.2098697 -0.054218624
000010 0c 91 89 bd 13 72 9d 3b ce 7f 42 bc a1 f7 ac 3c
       -0.067171186 0.0048048585 -0.011871291 0.021114172
000020 bd 71 96 ba 1e 60 6c 3d 96 9b b1 bd 3b 96 4c 3e
       -0.0011477988 0.057708852 -0.08672254 0.19979183
000030 3c 50 cb 3d 2f 98 f2 3c af 64 33 3e af 00 c5 3c
       0.09927413 0.029613582 0.17518876 0.024048178
000040 33 e3 1c 3d 41 95 ec 3c 81 a8 df 3d 8f c3 d8 bd
       0.03830261 0.028879764 0.109208114 -0.10584175
000050 f3 16 13 3e 7a ae 5e 3d 26 29 d7 3d f5 6b d4 bb
       0.14364223 0.054365613 0.10505895 -0.006482596
000060 1d c5 bc bd 44 b5 50 3c 63 bb 8d 3b bc e4 01 bd
       -0.09217284 0.01273853 0.0043253168 -0.03171228
000070 72 41 46 bc 1b 34 b3 3d 27 5f be 3d db 63 09 3e
       -0.012100564 0.08750173 0.092954926 0.13416998
000080 03 16 44 3e a1 40 ae bc ae 7f 6a 3e 98 1b d6 3c
       0.19149022 -0.021271052 0.22900268 0.026136205
000090 82 13 9c 3b 39 96 3b 3d df 33 a5 bd 1e 6d fd bd
       0.0047630677 0.04579756 -0.08066534 -0.12374328
0000a0 f7 ae 41 bd 67 89 0a 3e f9 b8 df 3c ee 9a c4 3d
       -0.047286 0.13528977 0.027309882 0.09599863
0000b0 f4 c3 fd 3d 37 1d db 3d b9 0e 07 3d dc 4b 7f 3d
       0.12390891 0.10698932 0.032973025 0.062328205
0000c0 21 4f a4 bd 26 c4 83 bd c5 0d 15 bc 31 cd 06 3c
       -0.08022905 -0.06433897 -0.009097521 0.008227632
0000d0 de 6f fb 3d eb a3 62 3d bc 6a 14 3d c4 87 8f 3d
       0.12277196 0.055332106 0.036234602 0.07008317
0000e0 2d 94 ba bd 21 2a 9c 3d 2f 1b 31 3d f7 94 f3 3c
       -0.091102935 0.07625223 0.043238815 0.029734118
0000f0 27 c4 2b 3d 82 b7 3e 3e 97 5e 95 3d 41 64 77 3c
       0.041935112 0.1862469 0.07293432 0.015099586
000100 fc 65 07 3e d7 df df bd bb cc cf 3d 52 f5 ea bb
       0.13222498 -0.10931366 0.10146471 -0.0071703577
000110 02 92 05 3c 8d 20 b3 3d 20 8b 25 3e ce 4d b7 3d
       0.008152487 0.08746443 0.16166353 0.08950387
000120 f9 a8 3b bd 3a 07 7b 3a 7f 3d 9d 3d 1d 9e c0 bd
       -0.04581544 0.0009575967 0.07677745 -0.09405158
000130 3b 91 b3 3d 6f 75 42 3d 6a 2a 94 3b ac e0 e4 3d
       0.08767935 0.047475275 0.0045216577 0.11175665
000140 21 4e 70 3c 98 99 27 bd a1 39 46 3b 15 c9 b4 3d
       0.014667065 -0.040917963 0.0030246752 0.08827416
000150 81 6a cc bc 19 7e 96 3e 9a 5c ce bd 69 1a 36 3d
       -0.024953129 0.2939308 -0.10076256 0.04445878
000160 b5 a0 1d 3e 99 5e fc 3d 3e 34 f7 b9 c9 de 22 3b
       0.15393336 0.123227306 -0.00047150435 0.0024852029
000170 79 87 ea 3d b6 b1 cc 3c 8a b2 c2 3d 36 01 54 3d
       0.114516206 0.024987083 0.0950671 0.051758967
000180 e4 54 b0 bc 96 0c 66 3d 0c 47 19 3e 91 ef ba 3c
       -0.021524854 0.056164347 0.14968508 0.022819312
000190 46 0e 98 3d db 7c 16 3e 90 c9 81 bc d9 bd 5d bc
       0.074245974 0.14696066 -0.015843183 -0.013534033
0001a0 84 87 5a 3b 86 da 93 bd 9b 0c a4 3c 03 09 08 3d
       0.0033344934 -0.072194144 0.020025542 0.03321172
0001b0 5c 40 c1 3c b6 b5 05 bd af 41 f4 3c a9 16 5a 3d
       0.02359026 -0.032643996 0.029816477 0.053244267
0001c0 bc b2 f3 3d 06 cf a2 bc 76 91 b4 bb 10 b3 78 3e
       0.11899325 -0.019874107 -0.0055105044 0.24287057
0001d0 ea 13 22 bd 4f ed 8b 3d c5 97 83 3d ac 7a 02 3e
       -0.039569773 0.068323724 0.06425432 0.12742108
0001e0 40 d8 ae 3d 0a 17 0f 3e f5 02 a0 3c a1 d1 db 3d
       0.0853734 0.13973632 0.01953266 0.10733343
0001f0 22 82 dd 3c 41 fe 21 3e 04 1e 57 bd 9e 33 ad 3d
       0.027039591 0.15819646 -0.05251886 0.08457111
000200 f2 e7 10 3e 72 2f 47 bc c1 81 6b 3c 91 a2 ea bd
       0.1415098 -0.012157308 0.014374197 -0.11456788
000210 37 21 13 3d fa ad 31 be b0 d9 53 bd 6f b1 4d be
       0.035920348 -0.17351523 -0.051721275 -0.20087217
000220 ab 7f 4a be f2 6f b0 bc 1b c4 1c be eb 75 35 3e
       -0.19775264 -0.021537755 -0.15309183 0.17720763
000230 ec c5 8a bd 3c 60 05 bd 7b e7 7e 3d 50 a6 43 be
       -0.06776032 -0.03256248 0.062232476 -0.19106412
000240 83 61 33 be 72 1d 93 be 5c a0 a1 3d a2 3b d8 bb
       -0.17517667 -0.28733402 0.07891914 -0.0065989057
000250 17 c1 bd bd 68 26 9e 3d ce ce 8c bd 29 a9 74 bd
       -0.092653446 0.07722169 -0.06875382 -0.059731636
000260 7a bd 89 3c a6 a4 5c 3e 2e f9 2d 3e c5 2a 9d 3d
       0.016813982 0.21547183 0.16989586 0.07674173
000270 d5 80 03 be 85 2f a4 3d e1 61 17 bd f9 67 07 bd
       -0.12842114 0.08016876 -0.03695858 -0.03305814
000280 fb 0c 13 3e 61 5a dc bd f6 8a 8c 3d f3 cd 87 bb
       0.1436042 -0.10759426 0.06862442 -0.004144424
000290 27 3f 9e be 53 75 d3 3d 9a 16 b6 3c cd bd 48 be
       -0.30907556 0.10325112 0.022227574 -0.19603653
0002a0 fb 0e 2d 3d bb 4b c1 bd fe 88 9b bd ad 50 87 bd
       0.042250615 -0.094382726 -0.075944886 -0.066071846
0002b0 4a c0 4e bc bb ca 02 bd 1f 3a 9d 3d fe e7 34 bd
       -0.0126190875 -0.03193162 0.07677101 -0.044166557
0002c0 bf f6 55 3e a3 9b 34 3c 7c 8d c6 bd 66 03 5a 3e
       0.20894907 0.011023435 -0.09694955 0.21290359
0002d0 a9 fa ff 3d fc 7c 88 be 89 10 e7 3d 3f 7e 2d bd
       0.124989815 -0.26657856 0.11282451 -0.042356726
0002e0 f7 ad 93 3d 1a 49 c3 3d ca eb 2d 3e 05 4a ab 3d
       0.072109155 0.095354274 0.16984478 0.083637275
0002f0 fe 3f a9 3c b7 17 61 bd 50 5c cc bd 4b 77 4a 3d
       0.020660397 -0.054954257 -0.09978545 0.049430173
000300 bb 8e 13 3e d2 36 d5 bd 15 cc 10 3e 55 06 1c bc
       0.14409916 -0.10410847 0.14140351 -0.009522994
000310 00 25 b0 bd 23 c6 04 be 5b 42 2f bc c2 87 77 be
       -0.08600807 -0.12966208 -0.010696973 -0.24172881
000320 32 aa e4 3d f1 df da 3b e1 76 de bd 9f fe fc bc
       0.11165275 0.006679528 -0.10862518 -0.030883132
000330 d7 58 7b be d5 c5 95 3d e3 c6 0e 3e fd fb a6 3c
       -0.24545608 0.07313124 0.13943057 0.02038383
000340 f4 2f 48 3d 6a 8c 10 be 0f 58 cb bc 1c 10 84 3d
       0.048873857 -0.14116064 -0.024822263 0.06448385
000350 f0 bf 76 bb 96 c7 e5 bc 56 4e 74 3d f0 d0 10 3d
       -0.0037651025 -0.028049272 0.05964502 0.03535551
000360 40 9f 0d be c3 2b a1 bd d4 6f 2f 3e 32 bd e8 bd
       -0.1383028 -0.07869675 0.17132503 -0.11364211
000370 1f 27 b1 3d 7c 0f 1e bb 43 8b 83 3d 1f 0e 4b 3d
       0.0865004 -0.0024118116 0.064230464 0.049574014
000380 44 2d ed bd 40 a8 91 bd 83 1e e4 3c b0 cc 88 bd
       -0.11580899 -0.07112169 0.02784658 -0.06679666
000390 f4 d8 d8 3c 26 f5 b3 3b 3e 93 12 be 7e 04 bd bc
       0.026470639 0.0054918705 -0.14313981 -0.023073431
0003a0 58 a4 53 bd 95 29 16 bd e0 77 ac 3c 1b 72 1d bb
       -0.051670402 -0.03666075 0.021053255 -0.002402431
0003b0 cb 65 aa bd b9 18 8e bc 7c 7d d4 bd 42 86 4e bd
       -0.08320197 -0.017345773 -0.10375497 -0.050421007
0003c0 f3 ea 85 bd 3a 0b b5 3b f0 f3 e5 3c b8 b1 8b bd
       -0.06538954 0.00552502 0.02807042 -0.068210065
0003d0 e6 7a 2b be 29 6d 63 bd f1 f1 a8 bd da 6a 09 bd
       -0.16746101 -0.055524025 -0.08249272 -0.033549167
0003e0 e2 13 12 bd e5 dc f0 3c 8f 3f 88 3b 8d 20 ed bd
       -0.035663493 0.029402206 0.0041579674 -0.11578474
0003f0 5e ca 87 3d 55 27 e5 bd 01 f5 b5 3d 46 8a b1 3d
       0.06630395 -0.111891426 0.088846214 0.08668952

linear_relu_stack.6.bias f4 [64]
000000 2a a5 a1 bc 78 5a 8a 3d 0a 52 91 bd e6 c5 f3 bd
       -0.019732077 0.06755537 -0.07095726 -0.119029805
000010 bc 92 30 3d c8 05 ce bd 9f f3 04 be 88 f5 23 be
       0.043108687 -0.100596964 -0.12983559 -0.16011631
000020 5e 66 d5 bd 42 be 2c bd eb 02 1b be 80 c4 9a bd
       -0.104199156 -0.04217363 -0.15137832 -0.07557011
000030 8e bf 26 3c df 04 51 be 19 ff 88 3d 0d 3c 8f bd
       0.010177506 -0.20412014 0.06689281 -0.06993876
000040 ea 14 40 3d 89 a4 99 bd ad 14 37 3d d5 ff 32 3d
       0.046894945 -0.07502086 0.044697452 0.04370101
000050 4c f4 11 be 50 54 3b bc 49 44 20 be 1e d2 e1 bc
       -0.14253348 -0.011433676 -0.15651049 -0.027566012
000060 35 59 84 bd e4 48 33 be f3 c3 27 bd d2 27 5e bd
       -0.064623274 -0.17508274 -0.040958356 -0.054237194
000070 56 fd 83 bd 32 94 34 3d 45 98 0f bd e1 34 6a bd
       -0.06444804 0.044086643 -0.035057325 -0.057179336
000080 b0 b1 0b bd d9 88 a6 3d 8d 93 d4 bd 17 08 8e bd
       -0.034105003 0.0813157 -0.103797056 -0.06935137
000090 6b 6b d5 3d 4b c2 27 bc dd a0 9d 3c f5 a8 61 bd
       0.10420879 -0.010239194 0.019241745 -0.05509277
0000a0 95 ba 9b bd 61 90 60 3c 74 01 41 3c 12 40 41 bc
       -0.07603947 0.013706298 0.011780132 -0.011795061
0000b0 96 6d 4e bd 55 b6 17 bc b3 a1 8c bd 0e 8d f6 bb
       -0.050397478 -0.00925978 -0.06866779 -0.0075241392
0000c0 e3 49 f6 bd cd be 4d bd a4 e2 07 3d 5f 1d 0b 3d
       -0.120258115 -0.05023079 0.033175126 0.033963557
0000d0 d0 38 a2 bd c4 5d 59 be 2f ba 8d bd 90 c4 2d bd
       -0.079209924 -0.21227175 -0.06920277 -0.042423785
0000e0 de b6 c8 bd 85 ce 9f bd 10 b8 88 3d d4 6a 28 3d
       -0.09800504 -0.07803062 0.06675732 0.041117504
0000f0 8b 04 cc bd 9b b5 47 bd f0 89 b8 bc 81 c6 59 bd
       -0.09961804 -0.048757177 -0.022526711 -0.053167824

linear_relu_stack.8.weight f4 [32, 64]
000000 7c 41 0a bd d1 4c f4 bc 0b 33 b0 bd 5f 46 e1 3c
       -0.033753857 -0.029821785 -0.08603486 0.027499376
000010 9a 49 c3 bc b9 23 48 3b 85 46 2e 3d 16 68 d9 bb
       -0.023838807 0.003053887 0.04254772 -0.0066347225
000020 1e 42 86 bd 3d 62 0c 3d 89 b9 0d 3d 9c 58 f3 bc
       -0.065555796 0.034273375 0.03460077 -0.029705338
000030 ca 84 36 bd 49 d6 5c bd 56 d4 9d bd 0b 6a 72 bc
       -0.04456023 -0.053915296 -0.077065155 -0.01479579
000040 91 a0 2b 3d cc a3 bc 3d 28 cb 20 3c a3 82 e4 3d
       0.041901175 0.09210929 0.009814061 0.111577295
000050 9a 40 50 3d 6d 65 63 bc 35 f9 e3 bd 9e 53 3e bc
       0.05084286 -0.013879162 -0.11131517 -0.011616616
000060 9d 1f b9 bb 24 d8 7a bd b6 a8 a5 bb fb 75 a3 3d
       -0.0056495205 -0.061241284 -0.0050555123 0.07981487
000070 38 00 51 be cd e7 32 3d ca 7b e5 3d 59 3f 54 bc
       -0.2041024 0.043678094 0.112052515 -0.012954556
000080 4d e9 7f 3d 06 5e 75 bc 2e 3a 8d 3d 23 77 e0 bc
       0.062478352 -0.01497603 0.068958625 -0.027400559
000090 d1 09 69 bd 6e 05 60 bd 7e 0e 8d bc 2a 44 c7 bc
       -0.056894127 -0.05469268 -0.017218824 -0.024324495
0000a0 0c a0 87 3c 54 de 1b bd 23 8e e7 bd f9 2b 43 bd
       0.016555808 -0.038053825 -0.11306407 -0.047649357
0000b0 59 4e 79 3c 8e b4 61 bd 2f c3 4e bc 0b fd 8e bd
       0.015216433 -0.05510383 -0.012619778 -0.06981858
0000c0 d1 b7 62 3a 66 ec cb 3c 9b 81 d1 bc 23 f7 b8 3b
       0.00086486066 0.024892997 -0.025574496 0.0056446954
0000d0 16 01 43 3d 21 cb 9e bd f9 f1 98 bc 45 82 b3 bc
       0.047608458 -0.077535875 -0.018670069 -0.021912703
0000e0 99 b9 86 bd 7b 3b ab bc 0f e9 70 3d 25 7c d6 3c
       -0.06578369 -0.020902386 0.058816012 0.026182244
0000f0 71 a6 71 3c eb 1b aa bb b0 2f 82 3a 7f 55 fc bb
       0.014749155 -0.0051913164 0.0009932425 -0.0077006216
000100 09 8d dd 3d 98 a7 ce bd 58 8d 1e 3b 10 99 25 bd
       0.10817916 -0.1009056 0.0024193134 -0.040429175
000110 c3 3a cb 3d 33 e3 74 be 95 01 2e 3e b3 9d 22 bd
       0.09923317 -0.23914795 0.16992791 -0.039701175
000120 3e 73 3a be 72 17 a3 bd 63 38 13 3d 6d 35 08 be
       -0.18208024 -0.07963456 0.035942446 -0.1330163
000130 c6 a3 1a be b8 1e ee 3d f4 00 92 3d 0e bc 7a bd
       -0.15101537 0.11626953 0.07129088 -0.0612145
000140 4f e1 7f be bd 4c ab 3d b1 93 14 be b0 1f d3 3d
       -0.24988292 0.08364246 -0.14509465 0.10308778
000150 f6 cf ef 3c d5 b4 e2 3b 01 63 5d bd 96 33 eb 3c
       0.029273968 0.0069185295 -0.054049496 0.028711122
000160 4e 2f 82 bc 6c a3 36 3e 6e 07 16 3d 7a 21 ce 3c
       -0.015891697 0.17835778 0.03662818 0.025162447
000170 93 3d 52 bb af e6 4c bd f7 ed a3 3d 49 ae e4 bd
       -0.0032080158 -0.050024685 0.080043726 -0.11166055
000180 22 21 f5 3d a6 2b 8a 3e 3d 03 41 be ec 9e 27 3d
       0.1196921 0.26986426 -0.18848892 0.040923044
000190 a1 83 02 be 9d a1 cf 3c 48 ef 1e bd bd e7 54 bd
       -0.12745525 0.025345618 -0.038802415 -0.051978815
0001a0 92 ff d2 bd 2d ae 57 3e 04 a9 5b bd 07 4b 34 bd
       -0.103026524 0.21062537 -0.053627983 -0.044016864
0001b0 a0 04 c9 3c 71 0b 5c bc e7 ea 6b bd ef b8 41 be
       0.024538338 -0.013430462 -0.057597067 -0.18918203
0001c0 8f 06 38 be 77 48 71 be a8 e5 1d be 71 c8 af 3d
       -0.17971252 -0.235628 -0.15419638 0.08583153
0001d0 f5 91 48 3b b6 14 d9 bd 6a bc ae bd b2 9b 4b 3d
       0.0030604575 -0.105996534 -0.08532031 0.04970903
0001e0 c1 f8 8b 3d 34 35 2b be 0e 59 bc 3c 8a c6 42 3d
       0.068345554 -0.16719514 0.022991683 0.047552623
0001f0 b4 01 62 be 7c 42 50 3e 89 3b 5b 3d 6a b8 e3 bd
       -0.22070962 0.20337862 0.053523574 -0.111191586
000200 6f 1e bc bb 60 a6 2d 3c be f2 4f 3d 7d 88 2f 3e
       -0.0057409327 0.010598749 0.050768606 0.1714191
000210 12 09 2d bc 5d ac 2e be 3e e0 01 be e7 ec 54 3d
       -0.010561245 -0.17057939 -0.12683198 0.05198374
000220 32 40 9a bb 9e d8 8f 3c c2 d1 41 3e e3 43 d8 bd
       -0.0047073597 0.017559346 0.18927673 -0.10559823
000230 0e ba 57 3d f7 da 54 ba 8a 6f 97 3d 36 de 37 3d
       0.05266767 -0.00081197865 0.07394321 0.04488965
000240 ce bb ca bd b7 05 d0 3d 68 89 04 be 10 56 ef bd
       -0.09899102 0.1015734 -0.12943041 -0.11686337
000250 59 69 a9 bd 74 61 8b 3d 7b eb e4 bb c7 26 94 bc
       -0.082720466 0.06805697 -0.0069860793 -0.018084897
000260 d2 e0 e4 3b a6 d8 d6 3d 0b 6c e0 3d 0b ca 2d 3d
       0.0069848085 0.10490541 0.109581076 0.04242901
000270 ea a1 91 bd c9 77 2d 3d d8 cb d7 3d 70 a0 97 3d
       -0.07110961 0.042350564 0.10536927 0.07403648
000280 aa 03 91 3d fd 0f 1f 3c a8 29 1e 3d 9f 48 70 3e
       0.07080777 0.009708402 0.038613945 0.23465203
000290 cb 36 a8 bc a0 b5 0a 3d e0 b3 b6 3d cc 10 50 3c
       -0.02053394 0.033864617 0.08921027 0.012699317
0002a0 e9 fa 4c 3e eb de 46 bd c8 53 68 bd d1 39 d7 3b
       0.2001759 -0.048552435 -0.056720525 0.0065681715
0002b0 15 1e 05 3d df 3e ae bd 84 3b 17 3d be e0 cc bd
       0.03249939 -0.085080855 0.036921993 -0.10003804
0002c0 0d 14 35 bd 7a e9 9e 3d 41 07 a8 bd f6 96 c5 bd
       -0.044208575 0.07759376 -0.082045086 -0.09647934
0002d0 0a 68 c9 bd d0 07 8a 3d ab f8 6a 3d 8b 3c 30 bd
       -0.09834297 0.06739771 0.057366055 -0.04302649
0002e0 63 56 88 3d 82 99 a4 3c 66 92 36 bd e8 95 08 be
       0.06657102 0.02009273 -0.04457321 -0.13338435
0002f0 c5 bb ec bc d5 12 40 3d 34 dc 38 3d 39 1b 2d 3d
       -0.02889813 0.04689296 0.045131877 0.04226229
000300 bf d1 6b 3d 51 77 54 bd 1b 0f 16 bc 79 26 11 3c
       0.057573076 -0.0518716 -0.009158875 0.00885927
000310 ca 89 eb bd e7 de c4 bc ca e1 00 3d 88 29 be 3c
       -0.115008906 -0.02403207 0.03146533 0.023213163
000320 7d c5 b3 3d 78 2b c9 bb 53 ef 5f bc 50 20 bf 3d
       0.08777902 -0.006139215 -0.013667899 0.09332335
000330 a7 dd 61 bd 4b 70 b6 3b 4a 77 02 3e 5f 5f ce bd
       -0.055143025 0.0055675856 0.12740818 -0.10076784
000340 0c 23 70 bb 83 0b 4d 3e 85 a8 27 3e fa 22 95 3d
       -0.0036641983 0.20023923 0.16372879 0.07282062
000350 27 9b 92 bd 62 f3 24 3d 36 ee 30 3e 65 f1 84 3d
       -0.07158499 0.04027117 0.1727837 0.06491355
000360 74 8d 12 3d 18 4a 16 3e 50 b2 8d 3d fc 61 43 bc
       0.03577943 0.14676702 0.06918776 -0.011925217
000370 8d 84 d4 bd 64 80 34 be 33 7e 80 bc 00 c7 77 3d
       -0.103768446 -0.17627102 -0.015685176 0.060492516
000380 bf a5 d9 bd 9f 56 8d 3d ed 4f 15 3d 7a db 92 3c
       -0.10627317 0.06901287 0.036453176 0.01792692
000390 24 76 25 be 56 13 20 bd 83 48 89 bd 86 60 9a 3e
       -0.16158348 -0.03908094 -0.06703284 0.30151767
0003a0 1a 09 2b be 92 e8 12 bc e6 9f c3 3d 28 ee d2 bd
       -0.1670269 -0.008966582 0.095519826 -0.10299331
0003b0 1a 21 b7 3d bf 8f c4 bc e9 a4 1d bc 95 d4 b1 bc
       0.089418605 -0.023994325 -0.009621837 -0.021707812
0003c0 a0 b4 6f be 61 ca c3 bc 50 bb 5b bc 54 7b 85 be
       -0.23408747 -0.023900213 -0.013411358 -0.26070654
0003d0 50 8e 32 3d 31 2e 7b bd 75 46 a4 bd 84 88 83 3c
       0.04359275 -0.06132335 -0.08021251 0.016056307
0003e0 2a 74 5e bd ad 2e 60 bd b1 f3 40 3e 29 18 94 3d
       -0.05431 -0.054732013 0.18842961 0.07231171
0003f0 42 c9 e1 3a e4 81 f1 3d d8 9f 7a 3d f0 b7 6f 3a
       0.0017226117 0.11792353 0.061187595 0.0009144535

linear_relu_stack.8.bias f4 [32]
000000 4d 9b 00 be 6e b8 be 3d 29 c6 d8 bd 66 c5 28 3d
       -0.12559243 0.09312521 -0.10584671 0.04120388
000010 5e 36 04 be 0e 10 88 bb a4 ab 1e bd 88 bd 5d 3d
       -0.12911364 -0.0041523045 -0.038737908 0.05413583
000020 8d 4b 55 bd 0b b0 a1 bd e1 10 26 be 6d 66 18 bd
       -0.052074004 -0.07894906 -0.16217376 -0.037207056
000030 66 9c 6e bd 82 1f 02 3d 12 c3 b6 3c ab 7f 8f bd
       -0.058254622 0.03176833 0.022309814 -0.070067726
000040 8c 68 8f 3d b6 4e de 3d 59 57 ec bd 38 39 b5 bd
       0.070023626 0.10854857 -0.11540098 -0.08848804
000050 4f 54 aa bc ed 10 87 3c a6 c9 84 bc 18 f8 45 bd
       -0.020792155 0.016487563 -0.016209435 -0.048332304
000060 b3 64 7c bd ef 26 4a bd 07 ed 44 bd 84 71 91 bd
       -0.06161947 -0.049353536 -0.04807761 -0.071017295
000070 30 87 91 3d 82 09 4d 3d 79 1f bc bc f3 1e 96 bd
       0.07105863 0.050057895 -0.022964226 -0.07330122

linear_relu_stack.10.weight f4 [1, 32]
000000 b3 a5 84 38 df 10 8e 3d 7b 36 14 3e e3 9a 1c be
       6.3251144e-05 0.06936812 0.14473908 -0.1529346
000010 6e 04 1b 3d a2 52 6d b9 75 35 04 bb 42 67 e0 3d
       0.03784602 -0.00022632864 -0.0020173464 0.10957195
000020 60 a1 23 bb 73 3f 99 bd 88 b6 7c bd 25 ea 77 3d
       -0.0024968013 -0.07482805 -0.061697513 0.060526032
000030 52 95 0e 3e d5 65 21 3e 34 16 9b bd 11 05 6c bd
       0.13924149 0.15761502 -0.07572594 -0.05762202
000040 4d 99 b8 3a c9 a9 33 3d 3a a1 0b bd ff 68 ad 3c
       0.0014083773 0.04386309 -0.034089305 0.02116823
000050 a9 e2 91 bd 09 10 bd 3d ed fd 68 38 67 66 bb bd
       -0.0712331 0.09231574 5.5549597e-05 -0.09150391
000060 73 f3 2a 3d dd 0c 50 3c 9b 5a 6f b8 39 aa 15 bb
       0.041736078 0.012698379 -5.7066423e-05 -0.0022837056
000070 4e 84 6d 3c 4f 4f 1a bd 4e 67 ce bd d4 38 01 bb
       0.014496876 -0.03767329 -0.100782976 -0.001971771
