model/pendulum_model_11.pth (torch, 88722 bytes, 11 tensors)

linear_relu_stack.0.weight f4 [32, 3]
000000 49 fc e2 3e 68 2e 9f bd da 9c c0 3e 0f 79 89 3d
       0.44333103 -0.07772523 0.37619668 0.06712543
000010 64 c8 68 3c 52 ff b8 be 7d 69 dd be 76 83 c5 be
       0.014207933 -0.36132294 -0.43244544 -0.3857686
000020 aa 76 f0 be f6 21 ab be a4 39 ed be d5 16 55 be
       -0.46965533 -0.33424348 -0.4633304 -0.20809491
000030 21 a1 d1 3e d8 20 9f bd d0 d0 a7 3d 2c 51 fd be
       0.40943244 -0.07769936 0.08194125 -0.49475992
000040 fb 30 be be 50 4e da bd 02 e5 a2 bd d0 b5 fb be
       -0.37146744 -0.10659468 -0.07953836 -0.4916215
000050 74 fc bb 3e 8e 8a 49 be 86 ca 0d 3d e4 bc 6c 3e
       0.36716044 -0.1968176 0.03461697 0.23118931
000060 5f 67 fa bd fc 99 00 3f 1d 3e cd 3e a5 b2 fb 3e
       -0.12226748 0.5023496 0.4008645 0.49159732
000070 4d 48 fa 3d 02 54 9e bd 22 c3 38 be d3 30 cd be
       0.122208215 -0.07730867 -0.18043187 -0.40076312
000080 81 cb 6a be e6 47 25 be ae 72 97 be 6d 51 01 3f
       -0.22929193 -0.16140708 -0.2957968 0.5051487
000090 e6 aa f6 3e 9d 66 aa 3e 79 33 d3 be bd 0e be be
       0.4817726 0.33281413 -0.41250208 -0.3712062
0000a0 0c 55 3e 3e 00 7a c8 bd d1 0a a3 be 03 01 1f be
       0.1858713 -0.09788895 -0.3184419 -0.1552773
0000b0 0d bf f4 be 60 2b 6e bd 25 21 f4 3e be d7 84 3e
       -0.4780201 -0.058146834 0.47681537 0.25945848
0000c0 cf 8e 75 3e 03 b0 d8 3e 8e 6d 4c 3e 1c 42 d6 3e
       0.23980258 0.42321786 0.19963667 0.41847312
0000d0 27 17 09 bf e9 6d b7 3e 00 04 d6 3e 98 7b 1a 3f
       -0.5355095 0.35826042 0.41799927 0.6034484
0000e0 58 54 ae 3e 99 6a d5 be 2d 57 0c 3f 46 4b 1a 3e
       0.34048724 -0.4168289 0.5482052 0.15067777
0000f0 13 8d b0 3c 61 4a 0b 3e 7d 9f 78 be 60 30 c8 be
       0.021551644 0.13602592 -0.2427959 -0.39099407
000100 59 f4 90 3e 98 3d 12 3e 2c 90 02 3e 9a 73 00 bf
       0.28311422 0.14281309 0.1275031 -0.50176394
000110 ea cd 16 be 96 39 77 bd a9 c4 8e 3e 8c ca ab 3e
       -0.14726987 -0.060357653 0.27884415 0.33552969
000120 77 bb 0b 3f e8 cb 05 3f 13 6c 8c be df aa 8f bd
       0.54582924 0.5226426 -0.27426204 -0.07015013
000130 b2 34 11 bb 18 8f 4b 3e eb 69 f0 3c 04 74 f9 3e
       -0.0022156653 0.19878805 0.02934738 0.48721325
000140 34 44 10 bf e3 f2 06 bf ab 48 e1 3e 42 36 ac 3e
       -0.5635407 -0.52714366 0.44000754 0.33635145
000150 70 9c 2e be 13 55 ac 3e 1f b2 a6 bd 45 56 c2 3e
       -0.17051864 0.33658656 -0.08139443 0.37956443
000160 80 72 ef 3e 0a af 8d be 02 ff 27 3e 83 3b ec be
       0.46767044 -0.27672607 0.16405872 -0.46139154
000170 d3 f1 f8 3e b8 7c 82 3e 5f 6a e7 be 27 d8 0d bf
       0.48621997 0.25485778 -0.45198342 -0.5540795

linear_relu_stack.0.bias f4 [32]
000000 65 7e 09 3e 86 83 fa be 64 f1 7b 3e f7 87 13 be
       0.13427122 -0.4892847 0.24603802 -0.14407335
000010 7d 86 04 bf 09 91 9b 3d 1d ef 86 be e6 47 97 be
       -0.5176771 0.07596023 -0.26354304 -0.29547042
000020 ed 88 bd 3c 47 b4 f9 bd ac 48 4e 3e 62 54 47 3e
       0.02313658 -0.12192588 0.2014491 0.19465783
000030 35 79 1c be 49 27 cb 3d 11 e8 10 3f a8 17 03 bf
       -0.15280612 0.099196024 0.56604105 -0.5120797
000040 73 0e 51 bb a4 a7 9d 3d b4 03 4c be ea 48 f5 3e
       -0.0031899482 0.076979905 -0.19923288 0.47907192
000050 8b d7 e4 be 95 27 b7 3e f4 30 8a 3d e4 52 9f 3d
       -0.44695696 0.35772386 0.06747618 0.07779482
000060 f0 86 9a be 6a 82 bd 3e 08 06 f7 3e d0 f1 ce bd
       -0.30181074 0.3701356 0.4824679 -0.10104716
000070 d5 c3 a0 be 07 9b a8 3e 2f 65 28 be 14 df b7 3e
       -0.31399408 0.32930776 -0.16444848 0.35912383

linear_relu_stack.2.weight f4 [64, 32]
000000 45 dc 24 3e 07 9e 70 3e b5 2a 50 be 9f 7a 06 3e
       0.16099651 0.23497783 -0.20328791 0.13132714
000010 f1 2d 38 be 50 06 4c be 45 ab 4e 3d 18 8c 4c be
       -0.17986275 -0.19924283 0.050456304 -0.19975317
000020 06 7b ec bd a7 71 ea 3d fd 64 a4 bd d0 1d e7 bd
       -0.11546902 0.11447459 -0.080270745 -0.11284983
000030 07 f6 00 be ad 76 09 3e 2f ec 16 3e 68 a5 2d 3e
       -0.12593852 0.13424177 0.14738534 0.16957629
000040 6d ef 80 bc 74 2e 1f be 04 79 b9 3d d9 a4 a9 bd
       -0.015739167 -0.15545064 0.09056285 -0.08283395
000050 31 89 34 3e 2b 83 c3 3b e7 2b 0f 3d f9 c1 64 be
       0.1763046 0.005966564 0.034953978 -0.2233962
000060 ec a8 9f bd bd a9 9b bd 7b 29 66 be 8f fc fc 3c
       -0.07795891 -0.076007344 -0.22476761 0.030882148
000070 ce ba 1c 3e 0b 35 48 bc 60 1a 9d 3d 1d 2f 18 3e
       0.15305635 -0.012219678 0.07671046 0.14861722
000080 c3 69 04 be 1f b3 71 3d e9 d1 75 bd 66 36 d1 3d
       -0.1293097 0.059008714 -0.06001464 0.10215454
000090 43 2b 53 3d b7 7e 88 bd 09 ae 8e 3e ce 22 b7 3c
       0.05155493 -0.06664794 0.27867153 0.022355463
0000a0 ea 53 9a be 4a 19 22 bd f3 5b a9 3c 58 4b 52 3e
       -0.30142146 -0.0395749 0.020673728 0.20536554
0000b0 62 f2 12 be 68 24 94 bd b6 80 84 3d 9b d0 ee bd
       -0.14350274 -0.072335064 0.06469862 -0.11660882
0000c0 c1 fa f9 3d be 40 4c be f6 d0 79 3d f7 65 1f bd
       0.12206031 -0.19946572 0.060990296 -0.0389156
0000d0 2f 9f 8c 3b 88 17 dd bd 26 7c fc 3d 84 7a 43 be
       0.004291437 -0.10795504 0.12328367 -0.19089705
0000e0 1a d2 af 3c 61 bc 28 be ce 09 30 3c 9a 99 3d be
       0.021462489 -0.16478111 0.010744525 -0.18515626
0000f0 e2 ac 17 3d 71 1d 15 bd b8 0d 47 be c3 06 20 be
       0.03703011 -0.03640503 -0.19438827 -0.1562758
000100 36 73 5d bd a1 a0 5d 3e d0 27 c9 bd 4e c5 24 3b
       -0.05406495 0.21643306 -0.09822047 0.0025142017
000110 fb 8e 0d 3e 3c 53 31 3e af a9 88 be b2 e5 c2 bd
       0.13824074 0.17316908 -0.26691958 -0.09516467
000120 b7 b1 42 3e d1 c9 76 3d 56 64 c5 3d 2c ae e8 bd
       0.19013105 0.06025106 0.09638278 -0.11361346
000130 3d f5 f9 bd 63 fc de 3d 37 c1 cf 3d 60 e5 27 3e
       -0.122049786 0.10887983 0.10144275 0.16396093
000140 a6 99 c3 3d d8 7c 14 3c 85 10 17 bb ca e0 1e be
       0.095507905 0.009062968 -0.0023050618 -0.15515438
000150 5b 4d 5f 3c ba 12 e4 3d b3 af 16 3e bf 3d a0 be
       0.013629283 0.11136384 0.14715461 -0.3129711
000160 88 5e 6c 3d 03 4f 03 3c 18 d1 12 be c4 dc d9 3d
       0.05770734 0.008014443 -0.14337575 0.10637811
000170 2e 6a 35 3d 96 03 70 3a eb 88 1f 3d f2 83 e1 3d
       0.044290714 0.0009155808 0.038948935 0.11011495
000180 69 28 0d be 9a 8f ff 3b 2e a3 94 3e b0 ac 53 bd
       -0.13784947 0.007799101 0.29030746 -0.05167836
000190 74 57 0a bd 86 ba d0 3d c1 d5 2c be f2 97 22 3e
       -0.033774808 0.101918265 -0.16878416 0.15878275
0001a0 54 f1 e4 3c bd e5 81 bd 2a 07 16 be 6c ee 87 bd
       0.027947105 -0.06342647 -0.1465117 -0.06637272
0001b0 f9 bf 90 3d eb bb 97 bd 14 9d fb 3c 5c 7b 7c 3b
       0.07067866 -0.074088894 0.03071455 0.0038525676
0001c0 d4 a4 65 be 46 a6 fa 3d 35 e4 63 bd 2e 58 58 3e
       -0.22426158 0.122387454 -0.055637557 0.21127388
0001d0 da 97 21 3e cf 57 99 bd ca d2 04 3e d9 a5 18 3d
       0.15780583 -0.07487451 0.12971035 0.03726754
0001e0 f5 80 5d 3d b6 7c 4d bd a5 a4 8d 3d a1 d9 dd bd
       0.05407806 -0.05016776 0.06916169 -0.10832525
0001f0 96 6a c5 3b a0 d3 33 3e 78 cd 4a bd 30 5b 0c 3e
       0.006024669 0.17561197 -0.049512357 0.1370666
000200 48 08 f9 bd be d5 68 3e 84 51 c9 bc 73 cb c9 3d
       -0.12159783 0.22737786 -0.024575002 0.09853258
000210 59 97 be 3d e6 f7 f4 bc 7c 37 eb 3d b1 6c 98 3d
       0.09306211 -0.029903363 0.11485192 0.07442606
000220 37 bd d9 bc c7 ab 07 be e6 a0 10 3d 9a 75 23 3e
       -0.026579482 -0.13249122 0.035309695 0.1596283
000230 56 b9 0c bd e5 0f 0c be 01 3f 52 be e4 ab 92 be
       -0.034356438 -0.13677938 -0.20531847 -0.28646767
000240 62 3e c2 3d 17 b3 23 3e 93 a4 2b be bf 04 17 be
       0.09484555 0.15986286 -0.16761999 -0.14747904
000250 03 10 a9 bc fd d8 78 3b b4 cc 5c be 07 d8 a5 3d
       -0.020637518 0.0037971132 -0.21562463 0.080978446
000260 03 c1 24 be f4 de a5 bd 3e ef d4 3e 5c f7 a2 bd
       -0.16089253 -0.080991656 0.41588777 -0.07957336
000270 8d ec 42 be 53 90 b5 bd 84 c5 49 3d 09 d7 30 be
       -0.1903555 -0.08865418 0.04926063 -0.1726953
000280 f5 69 f8 3d 1b 60 e6 3d 83 d1 4b 3e f9 f8 2b be
       0.12129585 0.112487994 0.19904141 -0.16794194
000290 84 54 64 bd 4f a1 91 3e 7b da 8a bb 90 fb 15 3e
       -0.055744663 0.2844338 -0.0042374707 0.14646745
0002a0 d4 80 35 be 8e 2f 4e 3e 05 6a 42 3d ce ba d1 bd
       -0.17724925 0.20135328 0.04746439 -0.10240708
0002b0 0b 3c 4d 3d aa e3 53 3d 77 c0 a0 bd 3e d2 f7 3d
       0.05010609 0.05173079 -0.0784921 0.121006474
0002c0 54 66 c7 3d 4a 5f 15 be f5 29 90 be d5 95 16 3e
       0.097363144 -0.14587131 -0.2815701 0.14705594
0002d0 d1 3d 2e 3e da e0 17 be 82 23 23 be 00 1d 50 be
       0.17015769 -0.14831868 -0.15931514 -0.20323563
0002e0 ca 13 fc 3d 20 4d b0 bd e3 17 b0 3d 45 e5 c1 bd
       0.12308462 -0.086084604 0.08598306 -0.09467558
0002f0 ae be b0 3d e3 c5 2b 3d 17 67 d6 3d 74 47 05 3e
       0.08630119 0.041936766 0.104688816 0.13015538
000300 88 0f 99 bc 05 5d 3a 3e 54 e1 98 be a6 a8 c6 bd
       -0.018684164 0.18199547 -0.29859412 -0.09700136
000310 36 8a 3f be 63 72 92 bd 62 d6 3a 3d a0 00 49 be
       -0.18705067 -0.07150724 0.045614608 -0.19629145
000320 6b fc 08 be 22 6d 58 be 0f 66 aa 3d 8a ea 7b bd
       -0.1337754 -0.21135381 0.083202474 -0.06150297
000330 8d 1b d5 3b 43 b5 37 be 1d 73 48 3e 21 2e 19 bd
       0.0065035284 -0.1794024 0.19575162 -0.037397508
000340 c1 6a d8 3d 47 3f 16 3e 48 df bc bd 02 9b 2d 3e
       0.10567237 0.14672576 -0.09222275 0.16953662
000350 7c 0d 4b bc 9d 80 cb 3d 6b b3 2f 3e c6 d5 91 bd
       -0.012393352 0.099366404 0.17158286 -0.07120852
000360 28 01 b6 3d 8e 13 fc bd df ce a3 b8 f0 7c c2 3d
       0.08886939 -0.12308417 -7.8109784e-05 0.09496486
000370 a3 f4 87 3e a7 ea 9c bd f2 f6 da bd 30 e2 41 3d
       0.2655383 -0.07661944 -0.10691632 0.04733485
000380 f6 b9 81 bd dd 78 40 3d 65 d2 7f be 7b b9 92 be
       -0.06334297 0.046990264 -0.24982603 -0.28657135
000390 b7 75 05 be 56 b8 15 3e e7 14 94 bd f3 26 e8 3d
       -0.13033186 0.146211 -0.07230549 0.11335554
0003a0 7d cf bc bd 0f 4d 0f 3e 4f 72 39 ba 05 f2 ce bd
       -0.09219263 0.1399424 -0.0007074223 -0.10104755
0003b0 68 32 c2 bb 1d cc b9 3d 82 a1 53 3a 2b 5b 90 bb
       -0.005926419 0.09072135 0.0008073078 -0.0044053993
0003c0 65 f6 17 be 59 34 96 3d 25 e5 27 be b8 83 d6 bd
       -0.14840086 0.07334203 -0.16396005 -0.10474342
0003d0 c7 32 40 bd 0f 27 a7 3d 01 d9 3f be 21 e5 7b 3e
       -0.046923425 0.08161747 -0.18735124 0.24599124
0003e0 96 f1 8b bd b8 c1 2b 3e de 46 00 3e 79 b9 3f bd
       -0.06833188 0.16773117 0.12527034 -0.04680774
0003f0 fa 63 ed 3c 20 cc 83 bd 9a 0c dc 3d 4e a6 b6 3c
       0.028978337 -0.06435418 0.10744591 0.022296097

linear_relu_stack.2.bias f4 [64]
000000 a6 f7 a8 bd 00 d7 99 3a 3f de 17 bd a6 84 ae bd
       -0.0825036 0.0011737049 -0.037077185 -0.085213944
000010 8d 80 fd bd 5c c8 9f 3d 64 4d 39 bd 33 60 d3 bc
       -0.12378035 0.078018874 -0.04523982 -0.025802707
000020 ba 11 c5 bd dc 11 8b bd 6e ce bb bd 20 ac 1e 3c
       -0.09622522 -0.06790516 -0.09170233 0.0096845925
000030 ed 3d 16 be 17 90 36 3e 84 6b 5b bd b3 d0 74 3d
       -0.1467206 0.17828403 -0.05356933 0.059769344
000040 97 c3 02 3e 02 cd 04 3d 22 fa 2b be b2 7e 67 bc
       0.12769924 0.032422073 -0.16794637 -0.014129328
000050 74 b2 c0 3d d3 b2 77 bd 6b 55 a7 3d 34 d6 e7 3d
       0.09409037 -0.060473274 0.08170589 0.11320153
000060 51 7f 82 bd c2 65 0e 3e e6 be 6a 3c 42 ce cc 3d
       -0.0637194 0.13906005 0.01432774 0.10000278
000070 f9 31 25 be e9 a7 b2 3d bf d9 9b bc f2 30 c6 bd
       -0.16132344 0.087234326 -0.019024728 -0.09677304
000080 a6 ec 0f be 39 6a 2e 3d eb b6 f6 3d 1d 07 86 be
       -0.14055118 0.04258177 0.120466076 -0.26177302
000090 e9 f4 c6 3d bc 8c 78 3d 76 00 42 3e f2 bf b2 bd
       0.09714682 0.06068109 0.18945488 -0.08728017
0000a0 40 44 7f bd 70 58 a7 bc 4f a8 e0 3d 3d 94 19 3d
       -0.062320948 -0.020427912 0.10969602 0.037494887
0000b0 6e d7 24 3e 49 6c 9f bc 11 c1 e0 3d 83 2e 85 3c
       0.16097805 -0.019460814 0.109743245 0.01625753
0000c0 91 15 ce 3c 21 9b 07 3d f9 d3 0b bc 77 bf 02 3d
       0.025156768 0.033106927 -0.008534425 0.031920876
0000d0 e0 71 11 be e0 1c 02 be 3a bd 83 bd 32 42 9a bd
       -0.14203596 -0.12706327 -0.064325765 -0.07532157
0000e0 7d 35 99 3d 0d 45 35 3d f8 b0 5e be 4b 6e e5 3d
       0.07480905 0.044255305 -0.21747196 0.11202677
0000f0 e6 c7 6b be 85 b0 80 3d 53 26 18 be c7 f1 05 3e
       -0.23025474 0.062836684 -0.1485837 0.13080512

linear_relu_stack.4.weight f4 [128, 64]
000000 62 04 b2 bd 2b 57 9d bb 8b 39 b1 bd 92 8c de bd
       -0.08692242 -0.004801651 -0.086535536 -0.108666554
000010 e8 84 33 3d ea 56 30 3e 0b 9d 08 bd 32 f8 b1 3d
       0.04382792 0.17220655 -0.033352893 0.086899176
000020 b1 06 9d 3d 48 29 ca 3d 42 ac 06 be 6c 44 b0 3d
       0.07667292 0.09871155 -0.13151649 0.086068004
000030 13 7d ac bd 4d c4 94 bd cf 80 83 3c 71 f3 bf bd
       -0.084222935 -0.07264004 0.016052632 -0.09372605
000040 7e 0f ed bc 93 9c ee bc c3 74 d7 3d a4 59 94 bd
       -0.028938051 -0.029127395 0.105203174 -0.0724366
000050 cb 67 c3 ba 63 7a 91 bd 2c 27 5b 3d cd 52 fe bd
       -0.0014908252 -0.071034215 0.053504154 -0.12418137
000060 4b b8 bd bd b8 49 e5 3d 53 ef 96 bd 15 57 fa bd
       -0.09263667 0.11195701 -0.07369866 -0.12223641
000070 5a 55 c5 3d c3 e3 4e be 30 20 57 bd 1a 78 03 be
       0.0963542 -0.20204072 -0.05252093 -0.12838784
000080 9a c8 27 3d 5e 98 aa bd 5e 1f 67 3d 50 65 92 3d
       0.040962793 -0.08329843 0.0564264 0.0714823
000090 e8 f8 c5 3d 09 94 7f 3d 39 9c 26 be c1 74 ad 3c
       0.09666616 0.062397037 -0.16270532 0.021173837
0000a0 80 d1 f0 bd 2f 4e 94 bd e8 f8 b3 3d c2 0b 83 bb
       -0.11758709 -0.07241475 0.087877095 -0.0039992044
0000b0 22 ef 8c be 71 fe af 3d 44 6f e4 be e0 e0 3f 3e
       -0.27526194 0.08593453 -0.4461614 0.18738127
0000c0 04 44 fa 3d 65 7a 66 bd 16 22 00 3d 72 f3 1c 3e
       0.12220004 -0.05626907 0.031282507 0.15327242
0000d0 f3 42 cd bd 7a 56 11 3c b7 e8 9d 3d 78 69 45 3e
       -0.10022535 0.008870715 0.077104025 0.19278514
0000e0 49 d9 64 3d 00 db 11 3e 95 d0 e9 3c 44 ad 70 3c
       0.05587128 0.14243698 0.028541842 0.014689747
0000f0 61 36 b5 bd 76 e3 a9 3d 3b 29 a4 3b 49 1f 3b bd
       -0.088482626 0.08295338 0.005009798 -0.045684133
000100 32 bd 4d 3e 5a f0 3b bd e0 34 4c bc ba 0a 91 bb
       0.20091704 -0.045883514 -0.012463778 -0.0044263275
000110 30 e1 93 bd d8 29 99 bd 7b 4f ff bd 3b 5f 0e 3e
       -0.072206855 -0.07478684 -0.124663316 0.13903515
000120 1d c9 93 bd dd 56 62 bb 59 bf af 3d 55 ed 26 3d
       -0.07216094 -0.0034536638 0.085814185 0.04075368
000130 50 ac 8a bd 32 83 bc 3c 27 d5 1f bd b2 2f 12 3e
       -0.06771147 0.023011778 -0.039021637 0.14276007
000140 0f da 89 3e c7 36 7e 3d 58 f7 1c bd a9 db 19 bd
       0.26924178 0.06206396 -0.038321823 -0.037563
000150 6b ed b2 bd 05 8d 9f 3e 0f cc 01 3e 7a 57 11 3e
       -0.0873669 0.31162277 0.12675498 0.14193526
000160 ae 43 fd 3d e5 da d8 3d d8 45 ce 3c fe d4 00 3e
       0.123664245 0.10588626 0.025179788 0.1258125
000170 53 12 48 3d 02 4d b3 3d 7d 98 a9 3d cd b0 18 3a
       0.0488456 0.087549224 0.08281038 0.0005824685
000180 34 99 4e 3e b3 a1 de bc 41 bd 23 3e 54 a6 64 3d
       0.2017563 -0.027176714 0.15990163 0.055822685
000190 0c 24 32 be 39 e5 f1 3c 1f e8 77 3d a7 70 23 3e
       -0.17396563 0.029528247 0.060524102 0.15960942
0001a0 5f 55 31 bd 99 35 08 3e 4c a7 29 bd 6e ed af bc
       -0.043294307 0.13301696 -0.041419312 -0.02147552
0001b0 a8 dc a0 3d c9 03 c1 bd e9 09 0c 3e d0 49 44 3e
       0.07854587 -0.0942455 0.13675655 0.19168782
0001c0 22 f4 05 bd b5 45 20 be c8 6f 97 3d f0 bc b6 3d
       -0.032703526 -0.15651591 0.073943675 0.08922756
0001d0 df 34 0c 3e 74 18 b8 3c 0a 0b 40 3d 37 47 26 3e
       0.13692044 0.022472598 0.046885528 0.16238104
0001e0 ac 6e d3 3c ff cf d5 3d 93 ac 06 3e 2a e9 f3 bd
       0.025809608 0.10440063 0.1315177 -0.11909707
0001f0 61 81 ef 3d 77 27 97 bd 52 23 80 3d ac 7b c3 bb
       0.11694599 -0.07380574 0.06256737 -0.0059656706
000200 3e a3 79 bd 66 4c 7e 3d b1 c3 13 be 7e cd 14 be
       -0.060946696 0.062084578 -0.14430119 -0.14531514
000210 5c de 0a bd ee 0f ac bc c0 dd d3 3d 39 f7 65 bd
       -0.033903465 -0.02100369 0.1034503 -0.056143973
000220 c1 6d 02 be 08 62 a4 bd 7f ee 1d be 2a c0 bc bd
       -0.1273718 -0.080265105 -0.1542301 -0.0921634
000230 b6 96 50 3d 77 57 3e bd 2b 67 84 bd 76 1b a8 3d
       0.05092498 -0.04647013 -0.0646499 0.08208363
000240 59 8f 21 3d dc b0 1b 3e 70 01 81 3d 3b eb 3b be
       0.039443348 0.15204185 0.06299102 -0.18351452
000250 c4 9c 8b bd 23 1d 40 3d 29 2a b2 3d 23 d4 31 3e
       -0.0681701 0.046902787 0.08699448 0.1736608
000260 d9 3f 22 3e e0 42 4d bc 48 61 58 3d 94 e2 83 bd
       0.15844668 -0.012528151 0.05282715 -0.06439701
000270 3d 02 18 bd fe cd fb bc 16 d3 ae bc 77 16 15 3c
       -0.03711151 -0.030737873 -0.021340888 0.009099594
000280 63 b6 6f 3e dd 7a 96 bc 84 5f 71 3e 6f 66 24 bd
       0.23409419 -0.018369133 0.23571593 -0.04013675
000290 87 93 04 bd 47 83 4a bd 3b 29 c5 3c 52 e0 e8 3d
       -0.032367256 -0.049441602 0.024067512 0.11370911
0002a0 f7 1d c3 bc 72 42 af 3b b1 e9 29 3c c2 d3 66 be
       -0.023818 0.005348497 0.010370658 -0.22541717
0002b0 02 6b ae bd 79 9b 53 3d ee 58 37 3e f3 7f fd bc
       -0.08516504 0.051661942 0.17905018 -0.0309448
0002c0 2d 1b 63 bd 03 d2 06 3d f1 7a 09 3e 38 0e 05 3e
       -0.05544584 0.032915127 0.13425805 0.12993705
0002d0 f8 3e a0 3d 7f 41 27 3c 70 b2 72 3b e1 0a 2e bc
       0.0782451 0.010208487 0.0037032627 -0.010622711
0002e0 e5 e2 e3 b6 49 11 53 bc 1e ad b4 3c e0 3b 64 bd
       -6.791541e-06 -0.012882539 0.022055205 -0.055721164
0002f0 83 cf f5 3c ff 74 d7 3b a9 2b 72 3d 5d 03 1e bd
       0.030006176 0.0065752263 0.05912367 -0.038577426
000300 8f 6b 87 bd bf 82 a9 3d 6b 02 d6 3c 30 63 43 bc
       -0.06612312 0.08276891 0.0261242 -0.011925504
000310 e8 91 97 3c 5e de 19 be 7c 99 ed 3d c7 5e 6c 3d
       0.01850219 -0.15026233 0.116015404 0.057707574
000320 1f 0d cc bd 0e 9e 53 3d a9 d1 0b be e4 46 f7 3b
       -0.0996344 0.051664405 -0.13654198 0.0075462926
000330 ee b0 bb 3d 3f 19 cb 3d db b4 d7 bd 05 4e 8a bd
       0.09164606 0.09916925 -0.10532542 -0.06753162
000340 02 62 23 3e 82 92 0f 3e b0 7d 1f be d5 8c 01 bd
       0.15955356 0.14020732 -0.1557529 -0.03162845
000350 e3 5d 5e bd ab 45 12 bd 25 a5 66 bc 07 3e b1 bd
       -0.054288756 -0.03571097 -0.014077459 -0.08654409
000360 38 05 69 bd f4 9f 5c 3d fe ed 30 3e a0 fa 2a 3e
       -0.056889743 0.05386348 0.17278287 0.16697168
000370 8e 44 8a bd 19 28 3b be 9e 3f 02 3e 9b 9b d0 bd
       -0.06751357 -0.18277015 0.1271958 -0.101859294
000380 e6 21 24 be 6a 0e 1d be f7 7a 84 3d 54 cb bb 3d
       -0.16028556 -0.1533753 0.06468766 0.09169641
000390 07 13 3e 3e 83 65 e2 3d 27 6b c1 bc 48 b2 a7 bd
       0.18561946 0.11054518 -0.023610665 -0.08188301
0003a0 f2 66 e2 3d 34 cc bd bc 04 ac 00 bc 6f f1 56 3d
       0.110547915 -0.02316866 -0.007853512 0.052476343
0003b0 79 1a 45 be 3c 66 2b 3d c4 0f 96 bd 65 9a db bd
       -0.1924838 0.041845545 -0.07327226 -0.10722808
0003c0 d1 03 56 bc 15 69 89 bd 65 14 ad bd f3 6c 67 bc
       -0.013062433 -0.06709496 -0.084511556 -0.014125097
0003d0 ab 6a 2a 3e d8 34 38 3d 6a 20 87 bd 15 49 a4 3d
       0.16642253 0.04497227 -0.06597979 0.08021752
0003e0 38 f7 27 be a9 ed 4e 3d 19 d8 5b bd 4c c2 3a 3d
       -0.164029 0.05051962 -0.053672884 0.045595452
0003f0 85 b8 6f 3d 86 ba 35 bd 29 e2 10 3e 8e e6 11 bd
       0.05852558 -0.044367336 0.14148773 -0.035620265

linear_relu_stack.4.bias f4 [128]
000000 5a 1d dc 3a 5e 2a 11 bd f2 73 39 bd 94 5c c2 3d
       0.0016793415 -0.035440795 -0.04527659 0.09490314
000010 4b 2f b7 3d ff e5 95 3c 8c 04 e6 bc 6c 43 13 bd
       0.08944567 0.018298147 -0.02807834 -0.03595297
000020 05 4d 28 be 46 42 d7 bd d1 4b 25 bd 11 b8 2d 3a
       -0.1643563 -0.105106875 -0.040355507 0.00066268543
000030 4b 31 ed bd 0c 44 e9 bd 82 f6 83 3c fa 2c 09 3d
       -0.115816675 -0.11389932 0.016108755 0.03349016
000040 f8 ae 0d be 75 91 f6 3d 7d 85 b1 3c 23 86 26 3c
       -0.13836277 0.120394625 0.021670097 0.010163817
000050 91 d5 2b 3c 35 70 83 bd ca 41 ff bd e8 ff bf bd
       0.01048793 -0.06417886 -0.1246372 -0.09374982
000060 1b de 9a bd b7 74 00 be 55 65 29 be 4a 93 93 3c
       -0.075618945 -0.12544523 -0.16542561 0.018014569
000070 01 9b 22 bd 4d f3 90 bd d2 00 85 bd 60 97 8e bd
       -0.039698604 -0.07077656 -0.06494297 -0.06962466
000080 1b 6b 3c be e3 49 98 bd 19 11 cf bd c6 7b b5 bd
       -0.18400232 -0.07435968 -0.10110683 -0.088614985
000090 b5 ba 01 3e 61 dc 80 bd 79 bb b1 bd 3e 62 b0 bc
       0.1266888 -0.06292034 -0.08678336 -0.02153122
0000a0 3d 01 84 3c f2 fb a7 bd 95 f3 86 bd 56 81 39 3d
       0.016113872 -0.08202352 -0.06589428 0.04528936
0000b0 e8 2e 78 bd fc 79 2a 3d 0a c5 79 3d d1 d9 c6 bd
       -0.06059161 0.04162024 0.060978927 -0.09709514
0000c0 94 66 53 3c 5e 50 9c bd e3 64 0a be c0 93 d6 3c
       0.0129028745 -0.07632516 -0.13515048 0.0261935
0000d0 06 8d 89 bc 4f 5f ac bd 79 91 82 3d a0 5e 40 be
       -0.016790878 -0.08416616 0.06375403 -0.18786097
0000e0 7a 1b 5e bc 2a d3 e6 bd d5 e7 1d be 31 20 d7 3d
       -0.013556356 -0.11270745 -0.15420468 0.10504187
0000f0 14 f3 23 3b ba 00 4b 3d 98 9e 59 bd 8a 04 2f 3c
       0.0025016712 0.04956124 -0.053129762 0.010682235
000100 32 70 7d bd 9a 2d 08 be 12 c0 01 be 88 b1 83 bc
       -0.061874576 -0.13298646 -0.12670925 -0.016075864
000110 2d ce 0c bc fc 56 a8 bd 2c 4d 18 be fd 13 f6 bd
       -0.008594078 -0.08219716 -0.14873189 -0.12015531
000120 85 3f 5f bd 96 03 0f be ef a3 24 3d f3 e3 0d be
       -0.054503936 -0.13966212 0.0401954 -0.13856487
000130 09 e6 a8 3d cf 28 6c 3c d5 8c 98 bd 3e 6e f5 3c
       0.08247001 0.014414026 -0.074487366 0.029959794
000140 0c c2 f2 3d 76 4b 32 be 07 d8 a4 bd a2 b3 e9 bd
       0.11853418 -0.17411599 -0.080490164 -0.11411215
000150 32 4e ca bd f9 da 33 3c ba f1 c5 3d 55 4a 02 be
       -0.09878196 0.0109775 0.09665246 -0.12723668
000160 ae a1 4d be b8 94 f8 bd 65 d2 35 3d e6 92 cb bd
       -0.20081207 -0.12137741 0.0443901 -0.09940128
000170 df 60 03 3e 8f 4e ff bb 0b 73 bf bc 24 44 61 3d
       0.12829922 -0.0077913473 -0.023370286 0.054996625
000180 4a f5 94 bc c1 d9 37 3d 5d 20 18 be b0 38 d7 bd
       -0.01818337 0.0448854 -0.14856096 -0.10508859
000190 b9 23 e7 b9 92 61 05 be c8 03 a5 bd 50 ec 8e 3d
       -0.0004408637 -0.13025501 -0.08057362 0.06978667
0001a0 9e e2 19 be b8 97 bf bd 80 be 94 3d ac ea 33 3d
       -0.15027854 -0.0935511 0.072628975 0.043924972
0001b0 7f 6b 4b bd 30 77 99 3d e5 43 7e 3d 52 b6 c1 bd
       -0.049663063 0.07493436 0.062076468 -0.09458603
0001c0 de 88 30 be 5d 19 37 3d 35 74 85 bc 59 b6 7b bd
       -0.1723971 0.044701923 -0.016290763 -0.061453197
0001d0 8e 0c 64 bd 92 9b 24 bd f8 84 c4 bd 7e 4e c7 bd
       -0.055676036 -0.040187426 -0.09595674 -0.09731768
0001e0 fe 43 05 be 5f cb 75 bc 6e 80 44 be 29 c3 6b bd
       -0.13014218 -0.015002101 -0.19189617 -0.057559166
0001f0 cb 3c 67 3d 06 17 85 bd e5 9f fe bd fe 0b c6 bd
       0.05645446 -0.06498532 -0.12432841 -0.09670256

linear_relu_stack.6.weight f4 [64, 128]
000000 0d c5 9e bd d7 47 7a 3d a3 b0 da 3d 1b b9 c6 bc
       -0.07752428 0.061103668 0.10678222 -0.024258187
000010 7a 25 40 bd e0 8e 86 3c 14 04 e8 bc 3e 35 1d 3d
       -0.04691074 0.01642555 -0.028322257 0.038380854
000020 eb c8 52 bc 66 42 1b 3c 4a 01 d0 bd ee c2 2b 3e
       -0.012865285 0.00947628 -0.10156496 0.16773579
000030 9c 69 dd 3d 45 b9 81 3d 9a a4 0f 3e e0 c7 8e 3d
       0.10811159 0.063341655 0.14027634 0.06971717
000040 77 40 72 3d a0 4a ad b9 c3 eb a9 3d 4b b2 8a bd
       0.05914351 -0.0003305273 0.08296921 -0.06772288
000050 d5 4a 00 3e 5f 01 21 3d 8f 39 f3 3c 46 e3 ea 3c
       0.12528546 0.03930795 0.029690532 0.028672826
000060 3e df a3 bc c4 a2 63 bd f4 9e 2d 3c e4 4a 44 bc
       -0.020003911 -0.055575147 0.010596979 -0.011980746
000070 96 bd 9d 3c 65 c1 41 bc 72 a0 70 3d d0 eb de 3d
       0.01925544 -0.011825894 0.058746763 0.108848214
000080 22 79 e8 3d 82 3e a0 bc 20 f8 5d 3e 43 47 81 3d
       0.11351229 -0.019561056 0.21676683 0.0631242
000090 d8 2b 1e bd 71 8b 59 bc 63 61 49 bd 15 df 64 bd
       -0.03861603 -0.013277874 -0.04916514 -0.05587681
0000a0 1c 4b 8a bc 2e d9 f5 3d 75 68 4a bc 75 45 b7 3d
       -0.016881518 0.12004314 -0.012354006 0.08948795
0000b0 85 f3 d5 3d c6 51 a3 3d 28 c0 90 3c 93 31 a4 3b
       0.10446838 0.079745814 0.017669752 0.0050107925
0000c0 21 7d f0 bd b9 82 49 bd 78 b4 48 bd aa a4 1b bc
       -0.117426164 -0.049196932 -0.049000233 -0.009499708
0000d0 4c 6c 4c 3d ef 05 a6 3d b1 59 9c 3d 5d 0f f6 b9
       0.049907967 0.081066005 0.07634295 -0.00046932223
0000e0 39 1e e3 bd 16 36 81 3d 0a c5 c4 3c e5 5c 8b 3d
       -0.11089749 0.06309144 0.024019737 0.068048276
0000f0 b8 a8 58 3d 50 eb 3a 3e 74 a8 c7 3d 25 35 80 bd
       0.052895278 0.18253827 0.09748927 -0.062601365
000100 ad 64 c8 3d 2e f3 f6 bd 1f ac e7 3d 3d 9e 09 bb
       0.097848274 -0.120581016 0.11312126 -0.0020998858
000110 97 66 e7 3a 9a 4a c2 3d 6c e5 97 3d 0b df 8d 3d
       0.0017654476 0.09486885 0.074168056 0.06927308
000120 6c 9d 98 bd 11 11 21 3d 01 28 9f 3d 3c 16 ae bd
       -0.07451901 0.039322916 0.07771302 -0.085003346
000130 5d b3 6c 3d f5 a4 a7 3d e8 c0 37 bd 29 00 37 3c
       0.05778824 0.0818576 -0.044861704 0.011169472
000140 1c 05 ba 3c 77 1b 5a bc ec 9d de bb 12 45 38 3d
       0.022707514 -0.013312212 -0.006793728 0.044987746
000150 20 24 75 bd bb ac 74 3e 28 93 80 bd 0b 4e 97 3b
       -0.059848905 0.23894016 -0.06278068 0.0046174577
000160 32 a6 f0 3d 3b e3 1c 3e f8 ec 16 3d be 94 22 3c
       0.11750449 0.15321057 0.036847085 0.009923158
000170 7f 03 fc 3d c1 fa 5a 3d 16 c1 c0 3c f2 ae 51 3d
       0.12305354 0.053461794 0.02352957 0.05119223
000180 46 26 18 3d 12 4d 75 3c 9e 05 19 3e 19 75 00 3d
       0.037145875 0.014971988 0.14943549 0.031361673
000190 e6 1e c1 3d 28 9b d4 3d e6 d3 75 bd b2 4c 02 3d
       0.094297215 0.10381156 -0.060016535 0.031811424
0001a0 04 5c 3d 3c 79 d0 1a ba 45 55 b9 3c d5 3b 2f 3c
       0.011557583 -0.00059056986 0.022623667 0.010695417
0001b0 9b 80 10 bc 4e 08 b3 bd 8e cf 15 bd eb 57 02 3d
       -0.008819724 -0.08741818 -0.036574893 0.031822126
0001c0 ba 1c b6 3d 99 07 3f bd 05 bf ae 3c bc ad 73 3e
       0.08892198 -0.046638105 0.02133132 0.23796743
0001d0 37 0d 83 bd 75 41 5c 3d 90 9b fd ba 82 b6 00 3e
       -0.06399005 0.053773362 -0.0019348729 0.12569621
0001e0 f6 ea 85 3c ad 40 85 3d 7c b0 fd 3c db 71 c8 3d
       0.01634739 0.065064766 0.030967943 0.09787341
0001f0 a0 05 a3 3d 80 71 22 3e 29 fe d1 bc 84 05 a0 3d
       0.07960057 0.1586361 -0.025633888 0.07813552
000200 a0 4b f2 3d 14 63 2a bd c1 9b 92 3c a6 cc dd bd
       0.118308306 -0.041598395 0.017896535 -0.10830049
000210 52 37 61 bc 8d 2d 24 be f6 b9 67 bd 0b 58 0f be
       -0.0137461 -0.16033001 -0.05657383 -0.1399843
000220 e3 ca 12 be 05 e7 4a bc 81 76 04 be 89 01 04 3e
       -0.14335208 -0.012384181 -0.1293583 0.1289121
000230 4f a3 94 bd 4d 17 b5 b9 8b c8 59 3d 11 37 1d be
       -0.07257711 -0.0003454037 0.05316977 -0.15353037
000240 fb 33 0f be bf 86 40 be 0b 37 58 3d ed 7c 63 bb
       -0.13984673 -0.18801402 0.052786868 -0.0034711913
000250 b0 e4 9b bd 90 fe 77 3d 9d 8f 8e bd 2e 64 61 bd
       -0.07611978 0.060545504 -0.06960986 -0.05502718
000260 98 0d d1 3c 8e 9e 2a 3e 0d b7 d6 3d 52 38 69 3d
       0.025519177 0.16662046 0.10484133 0.056938477
000270 fa 29 d7 bd 73 01 a5 3d 44 4e e5 bc de bc f0 bc
       -0.10506053 0.08056917 -0.027991422 -0.029386934
000280 42 78 ca 3d c1 6d d3 bd 80 5f 71 3d f2 36 15 3b
       0.098862186 -0.10323668 0.058928967 0.0022768346
000290 fd 82 7c be 63 d5 ee 3d 0a de 1c 3d 79 d6 47 be
       -0.24659343 0.11661794 0.03829769 -0.19515409
0002a0 c3 8e d7 3c 45 97 40 bd 20 71 da bd 01 95 8f bd
       0.026313191 -0.047019262 -0.10666108 -0.07010842
0002b0 4a d2 02 bd 21 90 59 bd 17 ae 8d 3d 30 99 5a bd
       -0.03193883 -0.053115968 0.06917971 -0.053368747
0002c0 5b 79 1b 3e f3 e1 bc 3c b6 ef 1b bd fd a5 3a 3e
       0.15183012 0.02305696 -0.038070403 0.18227382
0002d0 e7 79 07 3e c8 f2 53 be 08 8c 0b 3e 27 ff 14 bd
       0.13230096 -0.20698082 0.13627636 -0.036376145
0002e0 03 05 37 3d ba 8e 2b 3d 12 af ce 3d eb 7f 99 3d
       0.044682514 0.04188416 0.10091986 0.074951015
0002f0 2c 5e dc 3c dd 0d 8a bd d6 79 a8 bd bd 2d 88 3d
       0.026900373 -0.067409255 -0.08226363 0.06649349
000300 6d 1f f7 3d b8 fa a7 bd 99 f7 fb 3d d2 24 23 bd
       0.12066541 -0.08202118 0.12303085 -0.039830036
000310 a4 af c7 bd e6 ae d6 bd e0 f7 84 bc c1 87 83 be
       -0.09750298 -0.10482578 -0.016231477 -0.2568951
000320 c0 93 f4 3d 72 f2 fc bb 30 3b ac bd 73 c0 ae 3b
       0.119422436 -0.0077193314 -0.084097266 0.0053330003
000330 77 bc 32 be 77 63 03 3d da b9 01 3e 8f af 84 3c
       -0.17454706 0.03207728 0.12668553 0.016196994
000340 3c e3 77 3d 84 7d d5 bd f8 45 77 bd a5 91 87 3d
       0.060519442 -0.10424331 -0.06036946 0.06619576
000350 d5 e2 7f 3c af 6d 13 bd 02 7e 04 3d de 2e 57 3d
       0.015618046 -0.035993274 0.032346733 0.05253493
000360 5f fe 0a be 8b 45 ad bd 98 ed 35 3e 18 ea 85 bd
       -0.13573597 -0.0846053 0.17766416 -0.065387905
000370 36 a9 61 3d ae 80 f4 3c dd 7f 8d 3d 2b 1c bb 3d
       0.055093013 0.029846516 0.069091536 0.09136232
000380 e8 67 85 bd 69 c4 1d bd 13 2d ca bc 04 44 51 bc
       -0.06513959 -0.03851739 -0.024679696 -0.012772564
000390 54 99 64 3b 28 2a 32 3c df 2e 05 be de f4 d8 bc
       0.003488143 0.010874309 -0.13006161 -0.02648395
0003a0 0d 6b 8f bd 5a 5e 1e bd 0c d7 df bc 11 69 1b bc
       -0.0700284 -0.0386642 -0.027324222 -0.009485499
0003b0 a1 91 59 bd 2a e5 ec bc ca a4 dc bd 85 e0 8d bd
       -0.0531174 -0.028917868 -0.107736185 -0.06927589
0003c0 32 65 88 bd 04 b5 18 3c f4 ed 9e 3b 7c 56 93 bd
       -0.066599265 0.009320501 0.0048501436 -0.0719423
0003d0 6f 45 bf bd 3d 4b 21 3c e2 f3 3a bc ce 38 d8 bc
       -0.09339415 0.009844598 -0.011410685 -0.026394274
0003e0 45 90 0d 3c ec ae 31 3d 82 2f bf 3c 43 ab dc bd
       0.008640354 0.04337971 0.023338083 -0.10774853
0003f0 6a aa 5a 3d 1d 46 df bd e4 3f 03 3e 55 04 a6 3d
       0.053385176 -0.10902045 0.12817341 0.08106295

linear_relu_stack.6.bias f4 [64]
000000 a9 f0 65 3c a9 0e a3 3d 76 4d 40 bd d9 c4 e0 bd
       0.014034429 0.079617806 -0.046948873 -0.10975046
000010 2e 18 b9 3c 29 ed db bd 6e cc e5 bd e2 28 13 be
       0.022594538 -0.10738594 -0.112206325 -0.14371064
000020 cd 8a d4 bd d4 e3 84 bc 09 7f 07 be fa 18 88 bd
       -0.10378037 -0.016221918 -0.13232054 -0.06645389
000030 e1 1e bf 3b 96 22 2c be c4 57 92 3d 40 1c 5b bd
       0.0058325385 -0.16810068 0.07145646 -0.05349374
000040 f5 9b 92 3d 55 8a 47 bd 34 6f 74 3d 3d 64 82 3d
       0.07158653 -0.048715908 0.059676364 0.06366775
000050 dd 91 08 be 44 cf ce 3c 99 09 df bd 1f 4b 46 bc
       -0.13336892 0.025245316 -0.108905025 -0.012102871
000060 2b 8d 07 bd 28 80 28 be e4 88 e2 bb 99 43 6a bd
       -0.033093613 -0.16455138 -0.0069132913 -0.057193372
000070 30 da 2e bd d2 f9 6f 3d 62 97 00 bd bc b6 0a bd
       -0.04268855 0.058587857 -0.03139437 -0.033865675
000080 7c fd 01 3b 42 5f c0 3d 39 d8 97 bd d1 18 9b bd
       0.0019834926 0.09393169 -0.07414288 -0.07573093
000090 76 98 e3 3d 64 9a f5 3b 00 67 f2 3c c7 30 45 bd
       0.11113064 0.0074952114 0.02959013 -0.04814222
0000a0 f2 45 42 bd 73 a9 0d 3c ae 2e 10 3c be e4 ce bb
       -0.047429986 0.008646357 0.008800192 -0.0063138893
0000b0 8c 89 25 bd fe 8c 8e 3c 8d 0e 5f bd 7d e7 91 b9
       -0.040414378 0.017401215 -0.054457236 -0.00027829027
0000c0 d0 f2 fa bd 20 12 dd bc 0c 6e 25 3d 90 6c b6 3c
       -0.12253344 -0.026986182 0.040388152 0.022268564
0000d0 28 fe 45 bd 8a 81 3c be 6f 18 89 bd 90 6c 32 bd
       -0.048338085 -0.1840879 -0.066941135 -0.043560565
0000e0 ce a7 53 bd c1 10 36 bd ae 3b 92 3d 7f ce eb 3c
       -0.051673703 -0.04444957 0.07140289 0.028784988
0000f0 57 dc 98 bd b3 af 2f bd 23 b7 e7 bc 63 41 55 bd
       -0.074639015 -0.04289217 -0.028285569 -0.05206431

linear_relu_stack.8.weight f4 [32, 64]
000000 fb 10 c7 bd 66 32 a7 bd b3 80 63 bd 64 f8 13 3e
       -0.09720036 -0.081639096 -0.05554266 0.14450222
000010 f3 6c b6 3c cb 8b cd bd 72 7e be 3b a0 97 a9 bd
       0.022268748 -0.10036429 0.0058134133 -0.08280873
000020 ad db 92 bd 1b a4 e9 3d 0d 49 f1 3c 4c 22 a6 bd
       -0.07170806 0.11408254 0.029453779 -0.0811201
000030 53 45 00 bd 17 0f c9 3d 0c 1e 37 be 54 1c 46 bd
       -0.031316113 0.09817331 -0.17882556 -0.04836686
000040 a0 45 84 3d 37 4e cc 3c c2 9c e8 3c 85 dc 06 3d
       0.064585924 0.02493964 0.02839506 0.032925148
000050 36 ee c7 3d f4 bd 06 bd 9b 52 29 be de 2e 3e bd
       0.09762232 -0.032895997 -0.16535418 -0.046431415
000060 a6 8a 1d 3d 1a ef 84 bc 13 d5 2b 3b 57 92 ee 3d
       0.038462304 -0.016227294 0.0026219531 0.11649006
000070 7f 5c 3b be 9d 8a 21 bd 0a 27 d4 3d bb 37 dd 3c
       -0.18297003 -0.039438833 0.103590086 0.027004113
000080 97 04 c0 3d 83 23 d7 bc 71 16 03 3e a3 33 d2 3c
       0.093758754 -0.02626205 0.1280153 0.025659388
000090 30 9c 7e bd 29 89 77 3c 13 c8 7a 3d b3 f2 ad bd
       -0.06216067 0.015108385 0.061225962 -0.08493557
0000a0 93 bb 62 3d 38 eb 14 3b 5b fb 4b be 2d c7 19 be
       0.055354666 0.002272321 -0.19920103 -0.15017386
0000b0 02 d8 5c 3c 44 e5 da bd df f7 9e 3c e7 46 02 be
       0.013479235 -0.1068826 0.019405304 -0.1272236
0000c0 07 6a b5 bb e1 5c f8 3c df 6f bc bd 04 1e fe bc
       -0.005536321 0.030317726 -0.09201025 -0.031020172
0000d0 91 2a eb 3d d8 7e ee bc 82 cb 92 bc 09 6d f5 bc
       0.11482728 -0.029113218 -0.017919306 -0.029959219
0000e0 18 d4 ea ba 43 c7 e7 bb 18 1c 4c 3c cf 8f 34 bc
       -0.0017915992 -0.0070733144 0.01245787 -0.011020615
0000f0 73 25 3a bd e5 cd 66 bd b4 37 81 3d 4f 9c a2 3d
       -0.04544587 -0.0563487 0.06309453 0.0793997
000100 ba e8 07 3e e7 c5 a1 bd a6 de 6f bb bf 1c 82 bc
       0.13272372 -0.07899075 -0.0036601215 -0.015882848
000110 60 20 c6 3d 5f f2 63 be 75 3c 15 3e 40 1a 25 bd
       0.09674144 -0.22260426 0.14573844 -0.040308237
000120 cc a7 1e be 09 1d a9 bd ed 27 b6 bb ab d1 d4 bd
       -0.15493697 -0.08257491 -0.0055589587 -0.103915535
000130 5a 20 18 be 6d f8 e8 3d e5 18 a6 3d f8 c3 8d bd
       -0.14856091 0.113755085 0.08110217 -0.06922144
000140 41 a8 52 be 84 e4 9b 3d 72 e6 17 be 1b 4d 85 3d
       -0.20571996 0.07611945 -0.14834002 0.06508847
000150 f9 52 56 3d b6 8d d5 3c a5 f5 24 bd 09 e3 4d 3c
       0.052325223 0.02606855 -0.040273327 0.012566336
000160 33 a3 10 3c 3a e7 fc 3d 10 08 20 3c e5 fb 35 3d
       0.008827972 0.123487905 0.009767547 0.04442968
000170 97 0e 09 bc d3 76 97 3c 2e 5a 18 3d 0d a5 e7 bd
       -0.008365295 0.018489277 0.037195377 -0.11310778
000180 b7 62 ea 3d 35 7d 6a 3e dd 67 59 be aa 64 fb 3c
       0.114446096 0.22899325 -0.21231027 0.030687649
000190 17 82 d6 bd df 55 2d 3d 54 7c 98 3a 2f e5 68 bd
       -0.104740314 0.04231822 0.0011633732 -0.05685919
0001a0 1c 21 02 be 93 3f 26 3e 2b 26 80 bd 87 cb 0f bd
       -0.12707943 0.16235189 -0.0625728 -0.03510621
0001b0 43 f1 78 3d 6c c6 2a 3b 7d dd 46 bd 2e 07 24 be
       0.06077696 0.002605821 -0.04855107 -0.16018364
0001c0 64 94 1d be 47 6a 73 be 5f ad 2b be 14 48 52 3d
       -0.15388638 -0.2377101 -0.16765355 0.05133827
0001d0 41 10 75 3d e3 ee dd bd f1 48 70 bd e0 3b 82 3d
       0.059829954 -0.1083658 -0.058663312 0.063590765
0001e0 2b ce 4a 3d a5 54 1c be ae 32 63 3d 75 69 fc 3c
       0.049513023 -0.15266664 0.055468254 0.030812005
0001f0 15 c0 3b be 1c e5 31 3e 99 54 59 3c 78 9d 73 bd
       -0.18334992 0.17372555 0.013264799 -0.059476346
000200 28 cc a9 bb 6b 13 c1 3c 25 ee 58 3d 87 ed 1c 3e
       -0.005181808 0.02356883 0.052961487 0.15324984
000210 20 ff 8e bc ca c9 1c be ba b9 09 be 2f 9e 6f 3d
       -0.017455637 -0.15311351 -0.13449755 0.058500465
000220 e6 71 d6 3c af 2b 71 3c 50 2b 31 3e 95 c7 da bd
       0.026177358 0.014719888 0.17301679 -0.106825985
000230 07 57 6e 3d 8c 23 d5 3a 1b f9 dd 3d e4 fc 7c 3d
       0.058188464 0.0016261204 0.10838529 0.061764613
000240 ca 0b e3 bd 0e fe a8 3d 0f 1c bd bd c2 6f c5 bd
       -0.11086233 0.08251582 -0.092338674 -0.09640457
000250 53 46 7d bd a2 d9 8a 3d 97 25 ac bc ab b8 07 bd
       -0.061834645 0.067797914 -0.021014018 -0.033135097
000260 c2 bf b0 bb 1a c3 e0 3d c7 a6 ca 3d 55 d6 ea 3c
       -0.005393953 0.10974713 0.098950915 0.028666655
000270 61 a8 9c bd ac 91 18 3d 64 05 e7 3d 30 90 8e 3d
       -0.07649303 0.0372483 0.11280325 0.06961095
000280 3c ff 64 3d 51 67 bb bc 88 49 f2 3c f5 f5 55 3e
       0.055907473 -0.022876414 0.029576078 0.20894606
000290 bc 29 e1 bc ba 9e 2a 3c da be 58 3d 9b f8 fd bc
       -0.02748572 0.01041382 0.052916385 -0.031002333
0002a0 8b 6a 45 3e 20 1d 8b bd 58 78 a8 bd 21 9a 95 3c
       0.19278924 -0.067926645 -0.08226079 0.018261971
0002b0 82 1c db 3c 36 fd 9f bd 1d df 55 3d 25 51 8f bd
       0.026746992 -0.07811968 0.05221473 -0.06997899
0002c0 4a 51 6e bc 6d 79 0f 3d cf 10 73 bd ce 51 b1 bd
       -0.014545748 0.03502791 -0.0593422 -0.08658181
0002d0 ad 61 c7 bd 47 dc 5f 3d a9 c4 42 3d 0d b8 7b bd
       -0.09735427 0.054653432 0.04755083 -0.06145482
0002e0 b6 ff 97 3d 12 e6 d2 3c 48 08 2d bd 45 70 12 be
       0.0742182 0.025744472 -0.042244226 -0.1430064
0002f0 41 3d 2d bd 70 c1 29 3d a7 4c 21 3d c1 3c 13 3d
       -0.042294744 0.041444242 0.039379742 0.03594661
000300 14 44 d0 3d b1 ec 2e bd 62 81 8a bc 4f 60 ee 3c
       0.10169235 -0.042706195 -0.016907398 0.029098658
000310 ac 3f de bd 13 ea 7b bb c2 1c b9 3c 1d e1 bd 3c
       -0.10851988 -0.003843908 0.02259672 0.023178631
000320 4d 9b a1 3d 8a 45 ca bc 24 64 d8 bc e8 d5 6c 3d
       0.078909494 -0.024691362 -0.026414938 0.057821184
000330 41 4b 83 bd 56 e6 88 3b 31 c2 fd 3d 4c 63 cf bd
       -0.06410838 0.004177849 0.12390555 -0.10126361
000340 21 32 ff 3b 63 63 3f 3e 3b 6e 36 3e 4f fd c0 3d
       0.0077879583 0.18690257 0.17815487 0.09423315
000350 9c 33 2c bd ea ed c0 3c fb ce 21 3e e2 bc b9 3d
       -0.042041406 0.023550946 0.15801613 0.0906923
000360 5c de 95 3c bb cb 17 3e 39 1c 31 3d 5e 1d dd bc
       0.018294506 0.14823811 0.043239806 -0.026991542
000370 b4 52 9a bd 3a e0 1f be 77 2c 6e 3c b1 5c 58 3d
       -0.075353056 -0.1561288 0.014536968 0.052822772
000380 dc 28 e9 bd 1e 32 77 3d 67 75 46 3d 65 ff 04 3d
       -0.113847464 0.06035053 0.048451807 0.032470126
000390 9a 13 2f be 14 84 45 bd 2b 46 7e bc 09 6c 84 3e
       -0.17097321 -0.048221663 -0.015519659 0.25863674
0003a0 2e 20 33 be bb c0 6b 3b 82 68 88 3d 70 95 07 be
       -0.17492744 0.003597303 0.06660558 -0.132406
0003b0 94 47 9b 3d 5a 08 60 bd bf 6b 1d bc 6a c1 9e bc
       0.07582012 -0.054695465 -0.009608208 -0.019379336
0003c0 a9 73 56 be 9d 4c 81 bc 73 61 3d bc 18 31 6c be
       -0.20942558 -0.015783602 -0.011558878 -0.23065603
0003d0 39 f1 16 3d 01 b6 4e bd f1 57 a2 bd 03 d5 0c bc
       0.03685114 -0.05046654 -0.0792693 -0.008595708
0003e0 89 5e 27 bd 53 6c af bd 34 4d 1e 3e 5b 73 af 3d
       -0.04086164 -0.08565583 0.15459138 0.08566924
0003f0 7b 0a d3 3b ff 32 f9 3d c1 6b ab 3d 08 d5 0f bc
       0.0064404584 0.1216793 0.08370162 -0.008778818

linear_relu_stack.8.bias f4 [32]
000000 0a 1d 27 be 36 22 8b 3d f4 23 b8 bd c1 dd 6a 3d
       -0.16319671 0.067936346 -0.089912325 0.057340387
000010 7b a6 e6 bd 88 ad 7a 3b f8 77 54 bc fe 69 3e 3d
       -0.112622224 0.0038250405 -0.012968056 0.0464878
000020 7e 1c 08 bd a3 56 9d bd 7c b1 85 bd d5 92 1c bd
       -0.033230297 -0.0768254 -0.06527993 -0.038225967
000030 9b 09 8d bd 9d 45 8d 3c b9 5d 36 3d 29 f5 4f bd
       -0.06886598 0.017245108 0.044522975 -0.050770912
000040 d3 f0 99 3d 47 f5 d5 3d 1b 35 af bd d1 a5 d6 bd
       0.07516637 0.104471736 -0.08555051 -0.10480846
000050 3b 2c 27 bd bc f9 60 bc 9d 2f 61 3b 4d 2b 2f bd
       -0.040813666 -0.013731416 0.0034360655 -0.042765904
000060 a1 6f 38 bd ac 16 6b bc 4f a0 7c bd a6 cd a9 bd
       -0.045028333 -0.014348667 -0.06167632 -0.082911775
000070 c9 8a 9c 3d 70 fa 56 3d 01 de d0 ba 89 d3 a1 bd
       0.07643659 0.05248493 -0.0015935303 -0.07901675

linear_relu_stack.10.weight f4 [1, 32]
000000 da 11 0c bb d2 76 9b 3d 73 97 27 3e b8 04 37 be
       -0.0021372945 0.075910226 0.16366367 -0.17872894
000010 43 67 4a 3d 52 e5 ac b9 dd 93 24 b8 ce ee fe 3d
       0.049414884 -0.00032977253 -3.9238355e-05 0.12447892
000020 5a f3 30 bc f3 6d 9b bd 32 84 7b bd f1 3b 97 3d
       -0.010800207 -0.075893305 -0.06140537 0.0738448
000030 5d 34 2e 3e 4e 52 2c 3e e7 e3 a0 bd e5 00 81 bd
       0.17012163 0.16828272 -0.07855969 -0.06298999
000040 04 cc 28 3a 08 43 6f 3d 2d 2e 17 bd 89 5b 00 3d
       0.0006439092 0.058413535 -0.03690927 0.031337295
000050 4a 0d cc bd cf 97 dd 3d ab 35 46 3a 45 3c eb bd
       -0.09963472 0.10819971 0.0007561098 -0.11486105
000060 1b 77 2d 3d e2 a9 87 3c 63 1d 90 b8 bc 4d 4f 38
       0.042349916 0.016560499 -6.871929e-05 4.942504e-05
000070 a3 5b 54 3d 71 7e 72 bd 18 e5 02 be ba 68 65 3a
       0.051845204 -0.059202615 -0.12782705 0.0008751262
