model/pendulum_model_4.pth (torch, 88706 bytes, 11 tensors)

linear_relu_stack.0.weight f4 [32, 3]
0.46359146 -0.082937986 0.37619668 0.07840193 0.024178065 -0.36132294 -0.44686496 -0.36936986
-0.46965533 -0.3183863 -0.44042835 -0.20809491 0.45216587 -0.070485696 0.08194125 -0.5050741
-0.35692096 -0.10659468 -0.08194612 -0.4999456 0.36716044 -0.23050667 0.065953955 0.23118931
-0.13197884 0.5071091 0.4008645 0.5081948 0.10002807 -0.07730867 -0.19901535 -0.38980833
-0.22929193 -0.18005814 -0.32215363 0.5051487 0.49496552 0.34077004 -0.41250208 -0.3881357
0.16641392 -0.09788895 -0.31148717 -0.17256059 -0.4780201 -0.0708856 0.47469628 0.25945848
0.25119147 0.3886728 0.19963667 0.4137292 -0.5030526 0.35826042 0.41277537 0.55654234
0.34048724 -0.42194027 0.5512428 0.15067777 0.021237062 0.10181897 -0.2427959 -0.40534765
0.2576226 0.14281309 0.15614794 -0.47666848 -0.14726987 -0.067795604 0.24288034 0.33552969
0.55970603 0.5400995 -0.27426204 -0.05864356 -0.017170599 0.19878805 0.022533178 0.447204
-0.5635407 -0.55007327 0.43985555 0.33635145 -0.2154713 0.36135978 -0.08139443 0.38841337
0.44353488 -0.27672607 0.1599542 -0.4096967 0.48621997 0.26108626 -0.45723101 -0.5540795
00000000: dc5b ed3e 64db a9bd da9c c03e 3191 a03d
00000010: 1411 c63c 52ff b8be 7ccb e4be 0c1e bdbe
00000020: aa76 f0be 8703 a3be d37f e1be d516 55be
00000030: 4982 e73e ce5a 90bd d0d0 a73d 894c 01bf
00000040: 58be b6be 504e dabd 5ed3 a7bd dff8 ffbe
00000050: 74fc bb3e f109 6cbe de12 873d e4bc 6c3e
00000060: 7625 07be e7d1 013f 1d3e cd3e 0e19 023f
00000070: 84db cc3d 0254 9ebd aeca 4bbe f594 c7be
00000080: 81cb 6abe 2961 38be 52f1 a4be 6d51 013f
00000090: 1f6c fd3e 6979 ae3e 7933 d3be b9b9 c6be
000000a0: 6968 2a3e 007a c8bd 3f7b 9fbe b9b3 30be
000000b0: 0dbf f4be 782c 91bd 640b f33e bed7 843e
000000c0: 2b9c 803e 1f00 c73e 8e6d 4c3e 50d4 d33e
000000d0: 0ec8 00bf e96d b73e 4b57 d33e 8f79 0e3f
000000e0: 5854 ae3e 8e08 d8be 401e 0d3f 464b 1a3e
000000f0: 59f9 ad3c 7786 d03d 7d9f 78be ba89 cfbe
00000100: 1ce7 833e 983d 123e 3fe5 1f3e e40d f4be
00000110: eacd 16be 6cd8 8abd a0b5 783e 8cca ab3e
00000120: e548 0f3f f643 0a3f 136c 8cbe 3b34 70bd
00000130: 5ba9 8cbc 188f 4b3e 8097 b83c ecf7 e43e
00000140: 3444 10bf 9ad1 0cbf bf34 e13e 4236 ac3e
00000150: 82a4 5cbe 2604 b93e 1fb2 a6bd 1ede c63e
00000160: 0117 e33e 0aaf 8dbe 09cb 233e c4c3 d1be
00000170: d3f1 f83e 19ad 853e 2f1a eabe 27d8 0dbf

linear_relu_stack.0.bias f4 [32]
0.15182935 -0.4680567 0.21622306 -0.20374747 -0.4344192 0.052805163 -0.24257521 -0.3637201
0.059431445 -0.09871241 0.24071163 0.2306524 -0.11277737 0.060383406 0.53321356 -0.5031815
0.043129984 0.11572644 -0.14939283 0.46421537 -0.42667648 0.3423273 -0.029202389 0.092782184
-0.2631956 0.3892998 0.34960082 -0.12491153 -0.33947295 0.39084157 -0.19265315 0.37138268
00000000: 2779 1b3e 21a5 efbe 9469 5d3e 2da3 50be
00000010: 326c debe 3a4a 583d a365 78be 8539 babe
00000020: 636e 733d bb29 cabd 1c7d 763e 2530 6c3e
00000030: d2f7 e6bd 9754 773d af80 083f 81d0 00bf
00000040: 11a9 303d fc01 ed3d 6ffa 18be a3ad ed3e
00000050: 5775 dabe 8645 af3e d939 efbc 9604 be3d
00000060: 93c1 86be 4e52 c73e e1fe b23e 9ed1 ffbd
00000070: 66cf adbe 631c c83e de46 45be df25 be3e

linear_relu_stack.2.weight f4 [64, 32]
0.16129108 0.18753919 -0.18073931 0.12966712 -0.169875 -0.17784525 0.072346605 -0.19947131
-0.12906677 0.118433826 -0.0711762 -0.11418557 -0.10908695 0.13964726 0.1527797 0.14934094
-0.02221258 -0.13581307 0.073023506 -0.08164703 0.17759591 0.013875136 0.034182772 -0.17130421
-0.049135298 -0.073885016 -0.22372194 0.014175738 0.13060893 -0.0055195005 0.0786834 0.14827092
-0.12811275 0.04410352 -0.06605559 0.10122861 0.04780167 -0.061889913 0.22638221 0.0073602414
-0.2614412 -0.035972413 -0.0012617001 0.18845183 -0.14845705 -0.07858551 0.08495874 -0.054341506
0.11171062 -0.17730148 0.041796904 -0.021458142 -0.016256971 -0.10325864 0.16124564 -0.19029398
0.013291234 -0.15808137 -0.05451192 -0.19184107 0.039805908 -0.048673872 -0.16938539 -0.13418852
-0.02992098 0.20688659 -0.11665412 -0.05031544 0.15534827 0.12880965 -0.23357275 -0.11743913
0.16385995 0.07505195 0.10252577 -0.112026714 -0.107706234 0.10116421 0.033995066 0.1320482
0.0851553 0.024694629 0.039834812 -0.15832134 0.0037644638 0.09783873 0.14817832 -0.30912417
0.07106639 0.034785602 -0.043950874 0.095419504 0.04354845 0.039429113 0.040995184 0.12786248
-0.11252223 -0.0073588043 0.24590603 -0.07065781 -0.0340354 0.07248713 -0.15538028 0.14167617
0.029957263 -0.052337594 -0.12268689 -0.055772915 0.06524594 -0.08070245 -0.00487466 -0.009214957
-0.19999285 0.13070734 -0.04332067 0.19448319 0.13162512 -0.085251085 0.14118093 0.024910104
0.038053934 0.0010398887 0.093191236 -0.08454719 0.004105932 0.1787374 -0.038373526 0.14500272
-0.115670845 0.18917626 0.004256103 0.10493398 0.09157158 -0.013214994 0.07108126 0.07229929
0.04561281 -0.13030967 0.014955482 0.15125664 -0.018049283 -0.12875763 -0.11327015 -0.23064312
0.1532746 0.15853617 -0.14220773 -0.13288464 -0.058544848 0.015669918 -0.18847047 0.051974326
-0.121292576 -0.029165378 0.29580626 -0.07266107 -0.16877104 -0.051193845 0.06431538 -0.16079468
0.13428257 0.11370813 0.18345524 -0.16464661 -0.036910657 0.22582012 -0.016245656 0.15209004
-0.16083983 0.20149073 0.034592334 -0.115037456 0.046845928 0.0501416 -0.055617966 0.121194646
0.12506093 -0.11984757 -0.2241973 0.12821732 0.16225004 -0.1416146 -0.1543675 -0.16118854
0.12830625 -0.10457195 0.11893891 -0.07193726 0.07349999 0.062378325 0.10875437 0.140683
0.028287213 0.11563595 -0.24155428 -0.06280762 -0.17513119 -0.038240932 0.020222453 -0.16437665
-0.12305146 -0.17311633 0.04626169 -0.10134401 0.02879797 -0.12443812 0.20366594 -0.050421946
0.08333996 0.12789313 -0.08774735 0.128108 -0.04220302 0.089583084 0.17699075 -0.05064006
0.06328193 -0.052695233 0.009019312 0.12112028 0.19175896 -0.032557562 -0.10551954 0.033874724
-0.09276648 0.08121143 -0.17010579 -0.21556035 -0.14824943 0.17170443 -0.06895788 0.16559641
-0.059518736 0.10121104 0.001132862 -0.08405575 -0.035877112 0.1148548 0.040556062 0.028537711
-0.18816791 0.034097385 -0.16261914 -0.10836574 -0.015780272 0.094109826 -0.187058 0.20502003
-0.08616806 0.08002772 0.07229265 -0.016801376 0.062307272 -0.07959527 0.10914641 -0.008250052
00000000: 7d29 253e 460a 403e ba13 39be 75c7 043e
00000010: b6f3 2dbe 111d 36be 752a 943d 3542 4cbe
00000020: 142a 04be 6f8d f23d d4c4 91bd 20da e9bd
00000030: fb68 dfbd b1ff 0e3e 4872 1c3e d5ec 183e
00000040: 28f7 b5bc 9512 0bbe 598d 953d 8f36 a7bd
00000050: b4db 353e 8a54 633c 3c03 0c3d 5f6a 2fbe
00000060: 1842 49bd 0751 97bd 5d17 65be 5b41 683c
00000070: 59be 053e eddc b4bb c324 a13d 55d4 173e
00000080: fd2f 03be e5a5 343d 2748 87bd f250 cf3d
00000090: afcb 433d 4780 7dbd bdd0 673e 2e2e f13b
000000a0: 9fdb 85be cf57 13bd a15f a5ba 84f9 403e
000000b0: 2005 18be 71f1 a0bd d9fe ad3d 3395 5ebd
000000c0: 8ac8 e43d 858e 35be 3b33 2b3d fcc8 afbc
000000d0: 572d 85bc 4479 d3bd 941d 253e 6ddc 42be
000000e0: 7ac3 593c 15e0 21be e447 5fbd fc71 44be
000000f0: 850b 233d 415e 47bd 5d73 2dbe b768 09be
00000100: d81c f5bc 14da 533e 5be8 eebd 9017 4ebd
00000110: 9e13 1f3e ade6 033e b22d 6fbe ed83 f0bd
00000120: e7ca 273e d6b4 993d 08f9 d13d 436e e5bd
00000130: 1695 dcbd 2e2f cf3d 693e 0b3d a537 073e
00000140: e765 ae3d 644c ca3c d429 233d fd1e 22be
00000150: 39b5 763b ac5f c83d 0fbc 173e 8645 9ebe
00000160: 418b 913d 597b 0e3d d505 34bd 4d6b c33d
00000170: dc5f 323d 6c80 213d 91ea 273d 62ee 023e
00000180: 0e72 e6bd 2022 f1bb cace 7b3e 0bb5 90bd
00000190: b468 0bbd 2274 943d 021c 1fbe 8f13 113e
000001a0: ef68 f53c f25f 56bd 4443 fbbd 2472 64bd
000001b0: aa9f 853d 5347 a5bd 9dbb 9fbb 55fa 16bc
000001c0: edca 4cbe 25d8 053e 0471 31bd 9a26 473e
000001d0: bcc8 063e 1f98 aebd bc91 103e 4610 cc3c
000001e0: 71de 1b3d e04c 883a 0cdb be3d 1427 adbd
000001f0: 0e8b 863b f006 373e 8f2d 1dbd 987b 143e
00000200: d6e4 ecbd 6cb7 413e c876 8b3b a0e7 d63d
00000210: e189 bb3d b483 58bc 0d93 913d a611 943d
00000220: 7fd4 3a3d e66f 05be d707 753c 05e3 1a3e
00000230: 17dc 93bc 0ad9 03be 2efa e7bd b62d 6cbe
00000240: 04f4 1c3e 4e57 223e e79e 11be e912 08be
00000250: b9cc 6fbd 335e 803c 67fe 40be 08e3 543d
00000260: 3e68 f8bd 3bec eebc eb73 973e 54cf 94bd
00000270: 51d2 2cbe a3b0 51bd c8b7 833d 5ca7 24be
00000280: 5f81 093e cfdf e83d b1db 3b3e 1f99 28be
00000290: a12f 17bd 643d 673e 9c15 85bc 7ebd 1b3e
000002a0: 32b3 24be 9653 4e3e b1b0 0d3d c298 ebbd
000002b0: 84e1 3f3d 4761 4d3d aacf 63bd e634 f83d
000002c0: f90f 003e a572 f5bd fa93 65be 674b 033e
000002d0: e024 263e 6b03 11be 8412 1ebe 9c0e 25be
000002e0: b762 033e d229 d6bd 3e96 f33d d853 93bd
000002f0: 2a87 963d 6a80 7f3d 9cba de3d 340f 103e
00000300: 96ba e73c 8ad2 ec3d 015a 77be 48a1 80bd
00000310: 9755 33be 86a2 1cbd 8fa9 a53c 5a52 28be
00000320: 6702 fcbd 6845 31be e67c 3d3d 738d cfbd
00000330: b8e9 eb3c 6ad9 febd ce8d 503e 3e87 4ebd
00000340: 24ae aa3d 6bf6 023e e2b4 b3bd be2e 033e
00000350: 13dd 2cbd 5677 b73d 103d 353e f46b 4fbd
00000360: f599 813d f5d6 57bd bdc5 133c e90d f83d
00000370: 765c 443e 145b 05bd a11a d8bd 39c0 0a3d
00000380: 5afc bdbd 2e52 a63d 3630 2ebe dabb 5cbe
00000390: b3ce 17be 49d3 2f3e ca39 8dbd 1b92 293e
000003a0: ebc9 73bd bc47 cf3d 8a7c 943a 6c25 acbd
000003b0: e1f3 12bd fe38 eb3d 1d1e 263d ebc7 e93c
000003c0: 17af 40be b3a9 0b3d a285 26be dbee ddbd
000003d0: a145 81bc a7bc c03d 228c 3fbe c5f0 513e
000003e0: e178 b0bd 93e5 a33d 2b0e 943d 0aa3 89bc
000003f0: e935 7f3d d802 a3bd 2788 df3d 3a2b 07bc

linear_relu_stack.2.bias f4 [64]
-0.081465065 0.001598472 -0.0056419214 -0.056204572 -0.10116048 0.10880102 -0.0026240593 -0.07045205
-0.05357545 -0.05618856 -0.07435885 0.010711552 -0.14178415 0.17825973 -0.02427067 0.044981945
0.13772799 0.06942471 -0.15193266 -0.018311488 0.088313445 -0.06201415 0.09489452 0.113578424
-0.10434891 0.13852787 0.030853063 0.05742385 -0.13216649 0.111052394 -0.043887954 -0.049575735
-0.12883031 0.046957534 0.12110808 -0.22492275 0.10702047 0.06415911 0.18844603 -0.08262278
-0.047774207 -0.0012679 0.11711676 0.046371095 0.17390081 -0.02288511 0.09191933 0.024132224
0.05266807 0.062029306 0.0049256394 0.038950093 -0.12788217 -0.096345775 -0.06471436 -0.080748
0.112973124 0.055945754 -0.20605968 0.11186822 -0.19863074 0.080139875 -0.12914155 0.1072987
00000000: 28d7 a6bd d283 d13a dedf b8bb c436 66bd
00000010: 3a2d cfbd 12d3 de3d 69f8 2bbb 2a49 90bd
00000020: ee71 5bbd fa25 66bd 7449 98bd 817f 2f3c
00000030: dd2f 11be b889 363e 49d3 c6bc fd3e 383d
00000040: 9108 0d3e 8b2e 8e3d 3c94 1bbe f901 96bc
00000050: aedd b43d 8d02 7ebd 0f58 c23d ce9b e83d
00000060: e2b4 d5bd 40da 0d3e 90bf fc3c 4535 6b3d
00000070: a756 07be 706f e33d dbc3 33bd ed0f 4bbd
00000080: 18ec 03be 8b56 403d 8307 f83d 2652 66be
00000090: 8c2d db3d da65 833d fff7 403e 2236 a9bd
000000a0: e3ae 43bd aa2f a6ba e9da ef3d 9eef 3d3d
000000b0: 0e13 323e 8e79 bbbc 3440 bc3d f1b0 c53c
000000c0: 79ba 573d 7112 7e3d 4267 a13b 228a 1f3d
000000d0: 8bf3 02be ef50 c5bd f688 84bd 355f a5bd
000000e0: 745e e73d 6027 653d 4f01 53be 2a1b e53d
000000f0: db65 4bbe 6020 a43d af3d 04be 6cbf db3d

linear_relu_stack.4.weight f4 [128, 64]
-0.08581458 0.007880698 -0.075236954 -0.04250415 0.06800354 0.1709222 0.010373498 0.07129516
0.1009431 0.05647633 -0.15532887 0.08912646 -0.030700218 -0.09489491 0.021077648 -0.022207372
-0.035044257 -0.08121125 0.09903064 0.018702172 -0.026976813 -0.07484065 -0.007025973 -0.11683942
-0.1009857 0.1319989 -0.06380979 -0.12055408 0.08286239 -0.15130596 -0.038621724 -0.08953933
0.044672694 -0.06616703 0.048626527 0.049765877 0.042183343 0.06419063 -0.14618225 0.11747212
-0.09648481 -0.07501279 0.07779559 -0.029504346 -0.19245176 0.038047597 -0.3202457 0.16756408
0.10133014 -0.055460308 0.017838119 0.15204035 -0.098513864 0.006615305 0.06747619 0.16131076
0.056907564 0.07130061 0.023984317 -0.039097093 -0.10643849 0.07174243 -0.023261728 -0.03533474
0.18575409 -0.03840878 -0.01601214 0.045149364 -0.03206109 -0.061092447 -0.08354526 0.12839843
-0.046020478 -0.03655352 0.04736957 0.035167336 -0.08485892 0.0043914095 0.019260097 0.15000819
0.21483873 0.036563836 -0.03658502 -0.016178567 -0.10218298 0.29431635 0.109183505 0.06375134
0.11457808 0.053638108 0.04589552 0.107690886 -0.04625027 -0.03595461 0.030986827 0.011318307
0.1265828 -0.056404084 0.0793188 0.05525575 -0.17530385 0.03325567 0.04337407 0.20046192
-0.049553517 0.048895318 -0.039706286 -0.024612188 0.080048196 -0.1116623 0.110236846 0.104494415
-0.015116979 -0.13857606 0.06996262 0.0809576 0.09637681 -0.02899587 0.015644219 0.1109331
0.019692184 0.09026595 0.12065272 -0.07848293 0.10609373 -0.09145237 0.061335087 -0.02182649
-0.07783712 0.02542904 -0.10859495 -0.084699795 -0.017839482 -0.029528813 0.040340513 -0.090065256
-0.050326444 -0.05686085 -0.14725605 -0.08216901 0.07116116 -0.06616489 -0.043815672 0.0448299
0.043995086 0.11639753 0.06607567 -0.17652911 -0.103337966 0.012549455 0.11611214 0.12515515
0.16485396 0.006273953 0.08988973 -0.04068753 0.021672469 -0.051687997 -0.0018899724 0.021531943
0.18071248 -0.004113843 0.17500813 -0.06730173 -0.021767985 -0.0049002646 0.04890348 0.1335614
0.014700921 -0.011349047 0.054810047 -0.18698582 -0.07261894 -0.02609842 0.19321238 -0.0064066816
-0.030550145 0.04605285 0.11660709 0.12671725 0.046408005 -0.043439887 -0.013388627 -0.035952423
-0.009594426 -0.0070857797 -0.015995253 -0.065189846 0.010707261 0.02055942 0.033683978 -0.0442026
-0.10055257 0.115550235 -0.008192654 -0.08606284 -0.021192165 -0.15160404 0.11790083 0.09524377
-0.10808083 0.04495024 -0.001878491 0.02099176 0.008541442 0.07469016 -0.09954241 -0.07031522
0.13323936 0.120182075 -0.1258346 -0.048908334 -0.04912577 -0.036929168 -0.002005618 -0.08008259
-0.06885209 0.07212574 0.16083625 0.14623915 -0.04684202 -0.12697515 0.13961698 -0.08363378
-0.114986755 -0.14773816 0.06692501 0.11751111 0.16692033 0.137644 -0.033184905 -0.08045423
0.09559543 -0.046742253 0.0069307294 0.087998584 -0.17296895 0.05995691 -0.041862175 -0.101394296
-0.01580714 -0.06990972 -0.09674519 0.032769524 0.13318877 0.06855267 -0.066701025 0.11098969
-0.081032954 0.08864763 -0.036289457 0.025126547 0.07264191 -0.06770998 0.14253506 0.001287033
00000000: 8ebf afbd 0b1e 013c d515 9abd d518 2ebd
00000010: 7145 8b3d 3b06 2f3e 9bf5 293c 3203 923d
00000020: 42bb ce3d b953 673d 880e 1fbe ef87 b63d
00000030: 067f fbbc 4358 c2bd 08ab ac3c 3cec b5bc
00000040: 918a 0fbd 1552 a6bd 94d0 ca3d 4c35 993c
00000050: 7afe dcbc 0e46 99bd 223a e6bb 8149 efbd
00000060: 97d1 cebd b82a 073e b5ae 82bd 0fe5 f6bd
00000070: c2b3 a93d f3ef 1abe d031 1ebd 6560 b7bd
00000080: b7fa 363d 9482 87bd 9c2c 473d 4ed7 4b3d
00000090: 71c8 2c3d 6176 833d cdb0 15be 3995 f03d
000000a0: d499 c5bd 4ea0 99bd 4b53 9f3d 19b3 f1bc
000000b0: 1312 45be ccd7 1b3d 3ff7 a3be eb95 2b3e
000000c0: 2d86 cf3d 592a 63bd 3f21 923c 77b0 1b3e
000000d0: a3c1 c9bd 33c5 d83b f530 8a3d a62e 253e
000000e0: e817 693d 0e06 923d c27a c43c 4624 20bd
000000f0: 6cfc d9bd b2ed 923d 618f bebc 29bb 10bd
00000100: 5236 3e3e 8652 1dbd e42b 83bc 8aee 383d
00000110: 7d52 03bd 133c 7abd c719 abbd e17a 033e
00000120: f87f 3cbd 25b9 15bd 9806 423d a00b 103d
00000130: 83ca adbd d0e5 8f3b 5ac7 9d3c bf9b 193e
00000140: affe 5b3e f6c3 153d 2dda 15bd ea88 84bc
00000150: 4f45 d1bd a2b0 963e 9a9b df3d 1090 823d
00000160: eaa7 ea3d a2b3 5b3d f1fc 3b3d 0a8d dc3d
00000170: ec70 3dbd 2445 13bd 16d8 fd3c 6c70 393c
00000180: ec9e 013e f807 67bd e571 a23d da53 623d
00000190: da82 33be 1937 083d 02a9 313d e445 4d3e
000001a0: a1f8 4abd 7546 483d 0fa3 22bd 809f c9bc
000001b0: 4ff0 a33d 34af e4bd dbc3 e13d 2b01 d63d
000001c0: 35ad 77bc e2e6 0dbe 9048 8f3d 19cd a53d
000001d0: 3461 c53d bf88 edbc 4e28 803c e530 e33d
000001e0: 8151 a13c 5bdd b83d c618 f73d a9bb a0bd
000001f0: ab47 d93d 614b bbbd 803a 7b3d 78cd b2bc
00000200: 1169 9fbd 9050 d03c 0767 debd 1677 adbd
00000210: 1b24 92bc 69e6 f1bc 183c 253d 2274 b8bd
00000220: 1a23 4ebd ece6 68bd 4aca 16be 3a48 a8bd
00000230: f1bc 913d 7581 87bd 1078 33bd 8f9f 373d
00000240: 3134 343d d461 ee3d ae52 873d 0cc4 34be
00000250: dba2 d3bd 3b9c 4d3c 34cc ed3d ac28 003e
00000260: 7acf 283e bb95 cd3b 1b18 b83d f8a7 26bd
00000270: 768a b13c cbb6 53bd f3b8 f7ba c263 b03c
00000280: b10c 393e 6bcd 86bb 5535 333e 7dd5 89bd
00000290: c652 b2bc 6692 a0bb 044f 483d 52c4 083e
000002a0: 22dc 703c 5af1 39bc 8080 603d 3679 3fbe
000002b0: 3db9 94bd 5bcc d5bc 77d9 453e 24ef d1bb
000002c0: 4c44 fabc eaa1 3c3d b3cf ee3d 2bc2 013e
000002d0: 5216 3e3d 06ee 31bd f95b 5bbc d942 13bd
000002e0: f031 1dbc d42f e8bb 7a08 83bc 4182 85bd
000002f0: 826d 2f3c 3b6c a83c 36f8 093d c90d 35bd
00000300: 81ee cdbd 9aa5 ec3d 7b3a 06bc b741 b0bd
00000310: 319b adbc 173e 1bbe fe75 f13d 2a0f c33d
00000320: 7b59 ddbd be1d 383d b337 f6ba e9f6 ab3c
00000330: 68f1 0b3c 28f7 983d e4dc cbbd 6d01 90bd
00000340: e66f 083e 0522 f63d c9da 00be 1b54 48bd
00000350: 1a38 49bd 0a43 17bd b070 03bb 5702 a4bd
00000360: 5302 8dbd a9b6 933d 42b2 243e b7bf 153e
00000370: 6bdd 3fbd c605 02be c1f7 0e3e 3048 abbd
00000380: 2d7e ebbd ac48 17be fb0f 893d aaa9 f03d
00000390: 2aed 2a3e 8cf2 0c3e e5ec 07bd 30c5 a4bd
000003a0: 89c7 c33d ce74 3fbd 2c1b e33b 9a38 b43d
000003b0: c61e 31be 6095 753d ac77 2bbd d0a7 cfbd
000003c0: fa7d 81bc d42c 8fbd 5822 c6bd 5639 063d
000003d0: a362 083e 5865 8c3d 8c9a 88bd 904e e33d
000003e0: 9bf4 a5bd e38c b53d 41a4 14bd 30d6 cd3c
000003f0: 48c5 943d 88ab 8abd b6f4 113e a9b1 a83a

linear_relu_stack.4.bias f4 [128]
0.031166095 -0.022568626 -0.023607759 0.08848862 0.09706062 0.029926775 -0.0638948 -0.0462128
-0.13449204 -0.09768141 -0.014882294 0.0019519207 -0.060370937 -0.0854391 0.06486004 0.059604283
-0.12489698 0.1202624 0.070031166 0.03529584 0.028406529 0.0030076113 -0.13761753 -0.08256231
-0.064046055 -0.09290165 -0.11070205 0.03845003 -0.031529598 -0.111672536 -0.043052938 -0.06320142
-0.15640296 -0.07576774 -0.09385577 -0.0558965 0.1355275 -0.027189061 -0.07387766 -0.016693037
0.01825171 -0.043293215 -0.06747158 0.07952411 -0.08582856 0.029155536 0.08054496 -0.06982007
0.026351165 -0.06366966 -0.11890813 0.061824623 0.018756388 -0.07544824 0.08146323 -0.1407463
-0.01780206 -0.06847714 -0.14058782 0.07083015 0.017839279 0.043454353 -0.06797511 0.061429173
-0.012182122 -0.12258883 -0.106660284 -0.01825475 -0.006001068 -0.042179786 -0.1394236 -0.110626236
-0.003748839 -0.11695224 0.07633125 -0.11758443 0.08563015 0.015388661 -0.075203136 0.043417107
0.12514058 -0.14374408 -0.11144637 -0.090212815 -0.073456235 0.0398021 0.08992793 -0.08929476
-0.15939641 -0.098174155 0.092261106 -0.07648408 0.15095037 0.02114913 0.0052477275 0.063397594
-0.07222091 0.049189724 -0.11728204 -0.08761977 0.02987402 -0.12322488 -0.055120405 0.07750513
-0.12655424 -0.10855799 0.07642271 0.0387517 0.0023307279 0.10134088 0.07242615 -0.09514409
-0.13477093 0.046018884 0.020001091 -0.06370602 -0.023292793 -0.044344492 -0.08499202 -0.06262291
-0.12103834 0.007858544 -0.18069254 -0.018976873 0.051185403 -0.03320324 -0.09332269 -0.07284679
00000000: 0a50 ff3c d7e1 b8bc 0f65 c1bc 8639 b53d
00000010: b8c7 c63d ff28 f53c 47db 82bd a249 3dbd
00000020: 48b8 09be 310d c8bd ded4 73bc 97d7 ff3a
00000030: 8447 77bd b2fa aebd 57d5 843d 9f23 743d
00000040: fdc9 ffbd 224c f63d 806c 8f3d 5f92 103d
00000050: cfb4 e83c 581b 453b 9ceb 0cbe 6e16 a9bd
00000060: 942a 83bd 3843 bebd c2b7 e2bd c77d 1d3d
00000070: 2e25 01bd 92b4 e4bd 4758 30bd bf6f 81bd
00000080: 1928 20be 1e2c 9bbd 7437 c0bd baf3 64bd
00000090: b9c7 0a3e 98bb debc 2c4d 97bd d6bf 88bc
000000a0: 9c84 953c 3a54 31bd 8a2e 8abd 89dd a23d
000000b0: e2c6 afbd 97d7 ee3c c2f4 a43d d3fd 8ebd
000000c0: 66de d73c 3d65 82bd 1b86 f3bd d13b 7d3d
000000d0: ffa6 993c 9b84 9abd 32d6 a63d cc1f 10be
000000e0: a0d5 91bc be3d 8cbd 41f6 0fbe 660f 913d
000000f0: ae23 923c 31fd 313d 8936 8bbd 289d 7b3d
00000100: 8697 47bc da0f fbbd b570 dabd fc8a 95bc
00000110: 9ba4 c4bb b6c4 2cbd 0fc5 0ebe 0290 e2bd
00000120: 15af 75bb a884 efbd 8f53 9c3d 1bd0 f0bd
00000130: dc5e af3d b920 7c3c 1a04 9abd 23d6 313d
00000140: da24 003e a631 13be ff3d e4bd 7fc1 b8bd
00000150: 3970 96bd 8707 233d 222c b83d 2ce0 b6bd
00000160: d038 23be 880f c9bd 64f3 bc3d afa3 9cbd
00000170: bc92 1a3e f140 ad3c 21f5 ab3b 99d6 813d
00000180: 8ee8 93bd 2a7b 493d 9131 f0bd fe71 b3bd
00000190: 5cba f43c 535d fcbd efc5 61bd 02bb 9e3d
000001a0: 6f97 01be a753 debd 8383 9c3d 1aba 1e3d
000001b0: 20bf 183b cf8b cf3d 2954 943d e8da c2bd
000001c0: 6401 0abe 4c7e 3c3d 54d9 a33c 4d78 82bd
000001d0: 87d0 bebc 92a2 35bd 4c10 aebd 7140 80bd
000001e0: f3e2 f7bd 1fc1 003c 7707 39be 6375 9bbc
000001f0: c9a7 513d 1f00 08bd f71f bfbd b330 95bd

linear_relu_stack.6.weight f4 [64, 128]
-0.06399295 0.020440947 0.08331562 -0.085852884 -0.04796596 -0.003371367 -0.073235035 0.049875285
0.02925886 -0.045886174 -0.109974205 0.033092674 0.04618532 0.07750085 0.095725566 0.013062883
0.046552025 -0.032051615 0.097285315 -0.048560426 0.15331814 0.0019917423 -0.049823087 0.06737627
0.026163919 -0.07729596 0.00434165 -0.010524952 -0.0014473962 0.02310517 0.0388491 0.04753742
0.051308382 -0.015374671 0.1554694 0.029551199 -0.023176147 -0.025257299 -0.055924475 -0.010432423
-0.002817194 0.086178325 -0.056120943 0.06252577 0.06439477 0.025477067 0.010454585 0.003270396
-0.1302893 -0.056071393 -0.087993465 0.0042636837 0.001773285 0.013226299 0.1284434 -0.059308458
-0.06577605 0.04527637 0.0024624304 0.08595916 0.08540715 0.12986591 0.0900208 -0.05490235
0.09162066 -0.12063518 0.120387875 -0.005358189 -0.021003421 0.09917129 0.03806502 0.016464079
-0.09718346 0.023505606 0.039660133 -0.033236537 -0.006282678 0.1350133 -0.030189632 -0.04772915
0.049424153 0.006616923 -0.09019188 0.0134040555 -0.048199587 0.17136633 -0.027771054 -0.0048550046
0.092721246 0.10479271 0.092592835 -0.007884013 0.13438241 0.11284613 0.03748622 0.09168564
0.054547444 -0.0007267519 0.14030561 0.045368377 0.09874523 0.0649807 -0.089775145 0.09285696
0.011831485 -0.019079868 -0.032954093 -0.040176235 -0.06630003 -0.08033273 -0.074070826 0.016166197
0.03518582 -0.0754538 0.031756658 0.074012876 -0.068286985 -0.013289108 0.017428223 0.10690148
-0.012420534 0.07970955 0.01595279 0.082738325 0.06519809 0.14984761 0.028125132 0.062053543
0.11081852 -0.002010327 0.018302212 -0.10290823 -0.010107024 -0.14185624 -0.024138793 -0.160073
-0.11493849 -0.007002346 -0.08459133 0.08153105 -0.1167501 -0.015214414 0.07384485 -0.1272795
-0.10451704 -0.078873195 0.034879122 -0.008806099 -0.05623141 0.070801996 -0.011223524 -0.070079714
0.028081939 0.10747226 0.082219325 -0.022677768 -0.05561507 0.021039363 -0.019489499 -0.009478611
0.0422027 -0.026607497 0.038087275 -0.034231924 -0.18334784 0.06908512 0.013400111 -0.11979689
-0.016023666 0.006141416 -0.098685086 -0.036044624 -0.020440213 -0.03551113 0.03321086 -0.028670127
0.08341799 0.0006486381 -0.020095369 0.12131614 0.09524101 -0.15950288 0.13554548 -0.03138354
0.0033497212 0.057869103 0.035938155 0.034450464 -0.0023606855 -0.05474515 -0.0787727 0.076984465
0.09476369 -0.03797736 0.11575861 -0.052601796 -0.06755627 -0.08817602 -0.044608016 -0.17817073
0.11643041 0.01790519 -0.071496405 0.017205466 -0.06883916 -0.016080882 0.07458637 -0.0050944216
0.07149736 -0.07624304 -0.0637184 0.07245344 0.038973074 0.0064387927 0.004363012 0.05359223
-0.11548743 -0.060281165 0.1093851 -0.03044606 -0.0006671744 0.016654782 0.039672043 0.100307256
-0.06935358 -0.052983236 -0.019287128 0.037057128 0.012290083 0.0053941133 -0.06880952 0.00034532044
-0.07252947 -0.046944324 -0.005110889 0.0035816657 -0.046735287 -0.08197771 -0.043001465 -0.044167925
-0.05247924 0.035672504 0.0012714128 -0.06279844 -0.054888505 0.030164795 0.024025058 -0.0060932566
0.0097017875 0.037088733 0.039152194 -0.076018974 0.057296816 -0.06941741 0.12959431 0.07342077
00000000: bc0e 83bd c673 a73c 61a1 aa3d a3d3 afbd
00000010: f477 44bd 27f2 5cbb 40fc 95bd 074a 4c3d
00000020: 47b0 ef3c 24f3 3bbd 283a e1bd 2f8c 073d
00000030: d12c 3d3d c4b8 9e3d c40b c43d b405 563c
00000040: 56ad 3e3d 8e48 03bd 863d c73d 4ce7 46bd
00000050: 6eff 1c3e e487 023b 4b13 4cbd 92fc 893d
00000060: b755 d63c 584d 9ebd 6644 8e3b d970 2cbc
00000070: 8fb6 bdba 0e47 bd3c 3c20 1f3d 99b6 423d
00000080: bd28 523d 0be6 7bbc 5f33 1f3e 5b15 f23c
00000090: e7db bdbc 65e8 cebc 1011 65bd c1ec 2abc
000000a0: aca0 38bb 437e b03d 13df 65bd 830d 803d
000000b0: 68e1 833d 48b5 d03c b549 2b3c 2454 563b
000000c0: 8f6a 05be 1eab 65bd eb35 b4bd 5fb6 8b3b
000000d0: 926d e83a 1eb3 583c ab86 033e 6ded 72bd
000000e0: 98b5 86bd b773 393d ba60 213b 5b0b b03d
000000f0: f2e9 ae3d 92fb 043e d35c b83d 49e1 60bd
00000100: 9da3 bb3d 940f f7bd eb8d f63d bf93 afbb
00000110: 5e0f acbc 511a cb3d 11ea 1b3d addf 863c
00000120: 1f08 c7bd d48e c03c aa72 223d 0923 08bd
00000130: ecde cdbb ed40 0a3e 3f50 f7bc a47f 43bd
00000140: fb70 4a3d c6d2 d83b 85b6 b8bd af9c 5b3c
00000150: ee6c 45bd a87a 2f3e 1f80 e3bc bb16 9fbb
00000160: a3e4 bd3d 8f9d d63d 50a1 bd3d f22b 01bc
00000170: 8b9b 093e df1b e73d 278b 193d aec5 bb3d
00000180: 246d 5f3d 7f83 3eba 46ac 0f3e 31d4 393d
00000190: f03a ca3d 9a14 853d 08dc b7bd ca2b be3d
000001a0: d8d8 413c 624d 9cbc dffa 06bd d68f 24bd
000001b0: 4fc8 87bd 7d85 a4bd 72b2 97bd f96e 843c
000001c0: 021f 103d 8687 9abd 4513 023d 1094 973d
000001d0: 0cda 8bbd 8fba 59bc a2c5 8e3c 2aef da3d
000001e0: 7f7f 4bbc c33e a33d 6daf 823c b672 a93d
000001f0: 9486 853d a771 193e ad66 e63c db2b 7e3d
00000200: d2f4 e23d b1bf 03bb 85ee 953c 8dc1 d2bd
00000210: ee97 25bc c342 11be b8be c5bc 2dea 23be
00000220: df64 ebbd f073 e5bb 383e adbd c0f9 a63d
00000230: ad1a efbd e145 79bc f83b 973d 8f55 02be
00000240: 080d d6bd 4588 a1bd 69dd 0e3d 7547 10bc
00000250: e852 66bd a300 913d dfe2 37bc f485 8fbd
00000260: 180c e63c 6b1a dc3d 9b62 a83d bac6 b9bc
00000270: a1cc 63bd be5a ac3c 71a8 9fbc 2d4c 1bbc
00000280: bddc 2c3d f7f7 d9bc 6701 1c3d c636 0cbd
00000290: 89bf 3bbe 807c 8d3d 248c 5b3c 1258 f5bd
000002a0: 1044 83bc ee3d c93b 681b cabd 87a3 13bd
000002b0: 3c72 a7bc 1e74 11bd 1c08 083d 9ddd eabc
000002c0: 0dd7 aa3d 5e09 2a3a 0b9f a4bc 9974 f83d
000002d0: b80d c33d b954 23be 6fcc 0a3e 078c 00bd
000002e0: ff86 5b3b 2708 6d3d e333 133d ee1b 0d3d
000002f0: bbb5 1abb 733c 60bd 9553 a1bd 08aa 9d3d
00000300: 7713 c23d 268e 1bbd da12 ed3d fb74 57bd
00000310: f15a 8abd a195 b4bd e5b6 36bd 6372 36be
00000320: 1173 ee3d e8ad 923c b56c 92bd 7af2 8c3c
00000330: 8cfb 8cbd 0ebc 83bc bdc0 983d 1bef a6bb
00000340: 356d 923d 5025 9cbd cb7e 82bd 7862 943d
00000350: 3ba2 1f3d 82fc d23b 99f7 8e3b 8783 5b3d
00000360: ac84 ecbd 62e9 76bd 4c05 e03d 046a f9bc
00000370: 51e5 2eba 9c6f 883c 277f 223d e46d cd3d
00000380: 4009 8ebd f304 59bd 0a00 9ebc 37c9 173d
00000390: 585c 493c 1ac1 b03b 01ec 8cbd 200c b539
000003a0: 558a 94bd b148 40bd 3f79 a7bb 61ba 6a3b
000003b0: 806d 3fbd eee3 a7bd 4e22 30bd 6de9 34bd
000003c0: 79f4 56bd 551d 123d 89a5 a63a 789c 80bd
000003d0: c5d2 60bd 291c f73c 33d0 c43c f1a9 c7bb
000003e0: 3ff4 1e3c 5bea 173d 0d5e 203d d6af 9bbd
000003f0: 11b0 6a3d b72a 8ebd 5fb4 043e a15d 963d

linear_relu_stack.6.bias f4 [64]
0.05990485 0.07872043 0.0023597048 -0.07041831 -0.0150825875 -0.0984407 -0.09355566 -0.09868924
-0.11335682 0.028575236 -0.092988364 -0.061189618 -0.006374554 -0.13478728 0.06098554 -0.039634332
0.0794312 -0.021600464 0.054185603 0.088410236 -0.10404083 0.06720249 -0.04846584 0.033759583
0.008746543 -0.12426212 0.030230138 -0.06982425 -0.012039821 0.0670824 0.00049615523 -0.01096963
0.051693402 0.1029217 -0.032361373 -0.07184278 0.090656705 0.040751435 0.05347092 -0.056107674
-0.012390928 0.012290496 0.008778588 0.0037633623 -0.015353579 0.057201296 -0.023044353 0.028327681
-0.104023576 -0.01505467 0.014661724 0.015951464 -0.011534024 -0.13524733 -0.0793202 -0.014830406
-0.0054700254 -0.007580663 0.055278376 0.007139412 -0.044800233 -0.030179286 -0.041088693 -0.008428825
00000000: ca5e 753d 2d38 a13d 47a5 1a3b 7a37 90bd
00000010: f51c 77bc 479b c9bd 1c9a bfbd 961d cabd
00000020: 9f27 e8bd 9d16 ea3c af70 bebd f7a1 7abd
00000030: a2e1 d0bb ad05 0abe f9cb 793d 9c57 22bd
00000040: d3ac a23d 75f3 b0bc b9f1 5d3d 6d10 b53d
00000050: 5c13 d5bd 76a1 893d 1e84 46bd 7d47 0a3d
00000060: a94d 0f3c 237d febd 32a5 f73c 0400 8fbd
00000070: ab42 45bc 7f62 893d 6a10 023a f7b9 33bc
00000080: 76bc 533d 9dc8 d23d 5c8d 04bd 4f22 93bd
00000090: 39aa b93d faea 263d 5304 5b3d 29d1 65bd
000000a0: 5203 4bbc 145e 493c 11d4 0f3c bea2 763b
000000b0: 948d 7bbc e84b 6a3d 83c7 bcbc 740f e83c
000000c0: 500a d5bd dda7 76bc ba37 703c a5ac 823c
000000d0: 34f9 3cbc 477e 0abe a172 a2bd 3bfb 72bc
000000e0: e63d b3bb 3667 f8bb 946b 623d bbf1 e93b
000000f0: 7380 37bd 8d3a f7bc 9e4c 28bd 0e19 0abc

linear_relu_stack.8.weight f4 [32, 64]
-0.10459849 -0.08950742 -0.08017131 0.12932596 0.0842971 -0.0523626 0.0054719737 -0.04573383
-0.060118448 0.049931932 0.059075985 -0.078085236 -0.032424223 0.078916304 -0.123086415 -0.03585152
0.066330954 0.052853756 -0.017599704 0.058396615 0.09478847 0.006924092 -0.14780077 -0.052234713
0.03802026 -0.013862565 -0.032123365 0.11322766 -0.17083602 -0.08762544 0.0748169 0.012108737
0.09269246 -0.057923105 0.08358677 0.08807774 -0.051714893 0.053520244 0.022853225 -0.10695239
0.023533192 -0.0029735598 -0.17675224 -0.14827803 0.005942221 -0.11599431 0.0051072007 -0.15511793
0.007902737 0.013620864 -0.035407934 -0.0056807054 0.10674883 -0.07353054 -0.027890358 -0.018435396
0.014727783 0.0051048347 -0.0009401117 0.004294571 -0.039607864 -0.124247015 0.083186135 0.039946932
0.14007913 -0.039122198 0.04006358 0.058483716 0.05898059 -0.165756 0.14288755 -0.034702018
-0.10816336 -0.0504639 -0.031704597 -0.024346568 -0.11541203 0.018603018 0.087208994 -0.06784817
-0.1397779 0.052449733 -0.12104081 0.038718536 0.058125746 0.021293724 -0.003600466 0.020203866
0.050656073 0.108009666 -0.024189802 0.056928102 0.00027481455 0.065953664 0.045021735 -0.09585522
0.092880055 0.14097978 -0.1823237 0.049635597 -0.118327424 0.045780055 0.032460567 -0.059912268
-0.13849215 0.11379713 -0.04480819 -0.035872515 0.100350894 0.029252129 -0.037802488 -0.13225582
-0.06453415 -0.19265601 -0.080722176 0.029894255 0.090295956 -0.09669483 -0.038597964 0.094623074
0.029925562 -0.116483815 0.07437241 0.05790589 -0.13193458 0.11941099 -0.003395954 -0.06501058
-0.030088019 0.030978732 0.075305775 0.15124437 -0.031523474 -0.08960568 -0.14085478 0.12567157
0.048257265 0.045528628 0.15712522 -0.08267866 0.053128216 0.011150164 0.104923844 0.100338325
-0.15483496 0.05050916 -0.076246604 -0.033119835 -0.035064094 0.035814922 0.0041752723 -0.022973305
0.0069680647 0.11497941 0.08417491 0.014145728 -0.09168243 0.051328875 0.13496852 0.06064201
0.03079525 -0.060356915 0.040362928 0.14639789 -0.036963888 0.010346334 0.010618233 -0.0718955
0.17237282 -0.081658654 -0.0943793 0.047535837 0.009888514 -0.06069025 0.041958638 -0.061133523
0.0034806053 0.020388586 -0.092272446 -0.095330976 -0.11233017 0.07151988 0.040900376 -0.07564478
0.051001724 0.019843671 -0.046003256 -0.1695569 -0.07286233 -0.0037605988 0.031538654 0.036110763
0.12516752 -0.044202406 -0.011517216 0.03708167 -0.10783792 0.015348134 0.0025374205 0.05187928
0.08112968 -0.02437836 -0.035774905 0.04558486 -0.053697433 -0.049762286 0.11394612 -0.10301034
0.04569674 0.18415889 0.16846088 0.10660173 -0.038341194 0.0023008855 0.1396356 0.11425283
0.0349437 0.1355164 0.023887025 -0.028453544 -0.060400106 -0.10085559 0.03245825 0.05045664
-0.1268581 0.056798246 0.06739914 0.04448876 -0.1646056 -0.06150728 0.0073607676 0.20802747
-0.1534005 0.00090977777 0.08855101 -0.13672723 0.05109441 -0.08850439 0.0027049459 -0.022265198
-0.15870175 -0.020825723 -0.019274538 -0.19724007 0.03146412 -0.032029476 -0.08592402 -0.043429233
-0.025533693 -0.11456202 0.13302428 0.10129884 -0.011919214 0.12441051 0.07827214 -0.03420517
00000000: bc37 d6bd ab4f b7bd db30 a4bd 066e 043e
00000010: f5a3 ac3d 2a7a 56bd 3e4e b33b 6653 3bbd
00000020: c33e 76bd 6d85 4c3d a9f9 713d 27eb 9fbd
00000030: 43cf 04bd df9e a13d bb14 fcbd 0bd9 12bd
00000040: 86d8 873d 2e7d 583d 412d 90bc 4a31 6f3d
00000050: 7520 c23d 7ee3 e23b 1659 17be 11f4 55bd
00000060: 22bb 1b3d d01f 63bc ca93 03bd e7e3 e73d
00000070: a3ef 2ebe f774 b3bd 9a39 993d b963 463c
00000080: 8bd5 bd3d c740 6dbd 8a2f ab3d 1a62 b43d
00000090: ffd2 53bd 0b38 5b3d b036 bb3c db09 dbbd
000000a0: aec8 c03c 0ee0 42bb 8afe 34be 32d6 17be
000000b0: f6b6 c23b 6d8e edbd 4e5a a73b 3cd7 1ebe
000000c0: 7b7a 013c 0b2a 5f3c e907 11bd 3625 babb
000000d0: 219f da3d 2e97 96bd 527a e4bc d405 97bc
000000e0: cd4c 713c 7546 a73b d471 76ba 79b9 8c3b
000000f0: db3b 22bd 3875 febd 7e5d aa3d 659f 233d
00000100: e770 0f3e 993e 20bd b519 243d 9f8c 6f3d
00000110: a295 713d f1bb 29be 1d51 123e b423 0ebd
00000120: c084 ddbd 3cb3 4ebd aedc 01bd 7472 c7bc
00000130: 245d ecbd 5b65 983c a19a b23d fbf3 8abd
00000140: f021 0fbe 88d5 563d 3fe4 f7bd 5497 1e3d
00000150: 4315 6e3d 2d70 ae3c ccf5 6bbb 9482 a53c
00000160: be7c 4f3d 2c34 dd3d b129 c6bc 712d 693d
00000170: fc14 9039 b712 873d b668 383d be4f c4bd
00000180: e637 be3d 015d 103e 10b3 3abe b24e 4b3d
00000190: a655 f2bd de83 3b3d 5ff5 043d 9166 75bd
000001a0: e3d0 0dbe 780e e93d cb88 37bd 0fef 12bd
000001b0: c584 cd3d 29a2 ef3c c8d6 1abd 126e 07be
000001c0: 7b2a 84bd 9e47 45be ab51 a5bd cce4 f43c
000001d0: 16ed b83d f007 c6bd e618 1ebd bec9 c13d
000001e0: 7426 f53c 118f eebd 9050 983d ba2e 6d3d
000001f0: dc19 07be c08d f43d a78e 5ebb 4424 85bd
00000200: 267b f6bc 1cc7 fd3c ea39 9a3d cedf 1a3e
00000210: c21e 01bd 2f83 b7bd 3c3c 10be 0cb0 003e
00000220: 69a9 453d 3a7c 3a3d 6fe5 203e 6e53 a9bd
00000230: f99c 593d 2daf 363c 50e2 d63d 2e7e cd3d
00000240: 0e8d 1ebe b1e2 4e3d 2e27 9cbd aaa8 07bd
00000250: 5e9f 0fbd abb2 123d b9d0 883b 8332 bcbc
00000260: 5d54 e43b 537a eb3d e563 ac3d 7cc3 673c
00000270: ffc3 bbbd 3a3e 523d 3035 0a3e c263 783d
00000280: 5246 fc3c d038 77bd 9953 253d 54e9 153e
00000290: 7267 17bd ac83 293c 19f8 2d3c f33d 93bd
000002a0: 8082 303e a73c a7bd ef49 c1bd f0b4 423d
000002b0: 6f03 223c 5796 78bd d2dc 2b3d 2567 7abd
000002c0: de1a 643b f705 a73c 56f9 bcbd e33c c3bd
000002d0: 5c0d e6bd 0479 923d 2787 273d a7eb 9abd
000002e0: 2fe7 503d 328f a23c e96d 3cbd 53a0 2dbe
000002f0: d838 95bd 6174 76bb ad2e 013d e1e8 133d
00000300: ea2b 003e 950d 35bd b5b2 3cbc f3e2 173d
00000310: 21da dcbd bd76 7b3c da4a 263b 5e7f 543d
00000320: 5127 a63d 20b5 c7bc b588 12bd 31b7 3a3d
00000330: d7f1 5bbd 8ad3 4bbd 955c e93d 16f7 d2bd
00000340: 812c 3b3d 2694 3c3e 0281 2c3e 0252 da3d
00000350: a80b 1dbd 74ca 163b a2fc 0e3e 63fd e93d
00000360: 2021 0f3d d0c4 0a3e b9ae c33c 6817 e9bc
00000370: 1a66 77bd 608d cebd f1f2 043d 9fab 4e3d
00000380: 17e7 01be 47a5 683d 8f08 8a3d d939 363d
00000390: 5f8e 28be 0fef 7bbd 9832 f13b 2705 553e
000003a0: 0515 1dbe 277e 6e3a 3b5a b53d 3902 0cbe
000003b0: 5f48 513d ca41 b5bd 7645 313b 8165 b6bc
000003c0: b682 22be b59a aabc a3e5 9dbc 4df9 49be
000003d0: 85e0 003d 5731 03bd eff8 afbd dae2 31bd
000003e0: 092c d1bc 7e9f eabd 8437 083e c475 cf3d
000003f0: cf48 43bc f0ca fe3d 254d a03d b81a 0cbd

linear_relu_stack.8.bias f4 [32]
-0.11885253 0.06066284 -0.07359028 0.062821135 -0.061099783 0.02959373 0.027322104 0.024531052
0.04181448 -0.074649975 0.023162369 -0.028696628 -0.055908896 0.0040373416 0.0836263 -0.04730465
0.083469704 0.1055073 -0.053018585 -0.10937401 -0.026181938 -0.048069663 0.02468104 -0.026818613
-0.014978261 0.02753774 -0.009820114 -0.09586257 0.09729517 0.03765177 0.021014486 -0.079034366
00000000: f568 f3bd 9979 783d 80b6 96bd 5ea8 803d
00000010: c443 7abd 8d6e f23c 9bd2 df3c 58f5 c83c
00000020: a945 2b3d 16e2 98bd 02bf bd3c 3115 ebbc
00000030: ba00 65bd ad4b 843b 4444 ab3d 85c2 41bd
00000040: 2af2 aa3d 3614 d83d 042a 59bd 7bff dfbd
00000050: 817b d6bc b2e4 44bd e42f ca3c b5b2 dbbc
00000060: 6167 75bc d496 e13c 8be4 20bc 9853 c4bd
00000070: b142 c73d be38 1a3d 9226 ac3c c5dc a1bd

linear_relu_stack.10.weight f4 [1, 32]
-0.038286585 0.11228384 0.18126638 -0.19682513 0.054215994 0.0006276343 -0.024743121 0.14533602
-0.03006076 -0.09792581 -0.0830852 0.09535101 0.18516034 0.19658889 -0.05586338 -0.09048015
0.00020772884 0.11996396 -0.054612733 0.069604665 -0.13330747 0.122825734 -0.005901773 -0.14717482
0.06757563 0.04522721 0.012633446 0.001159641 0.10259929 -0.095079154 -0.15901601 0.00046780225
00000000: 65d2 1cbd 12f5 e53d e59d 393e 878c 49be
00000010: 9711 5e3d d387 243a 16b2 cabc f7d2 143e
00000020: fc41 f6bc 548d c8bd 9328 aabd 6447 c33d
00000030: ac9a 3d3e 994e 493e 00d1 64bd a84d b9bd
00000040: c9d1 5939 aaaf f53d 9ab1 5fbd e48c 8e3d
00000050: c181 08be 0f8c fb3d a963 c1bb ffb4 16be
00000060: 1865 8a3d 2b40 393d 83fc 4e3c 18ff 973a
00000070: 941f d23d dcb8 c2bd 18d5 22be 5b43 f539
