model/pendulum_model_13.pth (torch, 88722 bytes, 11 tensors)

linear_relu_stack.0.weight f4 [32, 3]
00000000: c880 e03e 1fc2 a1bd da9c c03e b577 893d
00000010: 3c1c 673c 52ff b8be d7b8 dcbe 4aa9 c6be
00000020: aa76 f0be a22a acbe c4da efbe d516 55be
00000030: d465 ca3e 65fd 9ebd d0d0 a73d f37e fbbe
00000040: 0e54 c1be 504e dabd bfdb a0bd e96b fbbe
00000050: 74fc bb3e f651 40be f9ea c53c e4bc 6c3e
00000060: e829 f8bd 7d37 003f 1d3e cd3e 74cb f83e
00000070: 7ebd fd3d 0254 9ebd 601b 36be c29a d0be
00000080: 81cb 6abe e7ac 1fbe f1c9 93be 6d51 013f
00000090: 395b f53e 52b7 a93e 7933 d3be b4ec bcbe
000000a0: 0d9a 3f3e 007a c8bd 1947 a1be 3070 18be
000000b0: 0dbf f4be f913 67bd 6734 f43e bed7 843e
000000c0: c627 733e daf4 da3e 8e6d 4c3e b55f d73e
000000d0: a6a6 0bbf e96d b73e 18a8 d53e 11ce 1c3f
000000e0: 5854 ae3e f617 d5be ce17 0d3f 464b 1a3e
000000f0: c58c a43c ade6 143e 7d9f 78be ddac c7be
00000100: 685e 933e 983d 123e 1ffd f03d 4f25 00bf
00000110: eacd 16be a3ea 70bd d306 933e 8cca ab3e
00000120: 0be9 0a3f 6c5d 043f 136c 8cbe 8ec8 8dbd
00000130: d265 6a39 188f 4b3e 524b be3c d8a8 fd3e
00000140: 3444 10bf a146 06bf 53c9 e03e 4236 ac3e
00000150: a6cb 23be ab42 ac3e 1fb2 a6bd 61b2 c03e
00000160: 74d9 ed3e 0aaf 8dbe 535a 273e 44b6 f3be
00000170: d3f1 f83e 948b 813e a69e e9be 27d8 0dbf
0.43848252 -0.07898354 0.37619668 0.067122854 0.014105853 -0.36132294 -0.43109772 -0.38801032
-0.46965533 -0.33626276 -0.46846592 -0.20809491 0.39530814 -0.07763175 0.08194125 -0.49120292
-0.3775944 -0.10659468 -0.07854413 -0.49105766 0.36716044 -0.18781266 0.024159895 0.23118931
-0.12117368 0.5008467 0.4008645 0.48592722 0.123896584 -0.07730867 -0.1778388 -0.4074307
-0.22929193 -0.15593301 -0.28865007 0.5051487 0.4792116 0.33147675 -0.41250208 -0.3689934
0.1871111 -0.09788895 -0.31499556 -0.14886546 -0.4780201 -0.05641553 0.4769623 0.25945848
0.23745641 0.42764932 0.19963667 0.42065206 -0.5455116 0.35826042 0.41729808 0.6125193
0.34048724 -0.41619843 0.5511445 0.15067777 0.020086655 0.14541121 -0.2427959 -0.38999072
0.28782964 0.14281309 0.11767029 -0.5005693 -0.14726987 -0.058817517 0.28716144 0.33552969
0.54261845 0.5170505 -0.27426204 -0.069230184 0.0002235391 0.19878805 0.023229275 0.4954288
-0.5635407 -0.5245152 0.43903598 0.33635145 -0.15995654 0.33644614 -0.08139443 0.37636092
0.46454966 -0.27672607 0.1634305 -0.47599995 0.48621997 0.25301802 -0.45628852 -0.5540795

linear_relu_stack.0.bias f4 [32]
00000000: aa68 043e b56e f9be a594 813e e072 01be
00000010: eaf4 0abf 0e31 a73d c173 88be 8442 8dbe
00000020: 8c66 5a3c e50e 02be 58ce 433e 2c68 3d3e
00000030: 383c 2abe 7c40 df3d e3af 143f ea3b 04bf
00000040: cf09 4ebc 22f3 8d3d d40b 58be cdb8 f73e
00000050: 548d e8be 35a7 b83e 279a c73d 110a 953d
00000060: f366 a0be 04af b83e a369 033f a8ee c5bd
00000070: cfff 9fbe 6e36 9d3e 98df 20be 9f1a b53e
0.12930551 -0.48717275 0.2530872 -0.12641478 -0.5427996 0.08163653 -0.26650813 -0.2758981
0.013330113 -0.12700994 0.19121683 0.1849677 -0.16624534 0.10900971 0.5808088 -0.5165392
-0.012575581 0.069311395 -0.21098262 0.4838318 -0.45420325 0.3606507 0.09746199 0.07277311
-0.31328544 0.36071026 0.51333064 -0.09664661 -0.31249854 0.3070559 -0.15710294 0.35371873

linear_relu_stack.2.weight f4 [64, 32]
00000000: 1097 243e 3eab 783e ffe1 55be 00d8 063e
00000010: c910 3bbe 26ba 50be fb5e 4a3d 0898 48be
00000020: 0635 e9bd 3b90 e63d c440 a1bd 790c d9bd
00000030: 426f 07be e0bc 0a3e 4355 193e e7b5 2e3e
00000040: 10cc 99bc 2a54 23be 0bc1 c33d 0e95 a6bd
00000050: d0de 323e 4337 f63b 6f35 0f3d d902 6cbe
00000060: 1bd2 b4bd d70f 97bd b5ab 63be 9e38 0a3d
00000070: 324b 213e eb8e 72bc 9e7b 9c3d 3fb4 193e
00000080: cf0c 06be 66c9 733d ce06 6ebd ab5c d23d
00000090: 8414 513d 6220 89bd ed6e 933e 5d18 ce3c
000000a0: 8415 9dbe 6aa1 26bd a930 c23c 8457 523e
000000b0: da9f 0fbe 7107 92bd 6b89 793d e893 02be
000000c0: 07ae 013e f3b0 50be 8bcf 893d 55a9 1ebd
000000d0: 3915 ed3b 2332 ddbd afa8 e63d 6f74 42be
000000e0: 2ed7 d33c 7a3c 29be 5662 e43c d5ab 3abe
000000f0: 9b60 183d 1c1c fcbc a9fc 4ebe 5dff 25be
00000100: 0202 6fbd 53dd 673e 91e1 d6bd ba6d 1e3b
00000110: 84ec 0b3e 7b51 353e b748 86be 35ff b9bd
00000120: 75f0 3f3e 31a6 7d3d 8bd7 ce3d dc7e dbbd
00000130: 755c f4bd a313 d73d b636 db3d 7456 243e
00000140: c145 e13d a44a 123c 1937 1cbc e287 21be
00000150: f5d5 c03c bc68 e33d 23c0 113e 65dc 9abe
00000160: 1a01 7a3d 805d 14bc d4e8 0cbe 38ea df3d
00000170: 204d 213d 32bb bebb 7f07 123d 135c d93d
00000180: bebf 14be b905 c43c 0d04 9e3e c0b1 30bd
00000190: f42e 0fbd 8b81 e13d fa40 30be 9b3a 263e
000001a0: d28f b53c 8451 86bd a5e1 1bbe b0b6 8cbd
000001b0: a7f7 963d a655 9fbd 2c56 1c3d 0f81 ef3b
000001c0: 1dee 69be 37d7 f13d 2a96 6ebd 24d8 583e
000001d0: 29b2 2f3e ecc0 a4bd 37e4 fc3d 68eb 163d
000001e0: 7930 713d 85c4 a0bd ee66 713d 4181 e7bd
000001f0: 9328 af3b 5fd1 313e 91d7 62bd 436b 073e
00000200: 4b16 febd aceb 703e 3ea9 dfbc 41c9 cb3d
00000210: 6796 bd3d 33c0 04bd 0471 013e 3acb 953d
00000220: b76e 35bd e558 09be a6a9 203d a870 223e
00000230: 828e 14bd ee58 0fbe 2237 68be e3cc 99be
00000240: b5a5 b83d 1a60 253e c6f6 2ebe affa 18be
00000250: 7a4a 54bc 0921 523a 2342 65be 108b a23d
00000260: f3b1 29be 2d6e c4bd a9d7 df3e c9d4 a4bd
00000270: ac1e 48be d2df c0bd 4c5f 303d a8cc 32be
00000280: bf50 f03d 9f2e e83d 1a0c 4e3e 7842 2ebe
00000290: 7126 77bd dd43 983e ed35 49bb a9d4 153e
000002a0: f5b4 38be e073 4e3e 483d 403d 9de7 d4bd
000002b0: 97b0 593d 273c 483d 443c a6bd ac50 f63d
000002c0: 73b0 c03d c29c 1bbe 0ee9 95be d0ae 1b3e
000002d0: 77f5 323e ed87 1bbe e6be 26be 741f 54be
000002e0: 4776 003e c719 aabd 81e3 a83d baf8 cbbd
000002f0: 235f b23d 92cb 223d 1a88 d13d 5f78 013e
00000300: 7a96 f0bc 7802 493e 04d3 9fbe b0a3 d1bd
00000310: d24c 3fbe 0a83 97bd 7f02 673d 1b21 50be
00000320: 14fe 09be 9892 61be f4a6 bf3d 839e 47bd
00000330: dea9 093a 02f3 44be 9a98 403e 6e66 21bd
00000340: d728 dd3d bb0a 1b3e 3eba c1bd 6366 343e
00000350: 92cd 08bc c284 d23d 1bf0 333e 8f82 9bbd
00000360: ce28 c33d b7b3 0bbe 1e00 5dbb dc35 aa3d
00000370: aee4 8e3e af70 aebd 1e7c cabd 2c9b 4e3d
00000380: e572 86bd 40c1 2a3d 1b17 84be 09c5 95be
00000390: 0ba9 07be b048 213e 93f0 99bd d71f e23d
000003a0: 4f7a d6bd 143c 123e 2b37 62bc 9f44 edbd
000003b0: 386b 31bb ddec b03d 3e22 a2bc c7ab 54bc
000003c0: 1558 2bbe e8b0 ab3d 08a5 34be 856f ccbd
000003d0: c409 55bd efa3 ab3d 8edb 40be b0a8 743e
000003e0: 29c8 9cbd 580e 393e 6805 f63d 01fe 4fbd
000003f0: 3d47 c83c 517d 80bd 27aa d73d e8e6 eb3c
0.16073251 0.24284074 -0.20886992 0.13168335 -0.18268122 -0.2038351 0.049406987 -0.19589245
-0.113870665 0.112579785 -0.07873681 -0.10598082 -0.13226035 0.13548613 0.14973931 0.17061578
-0.018774062 -0.15950075 0.095583044 -0.08133899 0.17467809 0.007513912 0.034963068 -0.23047961
-0.08829137 -0.07376068 -0.2223347 0.0337454 0.15751341 -0.014804582 0.076407656 0.15010165
-0.13090824 0.05951824 -0.05811196 0.10271581 0.051044956 -0.0669563 0.28795567 0.025158102
-0.30680478 -0.04068128 0.023704844 0.20541197 -0.14025822 -0.071303256 0.060922068 -0.12751734
0.12664042 -0.20380001 0.06729039 -0.038735706 0.007235196 -0.108005784 0.112626426 -0.18989728
0.025859442 -0.16526976 0.027878921 -0.18229611 0.037201505 -0.030775122 -0.2021357 -0.16210695
-0.058351524 0.22643022 -0.10492242 0.002417429 0.13664442 0.17706864 -0.26227352 -0.0908188
0.18744071 0.06192607 0.10099705 -0.10717556 -0.11931697 0.10501792 0.10703795 0.16048604
0.109996326 0.0089289285 -0.009534621 -0.15774491 0.023539523 0.11103961 0.1423345 -0.30246273
0.061036207 -0.009055495 -0.13760692 0.109333456 0.039380193 -0.0058206553 0.03565168 0.10613265
-0.14526269 0.02392851 0.30862466 -0.043138266 -0.034956887 0.110110365 -0.17212287 0.16233294
0.022163305 -0.065585166 -0.15222795 -0.068707824 0.07371455 -0.07780008 0.038168117 0.007309086
-0.2284474 0.11808627 -0.058248676 0.21176201 0.17157806 -0.080446094 0.12348216 0.036845595
0.058884118 -0.07849983 0.058936052 -0.1130395 0.005345413 0.17365025 -0.05538136 0.13224511
-0.12406596 0.23527402 -0.02730238 0.099504955 0.092572026 -0.032409858 0.12640768 0.07314153
-0.04429504 -0.13412817 0.03922429 0.15863287 -0.03626872 -0.13998768 -0.22677281 -0.3003913
0.09015981 0.16149941 -0.17086324 -0.14939378 -0.01295721 0.0008015787 -0.2238851 0.0793668
-0.16571788 -0.09591327 0.43719223 -0.08048398 -0.1954295 -0.0941769 0.043059632 -0.17460883
0.11734151 0.11337017 0.20121804 -0.17017543 -0.060339395 0.29739276 -0.0030702308 0.14631905
-0.1803778 0.2016139 0.046933442 -0.10395739 0.053146925 0.04888549 -0.081169635 0.12027106
0.09408655 -0.15196517 -0.2927937 0.15203404 0.1747645 -0.1518857 -0.1628376 -0.20715123
0.12545119 -0.08305698 0.08246518 -0.0995955 0.08709552 0.03974492 0.102310374 0.12643574
-0.029368628 0.19629848 -0.3121568 -0.10236299 -0.18681648 -0.073980406 0.056398865 -0.20325129
-0.1347583 -0.22028577 0.09358016 -0.048735153 0.00052514474 -0.19233325 0.18808213 -0.039404325
0.10798805 0.15140812 -0.09459351 0.17617182 -0.008349793 0.10279228 0.17572062 -0.075932615
0.09529267 -0.13642775 -0.0033721994 0.08311054 0.27908844 -0.085175864 -0.09886955 0.050440952
-0.06564883 0.041688204 -0.25798878 -0.29251888 -0.13248079 0.15750384 -0.07516589 0.11041229
-0.10472547 0.1428073 -0.013807098 -0.11585354 -0.0027071964 0.08638928 -0.019791719 -0.012980408
-0.1673282 0.083833516 -0.1764108 -0.09982208 -0.052011266 0.08380877 -0.18833753 0.23892474
-0.07655365 0.18071878 0.1201275 -0.050779346 0.024448032 -0.06273902 0.10530501 0.028796628

linear_relu_stack.2.bias f4 [64]
00000000: 0ee7 a5bd 934c 0b3b d59f 35bd d82b cabd
00000010: 27df 04be 4b69 923d 8e46 61bd 3844 bfbc
00000020: 61db d7bd 57b9 93bd 3bd0 c7bd ab8e 923b
00000030: 6b3b 18be f336 383e d237 6ebd 1e6e 823d
00000040: 0477 fe3d ef0e cd3c 27cd 31be e900 44bc
00000050: 7fa4 ac3d e795 77bd 7cb3 943d c12c ee3d
00000060: a94d 49bd 7db3 0c3e d3db 023c c65b e13d
00000070: cf41 2fbe 06b4 a73d 2ad9 5fbc 8847 d9bd
00000080: 465d 14be 5e92 4c3d e0ef f33d 6eae 89be
00000090: 28a2 c53d f787 753d aec9 443e 1bfb c3bd
000000a0: 815b 86bd d5fe b7bc cd5d da3d 2ff3 0b3d
000000b0: 77d0 223e c786 84bc 0f13 ed3d ef0a 703c
000000c0: 6744 9a3c 922c ce3c 6236 32bc ad17 f73c
000000d0: 018e 0fbe 51e3 04be 920f 83bd 345d 9cbd
000000e0: 63b2 503d 16ee 203d 03c4 61be 9484 ea3d
000000f0: 04af 74be a2ed 513d 8314 1dbe e32e 083e
-0.08100711 0.0021255359 -0.04434188 -0.09871644 -0.12975751 0.07148989 -0.054998927 -0.023347959
-0.1053989 -0.07213085 -0.09756514 0.0044725738 -0.14866416 0.17989711 -0.058158703 0.063686594
0.12425044 0.025031535 -0.17363416 -0.011963108 0.08429813 -0.060445692 0.072607964 0.1162963
-0.049146328 0.13740344 0.0079869805 0.110038325 -0.17114948 0.081886336 -0.013662616 -0.10609347
-0.14488706 0.049944274 0.11910987 -0.26890892 0.096500695 0.05994412 0.1921756 -0.09569379
-0.06560422 -0.02246038 0.10662422 0.034167465 0.15899836 -0.016177548 0.11575901 0.014651044
0.018831445 0.025167737 -0.010877224 0.030162657 -0.14019014 -0.1297734 -0.06399454 -0.076349646
0.050951373 0.039289556 -0.22047429 0.114510685 -0.23894888 0.051252015 -0.15339856 0.13299136

linear_relu_stack.4.weight f4 [128, 64]
00000000: bda8 b2bd c692 79bb af5f adbd e935 06be
00000010: d7a9 2b3d bcdb 303e 76a9 1ebd 85fd ab3d
00000020: 4976 903d 4c7f ee3d 34fe dfbd 1472 b03d
00000030: f6b9 d7bd b355 88bd be64 063c c96d 94bd
00000040: 546a c6bc 671f abbc 6125 e03d 4601 abbd
00000050: 9512 8c3b c9d1 8abd 6624 923d 828e 02be
00000060: 989e c2bd fbd2 d73d 7676 9fbd 556c 04be
00000070: 8912 cd3d 3eb3 3fbe 593e 6fbd e2fd 09be
00000080: cf6b 233d e2fa 97bd 6086 6c3d 9d76 aa3d
00000090: 0a69 ea3d 4258 603d bec6 2bbe 5e7c 79bb
000000a0: 246b f6bd 671b 85bd c765 b63d 0e1e 92bb
000000b0: bd8e 96be a1a9 ba3d 9452 efbe 61c7 453e
000000c0: c894 083e c948 54bd 517c f43c 5761 1a3e
000000d0: fb4f c9bd 4b8a f83b e170 9c3d 6203 3a3e
000000e0: 335b 9e3d 7016 1a3e e641 8b3c 1033 9f3c
000000f0: 29aa 9cbd 99bd 963d 9522 a23c 265f 50bd
00000100: dfc9 573e 4059 13bd ec3c 30bc d735 1abd
00000110: 7931 adbd d813 bdbd 1046 0cbe 4638 143e
00000120: ae23 a0bd f30a 153b 8c47 dd3d 7585 273d
00000130: a62d 86bd 5ca1 2d3d 290e 91bd 59d3 103e
00000140: 7b5f 8b3e 71ab a83d f5b0 29bd 1caf 1dbd
00000150: f983 a7bd 437f a03e f7a9 073e a549 123e
00000160: 4325 fc3d 6ddd d83d 8ca8 8f3c 5501 053e
00000170: 47ab b03d 7a06 e43d 5280 b43d 8a4d 9cba
00000180: 4a59 523e 5815 c4bc 63dd 1a3e 2b5e 743d
00000190: 330c 2bbe d202 9a3c f6e5 9a3d 309a 1b3e
000001a0: fe02 30bd 2995 253e 5de1 20bd 8390 60bc
000001b0: ac61 983d 4cea b5bd f1a5 153e ba7a 343e
000001c0: a042 11bd c64f 21be 8b51 943d b9ed 923d
000001d0: 54ab 113e 9876 313d 3ca2 823d 250d 3b3e
000001e0: a982 043d 80c3 d83d ebf7 0e3e 347d c6bd
000001f0: a267 043e 87a3 90bd d545 893d 82ad c43b
00000200: d1e5 88bd 5823 bd3d 64bb 19be 5812 3dbe
00000210: 5fb0 c9bc 25fe 1cbd fdfc fb3d 2310 28bc
00000220: 1b9b 04be 91b2 8abd 9195 05be 3a2f cebd
00000230: 453b 323d 5a75 16bd c7e3 e5bd e746 de3d
00000240: 42c1 1f3d 3fc1 353e 79b1 6e3d 454b 3ebe
00000250: 7b2c 2bbd 5ecc 213d f85e 9a3d 461e 2a3e
00000260: 1c54 103e 4c0d adbc df0f a93c f356 62bd
00000270: 4057 27bd c4a3 2fbb fc47 90bb cb70 4d3b
00000280: 17b2 6c3e 05c4 9dbc 40c4 6c3e cf25 a6bc
00000290: c097 64bc 9350 c4bd d23d ff3b 638a c83d
000002a0: a576 e0bc 3d85 6c3c 3184 9a3c 48f2 62be
000002b0: c930 c7bd 2e87 b33d e980 053e cead 18bd
000002c0: bf03 92bd b88e eb3c 4dee 023e 9068 e33d
000002d0: f62f d93d fbef 333d 3efd 073d 16e0 c13c
000002e0: f29e 363c e62a 94bc 0234 5a3d bb53 8bbd
000002f0: a94a 543d 4815 8abc 5ec3 9f3d ab0e 07bc
00000300: f8e6 84bd ce86 8c3d 116c 803d abf6 8f3c
00000310: 96fa e23c 9ce2 13be de57 d53d 5d70 4c3d
00000320: c57a d6bd f71d 543d 5140 16be 0cd1 803b
00000330: 2328 da3d a7aa c93d 9aaf e5bd 7f93 afbd
00000340: e881 203e 7d53 fb3d c0af 22be 61dc dfbc
00000350: 0541 62bd dded 1cbd 5f66 83bc c5c0 c0bd
00000360: 9a26 55bd 5964 5e3d a984 2f3e 2e4a 2d3e
00000370: b998 5fbd 64c9 48be ac86 fa3d 3410 d5bd
00000380: aaba 2dbe e260 1cbe 9051 873d c999 a83d
00000390: fed4 413e 520a 033e 124e edbc c540 96bd
000003a0: 19f7 e83d 5aa1 bcbc d9d5 53bc 72ee 1f3d
000003b0: 7f13 47be 7425 163d 9df1 93bd b81c d2bd
000003c0: 0e9a 52bc 75cb 76bd f320 a5bd 5d70 94bc
000003d0: 8a73 253e 5217 223d 8fdd 9cbd 1605 983d
000003e0: 4142 39be c556 193d cf40 59bd 6c1b c93c
000003f0: 60b1 823d ad72 27bd 52c7 0c3e 1381 52bd
-0.087235905 -0.0038081869 -0.08465516 -0.13106503 0.04191002 0.17271322 -0.03873583 0.083979644
0.07053811 0.11645374 -0.10937157 0.08615509 -0.10533516 -0.06656971 0.00820273 -0.07247502
-0.024220623 -0.020888997 0.109446295 -0.08349852 0.004274676 -0.067782946 0.07135849 -0.12749675
-0.095029056 0.10538288 -0.077862665 -0.1293195 0.10013301 -0.18720719 -0.05840907 -0.13475755
0.039897736 -0.07420899 0.057745337 0.08323405 0.11445816 0.05477167 -0.16775033 -0.0038068513
-0.12032154 -0.06499367 0.08906131 -0.004459149 -0.29405776 0.091143854 -0.4674269 0.19314338
0.13338006 -0.051827226 0.029844435 0.15076195 -0.09829708 0.007584845 0.076387174 0.18165353
0.077322386 0.15047622 0.016999196 0.019433528 -0.07649643 0.07360382 0.01979188 -0.05087199
0.21073101 -0.035973787 -0.010756712 -0.037649002 -0.08456702 -0.092323005 -0.13698602 0.14474592
-0.07819305 0.0022742122 0.10804662 0.04089876 -0.065516755 0.042390212 -0.07082779 0.14143123
0.27221283 0.08235825 -0.041428525 -0.038497075 -0.08179469 0.31347093 0.1324843 0.14285906
0.123117946 0.105891086 0.017536424 0.1298879 0.086264186 0.11134048 0.08813538 -0.0011924964
0.20541874 -0.023935959 0.15123515 0.059660118 -0.16703872 0.018800173 0.07563393 0.15195537
-0.042971604 0.16170181 -0.039277423 -0.013706329 0.074405044 -0.08882579 0.14614083 0.17624941
-0.03546393 -0.15753087 0.072421156 0.07174248 0.14225513 0.04332599 0.063786 0.18266733
0.03235117 0.10584164 0.1396176 -0.09691849 0.12930158 -0.0706244 0.067027725 0.006002129
-0.06684459 0.09235257 -0.1501289 -0.18464029 -0.024620233 -0.03832831 0.12304113 -0.010257754
-0.12949793 -0.0677234 -0.13045336 -0.100676015 0.043513555 -0.03673301 -0.11225086 0.10853367
0.039002664 0.17749499 0.05827472 -0.185834 -0.041790467 0.03950154 0.07537645 0.16613111
0.14094585 -0.021124505 0.02063745 -0.055258702 -0.040854692 -0.0026800493 -0.0044031125 0.0031347747
0.23114811 -0.019258508 0.23121738 -0.0202817 -0.013952196 -0.09585681 0.007789352 0.0979202
-0.027400324 0.014436063 0.018861862 -0.22162735 -0.09726102 0.08766018 0.13037457 -0.037275128
-0.07129621 0.028754577 0.12786217 0.11103928 0.10604851 0.043930035 0.033200495 0.023666423
0.011146294 -0.018086862 0.053272255 -0.0680308 0.051829014 -0.01685585 0.07800935 -0.008243243
-0.06489366 0.068616495 0.06270612 0.017573675 0.02770738 -0.14441913 0.1041715 0.049911845
-0.10472635 0.05178639 -0.14672972 0.0039311703 0.10652187 0.098470025 -0.11215134 -0.085730545
0.15674555 0.122717835 -0.15887356 -0.027326765 -0.05523779 -0.03831278 -0.016040025 -0.09411768
-0.052038766 0.054294918 0.1714045 0.16922829 -0.054589007 -0.19608074 0.12232718 -0.10403481
-0.16965738 -0.15271333 0.06607354 0.08232457 0.18928906 0.12796906 -0.02896789 -0.073365726
0.11375255 -0.023026157 -0.012929403 0.03904576 -0.19441031 0.03665681 -0.072238185 -0.10259384
-0.012854112 -0.060252625 -0.08062925 -0.018119985 0.16157356 0.03957302 -0.076594464 0.07422845
-0.1809168 0.037436265 -0.053040322 0.024549209 0.06381488 -0.040880848 0.1374791 -0.051392626

linear_relu_stack.4.bias f4 [128]
00000000: ef4b c5bb 3acf 38bd b622 82bd 2221 c23d
00000010: fc29 c43d 9c40 6f3c 2614 2abc 8124 00bd
00000020: 4e17 30be 942c eebd 1992 3dbd eda3 6dbb
00000030: 5432 0ebe 546a fabd cf8f 103c 0cfd c23c
00000040: a6b2 12be c310 fc3d 7c91 e03c 0c37 a73b
00000050: 8768 983b 969b b4bd acae 04be a685 d1bd
00000060: 0921 a6bd 6ffd 03be fa94 38be a1f0 4d3c
00000070: 20b6 24bd dbd2 8dbd dbf3 8fbd 92c0 84bd
00000080: 77ca 46be c39e a4bd 64ae dfbd 1055 c1bd
00000090: c11c fa3d 5295 a0bd 85a9 b5bd 9459 cbbc
000000a0: ee65 733c b7e3 c1bd 91f8 94bd 98f2 1f3d
000000b0: 0d15 5dbd 724b 1f3d cc6f 503d e14e cebd
000000c0: 5a54 f03b 703a a4bd d2df 16be e35c 833c
000000d0: 4b16 b7bc 32f8 aebd 598d 693d 6b9c 52be
000000e0: 7fe4 96bc 0958 f9bd 2b46 22be 21d8 f33d
000000f0: 7757 e03b 8747 593d f6c6 40bd 770b 093c
00000100: 8f8c a1bd d71c 14be ac8b 07be eafd 47bc
00000110: 9c87 16bc dd7e b9bd b7f9 1fbe 04f6 fcbd
00000120: 3dd7 88bd 6a05 18be 9fc6 073d a3fa 12be
00000130: d20a a53d 6784 4c3c a02f 99bd b11a c83c
00000140: 43c1 ee3d 3085 3abe bf12 84bd a72b 07be
00000150: 264f d2bd 88fb 0a3b ee80 d03d 8748 0dbe
00000160: 1498 5abe 5261 ffbd 1ef9 153d 1439 ccbd
00000170: f254 fb3d c5ad 39bc e391 07bd 78e8 673d
00000180: 6950 90bc 2ec7 3b3d fa21 20be e5d5 e0bd
00000190: f983 f2bb 7d87 03be 5ece b5bd 7932 873d
000001a0: 596d 1bbe a612 b0bd d352 8f3d 214d 333d
000001b0: 573e 7ebd a15d 993d 39b4 5c3d 0d5c c9bd
000001c0: ca3b 2abe 8afd 0b3d f9ae 8ebc 0b41 77bd
000001d0: e0ff 83bd bf66 25bd 8a21 c4bd af8b dcbd
000001e0: 62d6 05be 69c3 c5bc 30af 4abe 555a 8abd
000001f0: 3d92 a33d 9ca2 9abd 98d3 0abe 75b7 bebd
-0.006021015 -0.0451195 -0.06354277 0.09478976 0.095783204 0.014602806 -0.01038078 -0.031284813
-0.1719639 -0.11629596 -0.046281908 -0.0036261037 -0.13886386 -0.12227312 0.008823349 0.023802303
-0.14325961 0.123078845 0.027413122 0.0051029976 0.0046511325 -0.08818738 -0.12957257 -0.102305695
-0.0811177 -0.12889646 -0.1802558 0.012569577 -0.04021275 -0.06924983 -0.070289336 -0.06482042
-0.19413172 -0.08038094 -0.10921934 -0.094400525 0.122125156 -0.078409806 -0.08870224 -0.024822988
0.014855845 -0.09467261 -0.07273973 0.039049715 -0.053975154 0.03889031 0.050887868 -0.10073639
0.0073342742 -0.080189586 -0.14733818 0.016035503 -0.022349497 -0.08543433 0.057019565 -0.20567481
-0.018419502 -0.121749945 -0.1584708 0.11906458 0.006846364 0.05304673 -0.047064744 0.00836455
-0.078881375 -0.14464127 -0.13236874 -0.012206534 -0.009187605 -0.090574004 -0.15622602 -0.12351611
-0.066816784 -0.14845815 0.033148404 -0.14353423 0.080587044 0.012482739 -0.07479787 0.02442679
0.116579555 -0.1821487 -0.06448888 -0.13200246 -0.102690026 0.0021207053 0.101808414 -0.13797198
-0.21347076 -0.12469734 0.03661453 -0.09971824 0.122720614 -0.011332934 -0.033098113 0.056618184
-0.017616468 0.04584425 -0.15637961 -0.10978297 -0.0074009863 -0.12844653 -0.08877252 0.06601424
-0.15178432 -0.08597307 0.06998219 0.043774728 -0.06207117 0.074885614 0.05388281 -0.098320104
-0.1662437 0.03417734 -0.017417418 -0.060364764 -0.06445289 -0.04038119 -0.095767096 -0.1076883
-0.13070062 -0.02414103 -0.19793391 -0.06755511 0.07986877 -0.075505465 -0.13557279 -0.093123354

linear_relu_stack.6.weight f4 [64, 128]
00000000: 4d03 73bd 2712 d03d 43ef 223e 1d36 c2bc
00000010: 2976 24bd 32b2 9d3b b4a3 25b9 15bc e93c
00000020: 8c02 6dbc 649b ea3c 855d cebd c702 4c3e
00000030: 55fc db3d a738 633d 8078 223e 72a9 613d
00000040: b5f7 4c3d 98ce ee3b 395c b23d 78e2 97bd
00000050: 740c 1a3e c4a9 283d 9666 783d 1c24 9d3c
00000060: 0379 39bd 239c 05bd 4e5d 5b3c 3752 ccbc
00000070: 45c8 063c 7102 ca3c cfd2 9b3d 783b ef3d
00000080: 5510 1d3e 88ac cfbc 5f2e 613e ab6a 4a3d
00000090: d8ce 13bd 57f1 633a 6ff3 80bd 44c1 a7bd
000000a0: bc88 f6bc 637a fc3d a7c8 383b 677b b13d
000000b0: 43d4 e93d a2e0 c23d 73eb 8e3c 77eb 873c
000000c0: 5aec d0bd 5f80 76bd ec49 26bd 0d01 c1bc
000000d0: bd24 983d 29c0 8c3d ec89 453d ea7f 6d3c
000000e0: e3ad e5bd cd51 853d c359 113d 9f70 453d
000000f0: 71a1 9d3c 359c 4b3e ff8f 913d 0de5 efbc
00000100: 2181 de3d b8e4 d2bd 70df e63d b17c fdba
00000110: 20b4 c537 c6b8 bd3d dcfb ef3d 76a5 bd3d
00000120: f2c1 55bd dfaa 8b3c eaf2 ae3d b81f c1bd
00000130: 24ef 8b3d b8c1 8e3d f975 00bd d141 613d
00000140: 687e c13c 13e9 97bc 39f2 bb39 58f8 7e3d
00000150: 4030 02bd 90f0 863e c39c 98bd d541 a43c
00000160: 4e5c 093e 79d0 143e 72ea e83b 45bb 303c
00000170: afe1 f83d 31c4 fc3c 73e4 283d 3abf 6f3d
00000180: c31e 933a 120e d03c cf1a 1e3e 3dfa fc3c
00000190: d4f9 ad3d e9ee f53d 351f 62bd 6d85 f13c
000001a0: 3d7f 253c 392d ffbc 9331 a23b 14ff a53c
000001b0: 3f55 103c 74bc 83bd e511 68bc eb77 083d
000001c0: bbd1 c73d b8e9 39bd c2ac 093c 9348 813e
000001d0: 4a8a 74bd 1c9d 483d eeb3 8f3c fb6a 003e
000001e0: 18fa bd3c 6590 aa3d 30ac 413c 35ca c23d
000001f0: 7e46 083d 56fa 203e c55b 4fbd a63c 623d
00000200: eb7c e13d d33b 31bd 6637 1d3c bd31 e4bd
00000210: b974 1abc 8116 28be 7b8a 8ebd abb8 1ebe
00000220: b1c0 25be d13e c0bc 963e 0fbe cb79 113e
00000230: 3e4a 92bd 4b54 a9bb 5986 803d 1f2e 2cbe
00000240: e831 1abe 14a0 68be ae58 583d 7c2b f3ba
00000250: 27c8 b6bd 4d5b 593d 833f a2bd 8339 59bd
00000260: 828d ce3c d5db 3f3e 56c6 f83d fcfc 8f3d
00000270: b1a7 efbd dc14 953d e5df 02bd 5e5a fbbc
00000280: 13f5 d33d 021f d3bd 33a9 8a3d c1bc 243c
00000290: 3782 88be e09c d83d 897a 3f3d 9428 48be
000002a0: 4098 2b3d 3e4e 82bd 4ce9 d6bd 98ad 96bd
000002b0: c968 8ebc 51d1 3bbd a580 a83d 68ef 7cbd
000002c0: 3dd4 343e 54ab ff3c e13f 56bd 6de4 503e
000002d0: fb0b 073e aad3 6abe 9337 013e 1d31 36bd
000002e0: ef4d 523d ad9e 533d c2b5 fe3d 68eb a73d
000002f0: 1127 d43c abbe 83bd 03f6 b5bd cdf3 6e3d
00000300: 42ff fe3d eb10 c9bd a33c 0c3e 19f8 08bd
00000310: 3db2 c1bd bc27 edbd 9718 57bc 2f1f 85be
00000320: 329d e73d cd56 b0bb a161 bbbd 2dfc 36bc
00000330: bed5 45be 9ecb 463d 4bd0 033e 5849 953c
00000340: 4d23 603d 4659 f8bd f730 4abd 67c5 6a3d
00000350: 82f9 10ba 391a 31bd a8e7 383d a5a8 1e3d
00000360: b13f 11be cc8d abbd 36bb 3f3e 7408 abbd
00000370: 4aae 903d 2ec8 123d d714 8a3d 868c ac3d
00000380: 751e 8fbd 692a 3bbd 7254 09bc a4ab 1dbd
00000390: 0488 673c 463a fe3b aa1f 09be a567 cdbc
000003a0: 1cc8 83bd 544a 22bd aa8d 16bc 8871 88bc
000003b0: 7e2a 8dbd 3c2d edbc c357 eabd 6798 8bbd
000003c0: dd33 8fbd 9da3 07bc 41fc 913c cf50 9abd
000003d0: d524 f2bd e7ba 02bc 6656 0abd 3ecc f1bc
000003e0: 2448 0b3b c925 2a3d 4c69 723c 91ea debd
000003f0: 83aa 7b3d 5a98 e1bd 70ee eb3d 90b7 ac3d
-0.05932932 0.10159712 0.15911584 -0.023707444 -0.04015175 0.0048125023 -0.0001579661 0.028532067
-0.014465939 0.02863855 -0.10076431 0.19922934 0.10741488 0.05547395 0.1586628 0.055093236
0.05004092 0.0072878115 0.08708996 -0.07416242 0.15043813 0.041177526 0.06064471 0.019182257
-0.04528142 -0.032619607 0.013388945 -0.024941547 0.008226459 0.024659367 0.07608568 0.11681265
0.15338261 -0.025350824 0.21990345 0.049418133 -0.036085933 0.0008695325 -0.06296431 -0.08191159
-0.030094497 0.12328031 0.002819577 0.08666115 0.11417439 0.095155016 0.017446255 0.01659177
-0.102013305 -0.060181018 -0.04059784 -0.023560071 0.07428882 0.06872589 0.048227236 0.014495829
-0.11214807 0.06509743 0.035485994 0.048203107 0.01924202 0.19883807 0.07107543 -0.029284025
0.10864473 -0.10297531 0.11273086 -0.0019339529 2.3568107e-05 0.09263758 0.1171796 0.09260075
-0.052186914 0.017049251 0.08542426 -0.09429878 0.06832722 0.06970543 -0.031362507 0.054994408
0.023619846 -0.018543756 0.0003584789 0.062248558 -0.031784296 0.2635541 -0.07451775 0.020050922
0.13414118 0.14532651 0.007108026 0.010786836 0.12152421 0.03085527 0.04123349 0.058531977
0.0011224378 0.025397334 0.15439914 0.030881042 0.084949166 0.12008459 -0.055205543 0.029482568
0.010101137 -0.031149494 0.0049497574 0.020263232 0.008809387 -0.06432429 -0.014164423 0.033317488
0.097568 -0.045388907 0.008403005 0.25250682 -0.059702195 0.048977956 0.017541852 0.1254081
0.023190543 0.08328322 0.011820838 0.09511224 0.03327035 0.15720496 -0.050624628 0.05523362
0.11010154 -0.043269943 0.009595728 -0.11142299 -0.009427243 -0.16414835 -0.06960007 -0.15500133
-0.16186787 -0.023467453 -0.13988718 0.14206617 -0.07143067 -0.005167519 0.06275625 -0.16814469
-0.150581 -0.22717315 0.052818947 -0.0018552388 -0.08924895 0.053065587 -0.0792227 -0.053033363
0.02521396 0.18736203 0.121472046 0.07030675 -0.117019065 0.07279369 -0.031951804 -0.030682739
0.103494786 -0.10308649 0.067705534 0.010054768 -0.26661846 0.105767965 0.046747718 -0.1954673
0.041893244 -0.0636258 -0.104937166 -0.07357329 -0.01738395 -0.045853917 0.08227662 -0.061751753
0.17659087 0.031209625 -0.052307013 0.20399638 0.13188164 -0.22932306 0.12618856 -0.04448043
0.051343855 0.051664997 0.12437011 0.08199197 0.025897535 -0.064328514 -0.08884814 0.058337975
0.1245103 -0.0981768 0.13695006 -0.03343973 -0.094578244 -0.11579844 -0.013128421 -0.26000354
0.113092795 -0.005381441 -0.091494806 -0.011168522 -0.19319817 0.04853403 0.12872426 0.01822345
0.054721165 -0.121264026 -0.049363103 0.057317164 -0.00055303436 -0.0432379 0.0451428 0.03873505
-0.14184453 -0.08376655 0.18723759 -0.08351222 0.07064493 0.035835437 0.06742256 0.0842524
-0.06988231 -0.045694742 -0.00838195 -0.038493767 0.01413155 0.0077584116 -0.13390985 -0.025073836
-0.06434652 -0.039621666 -0.009189049 -0.016655698 -0.0689287 -0.028952233 -0.114425205 -0.06816178
-0.06992314 -0.008278755 0.01782048 -0.07534944 -0.118234314 -0.007979131 -0.033773802 -0.029516336
0.0021252716 0.04153994 0.014795613 -0.10884584 0.06144191 -0.11015387 0.11520088 0.08433449

linear_relu_stack.6.bias f4 [64]
00000000: a9a0 bd3b c88f 9e3d cdde 54bd 8b4f eabd
00000010: d970 033d 125f ddbd 2cf2 f0bd f50b 19be
00000020: 7ffc cdbd 0275 a8bc 2fce 0fbe 9e4d 93bd
00000030: 3885 ee3b def3 38be eb2a 8f3d 9f43 77bd
00000040: 8ceb 873d b8b4 6bbd 464c 6f3d 8362 743d
00000050: 8c98 0bbe dc42 333c f300 f5bd 07de c4bc
00000060: 9543 40bd 5772 2abe 2aee acbc b185 60bd
00000070: d7e0 54bd 8c8e 703d 242b 07bd f50b 2abd
00000080: f728 2cbc a36e b93d 3289 cebd 1a0b 98bd
00000090: 1c41 de3d baef d539 ef6d bb3c ca3d 51bd
000000a0: b55e 69bd 83de 163c 7f38 823b 755c f9bb
000000b0: 1dcc 44bd bee6 c53b 4cd5 88bd b1f0 bfbb
000000c0: d221 ffbd 1d47 2abd a86f 143d 33cb c93c
000000d0: 0318 83bd 5802 48be 3163 87bd bf0a 39bd
000000e0: 1f2f 89bd 2cb8 4dbd 5644 923d df42 0e3d
000000f0: 7e6d adbd 06b5 35bd f8ce e4bc 8340 49bd
0.0057869744 0.07742268 -0.051970292 -0.11440953 0.03209004 -0.10809149 -0.117649406 -0.14945967
-0.100579254 -0.020563606 -0.14043497 -0.07192539 0.0072790645 -0.18061778 0.06990608 -0.060367223
0.06636724 -0.057545394 0.05842235 0.05966426 -0.13632411 0.0109412335 -0.11963072 -0.024031652
-0.04693945 -0.1664518 -0.02110966 -0.054814998 -0.051972236 0.058729693 -0.033000126 -0.04151531
-0.010507814 0.090543054 -0.10084762 -0.074239925 0.108522624 0.00040805136 0.022879569 -0.051084317
-0.056975085 0.009208324 0.00397402 -0.0076098987 -0.04804622 0.0060394695 -0.06681308 -0.00585755
-0.124576226 -0.041571725 0.036239296 0.024633026 -0.06401064 -0.19532144 -0.06610716 -0.045176264
-0.06698441 -0.050224468 0.0714194 0.034731742 -0.084681496 -0.04436209 -0.027930722 -0.04913379

linear_relu_stack.8.weight f4 [32, 64]
00000000: 1414 80bd 8349 37bd 5a3b 9fbd b316 d43d
00000010: c25d 55bb 3ac6 aebd de9c 833c 1fb0 96bd
00000020: 65e7 40bd 54ce b13d d308 d83c 1c00 bebd
00000030: 72ff 40bd aaae 8d3d affb 06be 4234 3fbd
00000040: fa52 9c3d 4716 5a3d 7316 a13d 7356 c13d
00000050: 9227 a43d 6838 13bd 9587 26be e09e b4bc
00000060: 62e8 ba3b 2a11 54bd ea88 49bc 796e ea3d
00000070: f922 3abe 6e12 2abd ba7d b73d feef 5e3c
00000080: cb65 903d 1f56 bd3b 7a99 d93d 8c7c 20bc
00000090: 8105 81bd e182 d0bc 5afe fe3c 7028 b1bd
000000a0: 1a76 393d 8849 723c c833 37be 9445 cdbd
000000b0: 56af ab3c 6d17 fbbd fba8 86bc c44a cabd
000000c0: 71b0 2dbc acb8 a93c a2db 22be d337 08bc
000000d0: 74d3 e03d 8559 82bd 47ee 6bbc a6e3 8ebd
000000e0: e599 39bb 96f1 10bd 50b6 4f3d 73ac 2c3c
000000f0: a4e6 cabc 9f63 39bc 4066 603d 03a8 913d
00000100: ffe1 013e cfb7 bfbd 8150 68bc b598 f1bc
00000110: 7a01 d63d 31e9 65be 1122 1f3e 199c 12bd
00000120: 5b99 23be e421 b9bd c2cf 323c fa42 eabd
00000130: ae5a 16be 2898 033e 1139 923d 10d0 89bd
00000140: 80d5 6cbe 0caa a43d 5181 1ebe 4d6d 9a3d
00000150: e635 5d3d dec3 8b3c e8c3 24bd fa1e d03c
00000160: baab da3b 5ebf 113e 18ed 743c 0e2c 2a3d
00000170: 7b4f d8bb bb8f 963b c595 413d dda3 f4bd
00000180: 9487 f03d aa9a 733e 8e51 50be fd85 f23c
00000190: 8d38 dcbd a12a fd3c 5c17 88bc 6dbd 5cbd
000001a0: 5538 04be c90f 3a3e a6ba 60bd 2b01 38bd
000001b0: 52e7 373d 793e 9abb 4c27 5bbd 7fd0 2abe
000001c0: 097a 23be b52f 6fbe 3c0b 33be 54be 673d
000001d0: 6879 4c3d 561b e1bd ce15 8abd 0102 843d
000001e0: b4aa 7b3d aeec 2dbe 8c63 1e3d 8333 eb3c
000001f0: d13d 4ebe b35a 373e 8f35 003d 8fea 85bd
00000200: 4766 e3bb 6cae 903c 4fa8 483d faeb 213e
00000210: f415 8cbc 23a8 23be 9699 09be 58dd 6d3d
00000220: bd24 7a3c ac96 903c a70f 333e 9152 d9bd
00000230: cc5b 573d 6d03 b13b bd2a c73d 75aa 4f3d
00000240: 1269 dbbd ba19 b73d eee6 dfbd 12bb ddbd
00000250: a2c2 91bd efeb 8b3d e26d a4bc 9eab f3bc
00000260: 9845 b0b9 48a8 e63d 4dda d63d 8a50 063d
00000270: a596 a5bd 6b55 0e3d 3547 e03d 87a2 8f3d
00000280: 17c6 863d 4cb1 8abc 768c fe3c 76ff 623e
00000290: 0491 c2bc b636 983c 886b 763d 7fd3 83bc
000002a0: 261f 443e b2fc 81bd 57a2 90bd 5fa6 a03c
000002b0: 10a2 df3c bfe6 a4bd 44bb 4e3d a283 9cbd
000002c0: d04b cebc ab9e 413d d53a 8abd ef83 b5bd
000002d0: d45b d4bd 5dfb 5e3d edb1 543d 9d26 4fbd
000002e0: f28e 983d 3c64 f43c e097 2ebd d9af 10be
000002f0: 8b8f 0bbd a651 3e3d 6869 383d 0fae 1a3d
00000300: 2392 ae3d a263 33bd b59b 80bc 7f04 d43c
00000310: 3a93 e2bd bb3c 5fbc c87c c03c 7d0e cc3c
00000320: aa28 b03d 926a 92bc 5b3c 9cbc 6565 843d
00000330: f1e7 78bd f74d a83b 128c 003e 444b ccbd
00000340: 37d9 153a 1d7d 453e 1438 333e 8449 b43d
00000350: cd28 4abd f74b 0d3d a3bf 2a3e 4568 ac3d
00000360: 9342 9e3c 4e83 123e d9fa 443d 7d35 acbc
00000370: 0b98 b1bd d63c 2abe b682 213c d019 603d
00000380: c3a0 d9bd 8663 5d3d 7ab2 413d 15ec f73c
00000390: 5a4d 27be 179f 3abd fefb c4bc 5869 8b3e
000003a0: 40b1 33be adea 9e39 eed8 8f3d a00f fabd
000003b0: 3aa2 b03d b343 38bd a2c3 18bc e554 84bc
000003c0: 86f3 5fbe ac9d 8cbc b7c2 25bc c1d7 74be
000003d0: d303 2d3d adad 61bd 6fa4 a1bd 022b a3ba
000003e0: 913a 41bd bd46 97bd 90fd 253e 8835 a73d
000003f0: f447 043c 1211 f43d d35e 9a3d 0d84 3ebb
-0.062538296 -0.04474784 -0.07774992 0.10355892 -0.0032557105 -0.085339025 0.016066011 -0.07357811
-0.047095675 0.08681932 0.026371395 -0.092773646 -0.04711861 0.0691808 -0.13181947 -0.046680696
0.07633014 0.0532439 0.0786561 0.09440317 0.0801536 -0.035942465 -0.16262658 -0.022048414
0.0057039717 -0.05177418 -0.012300709 0.11446852 -0.18177404 -0.041521482 0.08959527 0.013607023
0.070506655 0.0057780887 0.106249765 -0.009795319 -0.06299878 -0.025453033 0.031127144 -0.08650291
0.045278646 0.014788039 -0.17890847 -0.100230366 0.02095763 -0.122603275 -0.016437998 -0.09877542
-0.010601149 0.020717941 -0.15904096 -0.008314091 0.109778315 -0.06364731 -0.014400071 -0.06977014
-0.0028320488 -0.035386644 0.050710976 0.010539162 -0.024768181 -0.011315255 0.054785013 0.07112124
0.12683867 -0.093612306 -0.01417935 -0.029491762 0.104495004 -0.22452237 0.15540339 -0.035793398
-0.15976469 -0.09039667 0.010913791 -0.11438556 -0.14683029 0.12851012 0.07139791 -0.06729138
-0.23128319 0.08040246 -0.15479018 0.07540379 0.05400648 0.01706117 -0.040225893 0.025405396
0.0066733034 0.14233157 0.014949106 0.04154592 -0.0066012717 0.0045947707 0.047261972 -0.11945317
0.117446095 0.23789468 -0.2034361 0.029604906 -0.10752974 0.030904116 -0.016612701 -0.053891588
-0.12912114 0.18170084 -0.0548655 -0.04492299 0.04489834 -0.0047071544 -0.053504273 -0.16681097
-0.15964521 -0.23358043 -0.17484754 0.056577995 0.04992047 -0.10991542 -0.0674244 0.06445695
0.061442092 -0.16984817 0.038669154 0.028711086 -0.20140769 0.17905693 0.031301077 -0.06538879
-0.0069396826 0.017661296 0.048988637 0.15812674 -0.017100312 -0.15982108 -0.13437495 0.058072418
0.015267548 0.017649971 0.1748644 -0.106114514 0.05257778 0.0054020197 0.097249486 0.05069967
-0.107134 0.08940454 -0.10932718 -0.108266965 -0.071172014 0.0683211 -0.020071927 -0.02974492
-0.00033621187 0.11262566 0.10490856 0.03279165 -0.08085374 0.03474943 0.10951082 0.070134215
0.065807514 -0.016930245 0.031072836 0.22167763 -0.02375079 0.018580776 0.060161144 -0.01609206
0.19152507 -0.06347026 -0.07062214 0.019610582 0.027298957 -0.08051824 0.05047156 -0.076422945
-0.025182635 0.04727046 -0.067495026 -0.08863055 -0.10369077 0.054438937 0.051927496 -0.050573934
0.0744914 0.029832952 -0.042625308 -0.1412958 -0.03407244 0.046464585 0.0450224 0.03776365
0.08523967 -0.04379619 -0.015699247 0.02588105 -0.110632375 -0.013625319 0.023497 0.024909252
0.08601506 -0.017873082 -0.019071748 0.06464652 -0.06076807 0.0051362473 0.12553433 -0.09975293
0.00057162665 0.19286008 0.17501861 0.088030845 -0.049355317 0.034496274 0.16674666 0.08418325
0.019318854 0.14307901 0.04809079 -0.021021599 -0.08671578 -0.1662477 0.009857824 0.054712117
-0.10626366 0.05404999 0.04728935 0.03026394 -0.16338101 -0.045561876 -0.02404594 0.27228808
-0.17548084 0.00030310955 0.07023798 -0.122100115 0.08624692 -0.044986438 -0.009323986 -0.016153762
-0.2187024 -0.017165028 -0.010117224 -0.23910429 0.042239975 -0.05509727 -0.07892691 -0.001244873
-0.047174994 -0.07386539 0.16210008 0.08164507 0.008073796 0.119173184 0.075376175 -0.0029070408

linear_relu_stack.8.bias f4 [32]
00000000: a7cd 0fbe f4c9 963d f521 c0bd 1c85 583d
00000010: 8ab4 e9bd f59b 013c a024 9ebc 43d8 493d
00000020: db78 22bd f49a 96bd af17 bebd 4b12 1bbd
00000030: 61ca 80bd c6ba b63c da8c 163d 764f 6ebd
00000040: b58c 983d 87cb d73d 2667 c9bd 31c0 d0bd
00000050: b9ee 09bd 3253 a3bb f4e6 8cbc 36dc 34bd
00000060: fceb 2bbd 1b8b 0ebd 5ef8 6cbd ab05 99bd
00000070: 8253 993d 946c 633d 05ff fbbb d891 9bbd
-0.14043294 0.07362738 -0.09381477 0.052861318 -0.11411388 0.007910718 -0.019304574 0.04927851
-0.039666038 -0.07353774 -0.09281861 -0.037859242 -0.06288601 0.022305857 0.03675542 -0.05818125
0.07448713 0.10536867 -0.09834127 -0.101929076 -0.03367493 -0.004984283 -0.01719997 -0.044155322
-0.0419731 -0.03480063 -0.05785405 -0.07471784 0.07486631 0.05552347 -0.007690313 -0.07596177

linear_relu_stack.10.weight f4 [1, 32]
00000000: f0aa 293b 834c 993d b734 213e 59f7 2ebe
00000010: 3d30 453d 62ad d4ba a791 473b 7013 f33d
00000020: f4a6 27bc 77cf a5bd 25b0 75bd c4aa 8b3d
00000030: 9719 273e af6a 273e 9607 9dbd 3a8b 7bbd
00000040: 641c 2e3a f463 553d f702 0dbd 98cc bf3c
00000050: d68e b0bd b4fd d53d 5069 e2b9 0bd0 dbbd
00000060: 5a96 393d 8ef5 793c 7b39 d23a 80a0 61ba
00000070: ca3f 1d3d 53a8 50bd 8972 f9bd 1a32 3f3a
0.002588924 0.074852966 0.15742765 -0.17086543 0.048141707 -0.0016225989 0.0030451806 0.11868942
-0.010232676 -0.080962114 -0.059982438 0.0681968 0.16318356 0.1634929 -0.076674625 -0.061412074
0.0006641804 0.052097276 -0.034426656 0.023412988 -0.08620994 0.10448781 -0.00043184543 -0.107330404
0.045309402 0.015256299 0.0016038859 -0.0008606985 0.038390912 -0.050941776 -0.12180049 0.00072935375
