model/pendulum_model_12.pth (torch, 88722 bytes, 11 tensors)

linear_relu_stack.0.weight f4 [32, 3]
000000 78 4f e2 3e c5 30 a1 bd da 9c c0 3e d0 d9 89 3d
       0.44201255 -0.0787063 0.37619668 0.067309976
000010 7e 56 68 3c 52 ff b8 be 7b 1f dd be c7 bb c5 be
       0.014180778 -0.36132294 -0.4318808 -0.38619825
000020 aa 76 f0 be 8e 20 ab be ef c5 ee be d5 16 55 be
       -0.46965533 -0.33423275 -0.46635386 -0.20809491
000030 ef e5 cd 3e d6 31 9b bd d0 d0 a7 3d 76 80 fc be
       0.40214488 -0.07577865 0.08194125 -0.49316758
000040 30 41 c0 be 50 4e da bd 9b 37 a1 bd 80 6b fb be
       -0.37549734 -0.10659468 -0.07871934 -0.49105453
000050 74 fc bb 3e 85 f9 44 be 5e 40 f0 3c e4 bc 6c 3e
       0.36716044 -0.19235809 0.029327568 0.23118931
000060 17 cc f9 bd 76 35 00 3f 1d 3e cd 3e 2c 9b fa 3e
       -0.1219713 0.50081575 0.4008645 0.48946512
000070 9f f9 fa 3d 02 54 9e bd ed bc 36 be af 20 ce be
       0.12254643 -0.07730867 -0.17845507 -0.4025931
000080 81 cb 6a be 44 c6 22 be 13 8f 95 be 6d 51 01 3f
       -0.22929193 -0.15895945 -0.2921072 0.5051487
000090 c1 3a f6 3e 90 82 a9 3e 79 33 d3 be c0 92 bd be
       0.480917 0.33107424 -0.41250208 -0.37026024
0000a0 52 20 3e 3e 00 7a c8 bd ae e0 a1 be c6 0a 1d be
       0.18567017 -0.09788895 -0.3161673 -0.15336141
0000b0 0d bf f4 be 51 69 6b bd 4a 21 f4 3e be d7 84 3e
       -0.4780201 -0.057473484 0.47681648 0.25945848
0000c0 8c 73 75 3e 2a 8b d9 3e 8e 6d 4c 3e 87 85 d7 3e
       0.23969859 0.42488986 0.19963667 0.4209406
0000d0 28 17 0a bf e9 6d b7 3e e0 a7 d5 3e a5 35 1c 3f
       -0.53941584 0.35826042 0.4172964 0.61019355
0000e0 58 54 ae 3e 2f f8 d5 be e8 62 0c 3f 46 4b 1a 3e
       0.34048724 -0.41790912 0.5483842 0.15067777
0000f0 d3 40 ac 3c cb 20 10 3e 7d 9f 78 be ec c5 c7 be
       0.021027004 0.1407501 -0.2427959 -0.3901819
000100 d4 0e 92 3e 98 3d 12 3e 13 29 fa 3d 08 2b ff be
       0.28526938 0.14281309 0.122148655 -0.49837518
000110 ea cd 16 be 36 db 77 bd 1b 1a 91 3e 8c ca ab 3e
       -0.14726987 -0.06051179 0.2834023 0.33552969
000120 32 2f 0b 3f 30 3b 05 3f 13 6c 8c be 62 0a 8f bd
       0.5436889 0.5204344 -0.27426204 -0.06984402
000130 d4 49 16 bb 18 8f 4b 3e 2b 97 d3 3c 3a 02 fb 3e
       -0.0022932189 0.19878805 0.025828918 0.49025136
000140 34 44 10 bf 35 9d 06 bf ee 12 e2 3e 42 36 ac 3e
       -0.5635407 -0.5258363 0.44155067 0.33635145
000150 86 6f 29 be f8 ed ab 3e 1f b2 a6 bd a2 b0 c1 3e
       -0.16546449 0.33579993 -0.08139443 0.37830073
000160 d0 e5 ef 3e 0a af 8d be 04 08 28 3e 6d c1 ee be
       0.4685502 -0.27672607 0.16409308 -0.46631947
000170 d3 f1 f8 3e 32 9c 82 3e 56 0d e7 be 27 d8 0d bf
       0.48621997 0.25509793 -0.45127362 -0.5540795

linear_relu_stack.0.bias f4 [32]
000000 c9 8d 07 3e 3e 28 fa be 5d 5c 7f 3e 31 eb 09 be
       0.1323768 -0.48858827 0.24937578 -0.13468625
000010 15 c2 07 bf 5c f9 9f 3d c3 09 88 be 65 49 92 be
       -0.5303052 0.078112334 -0.26569948 -0.2857162
000020 05 c3 98 3c ae 8b ff bd 13 16 49 3e 70 25 42 3e
       0.01864768 -0.12477814 0.19637327 0.18959594
000030 a0 54 22 be 6d 22 d6 3d 42 0d 13 3f e5 60 03 bf
       -0.15852594 0.10455785 0.57442105 -0.51319724
000040 91 9a e6 bb 8d f1 97 3d a6 77 52 be 2e d2 f5 3e
       -0.0070374687 0.07419119 -0.20553455 0.48011917
000050 d9 94 e6 be 20 22 b8 3e 26 fd a8 3d c6 8c 9a 3d
       -0.45035437 0.35963535 0.08251409 0.07546382
000060 77 ac 9c be da 11 bb 3e 14 e7 fe 3e fd 62 c7 bd
       -0.3060033 0.36537057 0.49785674 -0.097356774
000070 53 43 a0 be bc 2c a3 3e 5e 4d 23 be 9a 21 b7 3e
       -0.31301364 0.31870067 -0.15947482 0.35767823

linear_relu_stack.2.weight f4 [64, 32]
000000 40 2d 25 3e bd 49 73 3e 20 50 52 be 20 ac 07 3e
       0.16130543 0.23758598 -0.20538378 0.13249254
000010 54 e4 39 be f5 21 4e be 21 80 54 3d e9 78 4b be
       -0.18153507 -0.20130141 0.051880006 -0.19870342
000020 06 26 ec bd ab 17 e9 3d cb 17 9f bd e2 01 dd bd
       -0.1153069 0.113814674 -0.0776821 -0.10791375
000030 f0 45 04 be e5 61 09 3e 4a e3 17 3e 8c 28 2d 3e
       -0.12917304 0.1341625 0.14832798 0.16909999
000040 f3 33 8e bc 69 b5 20 be 7d 7f bd 3d 32 4d a9 bd
       -0.017358756 -0.15694202 0.09252832 -0.08266677
000050 d8 fa 32 3e 41 5b ca 3b f3 39 13 3d 05 a2 68 be
       0.17478502 0.006175429 0.035943937 -0.22718056
000060 a9 e1 aa bd c6 82 95 bd 24 51 65 be f2 8f 02 3d
       -0.083438225 -0.07300334 -0.22394234 0.03187556
000070 ad 71 1e 3e 90 87 61 bc 96 e1 9e 3d 63 92 19 3e
       0.15473051 -0.013765231 0.07757871 0.14997248
000080 f8 6f 04 be 51 5a 7a 3d f7 14 78 bd 25 ff cf 3d
       -0.12933338 0.06112129 -0.06056687 0.10156087
000090 92 db 56 3d b8 d9 8b bd 42 fb 90 3e ce f1 c1 3c
       0.052455492 -0.06828636 0.28316694 0.023674872
0000a0 33 64 9c be 44 49 23 bd df 9c b1 3c 1f 48 52 3e
       -0.30545196 -0.039864793 0.021681247 0.20535325
0000b0 8d 74 11 be 8a ba 94 bd 88 20 7f 3d 98 9a fb bd
       -0.14204617 -0.07262142 0.062286884 -0.12285346
0000c0 e7 01 fe 3d 2b 4a 4e be 9f 5a 83 3d c0 0e 27 bd
       0.124027066 -0.2014548 0.06413769 -0.04078555
0000d0 be 7e d6 3b 94 5e e1 bd ad bf f1 3d 07 5d 44 be
       0.0065458706 -0.110043675 0.118041374 -0.19176112
0000e0 56 38 c2 3c b1 f7 2b be c8 1a 97 3c 37 eb 3c be
       0.023708504 -0.16793706 0.018445387 -0.18449102
0000f0 51 c0 12 3d fd 9d 0a bd f4 d7 4a be bd ce 22 be
       0.03582794 -0.033842076 -0.19808942 -0.15899177
000100 f3 2a 65 bd 25 cc 62 3e 58 8b d5 bd 94 58 b4 b9
       -0.055949163 0.22148187 -0.10426968 -0.0003439827
000110 da 13 0e 3e 4a 0c 31 3e a6 f3 88 be 61 3a c2 bd
       0.1387476 0.17289844 -0.2674839 -0.09483791
000120 e9 11 42 3e bf b0 7e 3d e5 9c c2 3d 9b d3 e9 bd
       0.18952145 0.062180277 0.095025815 -0.11417314
000130 b1 ae f0 bd e2 fa d6 3d 2d d9 d1 3d be dc 26 3e
       -0.1175207 0.10497071 0.10246501 0.16295144
000140 9e a5 d9 3d 99 05 27 3c 6b 8d f4 ba 7e ce 1f be
       0.10627292 0.010194206 -0.0018657868 -0.15606114
000150 a0 d0 9a 3c 05 bc e1 3d 4b 7a 13 3e 26 39 9b be
       0.018898308 0.1102219 0.1440212 -0.30317038
000160 a6 cd 82 3d 4a 85 71 ba 27 74 0c be 26 b8 db 3d
       0.063868806 -0.0009213282 -0.13716184 0.10728483
000170 40 a8 25 3d 98 cf af 3a 67 a7 15 3d ae b7 dd 3d
       0.04044366 0.0013413308 0.0365366 0.1082605
000180 df 90 11 be 7f 40 70 3c b5 df 98 3e 0b 29 45 bd
       -0.1421542 0.014663815 0.29858175 -0.048134845
000190 e9 61 0d bd 7c b3 d8 3d 45 c9 2f be 02 98 24 3e
       -0.034517203 0.10581109 -0.17166622 0.16073611
0001a0 57 c4 df 3c bd bc 84 bd b5 61 19 be 3d 18 8a bd
       0.027315302 -0.064813115 -0.14978679 -0.06742904
0001b0 b0 81 93 3d 3f e4 98 bd 30 03 10 3d 3b ff f0 3b
       0.0720247 -0.074654095 0.03515929 0.0073546446
0001c0 6f 25 67 be 36 60 f5 3d 91 29 66 bd 04 43 5a 3e
       -0.22572874 0.119812414 -0.056191985 0.21314627
0001d0 34 05 29 3e d4 b2 9b bd d0 f4 00 3e 84 da 1b 3d
       0.16505891 -0.07602468 0.12593389 0.03805019
0001e0 e8 e7 67 3d c1 79 7c bd 95 5a 86 3d 92 c3 e0 bd
       0.056617647 -0.06163955 0.06560246 -0.10974802
0001f0 02 66 ed 3b 6a 19 33 3e 35 86 5a bd 18 7d 09 3e
       0.0072448263 0.17490163 -0.053350646 0.13426626
000200 47 6d fc bd a1 cf 6d 3e 4b 09 db bc 6f ff c8 3d
       -0.123255305 0.23223735 -0.02673783 0.09814345
000210 22 6d bd 3d 45 ca 02 bd 4a c0 f4 3d 6d 44 98 3d
       0.09249331 -0.03193118 0.11950739 0.07434926
000220 0f 12 0f bd 3f 36 09 be 8e 10 14 3d ce 18 22 3e
       -0.03492933 -0.133996 0.0361486 0.15829775
000230 ab 64 12 bd 4e 67 0d be 94 c0 5c be 96 d5 95 be
       -0.035740536 -0.13808939 -0.21557838 -0.29264516
000240 a5 3b bd 3d 65 cd 23 3e d0 09 2d be 11 cd 17 be
       0.09239892 0.1599632 -0.16898274 -0.1482432
000250 32 bc 82 bc 87 83 11 3b 41 94 61 be 3a c0 a4 3d
       -0.01595888 0.002220364 -0.2202921 0.08044477
000260 79 e6 26 be 13 4f b6 bd cf 8b da 3e 10 88 a2 bd
       -0.16298856 -0.08901801 0.4268479 -0.07936108
000270 b4 29 45 be 55 63 bb bd 43 02 3b 3d 0f 9e 32 be
       -0.1925419 -0.091498055 0.045656454 -0.17443107
000280 a8 23 f4 3d f0 96 e6 3d 8f 1e 4d 3e 97 cb 2c be
       0.119208634 0.11259258 0.20031188 -0.16874538
000290 a7 86 6d bd ae 0c 95 3e ae 37 64 bb 37 6c 16 3e
       -0.057989743 0.29111236 -0.0034823227 0.14689718
0002a0 7f 71 37 be 71 33 4e 3e cb b1 42 3d 2c aa d1 bd
       -0.17914389 0.20136811 0.047532838 -0.10237536
0002b0 cd c9 51 3d b3 5a 51 3d c4 99 a1 bd 5e e6 f6 3d
       0.051217843 0.05111189 -0.078906566 0.12055658
0002c0 67 a6 c2 3d 3a 98 18 be de 41 93 be 40 5c 19 3e
       0.09504395 -0.1490182 -0.2876119 0.14976597
0002d0 26 5a 30 3e 1a 20 19 be 61 ef 24 be 6d ff 52 be
       0.17221889 -0.14953652 -0.16106941 -0.2060525
0002e0 f9 0c fd 3d 04 2d ae bd 8b 78 ab 3d b1 4d c7 bd
       0.1235599 -0.0850468 0.08372601 -0.09731615
0002f0 0c 9f b1 3d 1a 6b 25 3d 39 c8 d3 3d ed 5a 03 3e
       0.08672914 0.040385343 0.10340924 0.12827654
000300 d2 de b1 bc 1f da 3f 3e 62 99 9c be a2 7d cc bd
       -0.021712694 0.1873555 -0.30585772 -0.099849
000310 eb c6 3d be eb 32 97 bd 78 9d 53 3d 6e 0c 4d be
       -0.18532912 -0.07382759 0.051663846 -0.20024273
000320 e0 92 09 be c0 bd 5b be ab 44 b6 3d 41 b7 60 bd
       -0.13434935 -0.21459103 0.08899816 -0.054862265
000330 c4 89 82 3b 43 e4 3c be 31 2a 44 3e b2 d2 21 bd
       0.003983708 -0.1844645 0.1915672 -0.039507575
000340 68 45 dc 3d 47 21 1b 3e ce 24 bf bd 6d 78 30 3e
       0.10755426 0.15149413 -0.09333192 0.17233439
000350 0a 5c 2e bc 28 fe d1 3d 06 8c 33 3e 93 95 92 bd
       -0.010642061 0.102535546 0.17533883 -0.07157435
000360 68 d3 bc 3d 00 67 04 be 32 ec a6 ba f2 90 b4 3d
       0.0922001 -0.12929916 -0.0012735187 0.088167086
000370 17 f6 89 3e a2 c2 a4 bd 0d 13 cf bd e6 21 4f 3d
       0.26945564 -0.08044936 -0.101110555 0.050569437
000380 ea 12 8a bd 6c 31 1c 3d cb 0f 7d be e1 f6 91 be
       -0.06741889 0.03813307 -0.24713056 -0.28508666
000390 b5 d0 08 be a8 56 23 3e 56 d6 95 bd f3 61 eb 3d
       -0.13360865 0.15951025 -0.07316272 0.11493292
0003a0 30 06 c4 bd 6c 23 0e 3e b2 0a 97 bb 45 1e d9 bd
       -0.09571493 0.138807 -0.0046094293 -0.106014766
0003b0 6a c0 b0 bb 0e 44 bb 3d 7b 07 83 ba a9 8e 06 bc
       -0.0053940313 0.0914384 -0.0009996736 -0.008212724
0003c0 44 0a 24 be 78 32 9c 3d 4b 7f 30 be 94 33 cd bd
       -0.16019541 0.07626814 -0.17236058 -0.10019603
0003d0 46 a7 59 bd 51 1c b2 3d 47 de 3f be 8b 83 7a 3e
       -0.05313804 0.08696807 -0.18737136 0.24464242
0003e0 b9 eb 95 bd 37 23 3b 3e 47 5b fc 3d 31 16 44 bd
       -0.07320351 0.18275152 0.12322097 -0.047872726
0003f0 b2 3b ec 3c e0 df 81 bd 42 97 da 3d 34 80 c5 3c
       0.028837059 -0.06341529 0.106733814 0.024108984

linear_relu_stack.2.bias f4 [64]
000000 f2 58 a6 bd 41 e7 60 3a a9 1c 21 bd 22 83 bb bd
       -0.08122434 0.00085793814 -0.039333973 -0.09155871
000010 b4 8e 02 be 58 6b 98 3d ec c5 47 bd 91 1e b3 bc
       -0.1274975 0.07442349 -0.048772737 -0.021865161
000020 d1 e7 d0 bd 78 ef 90 bd e6 41 c1 bd cd b8 0f 3c
       -0.102004655 -0.07076925 -0.09436397 0.008772087
000030 3f bf 16 be ec ca 37 3e 9f 5f 6c bd 45 c3 8d 3d
       -0.14721392 0.17948502 -0.05770838 0.0692201
000040 19 3e 03 3e 52 00 f2 3c 81 d0 2e be f8 64 5a bc
       0.12816657 0.029541168 -0.17071725 -0.013329737
000050 f8 14 b3 3d 68 ce 71 bd ad c2 9e 3d 1a 28 ea 3d
       0.08744234 -0.059034735 0.07751975 0.1143343
000060 b6 a9 65 bd 4e cc 0e 3e 62 3c 30 3c 68 66 d6 3d
       -0.056070052 0.13945124 0.010756584 0.10468751
000070 03 99 29 be f9 49 ab 3d 95 4b 71 bc 57 83 cd bd
       -0.16562276 0.083637185 -0.014727493 -0.10034817
000080 e1 e8 10 be 93 f9 36 3d 08 a8 f4 3d e9 7c 88 be
       -0.14151336 0.044671606 0.11946112 -0.266578
000090 4a 54 c4 3d 7d 2d 7a 3d 64 82 44 3e be f2 b5 bd
       0.09586389 0.061078537 0.19190365 -0.0888419
0000a0 6d bf 83 bd 6f d6 bd bc f8 37 dd 3d 75 81 14 3d
       -0.06432996 -0.023173539 0.10801691 0.036256272
0000b0 61 60 23 3e 4a 77 88 bc 0e 6d e6 3d 1b 9e 73 3c
       0.15954734 -0.016658444 0.11251269 0.014869238
0000c0 5e c1 b0 3c 58 f4 f1 3c 4d 44 19 bc 49 54 02 3d
       0.02157658 0.029535457 -0.009354663 0.03181866
0000d0 e1 e4 10 be f6 ab 03 be 6b 52 84 bd 8d ec 9a bd
       -0.1414981 -0.12858567 -0.064610325 -0.0756465
0000e0 45 c0 81 3d 9c 79 2a 3d a7 a8 5d be b8 d6 ea 3d
       0.06335501 0.041619882 -0.21646367 0.114667356
0000f0 10 43 6f be 2c c7 5f 3d ad 95 1a be 16 01 0a 3e
       -0.23365426 0.054633304 -0.1509616 0.13476977

linear_relu_stack.4.weight f4 [128, 64]
000000 41 16 bc bd 59 8b 0f bc 4e 87 ba bd df 06 fa bd
       -0.09183932 -0.00876125 -0.091078386 -0.12208342
000010 3a 7b 2c 3d 0b 98 32 3e 97 a8 1c bd ba f8 b0 3d
       0.042109706 0.17440812 -0.038246717 0.08641191
000020 ef 42 96 3d ab 4f d6 3d c2 5a 01 be 72 29 b1 3d
       0.07336985 0.10464414 -0.12632278 0.08650483
000030 1c 9e b1 bd d9 e7 91 bd bd 37 5a 3c 1f 43 b4 bd
       -0.08672735 -0.071242996 0.013318953 -0.08801865
000040 0c bd e8 bc 4a 9d e3 bc 1a 49 dc 3d 59 e3 a5 bd
       -0.028410457 -0.027784962 0.107561305 -0.08100004
000050 a3 a1 25 ba 5f d2 8f bd 93 e9 74 3d 0a ee 00 be
       -0.0006318336 -0.07022547 0.059793066 -0.12590805
000060 6d 82 c0 bd 07 d8 e8 3d ca 59 8f bd 9f d5 ff bd
       -0.09399877 0.11369329 -0.06999548 -0.12491917
000070 bf fe c3 3d aa 35 4a be 89 99 60 bd b8 85 06 be
       0.09570073 -0.19747034 -0.054833923 -0.13136947
000080 eb 3f 2d 3d 89 d4 9d bd 9d e0 6f 3d 0a aa 9c 3d
       0.042297285 -0.077065535 0.058563817 0.0764962
000090 94 98 d5 3d 8a 17 70 3d 55 17 2c be dd d4 ed 3b
       0.104294926 0.0586162 -0.16805775 0.0072580413
0000a0 4f 49 f5 bd 18 66 8d bd d7 b5 b3 3d 41 8e 4e bb
       -0.11976873 -0.069042385 0.087749176 -0.0031517895
0000b0 db 77 90 be ac 39 b9 3d 75 f6 eb be 54 ab 42 3e
       -0.28216442 0.09044203 -0.4608647 0.19010669
0000c0 b5 29 02 3e 0c 34 5f bd 20 b7 02 3d dd f9 22 3e
       0.12711222 -0.054492995 0.031912923 0.15915628
0000d0 a4 29 d5 bd 15 5b c4 3b 23 d1 9e 3d e4 5b 3c 3e
       -0.10408333 0.005992303 0.077547334 0.18394428
0000e0 fc a6 89 3d 41 b2 1b 3e ce c2 a2 3c fb df 63 3c
       0.06721303 0.15204717 0.01986828 0.013908382
0000f0 ec 07 ac bd 11 18 a7 3d d8 af 32 3c c6 e5 44 bd
       -0.083999485 0.08158887 0.010906182 -0.04807069
000100 ae 5e 51 3e 32 bf 2e bd 64 66 66 bc 20 cf 1c bc
       0.20446274 -0.042662807 -0.014062498 -0.009570867
000110 4f b5 a2 bd fa de a4 bd 3d 19 f5 bd 2a 9d 12 3e
       -0.07944738 -0.08050342 -0.119677044 0.14317766
000120 cf 62 a6 bd aa 32 c5 ba 41 bb cb 3d 36 77 1f 3d
       -0.08124315 -0.0015045006 0.09947825 0.038932048
000130 c4 52 8f bd 24 3a 03 3d 9d a3 3e bd e1 ab 12 3e
       -0.06998208 0.03203787 -0.046542753 0.14323379
000140 3b 7f 8c 3e 8c ff 94 3d 08 74 29 bd 2c 91 13 bd
       0.2744082 0.07275304 -0.04137042 -0.03602712
000150 c6 ca ae bd 61 7b 9e 3e ad 11 09 3e e5 cc 10 3e
       -0.0853477 0.30953506 0.13385649 0.14140661
000160 da b3 fb 3d 22 20 da 3d 19 f1 d5 3c 1e 7a 03 3e
       0.12290163 0.1065066 0.02611594 0.12839553
000170 04 d7 86 3d 0b df c6 3d 99 5a b2 3d 07 47 05 bb
       0.0658398 0.09710511 0.087086864 -0.0020336525
000180 56 05 52 3e 7f 5f 04 bd 57 fe 1d 3e af 61 6f 3d
       0.20509848 -0.032317635 0.15429054 0.058442768
000190 e3 c0 2f be 6b de ce 3c cc a3 86 3d 6d cc 25 3e
       -0.17163424 0.025252542 0.065742105 0.16191263
0001a0 a5 b0 35 bd 99 92 12 3e d5 5f 2b bd cd 17 87 bc
       -0.044357914 0.14313735 -0.04183944 -0.016490841
0001b0 a0 c4 9b 3d 54 6e be bd 9f 05 0e 3e c4 c3 3e 3e
       0.076058626 -0.09298387 0.13869332 0.18629366
0001c0 dd 02 1c bd d3 53 1f be 5d 54 9a 3d 54 4e aa 3d
       -0.03808867 -0.1555932 0.07535622 0.08315721
0001d0 5f d0 13 3e b2 38 0b 3d 77 be 61 3d 2a 3e 31 3e
       0.14434956 0.033989616 0.055113282 0.1730887
0001e0 a6 b7 f5 3c 52 ea d9 3d 2b f3 0c 3e ab 05 c9 bd
       0.029994797 0.10640396 0.13764636 -0.09815534
0001f0 be c2 fb 3d f0 95 83 bd 17 0e 86 3d 83 c6 31 39
       0.122930035 -0.06425083 0.06545656 0.00016953987
000200 1c 33 94 bd e7 92 99 3d 07 ec 24 be 20 b0 21 be
       -0.07236311 0.074987225 -0.16105662 -0.15789843
000210 27 d8 ea bc d5 d3 80 bc 3c 0b c8 3d 28 15 37 bd
       -0.028667523 -0.01572601 0.09767768 -0.04469791
000220 0e 82 08 be f2 12 9e bd 00 93 15 be 10 20 c6 bd
       -0.13330862 -0.07718457 -0.14606857 -0.09674084
000230 74 8b 47 3d 93 82 2d bd bd a3 9a bd 9d 71 b4 3d
       0.048716977 -0.042360853 -0.07550762 0.088107325
000240 7a c8 19 3d 6e 45 24 3e f7 eb 73 3d 2d 8f 38 be
       0.037544705 0.1604211 0.059551205 -0.18023367
000250 11 c4 76 bd 0a d8 4d 3d 00 b8 8a 3d 50 54 35 3e
       -0.060245577 0.05025486 0.067733765 0.17707944
000260 41 b7 17 3e be 93 a0 bc db a1 27 3d 03 47 81 bd
       0.14816 -0.019601699 0.04092584 -0.063123725
000270 26 0d 30 bd 04 54 9e bc bb 9a ab bc 52 9a 90 3b
       -0.04298129 -0.019327171 -0.020947805 0.0044129277
000280 6d f8 6d 3e 6a a5 a8 bc 17 51 69 3e 42 a8 01 bd
       0.23239298 -0.020586688 0.2278484 -0.031654604
000290 ae 6f ce bc ab fd 87 bd 7d 6f b8 3c 1c 84 e0 3d
       -0.025199737 -0.0664018 0.0225141 0.10962698
0002a0 cc f4 ee bc a9 c8 79 ba 3e 5a d9 3b 99 9f 6b be
       -0.029169463 -0.0009528497 0.006633072 -0.230101
0002b0 9d 0b b7 bd 1a 0e 70 3d 92 5f 26 3e f0 52 05 bd
       -0.08937762 0.0586072 0.16247395 -0.0325498
0002c0 fb bc 86 bd 00 36 eb 3c 5f 9e 08 3e 58 bc 01 3e
       -0.06579014 0.028712273 0.13341664 0.12669504
0002d0 6f 35 bc 3d 2d 98 91 3c a5 35 5a 3c 84 0a 8c ba
       0.09189879 0.017772758 0.013318454 -0.0010684286
0002e0 88 08 f6 39 0a 23 81 bc 7f d0 02 3d 75 b2 7b bd
       0.00046927133 -0.015763778 0.03193712 -0.061449487
0002f0 e0 31 cf 3c 87 e5 eb 3b b9 88 88 3d ba 07 bc bc
       0.025292337 0.0071989927 0.06666703 -0.022952903
000300 be 4e 85 bd e3 ec 94 3d 0d cd 37 3d 68 16 85 3a
       -0.065091595 0.07271745 0.044873286 0.0010153772
000310 91 5e a3 3c 29 06 17 be 1e b9 e4 3d d3 60 72 3d
       0.019942554 -0.14748444 0.11168121 0.05917437
000320 ba 4d d1 bd de c2 4e 3d 58 df 11 be 9a 42 ae 3b
       -0.10219903 0.05047881 -0.14245355 0.005317998
000330 f0 99 d4 3d e6 a1 be 3d 20 8c e0 bd 34 09 96 bd
       0.10380924 0.093082234 -0.10964227 -0.07325974
000340 79 70 1e 3e fd 53 05 3e 53 7f 1f be c2 be 0c bd
       0.15472592 0.1302032 -0.15575914 -0.03436161
000350 0a 22 5a bd cb a4 19 bd f0 9f 4c bc 86 1b bc bd
       -0.05325512 -0.037510674 -0.012489304 -0.09184937
000360 af c9 58 bd 43 94 79 3d 32 56 31 3e d5 dc 2c 3e
       -0.052926715 0.06093241 0.17318037 0.16881116
000370 01 54 7d bd 53 b1 44 be e8 a2 00 3e 56 19 cd bd
       -0.06184769 -0.19208269 0.12562144 -0.10014598
000380 b6 4a 25 be 5c a0 1c be d2 66 8d 3d b9 d3 b2 3d
       -0.16141781 -0.15295547 0.06904377 0.08731789
000390 e6 fb 3d 3e 40 62 ec 3d e4 72 f2 bc c7 c6 a1 bd
       0.18553123 0.11542177 -0.0295958 -0.07899242
0003a0 fc ef e3 3d f6 c7 a1 bc 51 04 41 bc 7b 3d 41 3d
       0.11129758 -0.01974867 -0.011780814 0.047177773
0003b0 91 3e 42 be 1a 94 15 3d dd 7f 97 bd 21 28 da bd
       -0.1896918 0.036518194 -0.07397435 -0.10652185
0003c0 1b 3c 2d bc b1 2f 83 bd 9f 56 a7 bd e5 c2 5b bc
       -0.010573412 -0.06405581 -0.081708185 -0.013413166
0003d0 2c dc 26 3e d6 56 3a 3d 9d 82 92 bd cf 37 a6 3d
       0.16294926 0.04549297 -0.07153819 0.081161134
0003e0 44 16 31 be c6 7f 3f 3d a2 24 57 bd 3a c0 14 3d
       -0.1729365 0.046752714 -0.05252517 0.036316134
0003f0 27 09 85 3d e6 d4 36 bd 2d e1 0e 3e c9 01 2c bd
       0.06495886 -0.04463663 0.13953085 -0.04199389

linear_relu_stack.4.bias f4 [128]
000000 38 fd 5d ba 43 90 26 bd a8 08 4c bd a4 b2 bf 3d
       -0.00084682135 -0.040664922 -0.049812943 0.09360245
000010 f6 38 be 3d f9 6a 7e 3c 54 d1 84 bc 43 06 0b bd
       0.09288208 0.015528434 -0.016213097 -0.03394152
000020 07 cf 2c be 33 1c ed bd cd 16 32 bd 3a 85 35 3a
       -0.1687585 -0.11577644 -0.043478776 0.00069244544
000030 d1 e1 03 be 5a bc f1 bd a3 09 25 3c 34 8d e1 3c
       -0.12879111 -0.11803503 0.010073098 0.027533151
000040 f1 27 10 be 09 ad f9 3d 39 f4 c2 3c e9 4d d2 3b
       -0.14077736 0.12191207 0.023798095 0.006417979
000050 72 27 0e 3c da b8 9b bd 2a 6e 03 be f9 72 c7 bd
       0.008676397 -0.07603617 -0.12834993 -0.09738726
000060 6a 92 9f bd a0 f6 03 be 78 47 2f be c1 25 77 3c
       -0.07791598 -0.12887049 -0.17117107 0.015084685
000070 97 36 27 bd ca 90 8f bd 12 a2 8f bd c8 d0 8d bd
       -0.040823545 -0.07010038 -0.07013334 -0.069245875
000080 b2 f2 41 be af e7 a1 bd df 80 d7 bd 77 9c bd bd
       -0.18940237 -0.07905518 -0.10522627 -0.09258359
000090 81 01 fe 3d 21 52 85 bd 28 68 b4 bd 6b f0 cc bc
       0.124026306 -0.065098055 -0.08808929 -0.025016984
0000a0 4f 5d 78 3c 95 d5 b0 bd 2f 6c 87 bd 03 7d 25 3d
       0.015158965 -0.086344875 -0.06612431 0.040402424
0000b0 3e bb 66 bd 16 99 37 3d e9 ff 66 3d 90 c9 cc bd
       -0.05633091 0.04482373 0.0563964 -0.099993825
0000c0 c5 58 25 3c 31 dd 9e bd 93 e7 0e be 9b 01 ac 3c
       0.010091965 -0.07757033 -0.13955526 0.02099686
0000d0 a6 7c 92 bc 72 24 af bd 1d fe 7b 3d f2 24 49 be
       -0.017881703 -0.08551873 0.06152164 -0.19643
0000e0 07 3a 34 bc bb e1 f3 bd f9 ef 1f be 68 57 ea 3d
       -0.011000163 -0.11908289 -0.15618886 0.11442453
0000f0 e2 a2 92 3b 9f 0c 46 3d 85 23 6a bd 50 ba 0f 3c
       0.0044749836 0.04835188 -0.05716278 0.008772448
000100 f3 89 8f bd cc 6a 0d be e1 fe 04 be 46 66 95 bc
       -0.070087336 -0.13810271 -0.12987854 -0.018237244
000110 87 13 2b bc 47 f6 b6 bd 71 c2 1b be 5b ce f9 bd
       -0.010441667 -0.089336924 -0.15210892 -0.12197562
000120 f0 4a 76 bd b6 f5 16 be e5 4a 12 3d bc 54 0f be
       -0.06013006 -0.14742169 0.035715956 -0.13997167
000130 87 23 a8 3d a3 0d 82 3c 0a a7 9a bd 67 b2 e1 3c
       0.08209901 0.015875643 -0.075513914 0.02755089
000140 0a e6 f1 3d 26 38 35 be 0b dc 92 bd c0 0a fd bd
       0.118114546 -0.176972 -0.07170876 -0.12355566
000150 b5 27 ce bd 72 10 05 3c ea 9b ca 3d 34 60 07 be
       -0.10066167 0.008121597 0.098930195 -0.13220292
000160 ab 6b 54 be 40 03 00 be 41 76 1a 3d 67 86 c9 bd
       -0.20744197 -0.1250124 0.037710432 -0.09840088
000170 0b ae 01 3e fc 9b 22 bc 8f 1d e4 bc d3 0f 60 3d
       0.12664048 -0.009924885 -0.027846126 0.05470259
000180 f7 97 af bc 94 d3 3d 3d 1b 83 1b be fc b1 dd bd
       -0.021434767 0.046344355 -0.15186732 -0.108249635
000190 44 38 01 bb 6c 3f 09 be b5 30 ac bd 1a 03 92 3d
       -0.0019717375 -0.134031 -0.08407728 0.07129498
0001a0 94 b1 1b be b3 96 b6 bd c7 91 9a 3d 93 25 49 3d
       -0.1520446 -0.08915462 0.07547336 0.0491081
0001b0 c3 7e 5f bd bd 53 97 3d 01 de 6c 3d 96 9e cb bd
       -0.05456425 0.07389019 0.057828907 -0.09942357
0001c0 dd 05 25 be 0e bf 17 3d ed 3a 92 bc d1 4d 76 bd
       -0.16115518 0.03704744 -0.017850364 -0.060132805
0001d0 83 ac 6c bd b7 b2 26 bd 5f 7b b9 bd 15 e0 cb bd
       -0.057781707 -0.04069778 -0.09056734 -0.0995485
0001e0 dc d8 05 be 79 72 a9 bc 37 aa 46 be 79 f2 86 bd
       -0.13071007 -0.020684468 -0.1940087 -0.06589217
0001f0 c8 39 89 3d 04 91 8d bd c4 fa 03 be f0 ae c4 bd
       0.06700474 -0.06912425 -0.12888628 -0.09603679

linear_relu_stack.6.weight f4 [64, 128]
000000 7f c0 9e bd a5 d7 99 3d 4f 27 04 3e 4f a6 c4 bc
       -0.077515595 0.07511834 0.1290562 -0.024005083
000010 84 cb 40 bd 8a 87 18 3c dd 07 82 bc a0 85 f1 3c
       -0.047069088 0.009309659 -0.01587289 0.029482663
000020 79 39 7c bc ae 42 7f 3c 7d 63 d0 bd 50 a7 45 3e
       -0.015394562 0.0155798625 -0.10175226 0.19302106
000030 b7 9c d3 3d eb 4a 7a 3d 9b 01 17 3e f6 2f 81 3d
       0.10332625 0.061106604 0.14746706 0.06307976
000040 4d 70 57 3d 85 a2 db 3b 8d 41 b3 3d 6a 41 8c bd
       0.052597333 0.0067027234 0.08752737 -0.06848414
000050 fe 3f 05 3e c0 c2 31 3d b6 a4 4d 3d 03 1d d9 3c
       0.13012692 0.04339862 0.05020591 0.026503092
000060 e3 88 eb bc 13 cb 21 bd 84 8f 5c 3c 6c b8 88 bc
       -0.028751796 -0.039500307 0.013461951 -0.016689502
000070 46 ba 56 3c e5 7e 77 3c 2f 44 88 3d fb 57 eb 3d
       0.0131059345 0.015105938 0.0665363 0.1149139
000080 ad aa 05 3e b8 e4 a5 bc 8e fd 5c 3e 37 c6 6e 3d
       0.13053389 -0.020250663 0.21581098 0.0582945
000090 b7 81 28 bd 8a db d0 bb 92 d3 5f bd ec 80 64 bd
       -0.04113933 -0.0063738273 -0.05464513 -0.055787012
0000a0 9c 47 b0 bc 45 f5 00 3e 33 ce 16 bc 2e c2 bf 3d
       -0.021518521 0.12593563 -0.009204435 0.09363209
0000b0 c8 56 e2 3d 5b 59 ce 3d 90 8f 91 3c 08 87 54 3c
       0.110517085 0.10075637 0.017768651 0.012971647
0000c0 42 7e d7 bd 35 81 57 bd 9b 5f 37 bd ec bc 56 bc
       -0.10522129 -0.052613456 -0.04476891 -0.013106566
0000d0 41 74 73 3d cb 3c 95 3d 60 ff 85 3d 20 02 f6 3b
       0.05943704 0.07286986 0.065428495 0.0075075775
0000e0 0c 1c df bd bf b0 8c 3d 4a 0c f8 3c 84 07 5d 3d
       -0.108940214 0.06869649 0.030279297 0.053962246
0000f0 72 a7 14 3d 50 18 49 3e ff 80 af 3d 1c 94 34 bd
       0.0362925 0.1963818 0.08569526 -0.04408656
000100 09 3f d1 3d 5f 34 e9 bd 3b 27 e8 3d c7 08 b5 3b
       0.10217101 -0.11386942 0.113356076 0.005524728
000110 bf da 00 39 83 7c be 3d d7 58 c9 3d 90 11 a5 3d
       0.0001228852 0.093010925 0.09831398 0.080599904
000120 4f e4 79 bd d8 27 0f 3d ca b1 a6 3d fd 0a bb bd
       -0.061008748 0.034950107 0.08139379 -0.09132955
000130 0f 6e 8b 3d 15 58 9b 3d c5 c3 1a bd ac 3d 09 3d
       0.068081014 0.0758516 -0.037784357 0.03350608
000140 90 8c b3 3c bf f9 42 bc ba 3d 2c bb ce b2 54 3d
       0.021917611 -0.011900364 -0.002628191 0.051928334
000150 ff 3c 3c bd 83 5a 7e 3e 94 0b 8b bd b9 33 80 3c
       -0.045956608 0.24839215 -0.06789318 0.015649663
000160 28 88 fb 3d f4 9f 16 3e 72 ec ae 3c 79 7a 16 3c
       0.12281829 0.14709455 0.02135298 0.009184473
000170 04 cd fc 3d 3e 45 2a 3d 8b 61 dd 3c 4c 00 5e 3d
       0.12343791 0.04156994 0.027024051 0.054199502
000180 a1 98 0b 3d 0c 2c be 3c 43 f1 19 3e c2 e5 07 3d
       0.034081105 0.023214363 0.1503344 0.0331781
000190 0f d0 b9 3d c3 0a e6 3d 7e dd 68 bd 6f d8 84 3c
       0.09072887 0.112325214 -0.056851856 0.016216485
0001a0 1d 99 18 3c 47 f7 84 bc 6f 6c af 3c 41 38 9e 3c
       0.009313849 -0.016231192 0.02141401 0.019313933
0001b0 17 93 f3 3a c3 0e 9b bd 92 c2 b9 bc 46 f2 07 3d
       0.0018583265 -0.07571175 -0.022675786 0.033190034
0001c0 d5 7e be 3d dc 53 34 bd 14 d6 81 3c ee 34 80 3e
       0.09301535 -0.044025287 0.01584915 0.25040382
0001d0 aa 1e 94 bd 14 0b 72 3d db 15 9b 3c 63 57 02 3e
       -0.07232411 0.059092596 0.01893132 0.12728648
0001e0 97 3e c1 3c 99 d9 93 3d c9 fc c3 3c 20 76 c7 3d
       0.023589415 0.07219238 0.023924248 0.097393274
0001f0 13 ee 96 3d c6 ca 22 3e 95 b6 fb bc c2 35 9d 3d
       0.07369628 0.15897664 -0.03072671 0.07676269
000200 4f 62 ea 3d 6b e1 26 bd 16 b2 97 3c aa c2 dc bd
       0.11444532 -0.04074232 0.018517535 -0.10779317
000210 45 fc 38 bc 4c 3e 27 be f4 65 7e bd 3a 0e 12 be
       -0.0112906145 -0.16332358 -0.06210895 -0.1426324
000220 6d 65 19 be c7 84 83 bc a4 12 09 be 81 2f 11 3e
       -0.14980097 -0.016054524 -0.13386017 0.14178278
000230 d3 42 8c bd 95 43 6c ba b4 68 81 3d 7a 58 21 be
       -0.06848683 -0.0009012756 0.06318799 -0.15756407
000240 48 a3 12 be e4 2b 51 be 98 9e 50 3d 7a 5e 32 bb
       -0.143201 -0.20426899 0.050932497 -0.0027216957
000250 67 59 a3 bd cf 9f 5a 3d d1 ff 95 bd c9 17 55 bd
       -0.079760365 0.05337506 -0.07324184 -0.052024636
000260 e3 a3 f9 3c c7 39 30 3e 54 dd e6 3d 49 bd 77 3d
       0.030473655 0.1720954 0.11272684 0.06048325
000270 a5 f2 e4 bd f9 a0 99 3d 1e e7 e3 bc 10 9d 09 bd
       -0.11179093 0.07501406 -0.027820166 -0.033597052
000280 64 f9 d8 3d 3d df cc bd df 44 76 3d 2c c2 3e 3b
       0.105944425 -0.10003517 0.060124274 0.0029107435
000290 14 f8 82 be 26 61 f0 3d d0 bd 25 3d cb c7 43 be
       -0.25579894 0.117372796 0.040464222 -0.19119184
0002a0 df 77 04 3d 22 50 6e bd 7c 79 cf bd 96 45 98 bd
       0.03234088 -0.05818189 -0.10130593 -0.074351475
0002b0 8c 6d d8 bc 07 43 37 bd ed 95 98 3d f4 44 6f bd
       -0.026419424 -0.044741657 0.07450471 -0.05841537
0002c0 9c e9 24 3e 9d d0 e2 3c b0 93 32 bd ec d2 3b 3e
       0.1610474 0.027687365 -0.043597877 0.18342179
0002d0 22 cf 08 3e e7 4f 60 be 18 bb fd 3d b3 3a 27 bd
       0.13360265 -0.2190548 0.12389201 -0.040827464
0002e0 00 24 43 3d 02 9c 3b 3d d1 24 e5 3d f1 61 a8 3d
       0.047641754 0.045803078 0.11188663 0.08221806
0002f0 da c8 d6 3c 57 52 84 bd 3d 65 a7 bd 2a 3e 84 3d
       0.02621882 -0.064610176 -0.081736065 0.06457169
000300 24 bd fb 3d ac 4a b0 bd e0 88 01 3e c0 7d 04 bd
       0.12291935 -0.086079925 0.1264987 -0.032346487
000310 7e 3e bd bd cf 8d dd bd c8 0b 72 bc 79 db 84 be
       -0.09240435 -0.108180635 -0.014773317 -0.25948694
000320 ea 55 e9 3d 39 d3 04 bc 64 76 b0 bd 55 77 3b ba
       0.1139334 -0.008107 -0.08616331 -0.0007151266
000330 0a ef 3c be f7 5b 1c 3d 84 08 05 3e 7a 8f af 3c
       -0.18450561 0.038173642 0.1299153 0.02143072
000340 15 12 6b 3d a6 75 e7 bd 38 75 6a bd f8 2c 80 3d
       0.05739029 -0.113017365 -0.057240695 0.06258577
000350 de 60 3f 3c 14 4d 2a bd e0 1b 24 3d a1 a6 42 3d
       0.01168081 -0.041577414 0.040065646 0.04752219
000360 dd 4e 0e be cd 90 a8 bd 8f bc 39 3e 8f 6c 9c bd
       -0.13897271 -0.082307436 0.18138336 -0.076378934
000370 b3 09 75 3d d1 bb fe 3c 2f 56 8c 3d 76 ea c2 3d
       0.059823703 0.031095417 0.06852376 0.09517376
000380 b6 8e 8e bd 1a b4 13 bd 55 b5 86 bc a0 6f ef bc
       -0.06960814 -0.03606043 -0.016443888 -0.029228032
000390 3b 24 37 3c 6c f6 11 3c 88 02 04 be 0b b1 53 bc
       0.011178072 0.008908849 -0.1289159 -0.012920628
0003a0 1b 2e 89 bd db 0a 16 bd c5 b0 b5 bc ce ce 21 bc
       -0.06698247 -0.036631446 -0.022179017 -0.009875966
0003b0 dc d9 78 bd 0a 5a c3 bc 91 37 e2 bd 3e f5 8c bd
       -0.060754642 -0.023846645 -0.11045755 -0.06882714
0003c0 a2 d2 8d bd 0b 00 93 3a f1 b6 56 3c db 5e 91 bd
       -0.06924941 0.0011215223 0.01310514 -0.0709817
0003d0 4d e3 da bd 69 32 c6 ba 58 92 cf bc 6e 7c 02 bd
       -0.106878854 -0.0015121225 -0.025338337 -0.031856947
0003e0 00 61 42 3b 3e 12 21 3d f5 67 9a 3c 66 d8 de bd
       0.0029659867 0.039324038 0.018848399 -0.108811185
0003f0 89 0f 63 3d 74 a1 e7 bd a1 df f2 3d e0 95 ad 3d
       0.055434737 -0.113100916 0.1185906 0.08475852

linear_relu_stack.6.bias f4 [64]
000000 c7 0d 1c 3c 2b 13 a1 3d c0 aa 2a bd d7 5f df bd
       0.009524769 0.07864984 -0.041666746 -0.10906952
000010 a0 be da 3c 07 60 dc bd 04 18 ea bd 8a ae 1b be
       0.026702225 -0.10760503 -0.11430362 -0.152033
000020 dc 00 d4 bd 28 db bb bc c8 73 0a be 85 4d 87 bd
       -0.103517264 -0.02293165 -0.1352073 -0.066065826
000030 dc b7 c5 3b 3d 8c 35 be c4 9f 96 3d d6 ff 67 bd
       0.0060338806 -0.17729278 0.073546916 -0.05664047
000040 8a 0d 8d 3d c7 d7 51 bd 23 f6 78 3d fe 8e 78 3d
       0.06887348 -0.051231172 0.06078161 0.060683243
000050 6c 67 09 be f5 1a 9c 3c eb 89 ed bd 35 21 a0 bc
       -0.13418359 0.019055823 -0.115985714 -0.019547084
000060 05 14 0f bd 14 6f 29 be ad 05 88 bc d3 b3 5e bd
       -0.0349312 -0.16546279 -0.016604269 -0.054370712
000070 eb f7 48 bd cd 02 6a 3d 51 9a f3 bc ed 4a 20 bd
       -0.049064558 0.057131577 -0.02973667 -0.039133955
000080 dd 84 b8 bb fc 9b bf 3d bf 58 b1 bd 24 8d 94 bd
       -0.005631073 0.093559235 -0.08659505 -0.07253483
000090 76 52 e6 3d 59 f0 d5 3b 5b 64 d6 3c 5b 66 40 bd
       0.11246197 0.006528896 0.0261709 -0.046972614
0000a0 17 a3 50 bd ef 95 c0 3b ca 74 4b 3c c4 31 b5 bb
       -0.050936785 0.0058772485 0.012417981 -0.005529614
0000b0 66 08 33 bd f9 77 72 3c 6c ac 6a bd cc 8d e9 b9
       -0.04370918 0.0147991115 -0.05729334 -0.0004454687
0000c0 a4 2a 04 be 2d d6 0e bd 6e f6 1a 3d 45 f3 bc 3c
       -0.12906891 -0.034872223 0.03783267 0.023065219
0000d0 77 a7 5a bd ac 6d 42 be 00 f6 85 bd 84 ec 29 bd
       -0.053382363 -0.18987149 -0.065410614 -0.041485325
0000e0 67 aa 69 bd 3b 13 46 bd 94 54 95 3d b3 5e f1 3c
       -0.057047274 -0.048358183 0.072915226 0.029464101
0000f0 ed 7b a3 bd a8 3e 38 bd 3f 2a e8 bc 27 ca 71 bd
       -0.07982621 -0.04498163 -0.028340457 -0.059030678

linear_relu_stack.8.weight f4 [32, 64]
000000 43 3f ae bd 50 be 8d bd 6a 7b 83 bd a6 ec 08 3e
       -0.0850816 -0.06921065 -0.06420024 0.13371524
000010 7b d4 84 3c 05 97 aa bd 66 70 d9 3c 18 e9 bc bd
       0.0162146 -0.08329586 0.026542854 -0.092241466
000020 80 df 87 bd f7 7d d0 3d da 4e b4 3c 35 15 a1 bd
       -0.06634426 0.10180276 0.022010256 -0.07865373
000030 5f 34 21 bd 99 f4 d1 3d e8 e1 28 be a1 63 33 bd
       -0.039356586 0.102517314 -0.16492426 -0.043796185
000040 ca c6 9c 3d e7 73 67 3c ff b6 22 3d 2b f9 85 3d
       0.076551035 0.014126754 0.0397253 0.06541666
000050 d6 80 c5 3d 49 12 47 bd 61 87 37 be d6 de 29 bd
       0.09643714 -0.048601422 -0.17922737 -0.04147228
000060 b1 29 d3 3c 9c 3b 70 bc b0 5b d8 bb 9f 2a e6 3d
       0.025776716 -0.0146626495 -0.006602727 0.11238598
000070 0f e8 3d be 65 c0 0e bd 85 45 cb 3d 7f e9 a8 3c
       -0.18545555 -0.03485145 0.09925369 0.020619152
000080 a9 65 9e 3d 16 1f 05 bc 04 77 f0 3d 48 7b db 3b
       0.07734234 -0.008125087 0.117414504 0.006698046
000090 10 fa 73 bd fd ff 96 3b 8c c9 7e 3d 8d f6 ad bd
       -0.05956465 0.004608153 0.06220393 -0.084942915
0000a0 2d f6 6b 3d c3 ca 45 3c e6 87 41 be eb 4a 0e be
       0.05760782 0.012072268 -0.18899497 -0.13895766
0000b0 28 17 8f 3c 86 cf e8 bd 56 3e 37 3b d0 7d f5 bd
       0.017467096 -0.11367707 0.002796074 -0.119868875
0000c0 cc 2d c0 3b 3c a6 ee 3c 7d f2 db bd e4 08 c6 bc
       0.0058648344 0.029132001 -0.1073961 -0.024174161
0000d0 e1 29 e8 3d b7 8f 36 bd c5 29 8f bc 75 6a 1b bd
       0.11336113 -0.04457065 -0.017475972 -0.037943322
0000e0 1c 6a a9 3b 2c 2f ac bc ca 21 c1 3c 71 a4 00 ba
       0.00517012 -0.021018587 0.023575682 -0.0004907316
0000f0 4f ce 33 bd 06 e0 1a bd 1b 34 93 3d 01 f2 9a 3d
       -0.043897923 -0.0378113 0.07187673 0.0756569
000100 b7 c5 00 3e 68 64 b0 bd 39 cc 50 bc c6 dc b5 bc
       0.12575422 -0.08612901 -0.012744003 -0.0222
000110 8c da d2 3d 2f a9 61 be 84 b0 19 3e fa ec 3d bd
       0.10295591 -0.22037195 0.15008742 -0.046368577
000120 b9 2c 20 be 14 e8 b1 bd 87 fe 0a 3a 12 72 e6 bd
       -0.1564206 -0.086868435 0.000530221 -0.11252226
000130 52 63 14 be 2a d8 f9 3d ce 29 93 3d 6f 59 8c bd
       -0.14491013 0.12199433 0.07185708 -0.068529956
000140 80 b3 5b be 47 8f 99 3d b3 92 1b be 73 76 93 3d
       -0.21455193 0.07498031 -0.1519268 0.07200327
000150 53 50 57 3d cf 52 88 3c 4b a4 21 bd 33 f2 81 3c
       0.052566838 0.016641049 -0.039463323 0.01586256
000160 39 8a 2b 3c f9 e3 00 3e c2 25 45 3c 04 92 2a 3d
       0.010469967 0.12586965 0.012032928 0.041643158
000170 5c dc 9b bb cc e3 7e 3c fb 79 2d 3d 39 18 f1 bd
       -0.0047564935 0.015557241 0.042352658 -0.11772198
000180 cd 2e f0 3d 7b 69 71 3e 7b 91 54 be d0 ba e8 3c
       0.117276765 0.23575394 -0.20758621 0.028409392
000190 1c cd d8 bd 93 3e 1e 3d 18 08 50 bb a1 f7 5d bd
       -0.105859965 0.038633894 -0.0031743106 -0.054191235
0001a0 bc 70 00 be ea ab 2e 3e fa 76 59 bd ee 6d 28 bd
       -0.12543005 0.17057768 -0.05309198 -0.041120462
0001b0 af be 55 3d f3 dd 70 bb 7a cd 59 bd b9 39 26 be
       0.052183803 -0.0036753386 -0.053174473 -0.16232957
0001c0 48 0c 1c be c8 d9 74 be 71 88 3c be c4 8d 61 3d
       -0.1523906 -0.23911202 -0.18411423 0.05506684
0001d0 4c 1a 6b 3d a2 e9 ea bd bc 0d 81 bd d6 38 8a 3d
       0.057398126 -0.11470343 -0.06301448 0.06749122
0001e0 9a d8 4f 3d 91 ef 21 be 22 8a 47 3d b1 b6 fc 3c
       0.050743677 -0.15814044 0.048715718 0.030848833
0001f0 06 df 46 be 43 26 38 3e 45 a0 9f 3c 79 77 6d bd
       -0.19421014 0.17983346 0.019485602 -0.057975266
000200 41 cc aa bb ed dd a6 3c e6 eb 57 3d 10 80 1d 3e
       -0.0052123372 0.020369494 0.052715205 0.15380883
000210 c9 13 8a bc d3 9e 1d be 70 b5 0a be 0a 07 65 3d
       -0.016855137 -0.15392618 -0.13545775 0.055914916
000220 84 03 b1 3c cc 76 9a 3c 81 fd 32 3e 06 3b db bd
       0.021608122 0.018855475 0.17479517 -0.10704617
000230 a2 80 60 3d 6c 11 5a 3b 88 2a d0 3d 63 f3 5d 3d
       0.054810174 0.0033274544 0.10164362 0.05418719
000240 de e4 d8 bd ee dc b2 3d 55 a8 c1 bd be 96 cc bd
       -0.10590528 0.08733545 -0.09455935 -0.09989689
000250 31 41 87 bd cd ce 8b 3d 82 ff 9d bc 4c 4a 0c bd
       -0.06604231 0.068265535 -0.019286875 -0.034250543
000260 06 4e 1d bb 8e 15 e1 3d 70 b4 cd 3d 5c d3 ed 3c
       -0.0024002804 0.10990439 0.10044181 0.029031448
000270 9e ee 9f bd 96 20 0e 3d be 77 de 3d b4 84 8c 3d
       -0.078091845 0.034699045 0.10862683 0.068612486
000280 49 bb 70 3d 29 f5 a5 bc 63 35 f6 3c 99 18 5e 3e
       0.05877236 -0.020258503 0.030054754 0.21689071
000290 a2 12 d9 bc 0d 85 92 3c 0d 4f 65 3d c2 a3 d1 bc
       -0.026498143 0.01788571 0.05598359 -0.025590781
0002a0 99 f8 42 3e cd 4b 84 bd 1b 00 92 bd 03 ab ae 3c
       0.19040145 -0.0645977 -0.07128926 0.02132178
0002b0 3b 9a e6 3c e1 9b 9f bd 06 e9 58 3d f4 8a 93 bd
       0.028149715 -0.077934034 0.052956603 -0.072042376
0002c0 df a9 9d bc 85 ad 1f 3d 5f 5c 82 bd a0 cb b3 bd
       -0.01924604 0.03898384 -0.06365275 -0.08779073
0002d0 dc 10 cc bd 02 8f 53 3d f4 b0 3f 3d 77 1c 67 bd
       -0.09964153 0.051650055 0.046799615 -0.05642363
0002e0 81 24 94 3d 4e 51 01 3d ea ae 2b bd 45 32 0e be
       0.07233525 0.03157168 -0.041914858 -0.13886364
0002f0 cd 10 1e bd 17 64 2c 3d 5b 61 24 3d 32 5a 16 3d
       -0.03859024 0.04208764 0.040131908 0.03670711
000300 fc 8d bf 3d d3 7d 2a bd 5d 50 8b bc 39 f3 b4 3c
       0.09353253 -0.0416239 -0.017006094 0.022088634
000310 0c 67 e6 bd c9 da c0 bb bd e5 a7 3c 94 b9 e1 3c
       -0.112501234 -0.005885456 0.02049529 0.02755431
000320 37 43 a6 3d c3 db 9b bc a0 7a bb bc 4f be 82 3d
       0.08118289 -0.019025689 -0.02288562 0.06383955
000330 2a ed 7d bd 13 c2 0a 3c 03 93 02 3e 30 21 cc bd
       -0.061993755 0.008469122 0.12751393 -0.099672675
000340 ce 50 8a 3b 08 ac 43 3e 52 bb 37 3e 1c fd b5 3d
       0.0042210585 0.19108593 0.17942551 0.088861674
000350 90 03 3c bd a0 9e ff 3c 5e d3 1e 3e c6 3e aa 3d
       -0.045901835 0.031203568 0.15510318 0.08312754
000360 44 c8 89 3c cf 59 13 3e 72 b5 39 3d b3 30 cf bc
       0.016819127 0.14389728 0.045339055 -0.025291776
000370 09 ba a8 bd a9 85 24 be ec 12 25 3c ff 82 5f 3d
       -0.082386084 -0.16066612 0.010075312 0.054568287
000380 bc f9 de bd fd fe 5e 3d ee b6 36 3d 6f ba 03 3d
       -0.10887477 0.054442395 0.04460805 0.03216022
000390 f6 66 2b be 94 d6 42 bd 62 e0 a7 bc 70 cb 87 3e
       -0.16738495 -0.04756792 -0.020492736 0.26522398
0003a0 1d 4b 30 be d1 61 ad 3a f5 c9 86 3d 66 c9 03 be
       -0.17216153 0.0013228004 0.06581489 -0.12869796
0003b0 6e 6d b0 3d 9a e8 50 bd 65 69 4c bb eb 6e 89 bc
       0.08614622 -0.051003076 -0.003119075 -0.016776523
0003c0 26 3f 55 be bb 9f 5b bc 34 4e 6e bc c0 10 70 be
       -0.2082487 -0.013404782 -0.014545012 -0.2344389
0003d0 6e 4c 31 3d 65 4b 66 bd 20 42 a1 bd cc c4 bf bb
       0.04328578 -0.056224246 -0.078739405 -0.0058523174
0003e0 db d1 27 bd b6 dc 97 bd ec 53 21 3e d3 98 ae 3d
       -0.04097162 -0.07415144 0.1575467 0.08525243
0003f0 9b 2d ef 3b 49 89 ef 3d 9b 37 a0 3d f2 cb c6 b9
       0.007299138 0.11696107 0.07823106 -0.00037917454

linear_relu_stack.8.bias f4 [32]
000000 d4 26 1b be 5c 15 91 3d 8b 72 bc bd 51 ae 64 3d
       -0.1515153 0.07084152 -0.09201535 0.055830304
000010 2b ce de bd d4 f3 5c ba a3 b7 72 bc 56 c4 4a 3d
       -0.10879167 -0.0008428667 -0.01481429 0.049503647
000020 41 0e 25 bd 8f 5e 97 bd 30 9b a4 bd 7d d2 1e bd
       -0.040296797 -0.073910825 -0.08037412 -0.038774956
000030 64 3f 93 bd 89 93 a4 3c 84 de 2d 3d 7e 27 5b bd
       -0.07189825 0.020089881 0.042448536 -0.05350446
000040 93 0d 8b 3d f7 52 d6 3d d3 55 bc bd f7 32 c7 bd
       0.067896985 0.10465043 -0.09196057 -0.09726518
000050 47 0d 31 bd 90 23 20 bc 27 25 9f bb 19 1c 34 bd
       -0.043225553 -0.009774104 -0.004856724 -0.04397211
000060 2d be 44 bd 11 95 c2 bc 72 2a 73 bd e4 91 92 bd
       -0.04803293 -0.023752721 -0.05936665 -0.07156733
000070 60 47 97 3d 9c bf 63 3d 1f 31 82 39 9f 95 a7 bd
       0.073866606 0.055602655 0.0002483213 -0.08182835

linear_relu_stack.10.weight f4 [1, 32]
000000 87 59 3f b9 11 38 96 3d 82 b6 22 3e 15 da 2e be
       -0.00018248531 0.073349126 0.15889934 -0.17075379
000010 ff ae 32 3d 24 3d c0 ba 97 3d 69 ba a6 43 f9 3d
       0.04362392 -0.0014666659 -0.0008897422 0.12171106
000020 be d1 03 bc 29 a6 9d bd 16 4f 6d bd 2a 15 90 3d
       -0.008045612 -0.07697708 -0.05793675 0.07035287
000030 71 60 27 3e b5 6e 28 3e d0 2e 97 bd 32 3e 76 bd
       0.16345383 0.16448481 -0.07381976 -0.060117908
000040 7e 77 85 ba 14 f8 64 3d 4a 39 0b bd 4a ea cc 3c
       -0.0010182706 0.05590065 -0.033990182 0.025014061
000050 04 17 be bd 75 82 d6 3d 53 d9 d9 ba 4b 03 e1 bd
       -0.09281734 0.104741015 -0.0016620554 -0.10986956
000060 4c 15 17 3d 30 7e 93 3c 16 31 16 3a 27 06 ac b9
       0.036885545 0.018004507 0.000572936 -0.0003281098
000070 83 bd 3f 3d 1e a3 5f bd 81 a8 01 be 71 83 fe 3a
       0.04681159 -0.05459892 -0.12661935 0.0019417835
