model/pendulum_model_2.pth (torch, 88706 bytes, 11 tensors)

linear_relu_stack.0.weight f4 [32, 3]
0.47406122 -0.08566144 0.37619668 0.086047865 0.030806102 -0.36132294 -0.4526407 -0.35443854
-0.46965533 -0.30699083 -0.43049207 -0.20809491 0.46291974 -0.074099965 0.08194125 -0.51055586
-0.3458519 -0.10659468 -0.0829762 -0.5033636 0.36716044 -0.23804252 0.07980551 0.23118931
-0.1377843 0.51344556 0.4008645 0.51408494 0.0893096 -0.07730867 -0.21078777 -0.39131388
-0.22929193 -0.19198374 -0.3421546 0.5051487 0.5034481 0.34441462 -0.41250208 -0.39262265
0.16269335 -0.09788895 -0.31209624 -0.18313189 -0.4780201 -0.08002435 0.47570735 0.25945848
0.25753003 0.37097898 0.19963667 0.4114056 -0.48817405 0.35826042 0.40750355 0.5320238
0.34048724 -0.4234151 0.55467665 0.15067777 0.0124429045 0.07630079 -0.2427959 -0.40971145
0.24123742 0.14281309 0.16899693 -0.4668701 -0.14726987 -0.06841375 0.22843356 0.33552969
0.56450254 0.5419726 -0.27426204 -0.05402565 -0.01527587 0.19878805 0.011923261 0.42617232
-0.5635407 -0.55835885 0.4440221 0.33635145 -0.22638755 0.37927392 -0.08139443 0.397982
0.43651742 -0.27672607 0.15686843 -0.38813782 0.48621997 0.26197538 -0.46522835 -0.5540795
00000000: 27b8 f23e 446f afbd da9c c03e dd39 b03d
00000010: 145d fc3c 52ff b8be 86c0 e7be f878 b5be
00000020: aa76 f0be e72d 9dbe 7569 dcbe d516 55be
00000030: d103 ed3e b9c1 97bd d0d0 a73d cab3 02bf
00000040: 8013 b1be 504e dabd 6def a9bd 70dc 00bf
00000050: 74fc bb3e 6bc1 73be 1271 a33d e4bc 6c3e
00000060: 5417 0dbe 2b71 033f 1d3e cd3e 129b 033f
00000070: f4e7 b63d 0254 9ebd c0d8 57be 4b5a c8be
00000080: 81cb 6abe 6397 44be e32e afbe 6d51 013f
00000090: fae1 003f 1d57 b03e 7933 d3be d605 c9be
000000a0: 1699 263e 007a c8bd 14cb 9fbe ed86 3bbe
000000b0: 0dbf f4be cee3 a3bd ea8f f33e bed7 843e
000000c0: fada 833e f5f0 bd3e 8e6d 4c3e c1a3 d23e
000000d0: f3f1 f9be e96d b73e 4ea4 d03e b632 083f
000000e0: 5854 ae3e ddc9 d8be 4aff 0d3f 464b 1a3e
000000f0: 53dd 4b3c 9743 9c3d 7d9f 78be b3c5 d1be
00000100: f106 773e 983d 123e 880d 2d3e 9909 efbe
00000110: eacd 16be 821c 8cbd 7dea 693e 8cca ab3e
00000120: 3d83 103f b7be 0a3f 136c 8cbe 004a 5dbd
00000130: a547 7abc 188f 4b3e c859 433c 4233 da3e
00000140: 3444 10bf 9bf0 0ebf dd56 e33e 4236 ac3e
00000150: 23d2 67be 3130 c23e 1fb2 a6bd 4cc4 cb3e
00000160: 367f df3e 0aaf 8dbe 1ea2 203e 00ba c6be
00000170: d3f1 f83e a321 863e 6932 eebe 27d8 0dbf

linear_relu_stack.0.bias f4 [32]
0.161704 -0.44944045 0.20557122 -0.21555184 -0.40506783 0.039989013 -0.23330118 -0.38401815
0.07199086 -0.08779863 0.25280216 0.23793648 -0.094651684 0.051533993 0.5183586 -0.5032143
0.06427419 0.12739776 -0.13515608 0.4556497 -0.43195608 0.3383935 -0.04599172 0.09807862
-0.23854604 0.38572225 0.31587327 -0.12780899 -0.3499051 0.41242814 -0.18694137 0.36949608
00000000: bc95 253e 0f1d e6be 4381 523e 9fb9 5cbe
00000010: 0d65 cfbe 85cb 233d 81e6 6ebe 079e c4be
00000020: f26f 933d c5cf b3bd 496f 813e 9fa5 733e
00000030: bed8 c1bd 4f15 533d 26b3 043f a7d2 00bf
00000040: 30a2 833d 8f74 023e 5b66 0abe eb4a e93e
00000050: 5929 ddbe ea41 ad3e d061 3cbd 72dd c83d
00000060: 6a45 74be 637d c53e 24ba a13e 5ce0 02be
00000070: c326 b3be c829 d33e 8f6d 3fbe 972e bd3e

linear_relu_stack.2.weight f4 [64, 32]
0.16087188 0.17739518 -0.17433968 0.12723461 -0.16795255 -0.17315282 0.07994627 -0.19731943
-0.13504247 0.11849195 -0.06905859 -0.11493049 -0.1046311 0.14228548 0.15469381 0.13827977
-0.023142269 -0.12874849 0.06810649 -0.077465005 0.17759137 0.018626513 0.02756126 -0.13994168
-0.040291443 -0.06755934 -0.21421553 0.008856561 0.1232719 -0.0024830159 0.07661397 0.1469705
-0.12608334 0.027232854 -0.068526804 0.101977505 0.04666019 -0.062687725 0.20452115 0.0045443918
-0.23810074 -0.035364773 -0.0075412644 0.18019725 -0.15164708 -0.07833283 0.09593389 -0.027427131
0.11051335 -0.16763063 0.03415986 -0.011948331 -0.027072871 -0.10077014 0.17589115 -0.18712893
0.0096445065 -0.15391882 -0.07664458 -0.193316 0.040465884 -0.05349119 -0.15855561 -0.12717171
-0.02712157 0.19286115 -0.11608748 -0.0642639 0.15828688 0.124297574 -0.20996012 -0.12413481
0.14750636 0.077115856 0.11634253 -0.10071619 -0.10111845 0.09766824 0.030018318 0.111605294
0.08948689 0.030582892 0.04954567 -0.15514548 0.0009069812 0.095405504 0.14181532 -0.28353474
0.078852564 0.047264468 0.015777491 0.0929281 0.036890462 0.051282074 0.037433647 0.13209577
-0.10523809 0.010226841 0.22940873 -0.07872915 -0.030797714 0.060449857 -0.1585841 0.1356257
0.03621338 -0.046339832 -0.12411061 -0.056877777 0.06808509 -0.08479627 -0.01996056 -0.0061675087
-0.18886854 0.12889193 -0.030720308 0.18852139 0.13220687 -0.091620915 0.14185956 0.020423945
0.036868643 -0.002507405 0.10438913 -0.07438271 0.00680826 0.18324013 -0.03953807 0.14436713
-0.11388524 0.16842991 0.02064467 0.11317138 0.09043022 -0.008256562 0.055954617 0.073569454
0.06961739 -0.130735 0.005979679 0.14389826 -0.0140831405 -0.12834528 -0.08832189 -0.21122117
0.1621485 0.15993392 -0.139981 -0.12826495 -0.0719576 0.017329143 -0.17788677 0.025674272
-0.11087863 -0.014992378 0.22668773 -0.07169981 -0.16139616 -0.040477276 0.069059364 -0.15537189
0.13496076 0.10825874 0.17384486 -0.15844 -0.035415623 0.20503345 -0.027102951 0.15628111
-0.15414837 0.1977801 0.024821201 -0.12374551 0.04194298 0.050383538 -0.034093104 0.121769324
0.13452047 -0.11343586 -0.20145908 0.1255747 0.15413032 -0.13652606 -0.15443262 -0.14880882
0.12660809 -0.10111023 0.13230751 -0.061337255 0.072334565 0.06900725 0.108716324 0.1429843
0.04635926 0.095328994 -0.21459602 -0.049414303 -0.16636358 -0.020942131 0.017336732 -0.14483804
-0.11498946 -0.1569153 0.043636218 -0.10194392 0.033682737 -0.09327474 0.20816076 -0.056129176
0.07975596 0.1147575 -0.087576546 0.11485118 -0.04355449 0.08881456 0.17597747 -0.036842886
0.051400766 -0.034320306 0.01780242 0.13556768 0.16443884 -0.024427457 -0.10520227 0.022028605
-0.101143956 0.10115425 -0.14920685 -0.18450503 -0.15348463 0.17035489 -0.080956616 0.17014779
-0.053465284 0.08980957 -0.014579596 -0.09834745 -0.044265196 0.10858876 0.067625456 0.039858527
-0.19164254 0.025412975 -0.1608412 -0.1194082 -0.016048515 0.087071516 -0.17574304 0.16374256
-0.08826785 0.06384967 0.027823025 -0.014333347 0.0662937 -0.08267964 0.1179277 -0.010596735
00000000: 99bb 243e 15a7 353e 1a86 32be ca49 023e
00000010: c1fb 2bbe f94e 31be dfba a33d 1b0e 4abe
00000020: 9348 0abe e8ab f23d 976e 8dbd ad60 ebbd
00000030: d548 d6bd 49b3 113e 0e68 1e3e 3699 0d3e
00000040: db94 bdbc a5d6 03be 6a7b 8b3d f9a5 9ebd
00000050: 83da 353e a196 983c 27c8 e13c df4c 0fbe
00000060: a408 25bd 8d5c 8abd 515b 5bbe 1c1b 113c
00000070: fa75 fc3d 18ba 22bb c9e7 9c3d 6f7f 163e
00000080: fe1b 01be 6f17 df3c c857 8cbd 95d9 d03d
00000090: c11e 3f3d 6c62 80bd fe6d 513e 1fe9 943b
000000a0: aed0 73be a7da 10bd b61c f7bb a185 383e
000000b0: 5f49 1bbe f66c a0bd fd78 c43d ddae e0bc
000000c0: d354 e23d 5da7 2bbe 36eb 0b3d efc2 43bc
000000d0: edc7 ddbc 9360 cebd cf1c 343e ba9e 3fbe
000000e0: fe03 1e3c e59c 1dbe d5f7 9cbd a1f4 45be
000000f0: 8ebf 253d 9419 5bbd 675c 22be 4d39 02be
00000100: 0e2e debc 657d 453e 46bf edbd cb9c 83bd
00000110: f515 223e ba8f fe3d c9ff 56be 643a febd
00000120: e80b 173e ebee 9d3d fe44 ee3d 4a44 cebd
00000130: 3117 cfbd 4906 c83d fae8 f53c 5191 e43d
00000140: e744 b73d f988 fa3c 67f0 4a3d 75de 1ebe
00000150: 7ac2 6d3a f663 c33d 0938 113e 772b 91be
00000160: 747d a13d 6398 413d cc3f 813c 1651 be3d
00000170: 741a 173d 270d 523d 0654 193d 1d44 073e
00000180: 1187 d7bd 7b8e 273c 1fea 6a3e c03c a1bd
00000190: 7d4b fcbc 459a 773d df63 22be 77e1 0a3e
000001a0: 7b54 143d d6ce 3dbd b42d febd acf8 68bd
000001b0: 3270 8b3d aba9 adbd 5484 a3bc d018 cabb
000001c0: c166 41be 3ffc 033e 28a9 fbbc c00b 413e
000001d0: 3d61 073e bfa3 bbbd a243 113e 1e50 a73c
000001e0: 9303 173d 4653 24bb f8c9 d53d f655 98bd
000001f0: d317 df3b 4da3 3b3e acf2 21bd fad4 133e
00000200: aa3c e9bd e478 2c3e 031f a93c 65c6 e73d
00000210: 7b33 b93d 8846 07bc ab30 653d 95ab 963d
00000220: 9093 8e3d 65df 05be 2ff1 c33b 115a 133e
00000230: f9bc 66bc f26c 03be 1be2 b4bd 5d4a 58be
00000240: 420a 263e b8c5 233e 2e57 0fbe e357 03be
00000250: 825e 93bd d9f5 8d3c f327 36be da52 d23c
00000260: 5614 e3bd 97a2 75bc d420 683e 5ad7 92bd
00000270: 0945 25be 80cb 25bd ff6e 8d3d cf19 1fbe
00000280: 2733 0a3e c2b6 dd3d 6304 323e 183e 22be
00000290: f90f 11bd 4af4 513e 0207 debc 2808 203e
000002a0: 12d9 1dbe de86 4a3e d555 cb3c 496e fdbd
000002b0: 67cc 2b3d f85e 4e3d 36a5 0bbd 3262 f93d
000002c0: bcbf 093e 0f51 e8bd 4a4b 4ebe a796 003e
000002d0: 57d4 1d3e 7dcd 0bbe 9623 1ebe 5761 18be
000002e0: 8da5 013e e112 cfbd 9f7b 073e c63c 7bbd
000002f0: 2524 943d ac53 8d3d aaa6 de3d 7a6a 123e
00000300: 35e3 3d3d d93b c33d 0fbf 5bbe a766 4abd
00000310: 375b 2abe d58e abbc c305 8e3c 6c50 14be
00000320: 987f ebbd 68ae 20be e4bb 323d f9c7 d0bd
00000330: e9f6 093d d406 bfbd 1828 553e b5e7 65bd
00000340: 1857 a33d fb05 eb3d 555b b3bd 1837 eb3d
00000350: 3166 32bd 68e4 b53d 7033 343e 91e8 16bd
00000360: 9c89 523d 7393 0cbd 61d6 913c 41d2 0a3e
00000370: a862 283e 171c c8bc 4a74 d7bd 5575 b43c
00000380: 9024 cfbd f629 cf3d aec9 18be e3ee 3cbe
00000390: 132b 1dbe 8371 2e3e 95cc a5bd 393b 2e3e
000003a0: 6afe 5abd 14ee b73d 42df 6ebc 636a c9bd
000003b0: 6c4f 35bd c963 de3d 377f 8a3d b242 233d
000003c0: f13d 44be df2e d03c 8eb3 24be 498c f4bd
000003d0: 2d78 83bc 8d52 b23d fcf5 33be 21ac 273e
000003e0: c6c5 b4bd 9ec3 823d 1ded e33c 6ad6 6abc
000003f0: fec4 873d f153 a9bd 1484 f13d ee9d 2dbc

linear_relu_stack.2.bias f4 [64]
-0.07957939 0.00592099 0.00469237 -0.051962804 -0.09316535 0.12009293 0.00608343 -0.07923494
-0.040088188 -0.050744683 -0.07228107 0.014808991 -0.1388268 0.17988051 -0.016795838 0.029295323
0.14495467 0.07887694 -0.1428398 -0.018221397 0.08168081 -0.05650254 0.107641526 0.110036194
-0.11376571 0.14125542 0.03423108 0.044388212 -0.12098095 0.11534949 -0.05136528 -0.023626825
-0.121247105 0.0562411 0.112780355 -0.21227492 0.1133832 0.06544599 0.1866726 -0.078727596
-0.04224321 0.010039822 0.115339056 0.045540363 0.18898867 -0.018614225 0.080845624 0.032138355
0.062642306 0.069176406 0.009529465 0.04223138 -0.11857501 -0.08370832 -0.062585674 -0.073554985
0.11983538 0.057173587 -0.19300053 0.10480261 -0.1874151 0.09234486 -0.12532231 0.09876337
00000000: 85fa a2bd dd04 c23b 74c2 993b f3d6 54bd
00000010: 7acd bebd 48f3 f53d 8257 c73b ee45 a2bd
00000020: 8333 24bd a8d9 4fbd 1908 94bd 69a1 723c
00000030: 9d28 0ebe 9932 383e 6d97 89bc bffc ef3c
00000040: ff6e 143e 3c8a a13d 9944 12be 0a45 95bc
00000050: 4548 a73d 356f 67bd 2973 dc3d a85a e13d
00000060: fffd e8bd 43a5 103e e435 0c3d 6ad0 353d
00000070: dcc4 f7bd 5a3c ec3d 6664 52bd 0b8d c1bc
00000080: 6750 f8bd 115d 663d 63f9 e63d 995e 59be
00000090: 7335 e83d 8c08 863d 1a27 3f3e ef3b a1bd
000000a0: 3707 2dbd 117e 243c e236 ec3d 8888 3a3d
000000b0: 3f86 413e dc7c 98bc 6492 a53d 82a3 033d
000000c0: 9c4a 803d 5cac 8d3d 7921 1c3c d0fa 2c3d
000000d0: 74d7 f2bd 456f abbd eb2c 80bd ffa3 96bd
000000e0: 406c f53d da2e 6a3d eea1 45be c0a2 d63d
000000f0: bee9 3fbe 4d1f bd3d 7e54 00be 7344 ca3d

linear_relu_stack.4.weight f4 [128, 64]
-0.07496475 0.013995678 -0.06321286 -0.02288074 0.07368041 0.17442341 0.025486127 0.06379893
0.10479711 0.05066788 -0.14628029 0.090132274 -0.030559001 -0.0871865 0.008293306 -0.025123127
-0.02011109 -0.079272985 0.09573201 0.055719193 -0.033155333 -0.07934382 -0.02125259 -0.10894155
-0.11084851 0.12587564 -0.06768445 -0.120425195 0.074841 -0.11799277 -0.030254852 -0.08148788
0.04199668 -0.054077327 0.040375046 0.048388917 0.024302166 0.04331929 -0.12190545 0.11949813
-0.08269087 -0.07089421 0.08104484 -0.03412171 -0.17494 0.024649126 -0.2960021 0.16316594
0.087767504 -0.04979383 0.005134548 0.13768463 -0.08661228 -0.0029025746 0.07045124 0.14496881
0.07488978 0.045119915 0.018843874 -0.041476488 -0.108215295 0.0779095 -0.024421342 -0.029795514
0.15806088 -0.02905701 -0.009839227 0.05559877 -0.04044778 -0.05203165 -0.04549341 0.12737863
-0.035207365 -0.047289312 0.052611418 0.031451065 -0.093811885 0.005775646 0.030416206 0.1406219
0.1785736 0.019764068 -0.035254724 -0.0024974125 -0.09451488 0.26920664 0.09611532 0.015633717
0.111228175 0.03680911 0.049363803 0.105083704 -0.070443995 -0.054237287 0.006513606 0.017208874
0.10147643 -0.056815825 0.045742728 0.051738698 -0.16734158 0.041845217 0.04949138 0.21413559
-0.047003355 0.035082947 -0.035184324 -0.016936267 0.0829387 -0.10844621 0.08929635 0.064507864
-0.024167925 -0.1257613 0.06981644 0.07224235 0.086827695 -0.043772884 0.0035480475 0.09340274
0.021065854 0.09378171 0.11787016 -0.048581176 0.11076324 -0.09523384 0.0577721 -0.017229717
-0.10943318 0.033156294 -0.10090825 -0.08839877 -0.025145944 -0.029709294 0.040041506 -0.083474934
-0.034487758 -0.050285164 -0.11862206 -0.08554646 0.074995525 -0.062747724 -0.032723483 0.038667273
0.01177191 0.09401109 0.064381205 -0.16010185 -0.10177359 -0.03478663 0.10454349 0.08865782
0.15526493 0.0036747162 0.09773972 -0.021188032 0.017353961 -0.020111736 0.00052926724 0.028090741
0.1518515 0.00380755 0.12927422 -0.07199956 -0.011868748 0.00044458956 0.05896434 0.111822374
0.025554482 -0.027592374 0.08242886 -0.1632893 -0.06460176 -0.014156965 0.14155836 -0.009478466
-0.049270958 0.05493672 0.11295908 0.11900935 0.031299174 -0.042917546 -0.011223947 -0.03992768
-0.0075854952 -0.0041618487 -0.01688415 -0.08152934 0.0035391478 0.009003418 0.031002548 -0.026832154
-0.10261268 0.119872615 0.0035685706 -0.08619556 -0.04033593 -0.14523049 0.10117089 0.092005804
-0.10786807 0.037618395 0.007869465 0.030411584 -0.023516107 0.068527564 -0.116977416 -0.0763644
0.12644295 0.11904297 -0.10463764 -0.05027735 -0.04944007 -0.033495963 0.0012749529 -0.079459585
-0.07242101 0.09129437 0.12855592 0.13503224 -0.0040219976 -0.1205922 0.13610509 -0.07053738
-0.090255976 -0.14400075 0.07089026 0.123660214 0.1561126 0.15110815 -0.03828663 -0.039853364
0.09559338 -0.03841954 0.0113290455 0.057741642 -0.1794778 0.056125894 -0.013039639 -0.08976194
-0.0043148315 -0.0690541 -0.10505955 0.047003735 0.12508376 0.073610544 -0.071177594 0.120823726
-0.04357301 0.06322986 -0.031076198 0.005363329 0.06969029 -0.08272448 0.14020005 0.005889983
00000000: 1e87 99bd 214e 653c be75 81bd 6470 bbbc
00000010: c1e5 963d 0d9c 323e 48c8 d03c 03a9 823d
00000020: de9f d63d 1f89 4f3d 80ca 15be 4597 b83d
00000030: df56 fabc d68e b2bd a6e0 073c 04cf cdbc
00000040: 03c0 a4bc e059 a2bd 250f c43d cf39 643d
00000050: e3cd 07bd 037f a2bd e919 aebc bf1c dfbd
00000060: 8b04 e3bd 8be5 003e 259e 8abd 7ca1 f6bd
00000070: 3d46 993d 32a6 f1bd 06d9 f7bc 1ee3 a6bd
00000080: b604 2c3d 3080 5dbd 4e60 253d 7533 463d
00000090: 5615 c73c 916f 313d 91a9 f9bd 70bb f43d
000000a0: d559 a9bd fc30 91bd d6fa a53d 35c3 0bbd
000000b0: 7923 33be f7ec c93c 968d 97be f914 273e
000000c0: 73bf b33d 9df4 4bbd b63f a83b 33fd 0c3e
000000d0: c761 b1bd 1f39 3ebb bd48 903d b472 143e
000000e0: d05f 993d a9cf 383d 785e 9a3c 40e3 29bd
000000f0: fb9f ddbd 048f 9f3d 440f c8bc b915 f4bc
00000100: b6da 213e f708 eebc b634 21bc 89bb 633d
00000110: 92ac 25bd 241f 55bd 4c57 3abd 8b6f 023e
00000120: 9935 10bd 70b2 41bd 127f 573d d5d2 003d
00000130: 7220 c0bd a141 bd3b 682b f93c 30ff 0f3e
00000140: ffdb 363e 41e8 a13c 4267 10bd a1ab 23bb
00000150: 0491 c1bd 74d5 893e 1cd8 c43d 4812 803c
00000160: 99cb e33d 26c5 163d b331 4a3d 2036 d73d
00000170: f144 90bd eb27 5ebd 1670 d53b a0f9 8c3c
00000180: e0d2 cf3d b6b7 68bd ba5c 3b3d f5eb 533d
00000190: 975b 2bbe e465 2b3d 79b7 4a3d 5c46 5b3e
000001a0: 9786 40bd 23b3 0f3d 701d 10bd edbd 8abc
000001b0: c4db a93d 0c19 debd 01e1 b63d b31c 843d
000001c0: d0fb c5bc 92c7 00be ecfb 8e3d ccf3 933d
000001d0: b8d2 b13d 324b 33bd 5c86 683b f049 bf3d
000001e0: 4c92 ac3c a010 c03d e965 f13d 0efd 46bd
000001f0: d6d7 e23d f609 c3bd 70a2 6c3d 5625 8dbc
00000200: 811e e0bd e5ce 073d fca8 cebd 6a0a b5bd
00000210: defe cdbc e860 f3bc 9002 243d e8f4 aabd
00000220: 0943 0dbd d1f7 4dbd 1ff0 f2bd fb32 afbd
00000230: 4197 993d e181 80bd 0f09 06bd 9361 1e3d
00000240: f8de 403c e388 c03d 4bda 833d bdf1 23be
00000250: ac6e d0bd 6d7c 0ebd e61a d63d 3b92 b53d
00000260: c5fd 1e3e 82d3 703b c32b c83d 8692 adbc
00000270: e529 8e3c 5ec1 a4bc 86be 0a3a 8e1e e63c
00000280: f67e 1b3e 1788 793b 7660 043e 8174 93bd
00000290: 2375 42bc cd17 e939 9784 713d 2103 e53d
000002a0: a257 d13c 6709 e2bc 76d0 a83d 4f35 27be
000002b0: ed4d 84bd 9df2 67bc adf4 103e 914b 1bbc
000002c0: 58d0 49bd 5305 613d 1757 e73d 2dbb f33d
000002d0: 9033 003d 4fca 2fbd a5e4 37bc 358b 23bd
000002e0: bf8f f8bb 1e60 88bb a150 8abc dbf8 a6bd
000002f0: 0cf1 673b 1283 133c 0ef9 fd3c 1bcf dbbc
00000300: 9926 d2bd c67f f53d aede 693b 4c87 b0bd
00000310: 4a37 25bd 4db7 14be af32 cf3d 8a6d bc3d
00000320: efe9 dcbd bf15 1a3d eeee 003c b721 f93c
00000330: daa4 c0bc 2e58 8c3d db91 efbd f064 9cbd
00000340: 437a 013e cdcc f33d 424c d6bd 9fef 4dbd
00000350: ac81 4abd 1033 09bd 521c a73a b5bb a2bd
00000360: 7751 94bd 8bf8 ba3d 2aa4 033e e445 0a3e
00000370: f6ca 83bb 0bf9 f6bd 225f 0b3e e775 90bd
00000380: 20d8 b8bd ef74 13be ea2e 913d 9141 fd3d
00000390: fbdb 1f3e 18bc 1a3e 71d2 1cbd 483d 23bd
000003a0: 76c6 c33d cf5d 1dbd 769d 393c 8082 6c3d
000003b0: 07c9 37be 44e4 653d 36a4 55bc 1cd5 b7bd
000003c0: 6e63 8dbb 3c6c 8dbd 7629 d7bd fd86 403d
000003d0: f515 003e 20c1 963d 8fc5 91bd 6e72 f73d
000003e0: 9d79 32bd a87e 813d 8393 febc ddbe af3b
000003f0: c8b9 8e3d 746b a9bd 9a90 0f3e c200 c13b

linear_relu_stack.4.bias f4 [128]
0.04853985 -0.010417829 -0.012525497 0.08796376 0.11104271 0.03704827 -0.06240053 -0.05114337
-0.12606695 -0.08734674 -0.0078358 0.002704939 -0.038136482 -0.069680035 0.08301018 0.06864845
-0.12184617 0.12583882 0.08327681 0.03695128 0.035728764 0.028744096 -0.13459201 -0.0766061
-0.062474243 -0.08714318 -0.09531852 0.04304042 -0.027007628 -0.12212274 -0.036632862 -0.048611518
-0.14785828 -0.07849107 -0.09421577 -0.03787653 0.13255435 -0.010106468 -0.07063162 -0.010447175
0.018206026 -0.035212107 -0.058281954 0.089950055 -0.080695234 0.010598754 0.07959157 -0.058402706
0.024535015 -0.061274532 -0.09820274 0.06770184 0.030176371 -0.07231515 0.08567957 -0.13435987
-0.022150975 -0.059017953 -0.13612275 0.06366555 0.026957614 0.05192781 -0.0807109 0.07157095
0.0014901581 -0.11803949 -0.09857802 -0.009478111 -0.003310182 -0.01988579 -0.1329613 -0.10972656
0.009696936 -0.10928184 0.08874121 -0.10623142 0.09361748 0.01763214 -0.0684279 0.05008563
0.12120067 -0.13314122 -0.1101602 -0.08164897 -0.06219634 0.049460053 0.098802574 -0.07422034
-0.13676265 -0.08892398 0.10141066 -0.06268058 0.15739281 0.039429206 0.008714927 0.07586184
-0.0778337 0.05581133 -0.10432277 -0.082219705 0.053469706 -0.112171955 -0.0511965 0.096135065
-0.1272507 -0.10486902 0.09331625 0.04613856 0.016551867 0.10563544 0.084478244 -0.08615735
-0.10715557 0.047844972 0.04732262 -0.059424087 -0.013687724 -0.03674627 -0.090656236 -0.05748363
-0.11670335 0.013298986 -0.1688189 -0.0039637606 0.057697333 -0.022023305 -0.0895065 -0.063369155
00000000: b9d1 463d 8baf 2abc be37 4dbc 5826 b43d
00000010: 5c6a e33d edbf 173d b397 7fbd b67b 51bd
00000020: b217 01be d9e2 b2bd ba61 00bc 5945 313b
00000030: 0035 1cbd 68b4 8ebd 3e01 aa3d 8f97 8c3d
00000040: 7c8a f9bd e4db 003e 088d aa3d 3a5a 173d
00000050: 5358 123d bd78 eb3c 7dd2 09be a9e3 9cbd
00000060: fee4 7fbd 2078 b2bd 5b36 c3bd 274b 303d
00000070: 1a3f ddbc 7d1b fabd 570c 16bd df1c 47bd
00000080: 2968 17be edbf a0bd 33f4 c0bd 6c24 1bbd
00000090: 54bc 073e 9995 25bc 50a7 90bd a12a 2bbc
000000a0: ce24 953c 923a 10bd 0fb9 6ebd bc37 b83d
000000b0: 8b43 a5bd 65a6 2d3c e800 a33d ad37 6fbd
000000c0: a8fd c83c 01fb 7abd 851e c9bd 43a7 8a3d
000000d0: 7034 f73c f719 94bd c578 af3d a295 09be
000000e0: f675 b5bc cfbc 71bd c363 0bbe 1563 823d
000000f0: 37d6 dc3c 41b2 543d c24b a5bd ca93 923d
00000100: 6951 c33a b0be f1bd 46e3 c9bd 144a 1bbc
00000110: a3ef 58bb 86e7 a2bc 0227 08be 52b8 e0bd
00000120: e6df 1e3c 28cf dfbd f4bd b53d dc8f d9bd
00000130: 85ba bf3d 4771 903c ed23 8cbd 9726 4d3d
00000140: 0f38 f83d 2c56 08be ac9b e1bd 9337 a7bd
00000150: 97c1 7ebd a096 4a3d 0159 ca3d d500 98bd
00000160: 820b 0cbe c71d b6bd 64b0 cf3d ad5e 80bd
00000170: 952b 213e 8580 213d 0ec9 0e3c 745d 9b3d
00000180: 4667 9fbd 6c9a 643d 2da7 d5bd ce62 a8bd
00000190: 0d03 5b3d 69ba e5bd 6cb3 51bd 76e2 c43d
000001a0: 024e 02be 92c5 d6bd 971c bf3d c9fb 3c3d
000001b0: c897 873c 6557 d83d ee02 ad3d 4473 b0bd
000001c0: 6174 dbbd 17f9 433d 5dd5 413d ac66 73bd
000001d0: 7a42 60bc 4283 16bd faa9 b9bd f473 6bbd
000001e0: 2a02 efbd fde3 593c ddde 2cbe 6fe2 81bb
000001f0: 0a54 6c3d 386a b4bc 2f4f b7bd b0c7 81bd

linear_relu_stack.6.weight f4 [64, 128]
-0.059555337 0.0007906361 0.07524095 -0.08276494 -0.059882324 -0.0026877646 -0.07867986 0.05246327
0.033145033 -0.0474084 -0.09645935 0.0019059931 0.026782209 0.07141956 0.0852169 -0.009984437
0.04975751 -0.032956332 0.090247616 -0.04993525 0.16010278 0.030256916 -0.07238481 0.06840381
0.028496243 -0.08137883 -0.00017640404 -0.010656806 0.005077 0.023146808 0.057602584 0.051054582
0.044116616 -0.0046398505 0.1345304 0.022214932 -0.0214055 -0.014944391 -0.06369732 0.016022712
-0.0032304805 0.08519437 -0.059746817 0.061149843 0.062222943 0.027461084 0.014164923 -0.010339966
-0.13907862 -0.058459383 -0.07855482 0.010693864 -0.003319444 -0.006668934 0.13105921 -0.06381216
-0.036747515 0.047967367 -0.005577707 0.07587374 0.081508026 0.104770534 0.082442686 -0.055026505
0.087887295 -0.10738698 0.11588473 -0.021305038 -0.024887843 0.08304525 0.031344682 0.01679259
-0.090436995 0.017571617 0.023135815 -0.030139023 -0.010738187 0.15438111 -0.038418107 -0.071816266
0.05558156 0.0151067 -0.10403949 0.011207146 -0.054273434 0.15323715 -0.013646543 -0.013107089
0.08430822 0.0729741 0.095896736 -0.018942265 0.13326725 0.11973164 0.034823224 0.09482392
0.054610245 -0.000646611 0.120375656 0.04338237 0.08687686 0.04949427 -0.10649189 0.09078769
0.019663252 -0.018135333 -0.0329554 -0.0446062 -0.057738055 -0.08010817 -0.061172854 0.010199334
0.029167568 -0.07408451 0.024908977 0.010099968 -0.079128645 -0.019950606 0.023144891 0.090765834
-0.020843545 0.0788023 0.017372001 0.08287995 0.073753424 0.14552529 0.029378079 0.06280408
0.09519476 0.023419522 0.008164674 -0.08919686 -0.009144039 -0.12279223 -0.01754257 -0.10475093
-0.09581268 -0.014282693 -0.08213769 0.07092425 -0.09229043 -0.018855287 0.07819246 -0.11843552
-0.08813443 -0.06728428 0.031867888 -0.013879793 -0.062234446 0.06795536 0.013874402 -0.064643346
0.03208939 0.06997523 0.07755318 -0.050422214 -0.03568167 -0.0025644528 -0.014265861 0.027327925
0.05680557 -0.0059249634 0.027806768 -0.024547808 -0.14750434 0.04034343 0.016207067 -0.0816017
-0.022479026 0.027389338 -0.09394093 -0.021237196 -0.0077161174 -0.00078247755 0.033644788 -0.020057242
0.03285778 0.014269297 -0.0068251924 0.09630436 0.076295234 -0.14600308 0.11410127 -0.04386524
-0.004523914 0.05744798 0.023114339 0.033171028 -0.0018330442 -0.04865669 -0.07625243 0.078971736
0.08822034 -0.035934042 0.10861553 -0.0496349 -0.03800031 -0.07966951 -0.055616267 -0.12562506
0.096727215 0.044568755 -0.06965988 0.018798377 -0.044764075 -0.031338923 0.05446563 -0.018209511
0.082071744 -0.0718505 -0.056987066 0.07399129 0.039777536 0.02536304 0.0010107453 0.05726072
-0.09852068 -0.05865812 0.08336568 -0.02746461 -0.021633243 -0.0056450437 0.01935087 0.09423329
-0.0708668 -0.05564865 -0.014847797 0.02911385 0.019190853 0.008645313 -0.04443339 0.0051466455
-0.06315036 -0.0382284 0.00041149635 0.010967017 -0.0443572 -0.10082869 -0.01970599 -0.04239499
-0.049839936 0.04046163 0.025744742 -0.064409025 -0.05029316 0.039575405 0.014319988 0.0017054139
-0.0027949377 0.01938426 0.041015048 -0.055132955 0.05729827 -0.05672213 0.10559185 0.07140509
00000000: 4cf0 73bd b142 4f3a ed17 9a3d aa80 a9bd
00000010: 2b47 75bd 3525 30bb e822 a1bd bae3 563d
00000020: 16c3 073d 4f2f 42bd 7b8c c5bd 84d2 f93a
00000030: 5d66 db3c 6b44 923d 3386 ae3d c495 23bc
00000040: 88ce 4b3d 38fd 06bd bed3 b83d e888 4cbd
00000050: fcf1 233e 5add f73c 7d3e 94bd 4c17 8c3d
00000060: f470 e93c f2a9 a6bd 19f9 38b9 e299 2ebc
00000070: f65c a63b 609e bd3c b0f0 6b3d 9c1e 513d
00000080: a0b3 343d e309 98bb 56c2 093e 17fc b53c
00000090: 965a afbc 52d9 74bc be73 82bd 1042 833c
000000a0: 78b6 53bb 637a ae3d 14b9 74bd 4278 7a3d
000000b0: 7cdd 7e3d 11f6 e03c fe13 683c f668 29bc
000000c0: a06a 0ebe 1b73 6fbd 59e1 a0bd 5135 2f3c
000000d0: 078b 59bb 1387 dabb 6334 063e f3af 82bd
000000e0: 9084 16bd 6e79 443d 33c5 b6bb b163 9b3d
000000f0: aeed a63d ef91 d63d b6d7 a83d 7963 61bd
00000100: 41fe b33d b4ed dbbd f954 ed3d e787 aebc
00000110: 97e1 cbbc a113 aa3d 4863 003d 9d90 893c
00000120: 0837 b9bd 5af2 8f3c 5287 bd3c 1de6 f6bc
00000130: 38ef 2fbc 1516 1e3e 4e5c 1dbd 6814 93bd
00000140: 7da9 633d 1882 773c a812 d5bd 2d9e 373c
00000150: d24d 5ebd 33ea 1c3e c095 5fbc 1ebf 56bc
00000160: caa9 ac3d 7273 953d 8265 c43d cf2c 9bbc
00000170: 3677 083e dd35 f53d cca2 0e3d 0b33 c23d
00000180: feae 5f3d 5481 29ba 8387 f63d b6b1 313d
00000190: 7fec b13d 81ba 4a3d 6c18 dabd e5ee b93d
000001a0: d414 a13c 8d90 94bc 3efc 06bd feb4 36bd
000001b0: bd7e 6cbd c10f a4bd 6390 7abd 1b1b 273c
000001c0: d3f0 ee3c 9fb9 97bd e90d cc3c 567a 253c
000001d0: 330e a2bd 746f a3bc 5b9a bd3c 70e3 b93d
000001e0: 15c0 aabc 1a63 a13d ba4f 8e3c f7bc a93d
000001f0: 090c 973d 9504 153e 4caa f03c 6d9f 803d
00000200: 78f5 c23d 4cda bf3c 20c5 053c d8ac b6bd
00000210: e1d0 15bc 7e7a fbbd 70b5 8fbc a887 d6bd
00000220: 7039 c4bd f501 6abc ce37 a8bd bc40 913d
00000230: c402 bdbd 6776 9abc 5e23 a03d 528e f2bd
00000240: d37f b4bd 57cc 89bd e787 023d 1268 63bc
00000250: 8ce9 7ebd 2e2c 8b3d 7651 633c bb63 84bd
00000260: 2a70 033d 2c4f 8f3d 34d4 9e3d 8687 4ebd
00000270: f126 12bd 6110 28bb 5cbb 69bc d0de df3c
00000280: f5ac 683d 3226 c2bb 05cb e33c 7c18 c9bc
00000290: 610b 17be 273f 253d afc4 843c cb1e a7bd
000002a0: ef25 b8bc 9b5f e03c 1a64 c0bd a1f9 adbc
000002b0: 7cd7 fcbb 2e1f 4dba 1ecf 093d 164f a4bc
000002c0: e195 063d c5c9 693c dda5 dfbb 383b c53d
000002d0: ad40 9c3d d581 15be edad e93d 0aac 33bd
000002e0: 573d 94bb 934e 6b3d 485a bd3c 58de 073d
000002f0: c242 f0ba 3d4c 47bd 3c2a 9cbd efbb a13d
00000300: deac b43d 932f 13bd d271 de3d f74d 4bbd
00000310: 37a6 1bbd c529 a3bd e2cd 63bd dba3 00be
00000320: eb18 c63d ba8d 363d d7a9 8ebd 0eff 993c
00000330: 895a 37bd 3e5d 00bd 5a17 5f3d 1d2c 95bc
00000340: 3b15 a83d 5b26 93bd 456b 69bd bf88 973d
00000350: c5ed 223d 26c6 cf3c fc7a 843a 378a 6a3d
00000360: 36c5 c9bd 7f43 70bd a0bb aa3d 76fd e0bc
00000370: 3338 b1bc 0ffa b8bb b785 9e3c 62fd c03d
00000380: 9d22 91bd d7ef 63bd 2d44 73bc 2b80 ee3c
00000390: 2336 9d3c 12a5 0d3c c9ff 35bd 31a5 a83b
000003a0: fa54 81bd 6295 1cbd 1bbe d739 01af 333c
000003b0: e5af 35bd 467f cebd 756e a1bc 5ea6 2dbd
000003c0: f624 4cbd 18bb 253d a3e6 d23c e1e8 83bd
000003d0: 3300 4ebd d219 223d 629e 6a3c 3288 df3a
000003e0: 462b 37bb bdcb 9e3c 65ff 273d 18d3 61bd
000003f0: 97b1 6a3d 7755 68bd 8a40 d83d d53c 923d

linear_relu_stack.6.bias f4 [64]
0.057444986 0.07561746 0.02378195 -0.062483203 -0.033021428 -0.07941632 -0.08441612 -0.08935492
-0.103989445 0.0422746 -0.07783306 -0.05299542 -0.011823712 -0.11041391 0.05671677 -0.03754418
0.0816825 -0.014989698 0.05791094 0.09860125 -0.08623212 0.066719174 -0.019990923 0.038725924
0.015048887 -0.10878105 0.03590958 -0.07258508 0.003721016 0.07221052 0.020336127 -0.009452973
0.060267426 0.0978902 -0.005099131 -0.0712664 0.072856076 0.064292744 0.05957712 -0.057841808
0.0015135356 0.009183752 0.023755027 0.011566124 -0.015685242 0.06507754 0.0038061745 0.04241042
-0.10395913 -0.01096832 0.009816387 0.014884606 -0.0016241742 -0.11669913 -0.076173745 -0.0057961815
0.009558739 0.024154566 0.051254556 0.0022240966 -0.03581857 -0.027100584 -0.041866206 0.019059284
00000000: 6f4b 6b3d 54dd 9a3d 5dd2 c23c 63ee 7fbd
00000010: 7a41 07bd 06a5 a2bd 5ce2 acbd b6ff b6bd
00000020: 6bf8 d4bd 2228 2d3d f066 9fbd ba11 59bd
00000030: 3eb8 41bc b020 e2bd d84f 683d edc7 19bd
00000040: 2849 a73d 5a97 75bc 0634 6d3d 74ef c93d
00000050: 779a b0bd 10a4 883d 01c4 a3bc 139f 1e3d
00000060: 9b8f 763c 99c8 debd ec15 133d 7da7 94bd
00000070: 4adc 733b 1ce3 933d f397 a63c a4e0 1abc
00000080: fada 763d a87a c83d 9c16 a7bb 1ef4 91bd
00000090: 9135 953d eaab 833d 2307 743d 88eb 6cbd
000000a0: d461 c63a 7377 163c e799 c23c d77f 3d3c
000000b0: 567e 80bc 6047 853d 0371 793b 8cb6 2d3d
000000c0: 86e8 d4bd 78b4 33bc e9d4 203c 90de 733c
000000d0: 3ee2 d4ba f4ff eebd fb00 9cbd e5ed bdbb
000000e0: 429c 1c3c ccdf c53c 4cf0 513d 26c2 113b
000000f0: 7eb6 12bd 0b02 debc e67b 2bbd 3722 9c3c

linear_relu_stack.8.weight f4 [32, 64]
-0.09429626 -0.066991806 -0.09002755 0.11571729 0.08616319 -0.04077148 0.007722814 -0.02940112
-0.054377712 0.051748697 0.04869827 -0.07059092 -0.026740037 0.06005249 -0.0912322 -0.029778088
0.0812099 0.06090883 -0.01300919 0.05755652 0.09499924 0.018741429 -0.13190798 -0.03737033
0.038341105 -0.0070277317 -0.040251292 0.11350192 -0.15177777 -0.108021624 0.067660935 0.014335524
0.09497936 -0.06496046 0.0814469 0.08957993 -0.05470672 0.054317582 0.027773114 -0.12740004
0.0017988575 -0.0024345645 -0.15453443 -0.14337568 0.008763509 -0.11526963 -0.010461323 -0.1641864
0.0035251093 0.011754263 -0.0101215765 0.011756077 0.113894224 -0.0749805 -0.032525983 -0.017304622
0.021107147 0.029387183 -0.005124944 0.005678517 -0.03648116 -0.114804454 0.09457691 0.032488782
0.13080516 -0.043882087 0.048743095 0.068978325 0.062360693 -0.13173583 0.14076859 -0.035333756
-0.097110964 -0.05385792 -0.03732238 -0.00013200179 -0.11121571 0.031175498 0.07665934 -0.070261516
-0.12505546 0.05150025 -0.11659186 0.044212148 0.07084528 0.015651308 -0.0028362179 0.035799123
0.054978598 0.11630452 -0.03720844 0.051007602 0.01094092 0.08756976 0.042153485 -0.09913828
0.087994814 0.12185559 -0.15842335 0.057121467 -0.11829847 0.053993847 0.039149255 -0.07819759
-0.14661996 0.11079205 -0.033375304 -0.041212287 0.10450172 0.040432546 -0.037337847 -0.11776782
-0.01802911 -0.1756376 -0.06815411 0.022062803 0.104857 -0.08564927 -0.03515563 0.11508873
0.03963229 -0.116579734 0.058563255 0.07013646 -0.12192233 0.09804719 -0.0040354137 -0.06161918
-0.040404156 0.030967422 0.08017214 0.14469808 -0.01360575 -0.06614952 -0.15008497 0.13246536
0.04915884 0.060762703 0.14997168 -0.057936393 0.04973553 -0.0006974435 0.08256532 0.113352835
-0.16486914 0.04100207 -0.068473734 0.006018166 -0.023063928 0.027881768 0.0056965733 -0.020181492
0.011272263 0.116752096 0.075456336 0.0086380225 -0.092115246 0.06716117 0.13299449 0.056561727
0.029312853 -0.07876661 0.04147702 0.13259803 -0.043261986 0.019176796 0.0039487164 -0.076297686
0.15680686 -0.06475636 -0.079671785 0.061120167 0.004034678 -0.059196215 0.041964304 -0.07400361
-0.010046687 0.018879192 -0.117914334 -0.09266743 -0.11614094 0.06382892 0.041885562 -0.08550056
0.04486042 0.016077373 -0.041561842 -0.17205215 -0.07076241 -0.006025563 0.029590998 0.039540544
0.11750074 -0.04862732 -0.020151317 0.037542176 -0.11941532 0.008135881 -0.0044414666 0.056227226
0.08836625 -0.0083008995 -0.030181203 0.041876785 -0.054189503 -0.049245987 0.10810028 -0.111713216
0.048427396 0.17723913 0.14632241 0.10006087 -0.041755415 -0.009627779 0.11125057 0.114906125
0.039136205 0.13268296 0.0122122085 -0.036838897 -0.05730444 -0.092929855 0.033890706 0.045955405
-0.11661971 0.04140171 0.07847196 0.045131452 -0.1596475 -0.05034138 0.032835737 0.19900948
-0.14423145 -0.01414024 0.10231741 -0.12684298 0.050082013 -0.09423587 0.010249558 -0.013801358
-0.12735386 -0.025046984 -0.033597223 -0.19365883 0.016572062 -0.034591995 -0.08890285 -0.0547154
-0.02903554 -0.100053154 0.12114861 0.102853574 -0.019406924 0.12649941 0.06597512 -0.019471526
00000000: 661e c1bd 0033 89bd 5d60 b8bd 30fd ec3d
00000010: 5476 b03d ffff 26bd a90f fd3b 9eda f0bc
00000020: 2abb 5ebd 71f6 533d d677 473d f991 90bd
00000030: ec0d dbbc 9af9 753d f3d7 babd 2df1 f3bc
00000040: 6051 a63d 8a7b 793d 7f24 55bc 63c0 6b3d
00000050: f68e c23d a087 993c e312 07be a211 19bd
00000060: 900b 1d3d e348 e6bb 8ade 24bd b273 e83d
00000070: a26b 1bbe 713a ddbd d191 8a3d 8cdf 6a3c
00000080: 8a84 c23d fd09 85bd a2cd a63d af75 b73d
00000090: 2714 60bd 1d7c 5e3d 7184 e33c 2875 02be
000000a0: a4c7 eb3a 378d 1fbb 463e 1ebe 13d1 12be
000000b0: d294 0f3c 7c12 ecbd f865 2bbc 7b20 28be
000000c0: 8505 673b f494 403c f8d4 25bc 909c 403c
000000d0: 6041 e93d 608f 99bd f739 05bd 6cc2 8dbc
000000e0: e5e8 ac3c 64bd f03c 25ef a7bb da12 ba3b
000000f0: 456d 15bd 991e ebbd 8ab1 c13d f512 053d
00000100: caf1 053e b4bd 33bd d7a6 473d 8244 8d3d
00000110: ed6d 7f3d c2e5 06be a425 103e 21ba 10bd
00000120: 1de2 c6bd 1f9a 5cbd 5adf 18bd f669 0ab9
00000130: 10c5 e3bd c263 ff3c 92ff 9c3d 45e5 8fbd
00000140: 8a0e 00be edf1 523d b7c7 eebd cc17 353d
00000150: 5517 913d 2c37 803c d7df 39bb 1aa2 123d
00000160: 3d31 613d 1031 ee3d e167 18bd 59ed 503d
00000170: 8b41 333c c657 b33d 22a9 2c3d 0309 cbbd
00000180: a036 b43d 6c8f f93d bb39 22be 33f8 693d
00000190: 7846 f2bd a728 5d3d f85a 203d 0f26 a0bd
000001a0: 8b23 16be f1e6 e23d 8bb4 08bd 37ce 28bd
000001b0: ff04 d63d 999c 253d 92ef 18bd 4130 f1bd
000001c0: c9b1 93bc 58da 33be 6294 8bbd 0dbd b43c
000001d0: 44bf d63d e268 afbd 5aff 0fbd a4b3 eb3d
000001e0: 7855 223d 5bc1 eebd 06e0 6f3d b4a3 8f3d
000001f0: 6ab2 f9bd f7cc c83d 813b 84bb 6564 7cbd
00000200: d47e 25bd 64af fd3c 4a31 a43d bc2b 143e
00000210: a7ea 5ebc 6679 87bd e0af 19be 00a5 073e
00000220: c85a 493d 50e2 783d 2d92 193e b64e 6dbd
00000230: 7cb7 4b3d a4d4 36ba 0218 a93d 8825 e83d
00000240: 75d3 28be c9f1 273d f53b 8cbd 0934 c53b
00000250: 90f0 bcbc 4e68 e43c 52aa ba3b a853 a5bc
00000260: 4caf 383c b91b ef3d da88 9a3d 7e86 0d3c
00000270: eba6 bcbd cc8b 893d b52f 083e 45ad 673d
00000280: 8221 f03c 6350 a1bd cfe3 293d c7c7 073e
00000290: 7b33 31bd a818 9d3c 3c64 813b f641 9cbd
000002a0: fa91 203e fc9e 84bd f62a a3bd 2459 7a3d
000002b0: 5535 843b bb77 72bd c3e2 2b3d 348f 97bd
000002c0: dc9a 24bc 89a8 9a3c 127d f1bd 6cc8 bdbd
000002d0: 4ddb edbd bdb8 823d 3290 2b3d eb1a afbd
000002e0: 8fbf 373d b2b4 833c c03c 2abd 702e 30be
000002f0: e2eb 90bd 1672 c5bb d268 f23c 44f5 213d
00000300: 3aa4 f03d 712d 47bd 6014 a5bc d3c5 193d
00000310: 0590 f4bd 5c4c 053c b989 91bb 854e 663d
00000320: 5df9 b43d 7f00 08bc 923e f7bc fe86 2b3d
00000330: d0f5 5dbd 29b6 49bd ae63 dd3d e6c9 e4bd
00000340: ce5b 463d 2d7e 353e 8bd5 153e b7ec cc3d
00000350: ba07 2bbd d5bd 1dbc 57d7 e33d e753 eb3d
00000360: 494d 203d 0bde 073e b715 483c 62e4 16bd
00000370: 0fb8 6abd 0252 bebd fbd0 0a3d bc3b 3c3d
00000380: 51d6 eebd d794 293d e8b5 a03d c2db 383d
00000390: a27a 23be c332 4ebd c47e 063d 24c9 4b3e
000003a0: 69b1 13be 77ac 67bc ca8b d13d 20e3 01be
000003b0: cc22 4d3d bcfe c0bd c3ed 273c 171f 62bc
000003c0: 0d69 02be 552f cdbc 3e9d 09bd 804e 46be
000003d0: 22c2 873c 56b0 0dbd b312 b6bd 411d 60bd
000003e0: f1db edbc abe8 ccbd c31c f83d e5a4 d23d
000003f0: 45fb 9ebc 1089 013e f71d 873d c082 9fbc

linear_relu_stack.8.bias f4 [32]
-0.100274555 0.05349837 -0.06660701 0.057853777 -0.04812564 0.022495704 0.045474064 0.010349625
0.06802392 -0.06745813 0.05101952 -0.030336693 -0.050702054 0.0074012205 0.09586164 -0.041904975
0.10320673 0.10365004 -0.045622986 -0.10273542 -0.016614297 -0.069607265 0.05562947 -0.014557473
0.0027355552 0.026153572 -0.0024505104 -0.07336804 0.10550171 0.032788657 0.032934114 -0.07746989
00000000: bf5c cdbd 1b21 5b3d 4269 88bd 15f8 6c3d
00000010: 641f 45bd e948 b83c 0343 3a3d 7991 293c
00000020: 2050 8b3d 7d27 8abd d8f9 503d a884 f8bc
00000030: f5ac 4fbd f085 f23b 1c53 c43d 8da4 2bbd
00000040: 0d5e d33d 7946 d43d 2bdf 3abd f366 d2bd
00000050: b51a 88bc 418e 8ebd badb 633d 7882 6ebc
00000060: 0047 333b 0440 d63c be98 20bb fc41 96bd
00000070: 4811 d83d 664d 063d ece5 063d 89a8 9ebd

linear_relu_stack.10.weight f4 [1, 32]
-0.06977473 0.13348928 0.18512794 -0.19906494 0.053200535 -0.0009727141 -0.045443766 0.15389776
-0.048716486 -0.10714561 -0.09504592 0.11700724 0.17527783 0.21161112 -0.05166592 -0.11137778
-3.615877e-05 0.14693263 -0.067204595 0.08331754 -0.14863694 0.12827943 -0.0056251423 -0.1531978
0.083156474 0.064773805 0.022073114 0.004047519 0.10714077 -0.10494324 -0.17828363 0.00011053891
00000000: 0ee6 8ebd 6ab1 083e 2e92 3d3e aed7 4bbe
00000010: cee8 593d bdfd 7eba 3e23 3abd 6097 1d3e
00000020: f08a 47bd 286f dbbd 6fa7 c2bd 7ea1 ef3d
00000030: 087c 333e 96b0 583e a59f 53bd 091a e4bd
00000040: 2fa9 17b8 8275 163e 90a2 89bd 63a2 aa3d
00000050: 4834 18be af5b 033e 1d53 b8bb e2df 1cbe
00000060: f14d aa3d 21a8 843d add2 b43c 0da1 843b
00000070: 9f6c db3d 7bec d6bd fc8f 36be 20d1 e738
