model/pendulum_model_5.pth (torch, 88706 bytes, 11 tensors)

linear_relu_stack.0.weight f4 [32, 3]
0	0x3ef5fc11	0.48043874
1	0xbf058cc4	-0.52167916
2	0x3e8c0e8d	0.2735485
3	0x3f07f0ed	0.53102
4	0xbe5e9b4e	-0.21738932
5	0x3e114e0c	0.14189929
6	0xbeba1ef2	-0.36351734
7	0x3d46ee95	0.048567373
8	0x3e88487e	0.26617807
9	0xbdcf1a34	-0.1011242
10	0x3efdff96	0.4960906
11	0xbd5effd1	-0.054443184
12	0xbe05e241	-0.1307459
13	0x3ec960da	0.39331704
14	0x3e996eda	0.29967386
15	0xbe7a462b	-0.2444083
16	0xbded1155	-0.115755714
17	0xbe92a144	-0.2863866
18	0xbed11667	-0.40837404
19	0x3e9395a4	0.28825104
20	0xbee38b01	-0.4444199
21	0x3ecc08d2	0.3985048
22	0xbec29a11	-0.38008168
23	0xbeb48fa5	-0.35265842
24	0x3f0afc97	0.5429167
25	0x3f0639f6	0.5243219
26	0x3ec3b22e	0.38221878
27	0x3e544262	0.20728448
28	0xbef1d6a9	-0.47234085
29	0x3c8b68c3	0.017017728
30	0x3ed50f0b	0.4161304
31	0xbec7e850	-0.39044428
32	0xbf007f66	-0.50194395
33	0xbec59529	-0.38590363
34	0xbb911ed0	-0.004428722
35	0xbf122884	-0.5709307
36	0xbf038109	-0.5136877
37	0xbdcc32c6	-0.09970622
38	0xbe7d16b2	-0.24715689
39	0x3e2f79aa	0.17136255
40	0xbee23641	-0.44182017
41	0x3e23ea32	0.16007307
42	0xbbb94014	-0.0056533907
43	0xbe8aa4a8	-0.27078748
44	0xbeae6d5a	-0.34067804
45	0xbdd48405	-0.10376743
46	0x3e395a79	0.18100919
47	0xbe6fb350	-0.23408246
48	0xbee58cf3	-0.44834098
49	0xbe4c8588	-0.19972813
50	0xbee91bf8	-0.4552915
51	0x3ef0bd4a	0.47019416
52	0x3edadd23	0.4274684
53	0xbe5c9c5e	-0.21544024
54	0x3e037dbf	0.12840937
55	0xbe32e38a	-0.17469612
56	0x3d6bdab6	0.057581626
57	0xbd99890e	-0.07496844
58	0xbec48a66	-0.3838684
59	0x3eeaab47	0.458338
60	0x3ede8793	0.4346281
61	0xbea6bc92	-0.32565743
62	0x3e34b65b	0.17647688
63	0xbeeaf747	-0.45891783
64	0x3de00f15	0.10940377
65	0x3eecc9aa	0.46247607
66	0x3e84b3f6	0.2591855
67	0xbe24f445	-0.16108806
68	0x3dfe0eb9	0.12405152
69	0x3ee31175	0.44349256
70	0xbde36630	-0.11103475
71	0xbc55c18c	-0.013046633
72	0x3ec9c3f4	0.39407313
73	0x3f12b476	0.5730661
74	0xbe940c8c	-0.28915823
75	0x3e89a9de	0.2688741
76	0x3d903e96	0.07043187
77	0xbec014cc	-0.37515867
78	0xbe96f57a	-0.2948416
79	0x3ebb8860	0.36627483
80	0xbf1241dd	-0.5713175
81	0x3ee820c5	0.453375
82	0x3ec38c22	0.3819285
83	0xbf019b57	-0.50627655
84	0xbe939b44	-0.28829396
85	0x3d121a95	0.03566988
86	0xbf097792	-0.53698075
87	0xbea2c18f	-0.31788298
88	0x3efe52ea	0.49672633
89	0xbe93ab00	-0.288414
90	0xbee636a2	-0.44963557
91	0xbee80610	-0.45317125
92	0x3dbf2f92	0.09335245
93	0xbefce57d	-0.49393836
94	0xbed065b3	-0.4070259
95	0x3d89a7e8	0.06721479

linear_relu_stack.0.bias f4 [32]
0	0x3edaef54	0.42760718
1	0xbe3973a6	-0.18110523
2	0xbeeb2ac6	-0.4593107
3	0xbde7bc12	-0.113151684
4	0xbe92cf5d	-0.2867383
5	0x3d7ae9a3	0.06125797
6	0x3c5bd3af	0.0134171685
7	0x3e8b6d9d	0.27232066
8	0x3eb5b920	0.35492802
9	0x3f17de21	0.59323317
10	0xbc180e99	-0.009280824
11	0x3dd4e318	0.10394877
12	0xbdd3220a	-0.10309227
13	0x3e765ed7	0.24059616
14	0x3edcedd8	0.4315021
15	0x3dc90385	0.098151244
16	0xbe8a6b93	-0.27035198
17	0xbc87b0e2	-0.016563836
18	0x3de0fa8e	0.109852895
19	0x3edd3de9	0.43211296
20	0xbee89375	-0.45425
21	0x3f0c42d8	0.54789495
22	0x3ef74c8b	0.48300585
23	0x3ef45dc4	0.47727787
24	0xbe98ecc3	-0.29868135
25	0xbea43469	-0.32071236
26	0xbefe92ec	-0.49721467
27	0x3d16aea2	0.036787637
28	0x3f095a5c	0.536535
29	0x3cb0cbe7	0.021581603
30	0x3da5970e	0.08085452
31	0x3ed71dde	0.42014974

linear_relu_stack.2.weight f4 [64, 32]
0	0x3dca9980	0.09892559
1	0x3e2d1aaf	0.1690471
2	0xbd3c81a5	-0.046022076
3	0xbd3943f6	-0.04523083
4	0x3e332e2e	0.17498085
5	0x3e030619	0.12795295
6	0xbdef54b3	-0.11686077
7	0x3dafcec0	0.08584356
8	0xbdcbc760	-0.09950137
9	0x3d7c513e	0.061600916
10	0x3ca70760	0.020389259
11	0xbda42223	-0.080143236
12	0xbbba3341	-0.0056823795
13	0x3e5f5b9c	0.2181229
14	0x3dd08ba2	0.10182883
15	0x3e34ea65	0.1766754
16	0xbd61faaf	-0.05517071
17	0xbde040cd	-0.1094986
18	0xbc8fce5a	-0.01755445
19	0x3d4ff2a5	0.050768513
20	0xbc766d3c	-0.015040692
21	0xbe244b5a	-0.1604437
22	0xbe3cb3b1	-0.18427922
23	0x3bbf1166	0.0058309315
24	0xbd5a9ca2	-0.053372033
25	0x3dfbb7b2	0.122908965
26	0xbb8c7460	-0.004286334
27	0x3c6546b2	0.013993906
28	0xbd93d3b5	-0.07218114
29	0xbc683c79	-0.014174574
30	0x3c465232	0.012104558
31	0x3e04946e	0.12947246
32	0xbe2e1a1c	-0.17002147
33	0xbe0e4e29	-0.13897003
34	0x3d1ec60e	0.0387631
35	0x39c53dca	0.00037620805
36	0x3d2620d8	0.040558666
37	0x3e3fbad3	0.18723612
38	0x3c831016	0.015998881
39	0x3df02c2e	0.117271766
40	0x3de2f2b1	0.11081446
41	0x3c7b7d57	0.015349708
42	0x3e25bcaf	0.16185258
43	0xbd6d5a87	-0.05794766
44	0x3e24a7dd	0.1607966
45	0x3db4ecef	0.08834254
46	0x3e20aefd	0.15691753
47	0x3e1ef28e	0.15522215
48	0xbb6dcfdd	-0.0036287226
49	0xbe03b700	-0.12862778
50	0xbe0dd0bc	-0.13849157
51	0x3cf9bddc	0.03048604
52	0x3dec0406	0.11524205
53	0xbc8a88b4	-0.016910888
54	0x3d7c770e	0.061636977
55	0xbd0a9c63	-0.03384055
56	0xbe4f583b	-0.20248501
57	0x3dad43f5	0.084602274
58	0xbc51c205	-0.0128026055
59	0x3b93e7ea	0.0045137303
60	0x3dc055cf	0.09391367
61	0x3c44f41c	0.012021091
62	0x3e46ecbf	0.19426249
63	0xbd9ec968	-0.07753259
64	0x3e291098	0.16510236
65	0xbc8f57d8	-0.017497942
66	0xbda64754	-0.081190735
67	0xbcdb15a9	-0.026743727
68	0x3dc80fed	0.097686626
69	0xbda41607	-0.08012014
70	0x3e021442	0.1270304
71	0xbd0ae957	-0.033913936
72	0x3d22c7c8	0.039741307
73	0xbd0ab18e	-0.033860736
74	0xbd771790	-0.060325205
75	0xbe182e2e	-0.14861366
76	0x3d6c1779	0.057639573
77	0x3e16c233	0.14722519
78	0x3e4c5b2d	0.19956656
79	0xbe1dcc35	-0.1540993
80	0x3e0d3e8e	0.13793394
81	0xbe38e72d	-0.18056937
82	0x3e3a2c8f	0.1818106
83	0xbde8f756	-0.113753006
84	0xbd34548e	-0.04402595
85	0x3d82fc97	0.06395834
86	0x3d68b38d	0.056811858
87	0x3dc58d8a	0.09646137
88	0xbe54f88d	-0.2079794
89	0xbdd59d23	-0.10430362
90	0x3d31aa1e	0.043375127
91	0xbe540cb7	-0.20707975
92	0x3df068a3	0.11738708
93	0xbe506158	-0.20349634
94	0xbde0b9c8	-0.10972935
95	0xbd115551	-0.035481755
96	0xbe00a161	-0.12561561
97	0x3e10b0c9	0.14129938
98	0x3d847cf5	0.06469146
99	0xbd832607	-0.064037375
100	0xbd92fcd3	-0.07177129
101	0x3d02a648	0.03189686
102	0x3e466092	0.19372776
103	0xbd24ad76	-0.040204488
104	0x3e184a9a	0.14872208
105	0xbe27720c	-0.16352099
106	0x3db6027e	0.08887194
107	0xbc0718e6	-0.008245682
108	0x3c774633	0.01509242
109	0x3e1f8887	0.15579425
110	0x3dba055c	0.090830535
111	0xbd6de531	-0.058079902
112	0x3d71ad3c	0.0590031
113	0x3c99add7	0.018759651
114	0x3ce5996e	0.028027263
115	0xbca46f1e	-0.020072516
116	0x3dc30484	0.09522346
117	0x3e0a95b3	0.13533668
118	0x382c6ea3	4.1111034e-05
119	0x3d142b2e	0.03617399
120	0xbd5b37af	-0.0535199
121	0x3cba8523	0.022768563
122	0x3df08776	0.11744587
123	0x3d9de7f8	0.0771026
124	0x3e272a98	0.16324842
125	0x392fe700	0.00016775355
126	0xbd2dc0c7	-0.042420175
127	0xbe081bf0	-0.13291907
128	0xbdc1a182	-0.09454633
129	0xbe2cdbf0	-0.16880774
130	0x3dde098a	0.10841663
131	0xbe27b0eb	-0.16376083
132	0x3d7f4b98	0.06232795
133	0x3c241c31	0.010016487
134	0xbe0b7bdf	-0.13621472
135	0xbe0eddf0	-0.1395185
136	0xbe1a7f1d	-0.15087552
137	0x3da01ea3	0.078183435
138	0xbd838792	-0.06422342
139	0x3da2b6f0	0.07945049
140	0x3d42c2c0	0.04754901
141	0x3e22116e	0.15826961
142	0xbdb853df	-0.09000372
143	0x3e512f5a	0.2042822
144	0xbe3aa72e	-0.18227836
145	0xbe46ae49	-0.19402422
146	0xbe17cccc	-0.14824218
147	0x3db8ce10	0.09023678
148	0xbe15af9e	-0.14617774
149	0x3de25cbb	0.11052843
150	0xbe255455	-0.16145451
151	0x3dd6267c	0.10456559
152	0xbdfe8e0a	-0.124294356
153	0xbdf60a1b	-0.12013646
154	0x3da8994b	0.08232363
155	0xbe292800	-0.16519165
156	0x3e230d86	0.15923128
157	0xbd2c06e3	-0.041998755
158	0x3d971e27	0.07378798
159	0xbe4c086f	-0.19925092
160	0xbde06eb2	-0.109586135
161	0x3cb7c784	0.022434004
162	0xbdf76563	-0.12079885
163	0x3daac54e	0.08338414
164	0xbd894298	-0.06702155
165	0xbe0a0e15	-0.13481934
166	0xbd28414b	-0.041077893
167	0x3de7ec45	0.11324362
168	0x3dd23a8a	0.10265072
169	0x3e20a583	0.15688138
170	0xbe20b14b	-0.15692632
171	0x3ddc38a0	0.10752988
172	0xbd88313d	-0.066500165
173	0x3c6b84da	0.014374936
174	0xbe355638	-0.17708671
175	0xbdfb07a2	-0.12257315
176	0xbdfe6401	-0.12421418
177	0x3e26765a	0.16256085
178	0x3ac7f038	0.0015254086
179	0x3ddeea95	0.10884587
180	0x3d63490e	0.055489592
181	0x3de36713	0.11103644
182	0x3e376f48	0.17913544
183	0x3e349518	0.17635
184	0x3e0abe11	0.13549067
185	0x3d2e6e0e	0.042585425
186	0x3e0e7718	0.13912618
187	0xbd87b21f	-0.06625771
188	0x3db9a158	0.09063977
189	0x3e0c4974	0.13699895
190	0x3e164ebe	0.14678475
191	0xbd76a80e	-0.060218863
192	0x3d6aadfb	0.057294827
193	0x3ded3c98	0.11583823
194	0xbe0cae5d	-0.1373839
195	0xbd80a0be	-0.06280659
196	0xbe1af69d	-0.15133138
197	0x3e14c460	0.14528036
198	0x3e2abc02	0.16673282
199	0x3e265edf	0.16247128
200	0x3d6487f6	0.055793725
201	0x3e1ffeed	0.1562459
202	0xbe03aba1	-0.1285844
203	0xbcc29728	-0.023753718
204	0xbd3da401	-0.046298984
205	0x3d75dac0	0.06002307
206	0x3daaad10	0.0833379
207	0x3db75f49	0.08953721
208	0xbdaf4131	-0.08557356
209	0xbcfec810	-0.031101257
210	0x3d715a57	0.058924045
211	0xbe409937	-0.18808447
212	0x3e1e6de7	0.15471612
213	0xbd3eeebf	-0.046614405
214	0x3dbd4935	0.09242479
215	0x3e15afa3	0.14617781
216	0xbde93b70	-0.1138829
217	0xbd6c3f3b	-0.05767749
218	0x3dcef231	0.10104788
219	0x3d200351	0.039065663
220	0x3e1e2986	0.15445527
221	0x3de99ecd	0.11407242
222	0x3da864a6	0.08222322
223	0x3e52faec	0.20603532
224	0x3c6eafeb	0.014568309
225	0x3d7b816a	0.061402716
226	0xbd91dcbc	-0.0712218
227	0xbe0c1a2e	-0.13681862
228	0x3dcc72ad	0.0998281
229	0xbd3c8e3f	-0.046034094
230	0x3e18bfef	0.14916967
231	0xbcac082e	-0.020999994
232	0xbb85038b	-0.0040592602
233	0x3dd6f1f6	0.10495369
234	0x3dca2114	0.098695904
235	0x3e292260	0.1651702
236	0x3d7a0d6f	0.061047968
237	0xbd056d41	-0.032574896
238	0x3e0bc4e0	0.1364932
239	0x3dcbbe1d	0.099483706
240	0x3d483951	0.048882786
241	0xbe1b7300	-0.15180588
242	0x3c217f80	0.0098570585
243	0x3d64b8ff	0.05584049
244	0xbd82d888	-0.06388956
245	0xbdf6e7d6	-0.12055938
246	0xbdfaa14b	-0.122377954
247	0x3e1b9638	0.15194023
248	0xbe3c6853	-0.18399172
249	0xbc6a691b	-0.014307286
250	0xbe09923b	-0.13434689
251	0x3de39f3e	0.111143574
252	0x3d897524	0.06711796
253	0x3b93c8e0	0.00451003
254	0x3e44e507	0.19227992
255	0xbca6e030	-0.020370573

linear_relu_stack.2.bias f4 [64]
0	0xbe0ebbc8	-0.1393882
1	0xbd92a524	-0.07160404
2	0xbd9e043e	-0.07715653
3	0xbb2b2fb8	-0.0026120972
4	0x3df1f7e8	0.118148625
5	0x3dad9bce	0.08476983
6	0x3d86a67a	0.06574722
7	0xbe316a96	-0.17325816
8	0xbb94425c	-0.004524512
9	0xbe0a971d	-0.13534208
10	0xbdff284c	-0.12458858
11	0x3d8c6e6f	0.06857001
12	0xbe45a885	-0.19302566
13	0x3d7757b5	0.06038638
14	0xbc894be1	-0.016759815
15	0xbdfebb5a	-0.12438078
16	0xbcf8ff83	-0.030395275
17	0x3dfd3a39	0.12364621
18	0xbde46ea5	-0.11153916
19	0xbd309080	-0.043106556
20	0xbe1dbade	-0.15403315
21	0xbe0d7529	-0.13814224
22	0xbddbf22b	-0.10739549
23	0x3d9d3a08	0.07677084
24	0xbd9f14ff	-0.077676766
25	0xbcba0cb3	-0.022711134
26	0x3da15c78	0.07878965
27	0xbe1bf6e4	-0.152309
28	0xbc2a5062	-0.010395141
29	0x3e0dca09	0.13846602
30	0xbd9abe7e	-0.07555865
31	0x3d87fd3e	0.06640099
32	0xbe1a1e1c	-0.15050548
33	0x3e16023c	0.1464929
34	0x3d91d34c	0.0712038
35	0xbd7ee5ae	-0.06223076
36	0xbe121b3c	-0.14268202
37	0xbcf7ff89	-0.030273216
38	0xbcead232	-0.028664682
39	0xbdcde3e0	-0.10053229
40	0xbe2f36f1	-0.17110802
41	0x3e4c30d5	0.19940503
42	0xbd343cd5	-0.044003326
43	0x3dc93fbf	0.09826612
44	0x3d66fb05	0.056391735
45	0xbc7fb46c	-0.015606981
46	0x3ddfe517	0.10932367
47	0xbc60508b	-0.013691078
48	0x3df3e6c3	0.11909249
49	0xbcb1cc6e	-0.021703925
50	0xbd7725f9	-0.060338948
51	0xbd356d1c	-0.044293508
52	0xbbb9bf80	-0.0056685805
53	0xbdad93c3	-0.08475449
54	0x3dc2115a	0.09475966
55	0xbcb90032	-0.022583101
56	0x3cda0e39	0.02661811
57	0xbdde4bca	-0.10854299
58	0x3e0c57c3	0.13705353
59	0xbe2dea2e	-0.16983864
60	0xbe2ee1d7	-0.17078339
61	0xbe0f5a18	-0.13999212
62	0x3dcbf2fb	0.09958454
63	0x3dc4e2f4	0.096136004

linear_relu_stack.4.weight f4 [128, 64]
0	0x3df4deee	0.11956583
1	0xbd998daf	-0.07497727
2	0x3e09dff0	0.13464332
3	0xbdeb264a	-0.114819124
4	0x3bbe8b4b	0.005814945
5	0x3d0bf5e2	0.03417004
6	0x3d8b7809	0.06810004
7	0x3cf59a9e	0.029980954
8	0xbdefabb0	-0.11702669
9	0xbb1f11e6	-0.0024272143
10	0x3d92d34e	0.071692094
11	0x3d6bef14	0.05760105
12	0x3d98808c	0.07446393
13	0x3dcdd37e	0.100501046
14	0xbcf4aa40	-0.029866338
15	0xbde6b98a	-0.112658575
16	0xbd9e543d	-0.07730911
17	0x3dba3083	0.09091284
18	0x3d68533c	0.056720003
19	0xbda7df2d	-0.08196864
20	0x3dfccedf	0.12344145
21	0xbd2c6f22	-0.042098172
22	0x3dab770b	0.08372315
23	0x3d167429	0.036731873
24	0xbd0cb7bf	-0.03435492
25	0x3dd95f71	0.10613907
26	0xba8a66f3	-0.0010559246
27	0xbd38fa25	-0.04516043
28	0x3d9c82d6	0.076421425
29	0xbdf4e28a	-0.119572714
30	0x3de5488b	0.11195477
31	0x3e1aa2c3	0.15101151
32	0x3dbed762	0.09318425
33	0x3ddccbc1	0.107810505
34	0x3bf790e9	0.0075551164
35	0xbde5308a	-0.11190899
36	0x3d2507d4	0.04029067
37	0x3d687fb7	0.056762423
38	0x3c0288fb	0.007967229
39	0xbdc9345f	-0.09824442
40	0x3d2939e0	0.04131496
41	0xbcd2b49a	-0.025720883
42	0xbdf380b5	-0.11889783
43	0xbd76e21f	-0.06027424
44	0x3cedcce9	0.029028373
45	0x3cd2ea89	0.0257466
46	0x3c9400dc	0.018066816
47	0xbdc91fb7	-0.09820502
48	0x3d14df7e	0.03634595
49	0x3d9df76c	0.077132076
50	0xbdee44a7	-0.11634188
51	0xbd503e13	-0.05084045
52	0xbd258f75	-0.040420014
53	0x3d47d3d5	0.048786003
54	0x3dd206e2	0.10255219
55	0xbd8d6906	-0.06904797
56	0xbc740750	-0.014894322
57	0x3b9f1cb6	0.0048557175
58	0xbcdd7fbd	-0.02703845
59	0x3d07029d	0.032961477
60	0x3d4efa21	0.05053151
61	0x3be48005	0.006973269
62	0x3df462ab	0.11932882
63	0x3dd8393c	0.105577916
64	0xbd892fe3	-0.06698587
65	0x3e05160b	0.1299669
66	0x3deecf91	0.11660684
67	0x3d760842	0.06006647
68	0x3daf31c1	0.08554412
69	0x3d21f248	0.039537698
70	0xbc2ca536	-0.010537436
71	0x3d73afa4	0.059493676
72	0xbd3b22e6	-0.04568758
73	0x3ce43c3b	0.027860751
74	0xbdb1b904	-0.08677867
75	0xbdb19ddf	-0.0867269
76	0xbdd82cfc	-0.10555455
77	0x3d3b02bb	0.0456569
78	0x3d3bc445	0.045841474
79	0xbda30884	-0.079606086
80	0xbcaf5a66	-0.02140541
81	0x3dadf306	0.08493619
82	0x3d5dedf9	0.054182027
83	0xbcaa0ca5	-0.020757983
84	0xbd91d125	-0.07119969
85	0x3d8f7439	0.070045896
86	0x3cde055a	0.027102161
87	0x3c25031c	0.010071542
88	0xbdc26f79	-0.09493918
89	0x3dbb70a2	0.091523424
90	0xbc5dd1fa	-0.013538832
91	0x3dfbc209	0.12292869
92	0xbdea4149	-0.114382334
93	0x3dfe01ef	0.124027126
94	0xbdb5ff4c	-0.08886585
95	0xbcc1964c	-0.023631237
96	0xbd728b65	-0.05921497
97	0x3d55d0f4	0.052201226
98	0x3cca5ed8	0.024703428
99	0x3e493348	0.19648468
100	0x3e159b9c	0.14610142
101	0x3d4ed7e4	0.050498858
102	0x3df07690	0.11741364
103	0xbb4bb7f9	-0.0031084998
104	0x3df284f3	0.11841764
105	0x3c30871f	0.010774403
106	0x3e2ee6fe	0.17080304
107	0x3d8de42a	0.069282845
108	0xbd23e194	-0.04001005
109	0xbdf285c6	-0.118419215
110	0xbc20a259	-0.009804332
111	0xbe286918	-0.1644634
112	0xbd10f166	-0.035386465
113	0x3d5562f7	0.052096333
114	0x3e2b8151	0.16748549
115	0xbdd3a136	-0.10333483
116	0xbca16ddc	-0.019705705
117	0x3d985f46	0.07440047
118	0x3e0ecb8c	0.13944834
119	0xbda84abc	-0.082173795
120	0x3d2cf9fa	0.042230584
121	0x3d98aa9d	0.07454417
122	0x3d3404e7	0.043949988
123	0x3dbfec25	0.09371213
124	0xbe077e4b	-0.1323177
125	0xbc199a93	-0.009375232
126	0x3ccb133d	0.024789447
127	0x3d9e363f	0.0772519
128	0x3d233b4c	0.03985147
129	0x3dbff90e	0.09373675
130	0x3c27f28a	0.010250697
131	0x3d150122	0.036378033
132	0x3e046749	0.12930025
133	0xbd552c06	-0.052043937
134	0xbc01068f	-0.007875099
135	0xbd880faa	-0.06643613
136	0x3db133e2	0.08652474
137	0x3d856553	0.06513467
138	0xbbe824d0	-0.0070844665
139	0xbd6d2b3d	-0.057902563
140	0xbcfd734d	-0.030938769
141	0x3d56c40a	0.05243305
142	0x3dda2047	0.10650688
143	0xbdfdc878	-0.12391752
144	0xbbb30527	-0.0054632607
145	0xbd1a6ca5	-0.037701268
146	0xbd88c47a	-0.066781
147	0x3d7cf9c6	0.06176164
148	0xba3f2b5b	-0.0007292532
149	0x3d8ecd14	0.06972709
150	0xbc30b3c1	-0.010785044
151	0x3c6d2f5f	0.014476626
152	0xbde9b934	-0.11412278
153	0x3d8af754	0.06785455
154	0x3d50c6c4	0.050970808
155	0x3ca7b8e1	0.0204739
156	0x3d1a53c8	0.037677556
157	0x3dac9dd9	0.084285446
158	0xbddbd015	-0.10733048
159	0x3c875d8b	0.016524097
160	0x3e008a1d	0.12552686
161	0x3d20f636	0.039297305
162	0x3da3074e	0.07960378
163	0xbbb64181	-0.005562008
164	0x3cd8a315	0.026444951
165	0xbd1b1c81	-0.03786898
166	0x3c96d450	0.018411785
167	0x3d84ccb7	0.06484359
168	0xbd0e1630	-0.03468913
169	0xbccd30a1	-0.025047602
170	0xbc761a15	-0.015020867
171	0x3cd6332b	0.026147446
172	0xbda56dd4	-0.08077589
173	0x3d97b019	0.07406635
174	0xbda920e4	-0.082582265
175	0x3cff8909	0.031193273
176	0x3d17dc6e	0.037075453
177	0x3b20d72d	0.0024542317
178	0xbc26a685	-0.010171537
179	0x3d512919	0.051064584
180	0xbe074de8	-0.13213313
181	0x3d599de1	0.05312908
182	0xbdbba8ee	-0.0916308
183	0xbcdae437	-0.02672015
184	0x3cc24009	0.023712175
185	0x3d969dcc	0.07354316
186	0xbcf8827b	-0.030335655
187	0x3d8c5693	0.0685245
188	0x3db0581e	0.08610557
189	0xbccccca7	-0.02499993
190	0x3e041250	0.1289761
191	0x3d7f2672	0.062292524
192	0x3d8768dc	0.06611797
193	0xbde1cc5b	-0.11025306
194	0xbd81170b	-0.06303223
195	0x3d65ab5b	0.05607162
196	0x3db32d0b	0.08748826
197	0xbbbb81ff	-0.005722284
198	0xbda7f7d4	-0.08201566
199	0x3d1bf668	0.03807679
200	0xbc665559	-0.014058434
201	0x3db1c816	0.086807415
202	0x3d2bb5f9	0.04192159
203	0x3da5d6d0	0.08097613
204	0x3cde9a21	0.027173104
205	0xbd53c9da	-0.051706173
206	0xbde4079b	-0.11134263
207	0xbde12adb	-0.10994502
208	0xbd814bf0	-0.06313312
209	0x3dadb114	0.084810406
210	0x3dd2293e	0.102617726
211	0x3d7f469a	0.06232319
212	0x3deab14e	0.114595994
213	0xbdd2612d	-0.10272441
214	0x3d913325	0.07089833
215	0x3d9b5870	0.075852275
216	0x3da23478	0.07920164
217	0xbd9a4f2e	-0.075346336
218	0x3cb2cff5	0.021827677
219	0xbd3fe9f5	-0.04685398
220	0x3d8c3bba	0.068473294
221	0x3d376773	0.04477639
222	0xbd10ade6	-0.035322092
223	0xbca870a3	-0.020561522
224	0x3e09dbb9	0.13462724
225	0x3dd1bde5	0.10241298
226	0xbcb1f552	-0.021723423
227	0xbd6ef9b8	-0.05834362
228	0xbdcd75a4	-0.10032204
229	0x3cdf510b	0.027260324
230	0x3caeac95	0.021322528
231	0x3d9ee77c	0.07758996
232	0xbd4d743a	-0.05015967
233	0x3d47ccd7	0.048779335
234	0xbda4edf5	-0.08053199
235	0x3d863296	0.06552617
236	0xbda275f1	-0.07932652
237	0xbc2395b6	-0.009984424
238	0x3d832ee4	0.06405428
239	0x3d985dca	0.07439764
240	0xbdac5708	-0.084150374
241	0xbd2f14d1	-0.04274446
242	0x3c950829	0.018192368
243	0x3db242fc	0.087041825
244	0xbd56d7cb	-0.05245189
245	0xbd33f24e	-0.04393225
246	0xbdec1052	-0.1152655
247	0x3dcf2644	0.101147205
248	0x3d7baae8	0.061442286
249	0x3d582898	0.05277309
250	0x3c28cad8	0.010302268
251	0xbdfefe38	-0.12450832
252	0x3cc90378	0.024537787
253	0x3e17e855	0.14834721
254	0x3a80d2f2	0.0009828492
255	0x3d0ab563	0.03386439

linear_relu_stack.4.bias f4 [128]
0	0x3d7714d5	0.0603226
1	0x3da64b4b	0.0811983
2	0xbdad9509	-0.08475692
3	0xbca6f1bc	-0.02037894
4	0x3d96de89	0.07366664
5	0x3d675612	0.056478567
6	0x3dcfde80	0.101498604
7	0x3d0afd79	0.033933137
8	0xbca100d3	-0.019653713
9	0x3d021f76	0.031768285
10	0xbb30e52a	-0.0026992061
11	0x3db02c7c	0.08602235
12	0xbd0ebd2e	-0.034848385
13	0x3b69c5ec	0.003567095
14	0xbc3c9085	-0.0115090655
15	0xbc246063	-0.010032746
16	0x3c872dc1	0.01650131
17	0x3bc7f73e	0.0061024716
18	0x3d750806	0.059822105
19	0x3a315dbe	0.0006765983
20	0xbd8c9b74	-0.06865588
21	0x3c4bf46d	0.012448412
22	0x3c157554	0.0091222115
23	0xbdf598e4	-0.11992052
24	0x3d9fb5a5	0.07798318
25	0x3cee4e2e	0.029090013
26	0x3c457ad5	0.012053211
27	0x3de8e083	0.11370947
28	0xbc9032d2	-0.017602358
29	0x3d046a80	0.03232813
30	0xbd50822e	-0.0509054
31	0x3ddf59c4	0.10905793
32	0x3dd1dfcb	0.10247763
33	0x3d93eb20	0.07222581
34	0xbd9da04c	-0.0769659
35	0x3d389ca9	0.045071278
36	0xbceb3308	-0.028710857
37	0xbdd91531	-0.10599745
38	0xbda4a1f9	-0.08038706
39	0x3d8c4c66	0.06850509
40	0xbdb099e4	-0.08623102
41	0xbc2653cd	-0.010151816
42	0x3daa8c2b	0.08327516
43	0x3c0de197	0.008659742
44	0xbdbae148	-0.09125
45	0x3d29fc10	0.04150015
46	0x3d954fa3	0.0729058
47	0x3dc33dfa	0.095333055
48	0x3dccc86c	0.09999165
49	0xbde6640e	-0.11249553
50	0x3be4810b	0.006973391
51	0xbdda4b6e	-0.10658918
52	0xbd2fb41a	-0.042896368
53	0x3d0f872d	0.035041023
54	0x3cd6e15c	0.026230507
55	0xbc5326fe	-0.012887714
56	0x3d6a4107	0.05719092
57	0xbd889c85	-0.06670479
58	0x3d9fe40e	0.0780717
59	0x3c237388	0.009976275
60	0xbdccfeee	-0.100095615
61	0xbd270060	-0.040771842
62	0xbdf342c7	-0.11877971
63	0x3e0a3fc1	0.13500883
64	0x3d9d3527	0.07676154
65	0xbd2ce992	-0.042214938
66	0x3e0c08c5	0.1367522
67	0x3d3a1538	0.045430392
68	0xbd8b161f	-0.06791329
69	0xbc41ebfe	-0.01183605
70	0x3d3fa890	0.046791613
71	0xbc6cb4fc	-0.014447447
72	0xbd708027	-0.058715966
73	0xbd8560a9	-0.06512577
74	0x3c68ddbe	0.014213024
75	0xbdecf1b8	-0.11569542
76	0xbd0d7d89	-0.034543548
77	0xbdc971c5	-0.09836153
78	0xbd92a0c1	-0.071595676
79	0xbddc117f	-0.107455246
80	0x3d635d17	0.0555087
81	0x3d870b05	0.06593899
82	0x3d975c7f	0.07390689
83	0x3d59aa13	0.05314071
84	0xbcea3135	-0.028587917
85	0xbd13fadb	-0.036127906
86	0x3c877aa2	0.016537968
87	0x3d673e25	0.05645575
88	0x3e030ee9	0.12798657
89	0xbd1d3dc4	-0.038388982
90	0x3d137a03	0.03600503
91	0x3d46c9c9	0.04853228
92	0x3be93e6a	0.007118036
93	0xbca189a9	-0.019718962
94	0xbd7042c1	-0.05865741
95	0x3b6ac185	0.0035820913
96	0x3dcab3f6	0.09897606
97	0xbd1dd02a	-0.0385286
98	0x3dfef67c	0.12449357
99	0xbd31ee44	-0.04344012
100	0xbdb361ef	-0.08758914
101	0x3d756d4a	0.05991868
102	0x3d6671d9	0.056260917
103	0x3e02a5d7	0.12758575
104	0xbcc86a71	-0.024464818
105	0xbd8e6eb7	-0.06954711
106	0xbd779976	-0.060449086
107	0xbdeb7bbf	-0.11498212
108	0xbd7e9b60	-0.062159896
109	0x3cab8d6a	0.020941455
110	0xbd21f759	-0.03954253
111	0x3d942719	0.0723402
112	0xbdd3fccc	-0.103509516
113	0x3c5d3bac	0.013502996
114	0x3ddc25a4	0.10749367
115	0x3d6b7a06	0.057489417
116	0x3c3b4edd	0.011432377
117	0xbe144b2d	-0.14481802
118	0x3d7abdf3	0.061216306
119	0xbe09db74	-0.13462621
120	0xbdf24619	-0.11829776
121	0x3d957be8	0.07299024
122	0x3dd250cb	0.10269316
123	0xbdb22097	-0.08697622
124	0xbcee0521	-0.02905518
125	0x3d873847	0.06602531
126	0xbde63984	-0.11241439
127	0x3d700c56	0.058605514

linear_relu_stack.6.weight f4 [64, 128]
0	0xbc80e4d9	-0.015734123
1	0x3e01731b	0.12641566
2	0xbd3762d1	-0.044771973
3	0xbd9cae5d	-0.07650445
4	0xbbd71039	-0.006563213
5	0x3d9aad6b	0.07552608
6	0x3ccd2fff	0.0250473
7	0x3d973101	0.07382394
8	0x3c55c3c0	0.013047159
9	0xbdbd2200	-0.092350006
10	0x3d7f1b86	0.062282108
11	0x3dab0466	0.08350448
12	0xbde02dbd	-0.10946224
13	0xbd9b07be	-0.07569836
14	0xbd356ff6	-0.044296227
15	0x3d2676e8	0.04064074
16	0xbd391bed	-0.045192648
17	0xbd9e8a79	-0.07741255
18	0xbcf93b38	-0.030423746
19	0x3dc4737f	0.09592342
20	0xbc945940	-0.018108964
21	0xbd98d315	-0.07462136
22	0x3d54b30f	0.051928576
23	0xbd78160b	-0.060567897
24	0xbd9ffa0c	-0.078113645
25	0xbcbe4dc8	-0.023230448
26	0xbd3e5b3a	-0.04647372
27	0xbd903d55	-0.07042948
28	0x3d576c21	0.052593354
29	0x3d874512	0.06604971
30	0xbd8b41ff	-0.06799697
31	0x3ca0dba6	0.019635987
32	0xbbb6a50e	-0.0055738753
33	0x3dc2c2b4	0.09509793
34	0xbc0a50e9	-0.008442142
35	0xbdc0198f	-0.09379875
36	0xbb193762	-0.0023378958
37	0x3c80b6a8	0.015712097
38	0xbd9dda6e	-0.07707678
39	0x3d8c2e1d	0.06844733
40	0xbc86e493	-0.016466415
41	0x3b96dbd3	0.004603842
42	0xbdf6bbcf	-0.120475404
43	0xbd42956e	-0.04750579
44	0x3d5b7ba1	0.0535847
45	0xbdfdfbb2	-0.12401523
46	0xbda402a2	-0.08008315
47	0x3c356ccc	0.0110733025
48	0xbd8d536b	-0.06900676
49	0x3d19741a	0.03746424
50	0xbda6beef	-0.081418864
51	0xbde31a8d	-0.110890485
52	0xbdc6621c	-0.09686682
53	0x3d22f217	0.039781656
54	0xbcef39e8	-0.029202417
55	0x3da710a3	0.0815747
56	0xbbafaec6	-0.005361411
57	0xbd83fd08	-0.06444746
58	0x3daaa2a2	0.08331801
59	0xbd60c472	-0.054874845
60	0xbdaa6933	-0.083208464
61	0xbc1fcf1d	-0.0097539695
62	0xbba8e39a	-0.0051540853
63	0xbdc34f81	-0.095366485
64	0x3b961955	0.0045806565
65	0xbd0a96e5	-0.03383531
66	0xbca4217a	-0.020035494
67	0x3db1575f	0.08659243
68	0xbc58cc55	-0.01323231
69	0x3dbe749f	0.092995875
70	0x3cacec07	0.02110864
71	0x3d4efa54	0.0505317
72	0x3d498f71	0.049209062
73	0xbd1d255b	-0.038365703
74	0xbdaaead9	-0.08345575
75	0xbc90ab6c	-0.017659865
76	0xbd7f2127	-0.062287476
77	0x3d598b57	0.0531114
78	0x3cf868c6	0.030323397
79	0x3d834012	0.06408705
80	0x3dcb5630	0.09928548
81	0x3c5c79aa	0.013456741
82	0x3db33095	0.08749501
83	0xbbc8104f	-0.0061054598
84	0x3b731c58	0.0037095752
85	0x3da70280	0.08154774
86	0xbc9eeca2	-0.019399945
87	0x3d29c46b	0.041447084
88	0xbd481bcf	-0.048854645
89	0xbd55277f	-0.05203962
90	0x3d1cf07a	0.038315274
91	0xbd8c4432	-0.06848945
92	0xbdb78114	-0.089601666
93	0xbb17d6eb	-0.0023168873
94	0x3d8d299e	0.068927035
95	0xbd72796a	-0.05919782
96	0xbce8c660	-0.028414905
97	0x3d7b6ec4	0.06138493
98	0xbdb126ae	-0.08649956
99	0x3cc0985f	0.023510156
100	0x3c10ae30	0.008830592
101	0x3cde0b14	0.027104892
102	0x3df01b73	0.117239855
103	0xbd1ecfd1	-0.038772408
104	0xbc90dc5a	-0.017683197
105	0x3c2fdd04	0.010733847
106	0x3c019310	0.007908598
107	0x3d52cb4d	0.051463414
108	0x3d855f6d	0.06512342
109	0x3b6d19d0	0.0036178716
110	0x3c7f8477	0.015595547
111	0x3d4c2353	0.049838375
112	0x3d9fa09b	0.07794305
113	0xbd13c029	-0.03607193
114	0x3cfd421d	0.030915314
115	0xbbda99e1	-0.006671176
116	0x3bea7d8c	0.0071560796
117	0xbd6e8167	-0.058228876
118	0xbe1049ab	-0.14090602
119	0x3da4c98d	0.08046255
120	0x3d8247b8	0.063613355
121	0x3d26dd6c	0.040738508
122	0xbd09cff4	-0.033645585
123	0xbbd742ad	-0.0065692277
124	0x3d245ef3	0.040129613
125	0xbd98fbf5	-0.07469932
126	0x3de70d9d	0.112818934
127	0xbcc973d7	-0.02459137
128	0x3d629ccb	0.05532531
129	0x3d31e4ca	0.04343108
130	0xbd3c10dc	-0.045914516
131	0xbd964a86	-0.07338433
132	0xbca612fc	-0.020272724
133	0x3d1aeb16	0.03782185
134	0x3e003af1	0.12522484
135	0xbd95858f	-0.07300865
136	0x3cf6429d	0.03006106
137	0xbe20ca94	-0.15702277
138	0x3ca91e14	0.020644225
139	0x3d8fd06a	0.07022174
140	0x3dc71f86	0.097228095
141	0x3d372c66	0.044720076
142	0x3bca1d19	0.0061680195
143	0x3d93e8fd	0.07222173
144	0x3d825640	0.06364107
145	0xbc934262	-0.01797599
146	0xbcbf4da6	-0.023352455
147	0x3c15c7dd	0.009141889
148	0xbd0ae185	-0.03390648
149	0x3d5722fe	0.052523606
150	0x3d10465d	0.035223354
151	0x3d5967b0	0.0530774
152	0xbcbe1634	-0.023203947
153	0x3c9abaee	0.018887963
154	0x3ddf7db2	0.10912646
155	0xbd39ed61	-0.045392398
156	0xbd56f39c	-0.052478418
157	0xbaeb75dc	-0.0017964202
158	0xbdace1fe	-0.08441542
159	0xbced1602	-0.028941158
160	0x3aa9bec6	0.0012950532
161	0x3d2779e2	0.04088772
162	0x3d432431	0.047641937
163	0xbb8646b2	-0.004097783
164	0xbd6d4490	-0.057926714
165	0xbdd78d06	-0.10524945
166	0xbdb76980	-0.089556694
167	0x3dbe4d8c	0.09292135
168	0x3d033d01	0.0320406
169	0x3da8351a	0.08213253
170	0x3d7387f0	0.059455812
171	0xbdd4b799	-0.10386581
172	0xbd2df0f5	-0.042466123
173	0xbd82b6fd	-0.063825585
174	0x3d5803a9	0.052737866
175	0x3d87b987	0.066271834
176	0x3bf23aea	0.007392277
177	0x3c2be0fb	0.010490651
178	0xbd06ec80	-0.032940388
179	0xbd31cb7e	-0.043406956
180	0xbdaf3148	-0.085543215
181	0xbcf498ed	-0.029858077
182	0x3dc7b75b	0.09751769
183	0x3d8b3869	0.06797869
184	0xbc627ca0	-0.013823658
185	0x3cd5935e	0.026071247
186	0x3e00c8e6	0.12576637
187	0x3ddb7dd3	0.107173584
188	0xbd1a7855	-0.037712414
189	0x3ba9268c	0.005162066
190	0xbd10ac6d	-0.035320688
191	0x3bc77d33	0.006087923
192	0x3d6a2f1e	0.05717384
193	0x3da2fb0d	0.079580404
194	0x3d3c7126	0.046006344
195	0x3d868e72	0.06570138
196	0x3b1ae03a	0.0023632185
197	0xbcd9eae9	-0.026601272
198	0xbd6d6396	-0.0579563
199	0xbcd7bc7b	-0.026334992
200	0xbd01d3d8	-0.03169617
201	0xbd913a62	-0.07091214
202	0x3d140ec6	0.0361469
203	0xbd3f0da3	-0.046643864
204	0xbc965ae8	-0.018353894
205	0x3ca020a4	0.019546814
206	0x3db4376f	0.087996356
207	0x3cec19da	0.02882092
208	0x3db2c5da	0.087291434
209	0xbd6dffe2	-0.058105357
210	0x3da04706	0.07826047
211	0xbcf5c3e1	-0.030000629
212	0xbbcbb965	-0.006217169
213	0xbcd3787e	-0.025814291
214	0xbd95ba9e	-0.07310985
215	0xbd78b863	-0.06072272
216	0x3d96094e	0.073259935
217	0xbbc4a7ab	-0.006001433
218	0xbc7084de	-0.0146801155
219	0xbd66b4b1	-0.056324665
220	0xbc9c336e	-0.019067492
221	0x3c5db3b1	0.013531611
222	0xbd7cf1af	-0.061753925
223	0x3d56b8e4	0.05242242
224	0x3d852870	0.065018535
225	0x3dd71020	0.105011225
226	0x3d20f018	0.03929147
227	0x3cbd7119	0.023125218
228	0x3da649f7	0.081195764
229	0xbcf61941	-0.030041339
230	0x3d8b1b5c	0.06792328
231	0x3d03ad05	0.032147426
232	0x3d61c99e	0.055123918
233	0xbc8b03ff	-0.016969679
234	0xbb78e84a	-0.0037980252
235	0xbcff8014	-0.031189002
236	0xbd98bd73	-0.074580096
237	0xbd8428f1	-0.064531215
238	0xbd3ff95d	-0.04686867
239	0x3d46d301	0.048541073
240	0x3d071bd6	0.03298553
241	0x3dde529b	0.108555995
242	0xbd1c005a	-0.038086273
243	0xbdad6394	-0.08466259
244	0x3d00374f	0.031302746
245	0x3d039db0	0.032132804
246	0xbd6aff57	-0.057372417
247	0x3d43f1d7	0.04783806
248	0x3dcb27e0	0.09919715
249	0x3d956344	0.07294324
250	0xbd817965	-0.06321982
251	0x3cf21682	0.029551748
252	0x3dcf8a0c	0.10133752
253	0x3da91b9a	0.08257218
254	0x3d3006ef	0.042975362
255	0x3dbba7c6	0.091628596

linear_relu_stack.6.bias f4 [64]
0	0xbc3aa0f7	-0.011390916
1	0x3db1028f	0.08643066
2	0xbd948e54	-0.072537094
3	0x3bea5501	0.0071512465
4	0x3da90415	0.08252732
5	0xbd42ea32	-0.047586627
6	0xbd81a503	-0.063303016
7	0x3dabc0b3	0.08386364
8	0x3d352ef7	0.044234242
9	0x3c674a88	0.014116891
10	0x3d7f2032	0.062286563
11	0xbbcfe069	-0.0063438904
12	0xbc3c45a6	-0.011491215
13	0xb9a8a1b3	-0.00032163932
14	0xbceb1166	-0.02869482
15	0xbcbc4dbb	-0.022986284
16	0x3d88c70f	0.066785924
17	0x3d9ad4c0	0.0756011
18	0xbd16925d	-0.036760677
19	0x3d0515c9	0.03249148
20	0x3d7616ec	0.060080454
21	0x3d4ac37c	0.049502835
22	0xbbda483f	-0.0066614444
23	0x3da29967	0.079394154
24	0x3d635b8e	0.055507235
25	0x3c01bd75	0.007918705
26	0x3d0cd51d	0.03438293
27	0x3ce46f5e	0.027885135
28	0xbd8039fd	-0.062610604
29	0xbcdc69c3	-0.0269059
30	0xbd56dc97	-0.052456465
31	0xbb122d28	-0.0022304747
32	0x3d63775d	0.055533756
33	0xbb165dce	-0.0022944096
34	0x3c789890	0.0151730925
35	0xbc629caf	-0.013831302
36	0x3d1f2388	0.038852245
37	0xbcad99d1	-0.02119151
38	0xbcf0c36c	-0.02939006
39	0xbcb45cf0	-0.022016972
40	0x3d114c28	0.03547302
41	0x3d7645c1	0.060125116
42	0x3db9194b	0.090380274
43	0xbcb039ef	-0.021512
44	0xbd7f86ab	-0.06238429
45	0x3ce26a34	0.027638532
46	0xbcdce792	-0.02696589
47	0x3c87b34d	0.01656499
48	0xbd5ea84a	-0.05435971
49	0x3daed0c8	0.085359156
50	0xbd3fca30	-0.04682368
51	0x3c9e8cfc	0.019354336
52	0x3d9b595b	0.075854026
53	0xbccef823	-0.025264805
54	0x3c9dd0c0	0.019264579
55	0xba8a0fd8	-0.0010533286
56	0xbd222f9d	-0.03959619
57	0xbcc83171	-0.024437638
58	0x3da34c27	0.07973509
59	0xbd74f5d5	-0.059804756
60	0x3c867918	0.016415164
61	0xbcecbe14	-0.02889923
62	0xbd8d4b51	-0.06899131
63	0xbd8485db	-0.064708434

linear_relu_stack.8.weight f4 [32, 64]
0	0x3e18462e	0.14870521
1	0x3cf73a4b	0.030179163
2	0x3d86561a	0.06559391
3	0xbe03f447	-0.12886153
4	0x3d7d1a79	0.061792824
5	0xbe0d4001	-0.13793947
6	0x3d8aeed4	0.06783834
7	0xbdd52ef6	-0.10409348
8	0x3d41ff62	0.047362693
9	0xbdf8e783	-0.12153532
10	0xbd473cfc	-0.048642144
11	0x3d82c794	0.06385723
12	0x3d7dcc60	0.061962485
13	0xbd946e55	-0.07247607
14	0xbd26769b	-0.040640455
15	0xbda4c5f7	-0.08045571
16	0xbb62db22	-0.0034615477
17	0x3dc7261f	0.09724068
18	0xbd7e221c	-0.062044248
19	0xbd0184ff	-0.031620976
20	0xbdb5ea0f	-0.08882534
21	0xbdbc4702	-0.09193231
22	0x3ce80055	0.02832047
23	0xbd698434	-0.057010844
24	0xbdee211a	-0.11627407
25	0x3c9d75d4	0.019221224
26	0xbcc05791	-0.023479255
27	0xbe00ab8e	-0.12565443
28	0x3d894982	0.06703474
29	0x3d9b978c	0.07597265
30	0xbddadd21	-0.10686708
31	0xbda61515	-0.0810949
32	0x3d9eb951	0.0775019
33	0xbd6e9fea	-0.058257975
34	0xbdffc9ab	-0.12489637
35	0x3dc8ca62	0.098042265
36	0x3d59fc0d	0.05321889
37	0xbc51d7ed	-0.012807828
38	0x3d7bf3ef	0.06151193
39	0x3e028628	0.12746489
40	0x3c90f239	0.017693626
41	0x3c6612e5	0.014042591
42	0x3d94996e	0.07255827
43	0xbd2a8eb1	-0.041639987
44	0xbd7e1608	-0.06203273
45	0xbd7868e0	-0.06064689
46	0x3df03254	0.11728349
47	0x3d4fbdec	0.050718233
48	0x3de095a2	0.1096604
49	0xbd2f2775	-0.04276224
50	0x3c869de3	0.016432708
51	0xbdb8c0df	-0.09021162
52	0xbcaa0519	-0.020754384
53	0x3de8f936	0.11375658
54	0xbd881202	-0.0664406
55	0x3d15eea6	0.036604546
56	0x3d2ff9af	0.042962726
57	0x3dfed347	0.12442642
58	0xbd0363a5	-0.03207745
59	0x3dc07ea6	0.09399156
60	0x3c71a4fb	0.014748807
61	0xbe0a87c2	-0.1352835
62	0xbd1d0175	-0.038331468
63	0x3e08de90	0.13366151
64	0xbd774095	-0.060364325
65	0x3d0659aa	0.032800354
66	0x3d9f9c14	0.077934414
67	0x3da3b923	0.079942964
68	0x3e0e1016	0.13873324
69	0xbc14d86c	-0.009084802
70	0xbdaa06d9	-0.08302087
71	0xbcb87a30	-0.022519201
72	0xbdabea49	-0.08394296
73	0xbb57684a	-0.0032868558
74	0xbdb79826	-0.08964567
75	0x3d5b1664	0.05348815
76	0x3e0b9646	0.13631544
77	0xbe25de01	-0.16197969
78	0x3de904d7	0.11377876
79	0xbd8b920b	-0.06814965
80	0xbdfb3b7a	-0.12267204
81	0x3da5ab60	0.08089328
82	0x3c13d24a	0.009022305
83	0xbd177105	-0.03697302
84	0xbdb4ddb4	-0.08831349
85	0x3a37808e	0.0007000052
86	0x3dd4e616	0.10395448
87	0xbdc5de90	-0.09661591
88	0xbcff9361	-0.031198205
89	0xbdc09be0	-0.09404731
90	0x3db3087b	0.08741852
91	0xbda0b4b5	-0.07846967
92	0xbd915551	-0.07096351
93	0x3d217186	0.039414905
94	0x3dbce933	0.09224167
95	0x3c30e978	0.010797851
96	0x3b87f611	0.0041492064
97	0xbdb01097	-0.08596914
98	0x3bc5d61d	0.006037487
99	0x3d8598f0	0.06523311
100	0xbcf98cc7	-0.030462636
101	0x3deb7527	0.114969544
102	0xbda1ee44	-0.07906774
103	0x3d1c7b11	0.038203303
104	0xbcd4077b	-0.025882473
105	0x3d667ab3	0.05626936
106	0x3c96c527	0.018404556
107	0xbd2051a7	-0.03914037
108	0x3dab0f8b	0.08352574
109	0x3d97b0c7	0.074067645
110	0x3d7e52d8	0.062090725
111	0xbcffb0e7	-0.031212283
112	0x3deb1506	0.11478619
113	0xbcd8cffe	-0.026466366
114	0xbd8fe3c1	-0.070258625
115	0x3d8b95cd	0.068156816
116	0x3d9024aa	0.07038243
117	0x3da2072e	0.07911526
118	0xbdce4539	-0.10071797
119	0x3e000559	0.1250204
120	0x3d6c93c9	0.057758126
121	0x3e26b90e	0.1628153
122	0x3da2527b	0.07925888
123	0xbd505fff	-0.0508728
124	0x3d9b0074	0.07568446
125	0xbb918d45	-0.0044418895
126	0x3cf64148	0.030060425
127	0xbdb59ab7	-0.088674
128	0xbdbdc971	-0.092669375
129	0xbdee204d	-0.11627255
130	0x3d9fb099	0.07797355
131	0x3d588a91	0.052866522
132	0x3d212da6	0.039350174
133	0x3cd5a283	0.026078468
134	0xbc4ed0ca	-0.012623021
135	0xbcbe1725	-0.023204396
136	0x3d0f4ca1	0.03498519
137	0x3d616513	0.055028033
138	0x3db0a59c	0.086253375
139	0xbd10f592	-0.035390444
140	0xbc5f82c1	-0.013642014
141	0xbc393dd5	-0.011306246
142	0x3da54c61	0.08071209
143	0x3dae803c	0.085205525
144	0x3db3c0a4	0.08776978
145	0xbd7d69c1	-0.061868433
146	0x3d4bd0c8	0.049759656
147	0x3c28c30c	0.010300409
148	0xbd9007c8	-0.07032734
149	0xbdada3d9	-0.08478517
150	0x3d6d6d41	0.05796552
151	0xbd03c582	-0.03217078
152	0xbcbc4ce0	-0.022985876
153	0xbbcefab3	-0.006316507
154	0xbddbd71d	-0.10734389
155	0xbc97bd46	-0.01852287
156	0x3d925bd9	0.07146425
157	0x3d1f22c6	0.038851522
158	0x3df0a4be	0.11750172
159	0x3dab0b1c	0.08351728
160	0xbc3c7dc7	-0.011504597
161	0x3d15c64b	0.03656606
162	0x3c9ee383	0.019395595
163	0xbd9730c9	-0.07382352
164	0xbd959f8b	-0.07305821
165	0x3dd4de8e	0.103940114
166	0x3dcd6fbf	0.100310795
167	0x3dca1a02	0.09868242
168	0xbdaf073c	-0.08546302
169	0x3d1a2aee	0.037638597
170	0xbd9660ce	-0.07342683
171	0x3d5808b6	0.052742682
172	0xbdbf6430	-0.09345281
173	0xbdf63d55	-0.12023417
174	0x3dd49ed3	0.10381856
175	0xbde19a6f	-0.11015784
176	0xbc8f1e73	-0.017470574
177	0x3d936c19	0.07198352
178	0xbcf0ea15	-0.029408494
179	0x3d698099	0.057007406
180	0x3d8f07d6	0.069839165
181	0xbd810afe	-0.06300925
182	0xbdce6d72	-0.10079469
183	0xbcc8332e	-0.024438467
184	0x3dbd6b68	0.09249002
185	0x3c90fdfb	0.017699232
186	0xbda641fc	-0.08118054
187	0xbdeb26c8	-0.11482006
188	0xbde9304e	-0.113861665
189	0xbdcd7bfe	-0.10033415
190	0xbcffba49	-0.031216757
191	0x3b03b4e7	0.002009684
192	0x3dbcbf87	0.092162184
193	0x3dcff38a	0.10153873
194	0x3decb4f9	0.11557955
195	0x3ba85761	0.0051373695
196	0xbcae0290	-0.021241456
197	0xbe2f3755	-0.17110951
198	0x3d4c208c	0.049835727
199	0x3de298d3	0.11064305
200	0x3ca1b77b	0.01974081
201	0xbd58ac40	-0.052898645
202	0xbde2b3e5	-0.110694684
203	0xbcdc92a6	-0.026925396
204	0xbde39b70	-0.11113632
205	0xbdba4376	-0.090948984
206	0xbdb83fd4	-0.08996549
207	0x3db57ff0	0.08862293
208	0xbe13d442	-0.14436439
209	0x3c9da03a	0.019241441
210	0xbd3a6ad6	-0.045512043
211	0x3dd740df	0.1051042
212	0x3d3c3818	0.045951933
213	0xbddc26fd	-0.10749624
214	0x3e0e21f9	0.13880147
215	0xbd944920	-0.0724051
216	0x3d4a9642	0.049459703
217	0x3e2f545c	0.17122024
218	0xbc14f9cc	-0.009092759
219	0xbc57156a	-0.013127664
220	0x3c99c928	0.018772677
221	0x3cb6da38	0.022320852
222	0x3dfee7dc	0.124465674
223	0xbd818ce5	-0.063257016
224	0x3bb48063	0.005508469
225	0x3b31dac5	0.0027138453
226	0xbdc3ceef	-0.09560954
227	0x3b9245fe	0.00446391
228	0xbe094ceb	-0.13408248
229	0x3da6e9f9	0.081500955
230	0x3ddf3192	0.10898127
231	0x3e24e9b3	0.16104774
232	0xbd3d6b75	-0.046245057
233	0xbdfaf74e	-0.12254201
234	0xbd5a5b86	-0.05330994
235	0xbdb593a7	-0.08866053
236	0xbdb0b48d	-0.08628187
237	0xbd0f4c24	-0.034984723
238	0xbceb4082	-0.028717283
239	0xbd92ca90	-0.07167542
240	0x3d69ab24	0.057047978
241	0xbdfd975c	-0.12382385
242	0x3d0c84ca	0.034306325
243	0xbd2e2e25	-0.042524476
244	0x3daa3f5f	0.08312868
245	0xbc246484	-0.01003373
246	0x3dd1824d	0.10229931
247	0x3e089bf8	0.13340747
248	0xbdc12f84	-0.09432891
249	0x3d866ba3	0.06563499
250	0x3d95d123	0.0731528
251	0xbda9c7cd	-0.08290062
252	0xbcb0e93d	-0.021595592
253	0xbbf01026	-0.007326144
254	0x3d834e00	0.06411362
255	0xbd7cd117	-0.06172284

linear_relu_stack.8.bias f4 [32]
0	0x3cd96fab	0.026542505
1	0x3cab5751	0.02091566
2	0xbdbf3d5b	-0.093378745
3	0xbde53041	-0.11190844
4	0xbd2bf006	-0.04197695
5	0xbd1e34c7	-0.03862455
6	0x3d30ebdb	0.04319368
7	0xbcee9c5e	-0.029127296
8	0x3db050da	0.08609171
9	0xbd89ba89	-0.06725032
10	0xbd6752a6	-0.056475304
11	0xbdaa85d4	-0.08326307
12	0xbb9318fb	-0.004489062
13	0xbd8e9c2b	-0.069633804
14	0x3d80984a	0.06279047
15	0xbd62335e	-0.05522477
16	0x3d6426f2	0.055701204
17	0x3d944984	0.072405845
18	0xbc92281a	-0.017841388
19	0x3d99cf8e	0.07510291
20	0x3d8c969b	0.06864663
21	0x3ced4493	0.028963363
22	0xbdab6896	-0.083695576
23	0x3daf1550	0.08548987
24	0x3e022681	0.1271
25	0xbaa0dc5b	-0.0012272702
26	0x3ba643b2	0.005073988
27	0x3d8086ab	0.06275686
28	0x3d484b2e	0.048899822
29	0xbdcec8dd	-0.100969054
30	0x3defd8fd	0.11711309
31	0x3d249020	0.04017651

linear_relu_stack.10.weight f4 [1, 32]
0	0xbe6815bb	-0.2266454
1	0xbdbd29a1	-0.09236456
2	0xbb3e602e	-0.0029049027
3	0xbe3e057c	-0.1855678
4	0x3e85fb16	0.26168126
5	0x3dd5ad06	0.10433392
6	0xbe587276	-0.21137413
7	0x3db01eaa	0.08599599
8	0xbe5790a1	-0.21051265
9	0xbe0cf8b8	-0.13766754
10	0x3e19d64d	0.15023156
11	0xbe51200d	-0.20422383
12	0x3e30b6af	0.17257188
13	0xbe8cad0c	-0.27475774
14	0xbdfc7e55	-0.123287834
15	0xbe3ba22b	-0.18323581
16	0x3e8714c6	0.26383036
17	0xbd01c78b	-0.03168444
18	0xbe2547a1	-0.16140606
19	0xbe734071	-0.23755051
20	0xbe4c0774	-0.19924718
21	0xbe2f8d2a	-0.17143694
22	0xbe298b5d	-0.16557069
23	0xbea52176	-0.3225209
24	0x3da15a27	0.07878523
25	0x3e1e1109	0.15436186
26	0xbe55b7cb	-0.20870893
27	0x3df8ba67	0.121449284
28	0x3e3a27e8	0.18179286
29	0xbe2dc13e	-0.16968247
30	0x3e86c6c8	0.26323533
31	0x3e4575f2	0.19283274
