model/pendulum_model_7.pth (torch, 88706 bytes, 11 tensors)

linear_relu_stack.0.weight f4 [32, 3]
00000000: f172 e83e 07bc a2bd da9c c03e 2fda 903d
00000010: da83 943c 52ff b8be 468a e1be 3f76 c2be
00000020: aa76 f0be 796e a7be 7ec0 e6be d516 55be
00000030: dd9d dd3e 819b 91bd d0d0 a73d 6d0d 00bf
00000040: 9055 babe 504e dabd 2975 a5bd 8e90 fdbe
00000050: 74fc bb3e b72f 5dbe 554c 4f3d e4bc 6c3e
00000060: d20c 02be c5ef 003f 1d3e cd3e cc7c 003f
00000070: ba10 e63d 0254 9ebd 7830 43be 8bf3 c8be
00000080: 81cb 6abe 8177 2dbe 0c87 9dbe 6d51 013f
00000090: 622b f93e d13a ae3e 7933 d3be 7bd8 c2be
000000a0: 1a86 323e 007a c8bd 3317 a1be 9856 2bbe
000000b0: 0dbf f4be 8adc 83bd 6c23 f33e bed7 843e
000000c0: 8506 7b3e bf66 d13e 8e6d 4c3e 494c d53e
000000d0: 5aab 04bf e96d b73e a6ae d53e 819b 143f
000000e0: 5854 ae3e 8bb5 d6be 11a7 0c3f 464b 1a3e
000000f0: bd46 c93c 6452 f33d 7d9f 78be f2b6 cbbe
00000100: 84f8 8a3e 983d 123e 153b 113e 8299 fabe
00000110: eacd 16be a87d 83bd 0ece 843e 8cca ab3e
00000120: f23a 0d3f a0a5 083f 136c 8cbe 7cb6 83bd
00000130: dc99 36bc 188f 4b3e a037 f63c 33d7 f23e
00000140: 3444 10bf 17c9 09bf 877e df3e 4236 ac3e
00000150: 8ea4 47be 1f9f b03e 1fb2 a6bd 42db c33e
00000160: f979 e93e 0aaf 8dbe 58a2 263e 1aaa ddbe
00000170: d3f1 f83e 229a 843e 45e4 e8be 27d8 0dbf
0.45400193 -0.079460196 0.37619668 0.07072865 0.018129278 -0.36132294 -0.44050807 -0.3798084
-0.46965533 -0.3270147 -0.45068735 -0.20809491 0.43284503 -0.07109738 0.08194125 -0.50020486
-0.36393404 -0.10659468 -0.08078987 -0.4952435 0.36716044 -0.21600233 0.050609905 0.23118931
-0.12700203 0.5036586 0.4008645 0.50190425 0.11233659 -0.07730867 -0.19061458 -0.3924831
-0.22929193 -0.16940118 -0.30767095 0.5051487 0.4866591 0.34029248 -0.41250208 -0.38055786
0.17433968 -0.09788895 -0.31463012 -0.16732252 -0.4780201 -0.06438549 0.47487962 0.25945848
0.24514206 0.40898702 0.19963667 0.41659763 -0.5182396 0.35826042 0.4173481 0.5804978
0.34048724 -0.4193538 0.54942423 0.15067777 0.024569863 0.11880949 -0.2427959 -0.39788014
0.27142727 0.14281309 0.14182694 -0.48945242 -0.14726987 -0.064204514 0.25938457 0.33552969
0.5516807 0.53377724 -0.27426204 -0.064312905 -0.011145081 0.19878805 0.030055821 0.4742981
-0.5635407 -0.53822464 0.4365122 0.33635145 -0.19496366 0.344964 -0.08139443 0.38253218
0.4560087 -0.27672607 0.16272867 -0.4329384 0.48621997 0.25898844 -0.45486656 -0.5540795

linear_relu_stack.0.bias f4 [32]
00000000: f418 133e e579 f8be 8d61 6a3e fc43 36be
00000010: 3ce4 f1be 8fe5 863d c6a9 81be 3228 abbe
00000020: aa19 2f3d c2a6 ddbd b227 623e 3de8 5d3e
00000030: 7cad 07be a159 9b3d 7829 0c3f d7c2 01bf
00000040: 3aa7 a83c 0282 c73d 7cd1 2fbe 7796 f13e
00000050: 69c9 ddbe e0c6 b23e a32a 893b 0de0 af3d
00000060: 7fc7 92be 3623 c73e 78a4 ce3e eef0 edbd
00000070: f6cc a5be 8274 b93e a46c 3fbe e644 bc3e
0.14364988 -0.48530498 0.22888775 -0.17799371 -0.47244442 0.065867536 -0.2532484 -0.33429104
0.042749085 -0.10822822 0.22085455 0.21670623 -0.13249773 0.07585455 0.54750776 -0.50687927
0.020587552 0.09741594 -0.17169756 0.47185108 -0.43317726 0.34917355 0.004185991 0.08587656
-0.28667828 0.3889405 0.40359855 -0.11618219 -0.32382935 0.362217 -0.18693787 0.36771315

linear_relu_stack.2.weight f4 [64, 32]
00000000: e7a7 243e 946e 543e c86b 43be 76e5 063e
00000010: 75b1 32be 2dec 3fbe d6cf 773d 11ae 4dbe
00000020: cd7d f9bd f457 ee3d 4973 9bbd 07cd ecbd
00000030: 1605 efbd 188a 0b3e eca0 193e 8e5b 253e
00000040: 7fcc 93bc c9f0 14be ddad a43d 6452 abbd
00000050: 2f06 343e c132 0d3c 68d3 113d 4d97 50be
00000060: 85b9 7cbd 1fed a3bd 4aa7 69be 7737 b73c
00000070: f6b5 103e feac 13bc 2ed7 9f3d 9431 173e
00000080: ba3c 03be 3045 5e3d 051b 81bd a35e d13d
00000090: 3ef8 4d3d 13e5 81bd 1d36 813e 840a 4a3c
000000a0: b7a0 90be bc04 16bd 5989 1a3c 8ac7 4a3e
000000b0: 804d 15be 15ed 9bbd 0f50 983d cb40 afbd
000000c0: 99c1 ee3d 5b78 40be 6b6a 513d 8a7f 00bd
000000d0: 3ad1 c4bb f419 d7bd fced 133e 188b 42be
000000e0: 5174 8a3c 4836 23be d56d c9bc 4173 42be
000000f0: 6299 183d 346a 30bd 8d86 38be 5e0b 13be
00000100: bec2 25bd ec8c 513e 3bdf ccbd 1e51 46bc
00000110: a470 163e 9573 1e3e 0da1 81be 190c d6bd
00000120: 02e5 343e ab88 883d 792a cf3d 5251 e7bd
00000130: 2699 f4bd 9f45 dd3d 2722 973d 76cd 193e
00000140: 1407 a63d 3dcd 833c 2b87 783c c5b8 22be
00000150: 5a9c bd3a f1a3 d63d ca85 1b3e d2e6 a7be
00000160: be23 6b3d 122c ce3c 972e f1bd 483b cd3d
00000170: 83cd 3c3d 445d 8c3c a396 313d 9792 f63d
00000180: 40dd fcbd f9be 64bc 9336 873e 112c 84bd
00000190: 700f 0ebd 6244 b13d 9cf3 26be 3777 1a3e
000001a0: 9970 093d c92b 6dbd 3c5c 08be 6c88 7cbd
000001b0: 7f8f 883d 99f2 96bd 5248 583c 0649 ddba
000001c0: 0940 58be 040d 023e f35c 51bd c270 513e
000001d0: b435 0f3e b9c8 9abd fbb4 0b3e f243 1c3d
000001e0: b197 393d c3e6 1abc 526a ae3d 3e20 c1bd
000001f0: 1723 c53b 1d54 353e cbb0 30bd 70fa 103e
00000200: 0a5b f2bd 44a7 563e f0f0 63bc b89b c83d
00000210: b257 bc3d 278d b3bc a2a7 b73d 9674 973d
00000220: 21fd 683c 1d2c 06be 473c c93c 6d64 203e
00000230: 5c58 dcbc 69e8 05be d793 1cbe f597 82be
00000240: 77ff 023e 1a2b 213e b2d0 1dbe d28e 0ebe
00000250: 4e5b 21bd 9f26 3c3c 0b07 4ebe ec1b 9c3d
00000260: 602f 11be 6e5b 4dbd d2aa b83e 7465 99bd
00000270: 83f8 36be 2662 8ebd 420c 6d3d 2ae7 2bbe
00000280: f670 043e 6e4b f03d 2610 423e 3281 2ebe
00000290: 8e9d 32bd e21b 813e cb70 46bc d94f 173e
000002a0: 3f35 2cbe 6af3 4f3e af21 1f3d b92c e2bd
000002b0: 163d 4e3d 45f3 503d 6f8a 99bd a956 fc3d
000002c0: 63ae e53d 1f71 06be c884 80be a037 0c3e
000002d0: 316c 2d3e 3c5c 14be a717 21be 8fb4 39be
000002e0: be20 033e 130a d2bd 0c3f d23d 6326 adbd
000002f0: c898 a33d 08e6 5b3d dd81 d83d 4235 0b3e
00000300: 995a 063c a8dd 0f3e 0003 88be bdab 9ebd
00000310: bc7e 3bbe f665 65bd c170 0f3d 0034 38be
00000320: ab7f 06be 2af8 43be b30b 853d 94af a9bd
00000330: d2bd 893c 8e35 19be 4794 503e 5460 46bd
00000340: b630 b83d ca7c 103e 14f9 b7bd ac75 173e
00000350: c134 0cbd 978a c53d bdd2 343e 7f8b 80bd
00000360: ef8d 933d f1d2 a4bd e3e7 a83b acd3 dc3d
00000370: 2ca5 683e c854 5abd 9a44 d7bd 4c60 343d
00000380: e667 8fbd b30e 9d3d 512b 67be ecab 84be
00000390: d0bd 07be 63f0 153e a05b 6abd 0739 0a3e
000003a0: fd8e a7bd be66 fc3d db74 923c c03f 99bd
000003b0: fb60 cbbc 62c4 d63d 771d 8f3c 144d c23b
000003c0: bf76 24be 40d9 663d b778 25be 398b e3bd
000003d0: 9c5c dabc 2f1b b13d c42d 3ebe 00aa 683e
000003e0: 42d1 9bbd 3503 d43d 787d d53d 6e10 16bd
000003f0: 766c 2a3d 6abb 9cbd a76a e23d 7e5c 163c
0.16079675 0.20745307 -0.19084084 0.1317347 -0.17450507 -0.18742438 0.060500942 -0.20085932
-0.12182198 0.116378695 -0.07590348 -0.11562543 -0.11670892 0.13626897 0.15002793 0.16148207
-0.018041847 -0.14544977 0.08040974 -0.08365324 0.17580484 0.008618058 0.035602003 -0.20370217
-0.061700363 -0.08004212 -0.22817722 0.022365315 0.14131913 -0.0090134125 0.07804714 0.14765006
-0.12816134 0.0542652 -0.06303982 0.10223129 0.05028557 -0.063425206 0.25236598 0.012331609
-0.28247616 -0.03662561 0.00943216 0.1980268 -0.14580345 -0.07613579 0.07437145 -0.0855728
0.116580196 -0.18795912 0.05112688 -0.03137163 -0.006006387 -0.10502997 0.14446253 -0.18998373
0.016901167 -0.15938675 -0.024588505 -0.18989278 0.037255652 -0.043070033 -0.18020077 -0.14359805
-0.040468924 0.20463914 -0.10003515 -0.012104301 0.14691406 0.15473779 -0.25318184 -0.10451526
0.17665485 0.06666692 0.10115523 -0.112948075 -0.11943273 0.10804295 0.07379561 0.15019783
0.08106819 0.016089076 0.015168945 -0.15890796 0.0014466152 0.10480488 0.15187755 -0.3279329
0.057407133 0.025167499 -0.117764644 0.100210726 0.04609443 0.017134316 0.04335655 0.120396785
-0.123468876 -0.013961547 0.26408824 -0.064537175 -0.03468269 0.08655621 -0.16303867 0.1508454
0.033554647 -0.057903085 -0.13316435 -0.06165354 0.06667995 -0.073704906 0.013200836 -0.0016882725
-0.21118177 0.12700278 -0.051114034 0.2045317 0.1398533 -0.07557816 0.13643257 0.038150735
0.04531068 -0.009454432 0.08516373 -0.09429978 0.006016146 0.17707868 -0.043137353 0.14158034
-0.118337706 0.20962244 -0.013912424 0.09795326 0.09196414 -0.021917893 0.0896752 0.07395284
0.014220507 -0.13102765 0.024564875 0.1566331 -0.026897602 -0.13076939 -0.15290771 -0.2550656
0.12792765 0.15739098 -0.15411642 -0.13921669 -0.039393716 0.011483817 -0.20119874 0.07622513
-0.14178228 -0.050136022 0.36067826 -0.07490054 -0.17868237 -0.06952314 0.057873018 -0.16787401
0.12933716 0.11733137 0.18951473 -0.17041472 -0.043607287 0.25216585 -0.012111853 0.14776553
-0.16817187 0.20307699 0.038850483 -0.110436864 0.050351225 0.05101325 -0.07497107 0.123212166
0.11214902 -0.1312909 -0.25101304 0.13693094 0.16935803 -0.1448831 -0.15731679 -0.18135284
0.12805459 -0.10255828 0.102659315 -0.08454587 0.07988125 0.05368617 0.105716445 0.13594535
0.008200311 0.14049399 -0.2656479 -0.077476 -0.18310064 -0.05600544 0.03501964 -0.17988586
-0.13134639 -0.19137636 0.06496372 -0.08285442 0.016814146 -0.14961836 0.20369063 -0.04843171
0.08993666 0.14110103 -0.08983055 0.14790982 -0.034229998 0.096455745 0.17658515 -0.06276607
0.07204806 -0.080480464 0.005154596 0.10782561 0.22719258 -0.05330351 -0.105111316 0.04403715
-0.07002239 0.07668819 -0.22575118 -0.25912416 -0.13256001 0.14642482 -0.057216287 0.13498317
-0.0818157 0.12324284 0.017877987 -0.074828625 -0.024826517 0.10486676 0.017470105 0.0059295986
-0.16060923 0.05635953 -0.1615933 -0.11110539 -0.026655488 0.08647763 -0.18572146 0.227211
-0.07608272 0.10352174 0.10424322 -0.036636762 0.041607343 -0.07652934 0.110554986 0.009177325

linear_relu_stack.2.bias f4 [64]
00000000: 2e94 aabd 7e4d 843a 1ed4 a8bc 10c2 86bd
00000010: 9426 e5bd 3cca be3d dae3 93bc 5830 4fbd
00000020: ee59 95bd 5353 7abd 3030 a8bd a328 403c
00000030: 20d1 13be eb55 363e 6d47 18bd 9fb4 833d
00000040: 5027 063e d898 5c3d 2884 25be 4432 96bc
00000050: a610 c23d f4cb 81bd 2e18 b33d 91f6 e53d
00000060: e2ec b4bd 39be 0d3e 7523 ce3c 7578 a03d
00000070: be3f 15be 8f42 cd3d 3202 05bd da27 97bd
00000080: 8dc2 0abe b57b 233d e819 fa3d 1fc7 78be
00000090: b95d d13d 2c89 7b3d 1c2d 413e f849 aebd
000000a0: 7184 61bd 32b1 52bc 2de3 e43d 4c10 363d
000000b0: a290 2a3e 008a c3bc 81be d03d 4fce 963c
000000c0: a94b 1f3d 342b 413d 24dc 45bb f96c 103d
000000d0: 2cff 0dbe c48a e3bd c0f6 83bd f98f a1bd
000000e0: 0e0e c83d 936b 4f3d 4265 5dbe b0e0 ec3d
000000f0: fef1 57be 747e 8e3d 1d0c 0ebe df9e f43d
-0.08329044 0.0010093895 -0.020608958 -0.06579983 -0.11188999 0.09315917 -0.018052984 -0.050583214
-0.07292543 -0.06111462 -0.08212316 0.011728439 -0.14435244 0.17806213 -0.037177492 0.06430935
0.13100934 0.0538567 -0.16163695 -0.018334515 0.09475832 -0.06337729 0.08744846 0.112286694
-0.08834244 0.13842095 0.025163392 0.07835475 -0.14575097 0.10022461 -0.032472797 -0.07380648
-0.13550778 0.039912898 0.122119725 -0.24294709 0.10222954 0.061410114 0.18864864 -0.08510202
-0.055057947 -0.0128596295 0.11176143 0.044449136 0.16656736 -0.023869514 0.10192586 0.018408922
0.038890515 0.047160342 -0.0030191028 0.035260174 -0.13866872 -0.11110452 -0.06443548 -0.07888789
0.09768306 0.0506397 -0.21620658 0.11566293 -0.21088406 0.06957713 -0.13871808 0.11944365

linear_relu_stack.4.weight f4 [128, 64]
00000000: 9e5f bbbd 5883 b8ba 8768 a6bd 8f40 8abd
00000010: 4496 653d 9f79 303e 3e5b 81bc 0dd4 953d
00000020: 8b8a bf3d 26b8 a03d ef5d 2abe 7e4e b23d
00000030: cf8c 6bbd 6e77 cbbd d804 553c 5416 5ebd
00000040: c071 0ebd 654e 8bbd 1d90 d13d f46b 12bd
00000050: b781 62bc 218f 96bd 5382 233d b230 fcbd
00000060: 179a b7bd 6cb0 fd3d 6d08 89bd 739b f6bd
00000070: 24a8 c43d 9a3f 4bbe 3352 2fbd 0a23 e2bd
00000080: 14d5 2f3d 41d6 a7bd 70e2 6d3d a71a 6a3d
00000090: d3e0 8b3d 26d0 8e3d c45d 34be 2f7b b93d
000000a0: 3c13 e4bd 5f50 97bd 485a a53d bd2b c5bc
000000b0: 2338 6ebe c4b6 903d bdf9 c6be f235 3d3e
000000c0: 1667 f13d e2eb 65bd e8d5 d33c 02aa 1c3e
000000d0: a863 d9bd 049c 633c 830c 8e3d a88d 473e
000000e0: 30bd 463d 62cc c63d 111e 253d 44c0 b6bc
000000f0: f016 d5bd 7cd7 943d ea64 88bc 670e 2ebd
00000100: 2d7a 533e a336 31bd b3dd 13bc 6cfd b33c
00000110: 69c4 2cbd db45 9bbd 3ecb b7bd 9972 fc3d
00000120: 3362 4cbd 7720 a7bc bf23 823d b2b9 263d
00000130: 1e6c a4bd 178a 153c 0ee0 8b3b ead3 173e
00000140: c5be 823e ffca 603d 87a6 18bd 112d 00bd
00000150: 725c bbbd b985 a03e ab25 fa3d 7a28 ed3d
00000160: 71b8 f33d 67b2 a73d c1dc 143d cc7a ec3d
00000170: b401 04bc a80b d03c c630 813d 451d af3b
00000180: 851a 283e b547 4abd 8996 073e dd0d 5e3d
00000190: 5cb3 36be bd0e 073d 7bff 4a3d f39d 2d3e
000001a0: 0f08 3ebd fab7 a13d f204 1dbd 6875 b9bc
000001b0: 0def a23d 2852 d7bd 2c2a 033e 5c4d 1b3e
000001c0: 57f0 a3bc 0b28 1bbe eb99 983d 57ad af3d
000001d0: 271c ea3d f207 9cbb 0e03 fc3c ecfa 0e3e
000001e0: 9b72 bc3c fedb c63d 7a8e 073e 02b8 d1bd
000001f0: 8c51 dc3d 0ac3 d5bd 8642 813d 5eaf a0bc
00000200: d864 83bd fff3 193d 3933 f2bd 32a2 d7bd
00000210: e1b1 a7bc 6179 06bd c55f 953d ab65 a4bd
00000220: c437 9dbd 122a 83bd 2ee6 1dbe a3c4 aebd
00000230: 4e88 6c3d 27b5 61bd 4d5b 83bd 2af8 5f3d
00000240: 0c9c 6b3d 9840 0b3e 21e5 7d3d 64f6 35be
00000250: c08e aebd 04c4 4c3d cbe9 df3d 73b2 283e
00000260: 7041 2a3e 20f4 b8ba 1bd7 883d 938f 7bbd
00000270: 7404 8b3b a1b7 48bd 9697 42bc 6af6 403c
00000280: 75f9 543e 0a47 83bc 9580 603e 24f4 65bd
00000290: e999 ccbc 2a86 86bc b567 273d 3223 043e
000002a0: 0eed 3abb 4a7a 1e39 420c e33c 71d9 58be
000002b0: 6caf aabd 996d 18bb 1d61 573e d4cd 33bc
000002c0: 82ff e5bc b9f1 163d ec6d f83d d3b3 ff3d
000002d0: c879 833d 2eb0 f4bc c4f9 2cbc 82bb eabc
000002e0: 43b1 9dba 5624 43bc 22be 5abb 9f3c 47bd
000002f0: d871 9a3c 5203 f33c ab8b 2c3d f295 49bd
00000300: 1394 a6bd 52e9 c13d 68b1 00bc 42f0 81bd
00000310: 7cb1 c1bb 4708 18be da70 0c3e 8af5 a83d
00000320: 8312 c6bd d5bc 3e3d 3983 b7bd 85d1 8c3c
00000330: fd7a 333d ab15 a33d 7e23 b4bd c531 69bd
00000340: 2ade 133e 7125 053e 5b69 18be 69b9 40bd
00000350: eeb9 70bd e024 0dbd c1d9 3cbc fd83 a0bd
00000360: 390a 84bd 838f 5d3d 91c7 3b3e 54f2 223e
00000370: b7be a6bd 3e96 21be 25e8 fa3d 6793 d3bd
00000380: 0489 0fbe ed3c 13be 8428 7d3d 1fa4 de3d
00000390: 73bb 343e a089 e63d 2614 0bbd 3ec7 e9bd
000003a0: 58fc d23d e026 25bd 2d38 4f3b 22d5 ab3d
000003b0: 6a01 35be fe6c 3e3d 0a87 aabd bf47 e4bd
000003c0: 163f fbbb 84d2 8cbd 98bb b6bd a5c5 2d3c
000003d0: 52f8 103e 2948 843d 5614 83bd 32ca b63d
000003e0: b0b2 08be 67cd a23d 5315 43bd df85 5b3d
000003f0: 8161 813d 7067 37bd 3444 103e 0ae7 87bc
-0.09149097 -0.001407723 -0.08125406 -0.06750595 0.056051508 0.17233895 -0.015790578 0.07315836
0.09352597 0.078476235 -0.16637395 0.087063774 -0.057507332 -0.09934889 0.013001643 -0.054220513
-0.03477645 -0.06802062 0.102325656 -0.035747483 -0.013824872 -0.073515184 0.03991921 -0.123139754
-0.08964937 0.123871654 -0.0669106 -0.12041368 0.09602383 -0.19848481 -0.042803 -0.110418394
0.042927817 -0.081951626 0.058077276 0.057154324 0.06829991 0.06973295 -0.17613894 0.090566985
-0.11136481 -0.073883764 0.080738604 -0.024068708 -0.23263602 0.0706611 -0.3886241 0.1847761
0.1178724 -0.05613316 0.025858834 0.15299228 -0.10614711 0.0138921775 0.0693598 0.19487631
0.048520267 0.09706952 0.040311877 -0.022308476 -0.104047656 0.07267663 -0.016649682 -0.042494204
0.20652075 -0.043264996 -0.009025025 0.021971427 -0.0421795 -0.07581683 -0.08974312 0.12326545
-0.049898338 -0.020401223 0.06354474 0.040704437 -0.08028434 0.009127161 0.0042686528 0.14826933
0.2553617 0.054881092 -0.037268188 -0.03129298 -0.09148492 0.31352022 0.12214216 0.11579986
0.11900414 0.081883244 0.03634334 0.11546859 -0.008057047 0.025396183 0.06308131 0.0053440654
0.16416366 -0.04938479 0.13241018 0.05421244 -0.17841858 0.03297304 0.04956005 0.16954784
-0.046394404 0.07896419 -0.038334794 -0.022638991 0.079557516 -0.10513717 0.12809056 0.15166229
-0.020012064 -0.15151994 0.074512325 0.08577984 0.11431151 -0.0047616893 0.030763175 0.13962907
0.023003867 0.09709929 0.13237944 -0.10240175 0.10757741 -0.104375914 0.063115165 -0.019614872
-0.06415719 0.03758621 -0.11826176 -0.10528983 -0.020470561 -0.0328306 0.07293657 -0.08027204
-0.07676652 -0.06404509 -0.15419838 -0.08533599 0.057747178 -0.0551044 -0.064138986 0.054680027
0.057521865 0.1359886 0.061986092 -0.17769772 -0.08523321 0.049991623 0.10933264 0.16474323
0.16626525 -0.0014110841 0.06681653 -0.06141622 0.004242474 -0.049003247 -0.011876961 0.0117775
0.20798285 -0.016025085 0.2192405 -0.056141034 -0.024975734 -0.016421396 0.040870387 0.12904051
-0.0028522643 0.0001511361 0.027715806 -0.21176697 -0.0833424 -0.0023258685 0.2103314 -0.010974366
-0.028075937 0.03685162 0.12130341 0.124854706 0.06419712 -0.029869165 -0.010557596 -0.028653864
-0.0012030978 -0.011910519 -0.0033377488 -0.048641797 0.018853113 0.02966467 0.042125385 -0.049215265
-0.08133712 0.094683304 -0.007854797 -0.06344654 -0.0059110504 -0.14846908 0.13714924 0.08249958
-0.096714996 0.046566803 -0.089605756 0.01718975 0.043818463 0.07963117 -0.08795832 -0.05693223
0.14440218 0.13002564 -0.1488394 -0.04705182 -0.058771066 -0.034458995 -0.011526526 -0.07837675
-0.06447262 0.05409194 0.18337847 0.15912753 -0.08141845 -0.15779969 0.12251309 -0.10330849
-0.14017111 -0.1437871 0.061806217 0.10871147 0.17649631 0.11256719 -0.033954762 -0.114149556
0.10302037 -0.040320277 0.0031619177 0.08390261 -0.1767632 0.04649066 -0.08326538 -0.11146497
-0.0076674325 -0.0687609 -0.089224994 0.010606204 0.14157227 0.06459076 -0.06400363 0.089252844
-0.13349414 0.07949334 -0.04762776 0.053594466 0.063174255 -0.04477638 0.14088517 -0.01658966

linear_relu_stack.4.bias f4 [128]
00000000: 2ffe 3d3c 87ed fabc 5daf 0ebd 6820 cf3d
00000010: b00e c63d 5d32 df3c 2f86 4fbd 0498 28bd
00000020: fd87 18be 3505 dfbd 008e c4bc 542d 94b9
00000030: b2ca abbd 6ff9 cdbd 6932 0d3d af10 473d
00000040: c218 07be 20e6 f23d 9d4d 3a3d e599 dd3c
00000050: 2ac7 903c 9309 9cbc e9a1 01be 3072 a9bd
00000060: ea6c 8bbd 8ad4 debd 3d55 0bbe 4fc1 e83c
00000070: 4cea 0cbd 8780 b3bd 47ed 5ebd 4711 8dbd
00000080: 8321 2dbe 175f 8fbd b9bd c2bd a955 94bd
00000090: 505b 0c3e 7509 37bd 7d5d a2bd 0265 76bc
000000a0: ca22 a13c 9929 6cbd 47ff 82bd b236 833d
000000b0: ea59 94bd 6727 1a3d 1ba3 943d 94c1 aabd
000000c0: 1980 c43c ee80 89bd 0ad6 00be b2a6 463d
000000d0: c7a6 d139 33a0 9fbd b2c6 913d b451 29be
000000e0: 282c 87bc b814 b2bd cb9e 13be 51dd ba3d
000000f0: 39fb 2d3c 0e1b 213d 6209 43bd 6446 2b3d
00000100: 6f54 11bd 748f febd 550b f0bd ec71 9fbc
00000110: fa8d 02bc 7818 8dbd 31f4 16be 5cd5 e9bd
00000120: 8d84 bcbc 2d00 00be cdc6 653d edeb 06be
00000130: f396 a73d ffe3 6f3c b852 9ebd 80b7 193d
00000140: ef2e 023e bd2f 21be 01b9 c2bd 1bc8 cebd
00000150: 272d abbd 68e3 c83c a19c b23d e70c d8bd
00000160: bf04 3abe 34ee e3bd 3cb7 983d 3b6e bbbd
00000170: f5fa 0d3e dcdc 053c e425 03bc be5e 4a3d
00000180: c3b7 10bd 901e 423d 7747 09be 32f9 c5bd
00000190: 780a 743c 5049 fcbd e801 8fbd 38b7 893d
000001a0: 2e13 0cbe f92c d8bd 6d7f 973d bcd7 1d3d
000001b0: b506 adbc cdd3 ad3d d249 863d ca69 c3bd
000001c0: 4fbe 1ebe 6ed6 863d 6777 91bb 4888 8cbd
000001d0: 6627 1dbd 4548 23bd 52be b3bd 60f7 9dbd
000001e0: db37 02be 922d 0cbb 177c 43be 4dac 17bd
000001f0: 30d2 343d 1d53 41bd 7967 ddbd 4792 a7bd
0.011596247 -0.03063084 -0.03483521 0.10113603 0.0967077 0.027245695 -0.050665077 -0.0411606
-0.14895625 -0.10889665 -0.023993492 -0.00028262532 -0.083882704 -0.10057341 0.034471903 0.048599895
-0.13193038 0.11860299 0.045484174 0.027050922 0.017673094 -0.019047534 -0.1265942 -0.08273733
-0.06807883 -0.10880382 -0.13606735 0.02841249 -0.03440313 -0.08764749 -0.054425504 -0.06888061
-0.16907315 -0.07000559 -0.09508843 -0.07242901 0.13706708 -0.044686753 -0.07927988 -0.015038731
0.019669909 -0.057656858 -0.063963465 0.06406917 -0.07243712 0.037635233 0.072576724 -0.08337703
0.023986863 -0.067140445 -0.1258165 0.048498817 0.00039987845 -0.077942275 0.07117976 -0.16535074
-0.016500548 -0.08695358 -0.14416043 0.09124244 0.010618978 0.039332442 -0.04761637 0.041815177
-0.035480913 -0.12429705 -0.117209114 -0.019463502 -0.00796842 -0.06889433 -0.14741589 -0.11417648
-0.023012424 -0.12500067 0.056097794 -0.13175936 0.08183088 0.014641761 -0.07730621 0.037528515
0.12713216 -0.15740867 -0.09507943 -0.10096761 -0.083582215 0.024522498 0.08721281 -0.10549336
-0.18165873 -0.11129418 0.07456824 -0.09151884 0.13865264 0.008170333 -0.008004639 0.04940676
-0.0353315 0.047392428 -0.13406168 -0.09666671 0.014895074 -0.12318671 -0.069827855 0.06724399
-0.13679191 -0.10555453 0.073973514 0.03853582 -0.021121362 0.084876634 0.06557049 -0.09541662
-0.15502284 0.06583868 -0.0044392827 -0.06861931 -0.03836765 -0.039863843 -0.08776535 -0.07713199
-0.1271662 -0.0021389467 -0.19090305 -0.037029553 0.044145763 -0.047198404 -0.108107515 -0.08182197

linear_relu_stack.6.weight f4 [64, 128]
00000000: f734 88bd 9362 443d c40b d53d 8f0f 76bd
00000010: 2eec 01bd 7b3e 423a 9484 3abd e8f1 133d
00000020: 40f7 913c 09a7 37bc f433 e3bd 0449 b93d
00000030: 7665 993d ed8a 993d 5673 e03d 37a9 3d3d
00000040: f66e 573d eea9 17bd 26bf 943d 5424 66bd
00000050: c847 1b3e e909 793b 9520 ae3b 5e85 583d
00000060: 3e29 ce3b ce08 9bbd 8d24 173c b576 66bc
00000070: 3bbe 74ba 74b5 ab3b 9c77 163d 47a3 923d
00000080: db40 d53d bd72 05bd d033 3f3e 2de0 473d
00000090: 3fe9 f2bc ce4c 9fbc d4c0 5fbd 2c95 66bd
000000a0: 894a 70bc dfb9 be3d 6faf 28bd 653d 533d
000000b0: 9f91 9d3d edc1 0c3d eda1 673c 6e7d 833c
000000c0: 8afb 02be 8806 71bd 67e6 9ebd c052 e8bb
000000d0: 2fdc fd3c 633b 423d 9311 e03d 1c1d 06bd
000000e0: 9af4 c4bd 9aa1 363d 0081 703c c232 9d3d
000000f0: f6a5 9d3d 71ba 163e 7eb6 e53d d9aa 7cbd
00000100: 72db cc3d 8c72 03be afe1 ed3d ba9f b53b
00000110: 9996 8dbc dc7f df3d d81e 183d 7b0b 2c3d
00000120: c4e2 d3bd 9dc4 ee3c cb22 753d 0e74 5dbd
00000130: 7fa7 e13b 0a83 e43d 9b4c dbbc f248 f8bc
00000140: 87fb 263d 73e6 73bc 5f93 2abd d823 833c
00000150: 6d32 48bd 3c12 5a3e 5bce 19bd 35cf 513b
00000160: c4ba e83d f5ec 0e3e 1daa 843d 7b38 51ba
00000170: 5f7f fa3d 1ca0 b73d ad6d ed3c 9fd4 9a3d
00000180: 3a06 553d 159f 0b3c 379e 223e 9cb9 fc3c
00000190: b4fc c63d 6302 ad3d 8821 8bbd 7ff9 b43d
000001a0: 3798 3a3c 0376 56bc f728 68bc 39a7 07bd
000001b0: 5c69 66bd 74da a2bd 52f7 93bd 89af cc3c
000001c0: 8c18 8b3d d063 9abd f16f e83c aa83 313e
000001d0: 3003 7bbd 05e1 7a3c ebf7 53bc e720 f43d
000001e0: c5d3 6c3b 33b8 8d3d 3dfe fd3c c204 b03d
000001f0: 37b5 813d 7cc5 1f3e f372 f43a 9636 953d
00000200: b11a f43d 0367 92bc 357f f53c e7a4 e6bd
00000210: 668a dcbb 70ff 22be 690e fabc c755 1dbe
00000220: 7eff 06be 1f64 6e3b a574 d3bd bfcd be3d
00000230: 47ba cabd 36e3 3fbc 37f4 613d d219 0bbe
00000240: 1b0c f6bd 8dbc 01be 524a 5f3d 3510 19bc
00000250: e1a2 71bd 741a 833d 48c1 1fbd 6686 8abd
00000260: 984a c43c f7cf 093e 920f b63d da24 233c
00000270: 78ba a3bd 09bb 453d 2f24 71bc 6567 f0bc
00000280: 2694 883d 86ea 9dbd e35e 583d 9268 b5bc
00000290: 40dc 58be 5a2e e13d 27ba 8b3c a552 2abe
000002a0: 02ad f6bb 5415 14bc e25f cdbd 67e0 4cbd
000002b0: aba6 d8bc c6a5 63bd 8bb5 573d f730 1fbd
000002c0: eeef f03d 8f3c e3b8 ff11 acbc b068 1b3e
000002d0: 0b5a f93d c859 34be 6fcd 1b3e d710 b4bc
000002e0: 3cf7 b53c f116 223d fd7c 843d 934f 513d
000002f0: 19bf 233c 25da 8abd 4102 b4bd c446 8d3d
00000300: 79f4 dc3d 2c6d 43bd 274b 093e 438b 12bd
00000310: d38e a6bd 7640 d1bd 5da6 22bd 1b24 61be
00000320: d496 043e 2e5c 1abb edbf 93bd 347c 7e3c
00000330: c3f3 e6bd 657b 2c3c 5f84 d33d dd2f b4ba
00000340: 88d1 973d 00b8 a5bd 8c19 8cbd c151 9f3d
00000350: 27fd eb3c eef5 edbb 0e7a f43c 1966 4e3d
00000360: 63a1 08be 8d2b 97bd d89b 123e db03 2cbd
00000370: 7f96 f73c ee4f b03c 117d 733d 5e14 d43d
00000380: 9074 86bd 52cd 0cbd 67bf 0bbc 7a24 cd3c
00000390: 9dd6 d63a 22a3 d93b bcc0 dbbd b798 80bc
000003a0: dfc4 8ebd 53c7 44bd 3377 c1bc d1a9 6bbb
000003b0: 52df 30bd 71c1 55bd 5017 a6bd 6c66 70bd
000003c0: ccc8 6fbd 3785 703c 5f2f 8aba a24c 94bd
000003d0: 10ff 8dbd 926e bd3c 39b4 d93c 608e d9bb
000003e0: 2d37 bb3b c892 363d f13f 0f3d 4668 bdbd
000003f0: f38f 713d bf7d a8bd 74a3 163e e3c6 b53d
-0.06650727 0.04794557 0.10402635 -0.06007343 -0.03171938 0.0007409823 -0.045536593 0.03611937
0.017818093 -0.011209258 -0.11093894 0.0904713 0.07490055 0.07497201 0.109594986 0.046303954
0.052596055 -0.037027292 0.07263021 -0.05618699 0.15164101 0.0038000292 0.0053139427 0.052861564
0.0062915375 -0.07570039 0.009225023 -0.014066388 -0.0009336208 0.0052401368 0.036735162 0.07160049
0.10412761 -0.032580126 0.18672109 0.048797775 -0.029652236 -0.019445803 -0.054627255 -0.056294605
-0.014666208 0.09312796 -0.04118293 0.051572222 0.07693791 0.03436463 0.014137727 0.01605102
-0.12791267 -0.05884412 -0.077587895 -0.0070899427 0.03098878 0.047419917 0.10940852 -0.032742605
-0.096169665 0.04458771 0.0146791935 0.07675697 0.0769767 0.14719559 0.11216448 -0.06168637
0.10002793 -0.12836665 0.11615311 0.0055427225 -0.017283725 0.10913059 0.03713879 0.042003136
-0.103459865 0.029146487 0.059847634 -0.054065756 0.006886422 0.11157806 -0.026769927 -0.03030822
0.04076722 -0.014886486 -0.04164445 0.016008303 -0.048876215 0.21296018 -0.03755031 0.0032014374
0.11363748 0.1395758 0.06477759 -0.00079811335 0.12231325 0.08966085 0.028982962 0.075600855
0.05200789 0.008521815 0.15880667 0.030850224 0.09716168 0.08447721 -0.06793505 0.0883665
0.01138883 -0.01308966 -0.014169923 -0.03311846 -0.056252822 -0.07951823 -0.07224907 0.024986045
0.06791791 -0.07538569 0.02837369 0.17335382 -0.061282337 0.015312438 -0.012937526 0.11920338
0.0036136967 0.06919899 0.03100502 0.085946575 0.06333392 0.15602678 0.001864998 0.07285802
0.119191535 -0.017871385 0.029967884 -0.112619214 -0.0067303656 -0.15917754 -0.03052445 -0.15364753
-0.131834 0.0036375595 -0.103249826 0.09316587 -0.09898811 -0.011711886 0.055164542 -0.13584068
-0.12014028 -0.12669583 0.054514237 -0.009342243 -0.058993224 0.0640153 -0.039002687 -0.06763916
0.02396135 0.13458239 0.088896886 0.009957517 -0.079945505 0.048274074 -0.0147180995 -0.029346177
0.06668882 -0.077107474 0.052824866 -0.02214459 -0.21177769 0.10995169 0.017056538 -0.16633089
-0.0075279484 -0.009038288 -0.10028054 -0.050018694 -0.026446661 -0.055578016 0.052663367 -0.038865056
0.11764513 -0.000108354834 -0.021004675 0.15176654 0.121753775 -0.17612374 0.15215085 -0.021980686
0.022212617 0.03957266 0.06469152 0.05110128 0.009994292 -0.06779889 -0.087894924 0.06898263
0.10788817 -0.047711536 0.13407575 -0.03577734 -0.0813271 -0.10217373 -0.039709438 -0.2198643
0.12948161 -0.0023553479 -0.07214341 0.015532542 -0.112769626 0.010527466 0.10327982 -0.0013747175
0.07413012 -0.08091736 -0.0684081 0.07779265 0.028807236 -0.007261983 0.029843356 0.050390337
-0.13342814 -0.073813535 0.14317262 -0.041995864 0.03022313 0.021522488 0.059445444 0.10355447
-0.06565201 -0.034375496 -0.008529521 0.025041807 0.0016390864 0.0066417614 -0.107301205 -0.01569782
-0.06971144 -0.048041653 -0.023616409 -0.0035959373 -0.043181725 -0.052186433 -0.08109915 -0.058691427
-0.058541104 0.014680198 -0.0010542682 -0.07241179 -0.06933415 0.023124013 0.026575195 -0.006639287
0.0057133646 0.044573575 0.03497309 -0.09248404 0.05897517 -0.08227109 0.1471079 0.08875825

linear_relu_stack.6.bias f4 [64]
00000000: bda3 113d 933e a53d 7b07 c2bc 7723 bcbd
00000010: 28f1 e23b 8284 dabd 22d8 cebd 6397 f6bd
00000020: f23c e0bd 9617 873b 0085 e8bd 79e9 81bd
00000030: 5ed1 ae3b 09a8 13be 18c5 7b3d 3c15 41bd
00000040: 4999 a33d 7c8c 2abd 9fb4 713d f62e 9a3d
00000050: 2ca1 fdbd afb6 543d 9417 9ebd 6f33 8a3b
00000060: 1fa2 8ebc dd5f 18be 8629 733c d207 8dbd
00000070: 2764 d7bc b775 853d 711d a0bc d2c9 a3bc
00000080: 0b73 fd3c 0652 c93d ca82 86bd 032e 95bd
00000090: bc87 d63d c354 a83c 1447 2a3d c17c 55bd
000000a0: f9fd c2bc 8afe 573c d99f c5b9 f8df 563a
000000b0: f59b cbbc 7159 113d b7e5 48bd 7728 2e3c
000000c0: 8cd2 e9bd 0079 8fbc be2d 033d e3e0 6c3c
000000d0: f0fe 0cbd 30b1 25be 7046 99bd efb5 05bd
000000e0: 1040 eebc 6715 03bd 99a5 813d f224 a13c
000000f0: d11f 73bd 0234 37bd 00b3 25bd 1cfc 26bd
0.035556544 0.08068576 -0.023685208 -0.09186452 0.0069257207 -0.10669805 -0.10099818 -0.120405935
-0.109491244 0.0041226847 -0.11353493 -0.063433595 0.005335017 -0.14419569 0.06146726 -0.04713939
0.07988221 -0.041637883 0.059010144 0.07528488 -0.12384257 0.051932033 -0.07719341 0.004217557
-0.01741129 -0.14880319 0.014841443 -0.06886257 -0.026292874 0.06516593 -0.019545289 -0.019993696
0.030938646 0.09830098 -0.06567915 -0.07284167 0.10475108 0.02054823 0.04157169 -0.052120928
-0.023802744 0.013183245 -0.00037693864 0.0008196826 -0.02485464 0.03548569 -0.0490472 0.010629765
-0.11417112 -0.017513752 0.032026045 0.014457914 -0.034422815 -0.16180873 -0.07484138 -0.03264421
-0.029083282 -0.032002833 0.06330413 0.019670937 -0.059356514 -0.044727333 -0.04045391 -0.040767774

linear_relu_stack.8.weight f4 [32, 64]
00000000: af12 cebd e4dd ebbd fce1 81bd 4a2f 1c3e
00000010: 28d9 7b3d 71f7 b3bd 0aeb 583c 7fa4 80bd
00000020: c4ba 89bd 4372 b23d da37 2f3d 711a 90bd
00000030: 5a21 03bd aec1 ba3d 1eb6 1bbe ee8f 22bd
00000040: ff9e 503d b66a 243d 4e02 7eba 6dce 1e3d
00000050: 408d dd3d 473f b3bc 84a0 27be a457 7ebd
00000060: 25c9 0e3d 96c3 6dbc 97ed 56bc 4139 f23d
00000070: 3624 40be ab30 89bd 4e7c c03d 8ad2 6e3c
00000080: 4493 cf3d 5352 e5bc 971f d93d 405a 3e3d
00000090: 61c1 4cbd 4d07 443d e48a 523d fd4c b8bd
000000a0: 9303 0c3d 4d65 8d3b 994f 4ebe 15b1 23be
000000b0: a64b ae3b 0c78 d3bd 246b 9f3c e7e7 0cbe
000000c0: e829 ad3b 1455 023d 51b3 86bd 5335 8bbc
000000d0: 440f e03d 8547 3dbd b449 b5bc 5456 abbc
000000e0: 7056 7e3b 36cf 28bc f525 ddbb d8d7 ba3b
000000f0: 4471 38bd 847b afbd acec 9c3d e875 653d
00000100: 7b8e 0f3e 9ece 41bd 1feb fd3c 8ec7 cf3c
00000110: fb28 8c3d d765 50be 3877 0c3e dba9 07bd
00000120: 1faa f6bd 6361 5fbd 51e0 bebc 7ecf 70bd
00000130: 70ff 01be dd2a 8b3d 2af2 ae3d 5d43 82bd
00000140: c3de 24be c98c 743d eb3d febd 559d 1f3d
00000150: d446 7d3d 8a09 b43c efeb 7fbc 8314 af3c
00000160: 7ff0 0a3d 7212 e53d 754a 06bc 2a2c 6f3d
00000170: d5da 7eb9 024c 123d a9d6 183d 0f3f c7bd
00000180: e9f5 e13d 5c19 363e ce2e 57be 6bda 1b3d
00000190: 6a58 ecbd adc0 553d b629 873c 8a93 8dbd
000001a0: 717b 00be c969 053e e57b 4ebd 50ac 12bd
000001b0: ae8e aa3d 3482 423c 7c27 d9bc cb7d 1bbe
000001c0: edca 05be 068b 55be 09a4 debd db72 173d
000001d0: e87c b23d 2db8 d6bd 439b 3bbd 1fd0 893d
000001e0: cb18 0d3d 0d2e f6bd 87f3 913d 5986 283d
000001f0: 0e6f 12be d161 1a3e bdf8 63ba 14b4 76bd
00000200: 20fc 47bc 7bf3 f73c 5ad0 853d cdc5 183e
00000210: fbea f8bc a05f 00be e96d 0dbe f639 bd3d
00000220: 2368 213d b5db e83c be8e 2d3e e703 c7bd
00000230: 5b67 6f3d 102f 4eb9 2d97 e33d 58ce b13d
00000240: fd68 09be 8a5c 8a3d 113b 92bd e404 9dbd
00000250: 734a 4bbd 7316 6b3d 8124 f0bb 666c 04bd
00000260: 7fb3 57bb 1aa5 ef3d 2141 b13d b2a8 a33c
00000270: 4727 a2bd a399 2c3d f947 fb3d 000f 853d
00000280: ba8a 3d3d 5d0d 27bd 9deb 183d c1f0 353e
00000290: 586d 0bbd d7ba 233b 78f2 a63c e895 73bd
000002a0: 1b1d 403e 986c b2bd aa7d c4bd ce89 b83c
000002b0: 51f0 af3c 2e12 8cbd 5844 413d ef01 83bd
000002c0: 6304 05bc 25b3 d43c 0067 97bd 18a6 b5bd
000002d0: a531 c9bd fb9d 843d cb57 2d3d 52e5 8bbd
000002e0: 4819 903d 4d54 d43c 98b0 3abd f99a 1cbe
000002f0: 566b 79bd 5984 773c 862a 123d 577b 023d
00000300: 7e10 fb3d 22f7 39bd b417 1dbc 2a79 133d
00000310: 0d69 cebd ddb3 a73c 7115 653c 3e5c 2b3d
00000320: 1cd5 933d 0085 ffbc d75f c5bc 0267 593d
00000330: 8275 77bd 155e 9abc 1c33 f53d a1af c6bd
00000340: a966 d73c 4277 3c3e b10d 3a3e ed74 ce3d
00000350: a94d 0abd 4cfe 5c3c 7771 1b3e e59a c73d
00000360: 1ced c63c c2ac 133e 8d04 0a3d c170 dabc
00000370: f57c 90bd 2ec7 f0bd b608 e33c f105 4a3d
00000380: 7a01 06be 8fee 843d d4c7 5b3d b849 213d
00000390: a95b 2dbe c776 73bd 1750 aebb 6243 6f3e
000003a0: 149d 28be 6fcf e43a ab78 993d 0e56 13be
000003b0: da79 6d3d 3448 99bd 6b1a 8339 4886 bfbc
000003c0: f913 42be 7100 72bc 282e 3abc 6a98 5bbe
000003d0: 15cc 113d 93b5 03bd ba65 a7bd 53db d1bc
000003e0: e9c3 00bd 9e94 e8bd 1d4b 0f3e 3ce7 b33d
000003f0: cefe 37bb ad18 eb3d fcf0 b43d 5bcd 1bbd
-0.10062157 -0.11516932 -0.06341931 0.15252414 0.061486393 -0.0878743 0.013239631 -0.06281375
-0.06725076 0.087132 0.042777874 -0.07036293 -0.03201423 0.09118973 -0.15206191 -0.039688043
0.05093288 0.04014083 -0.00096896745 0.03877108 0.10817957 -0.021880759 -0.16369826 -0.0620953
0.034859795 -0.014511963 -0.013118169 0.118273266 -0.18763813 -0.06698736 0.09398709 0.014576564
0.101355106 -0.027993357 0.106017284 0.046472788 -0.049989108 0.047858525 0.051401988 -0.08999059
0.034183096 0.0043150545 -0.20147552 -0.1598552 0.0053190766 -0.103256315 0.019460268 -0.13760339
0.0052845366 0.031819418 -0.06577171 -0.0169932 0.10940412 -0.046210784 -0.022129871 -0.020915188
0.0038808845 -0.010303309 -0.0067489096 0.005702 -0.045029894 -0.085684806 0.07662329 0.056020647
0.14019196 -0.047316186 0.030995904 0.02536371 0.06843754 -0.20351349 0.13717353 -0.03312097
-0.12044167 -0.054536235 -0.023300322 -0.05879163 -0.12695098 0.06795285 0.08542283 -0.06360505
-0.16100602 0.059704576 -0.12414154 0.038968403 0.061835125 0.021977205 -0.015620216 0.021372085
0.03392076 0.11185159 -0.008196463 0.058391728 -0.00024304849 0.035717018 0.03731409 -0.09728824
0.11033232 0.17783111 -0.21013948 0.038050096 -0.11540301 0.052185703 0.016499382 -0.069129065
-0.12547089 0.13028635 -0.050411124 -0.03580886 0.08327995 0.011871863 -0.026508085 -0.15184705
-0.13065691 -0.20853814 -0.10871131 0.03697477 0.0871523 -0.104843475 -0.045802366 0.06729149
0.034447473 -0.12020502 0.07126527 0.04114375 -0.14300177 0.15076376 -0.00086964277 -0.06023033
-0.012206107 0.030267468 0.065338805 0.14919205 -0.030385485 -0.12536478 -0.13811459 0.09239571
0.039405953 0.028425077 0.16948983 -0.09717541 0.058448177 -0.00019663223 0.11112819 0.08681935
-0.13418956 0.06755932 -0.07140172 -0.076669484 -0.049631547 0.057394456 -0.0073285704 -0.03232994
-0.0032913384 0.117014125 0.086550005 0.019977901 -0.07917648 0.042138707 0.12269587 0.06497002
0.046274878 -0.04078423 0.037334073 0.17767622 -0.034039825 0.0024983191 0.02037929 -0.059469134
0.18761103 -0.08712119 -0.09594281 0.022526648 0.021476896 -0.06839405 0.04718432 -0.06396853
-0.008118722 0.025964329 -0.073926926 -0.088695705 -0.09823922 0.06475445 0.042320054 -0.06830849
0.07036072 0.025919104 -0.04557857 -0.15293492 -0.06089338 0.015107238 0.035685085 0.031855907
0.12259005 -0.0454017 -0.009588171 0.036004223 -0.100786306 0.020471508 0.013982163 0.041836016
0.07218382 -0.031191349 -0.024093552 0.05307675 -0.0604148 -0.01884369 0.11972639 -0.09701467
0.02629407 0.18404868 0.18169285 0.100808956 -0.03376547 0.0134883635 0.15180002 0.09746341
0.024282984 0.1442137 0.033695746 -0.026665093 -0.07055084 -0.117567405 0.027714115 0.049322072
-0.13086501 0.06490814 0.053657368 0.039376944 -0.16929497 -0.059439447 -0.005319606 0.23365548
-0.1646617 0.001745684 0.07493719 -0.14388296 0.057977535 -0.07484475 0.0002500595 -0.02337946
-0.18952931 -0.014770613 -0.011363544 -0.2144486 0.03559502 -0.032155585 -0.081737 -0.025617277
-0.031436834 -0.113564715 0.13993497 0.08784339 -0.002807546 0.11479316 0.088350266 -0.03803764

linear_relu_stack.8.bias f4 [32]
00000000: a571 10be fc79 753d 58fb abbd 3b4e 793d
00000010: bd82 b3bd af0e f23b bfa4 03bc e7f3 103d
00000020: 0bfc a3ba 6f02 95bd 9f44 91bc a861 07bd
00000030: 5353 85bd 383d 293c d17e 8e3d 797c 38bd
00000040: c8a5 983c b91d dc3d 5b29 86bd 8d28 e9bd
00000050: 6b64 fbbc c89d 07bd 9a5e 3e3c 2b14 18bd
00000060: 8474 08bd 4310 e73b 43f3 31bd cb23 d7bd
00000070: e757 ac3d 32b4 373d 3ee2 0c3c c8c4 a0bd
-0.14105852 0.059930786 -0.083975494 0.060865622 -0.08765171 0.0073870043 -0.008034884 0.035388853
-0.0012511028 -0.07275855 -0.017732916 -0.033052117 -0.065100335 0.010329537 0.06957782 -0.04504058
0.018633738 0.10747857 -0.06550857 -0.113846876 -0.030687531 -0.033109456 0.011619234 -0.03712861
-0.033314243 0.007051499 -0.043444883 -0.10504874 0.084152035 0.044849582 0.008598862 -0.07850033

linear_relu_stack.10.weight f4 [1, 32]
00000000: 108a 71bc f25e ab3d a553 323e 3fe0 41be
00000010: 5cf1 503d 6463 88ba cae0 6fbb b2fa 073e
00000020: 3166 93bc 982e b0bd 2c03 94bd 7cbb a43d
00000030: ab12 3c3e 15c4 393e b723 8abd f22b 94bd
00000040: 09e5 b6bb 0897 b93d 0dad 24bd 380b 463d
00000050: 3e59 e7bd 761a ea3d 3c93 21ba 4750 05be
00000060: 4f7e 543d 5341 d93c 6557 603b 5b20 7b3a
00000070: 2445 a63d c073 a7bd 5bc2 14be 0773 37b9
-0.014742389 0.08367719 0.1741472 -0.189332 0.05101143 -0.0010405597 -0.003660249 0.13279226
-0.017993065 -0.08602637 -0.072271675 0.08043572 0.18366496 0.18141206 -0.06745093 -0.072349444
-0.0055815023 0.0906201 -0.040204097 0.048350543 -0.112963185 0.11430828 -0.0006163602 -0.13018905
0.05187827 0.026520407 0.0034231779 0.00095797115 0.08118656 -0.081763744 -0.14527266 -0.00017495091
