model/pendulum_model_3.pth (torch, 88706 bytes, 11 tensors)

linear_relu_stack.0.weight f4 [32, 3]
0	0x3eef9a2a	0.46797305
1	0xbda9e810	-0.082962155
2	0x3ec09cda	0.37619668
3	0x3da75b1b	0.08171674
4	0x3ce816d0	0.02833119
5	0xbeb8ff52	-0.36132294
6	0xbee5cbf7	-0.44882175
7	0xbeb9fe43	-0.363268
8	0xbef076aa	-0.46965533
9	0xbea11d4b	-0.3146766
10	0xbee023ed	-0.4377741
11	0xbe5516d5	-0.20809491
12	0x3eea679d	0.45782176
13	0xbd933cc8	-0.071893275
14	0x3da7d0d0	0.08194125
15	0xbf01c7cf	-0.5069551
16	0xbeb3f5e3	-0.35148534
17	0xbdda4e50	-0.10659468
18	0xbda8ec3b	-0.082481824
19	0xbf00a7ea	-0.50256217
20	0x3ebbfc74	0.36716044
21	0xbe6fefbd	-0.23431297
22	0x3d92a363	0.0716007
23	0x3e6cbce4	0.23118931
24	0xbe08ec6f	-0.13371442
25	0x3f02e4b6	0.51130235
26	0x3ecd3e1d	0.4008645
27	0x3f02850b	0.5098426
28	0x3dc44f4b	0.095854364
29	0xbd9e5402	-0.07730867
30	0xbe504406	-0.20338449
31	0xbec81059	-0.39074972
32	0xbe6acb81	-0.22929193
33	0xbe3d0402	-0.1845856
34	0xbeaa117b	-0.33216462
35	0x3f01516d	0.5051487
36	0x3eff4450	0.49856806
37	0x3eafb04d	0.34314194
38	0xbed33379	-0.41250208
39	0xbec7f244	-0.39052022
40	0x3e287ea3	0.16454558
41	0xbdc87a00	-0.09788895
42	0xbea00323	-0.31252393
43	0xbe3708a9	-0.17874397
44	0xbef4bf0d	-0.4780201
45	0xbd999c47	-0.07500511
46	0x3ef3d4ce	0.47623295
47	0x3e84d7be	0.25945848
48	0x3e821f46	0.25414485
49	0x3ec27727	0.3798153
50	0x3e4c6d8e	0.19963667
51	0x3ed38875	0.41315046
52	0xbefd3515	-0.4945456
53	0x3eb76de9	0.35826042
54	0x3ed2e506	0.41190356
55	0x3f0b91a4	0.54519105
56	0x3eae5458	0.34048724
57	0xbed9073b	-0.4238833
58	0x3f0df28a	0.5544821
59	0x3e1a4b46	0.15067777
60	0x3c974db5	0.01846967
61	0x3dbada5e	0.091236815
62	0xbe789f7d	-0.2427959
63	0xbed0ad44	-0.4075719
64	0x3e7fb1bd	0.24970146
65	0x3e123d98	0.14281309
66	0x3e25080c	0.16116351
67	0xbef21012	-0.47277886
68	0xbe16cdea	-0.14726987
69	0xbd8a5bc1	-0.06755782
70	0x3e71e592	0.2362273
71	0x3eabca8c	0.33552969
72	0x3f0ff704	0.5623629
73	0x3f0a36e8	0.5399003
74	0xbe8c6c13	-0.27426204
75	0xbd6756f7	-0.05647942
76	0xbc886cbc	-0.016653411
77	0x3e4b8f18	0.19878805
78	0x3c7a0db3	0.015262055
79	0x3edeec85	0.43539825
80	0xbf104434	-0.5635407
81	0xbf0e2856	-0.555303
82	0x3ee2c0b9	0.4428766
83	0x3eac3642	0.33635145
84	0xbe61e0ba	-0.22058383
85	0x3ebd631d	0.3698968
86	0xbda6b21f	-0.08139443
87	0x3ec8ef5b	0.39245114
88	0x3ee2018a	0.441418
89	0xbe8daf0a	-0.27672607
90	0x3e22811c	0.15869564
91	0xbecc5c91	-0.39914373
92	0x3ef8f1d3	0.48621997
93	0x3e858c9c	0.2608384
94	0xbeec23fc	-0.46121204
95	0xbf0dd827	-0.5540795

linear_relu_stack.0.bias f4 [32]
0	0x3e20942a	0.1568152
1	0xbeeb99dd	-0.46015826
2	0x3e5924e1	0.21205474
3	0xbe5796b0	-0.21053576
4	0xbed729e8	-0.4202416
5	0x3d45181d	0.0481187
6	0xbe734111	-0.2375529
7	0xbebf0024	-0.37304795
8	0x3d85565d	0.06510613
9	0xbdc41550	-0.095743775
10	0x3e7e1439	0.24812402
11	0x3e717ed7	0.23583542
12	0xbdd95cdf	-0.10613417
13	0x3d632ad7	0.055460777
14	0x3f06e1e1	0.52688414
15	0xbf010f87	-0.5041432
16	0x3d59be7d	0.05316018
17	0x3df7d1bc	0.121005505
18	0xbe11096d	-0.14163752
19	0x3eea8421	0.4580393
20	0xbedb592d	-0.42841473
21	0x3eadd514	0.33951628
22	0xbd1c05b2	-0.03809137
23	0x3dc30ae7	0.09523564
24	0xbe814cb2	-0.25253826
25	0x3ec6880f	0.3877568
26	0x3ea95e54	0.3307978
27	0xbe034a4d	-0.12821312
28	0xbeb084b2	-0.34476238
29	0x3ecd6e5e	0.40123266
30	0xbe43f118	-0.19134939
31	0x3ebd697f	0.3699455

linear_relu_stack.2.weight f4 [64, 32]
0	0x3e24f553	0.16109209
1	0x3e3b8615	0.18312867
2	0xbe35a0a6	-0.17737064
3	0x3e0362c6	0.12830648
4	0xbe2d13cd	-0.16902085
5	0xbe334e04	-0.1751023
6	0x3d9b7b00	0.0759182
7	0xbe4b9d20	-0.19884157
8	0xbe06645f	-0.13124226
9	0x3df321d8	0.118716896
10	0xbd8f66dc	-0.07002041
11	0xbde9d972	-0.114184275
12	0xbdda0b34	-0.10646668
13	0x3e102743	0.14077477
14	0x3e1d64cc	0.15370482
15	0x3e1467ae	0.14492676
16	0xbcba3d6f	-0.022734372
17	0xbe07f174	-0.13275701
18	0x3d916a9d	0.07100413
19	0xbda3c984	-0.079974204
20	0x3e36b27e	0.17841527
21	0x3c820aea	0.015874345
22	0x3d00f37a	0.031482197
23	0xbe210d31	-0.15727688
24	0xbd376d74	-0.044782117
25	0xbd922824	-0.071365625
26	0xbe60adfc	-0.2194137
27	0x3c453fbe	0.012039123
28	0x3e026a2c	0.12735814
29	0xbb7c7b43	-0.0038525618
30	0x3d9efda9	0.077632256
31	0x3e170128	0.14746535
32	0xbe010166	-0.1259819
33	0x3d0fc106	0.03509619
34	0xbd8956d5	-0.06706015
35	0x3dd0acc7	0.10189205
36	0x3d451df8	0.048124284
37	0xbd7ede31	-0.062223617
38	0x3e5fb0bd	0.21844764
39	0x3bbb1019	0.005708706
40	0xbe812478	-0.25223136
41	0xbd0effbd	-0.03491186
42	0xbb23bf5b	-0.0024985883
43	0x3e3ef7f4	0.18649274
44	0xbe1a21ea	-0.15052
45	0xbda0d820	-0.078537226
46	0x3db80679	0.089856096
47	0xbd332868	-0.043739706
48	0x3de1d426	0.11026792
49	0xbe307ae7	-0.17234384
50	0x3d1967fd	0.037452687
51	0xbc95e2cf	-0.018296627
52	0xbcbb6bd7	-0.02287857
53	0xbdd0d9a8	-0.10197765
54	0x3e2dbf23	0.16967444
55	0xbe423818	-0.1896671
56	0x3c302db0	0.01075308
57	0xbe1dffae	-0.15429565
58	0xbd861440	-0.06546831
59	0xbe47327b	-0.1945285
60	0x3d20f6ee	0.03929799
61	0xbd533304	-0.051562324
62	0xbe26a942	-0.16275504
63	0xbe04b09c	-0.12957996
64	0xbce88ad3	-0.028386509
65	0x3e4eee4c	0.2020809
66	0xbdf11ea0	-0.117734194
67	0xbd76f00a	-0.060287513
68	0x3e214bd9	0.1575159
69	0x3e0081ff	0.1254959
70	0xbe650e8e	-0.22368833
71	0xbdf7420f	-0.120731466
72	0x3e208ab2	0.15677908
73	0x3d9c8b73	0.07643785
74	0x3ddad71a	0.106855586
75	0xbdde48b4	-0.10853711
76	0xbdd44e22	-0.10366465
77	0x3dca1a4c	0.09868297
78	0x3cf31b87	0.029676212
79	0x3dfc2830	0.12312353
80	0x3db04f08	0.08608824
81	0x3ce5055a	0.027956653
82	0x3d36e367	0.04465046
83	0xbe214f77	-0.1575297
84	0x3b3d391e	0.0028873156
85	0x3dc43c30	0.09581792
86	0x3e15a1ea	0.14612547
87	0xbe98e4df	-0.29862115
88	0x3d9b56da	0.07584925
89	0x3d2393e6	0.03993597
90	0xbc83e28b	-0.016099235
91	0x3dc0be1a	0.09411259
92	0x3d25ab4c	0.040446565
93	0x3d3d2cb6	0.046185218
94	0x3d235242	0.03987337
95	0x3e05963c	0.13045591
96	0xbdde7ac2	-0.10863258
97	0x3993bd06	0.00028178858
98	0x3e734d87	0.23760043
99	0xbd99b6e7	-0.07505589
100	0xbd03e01a	-0.03219614
101	0x3d87f63d	0.06638763
102	0xbe1fb70b	-0.15597169
103	0x3e0ddc0f	0.13853477
104	0x3d00280e	0.0312882
105	0xbd49d42b	-0.049274605
106	0xbdfc0626	-0.1230586
107	0xbd6628cb	-0.056191247
108	0x3d88fc81	0.06688786
109	0xbdaab85d	-0.08335946
110	0xbc4be027	-0.012443579
111	0xbc1c3a3a	-0.009535367
112	0xbe4737a8	-0.19454825
113	0x3e064d62	0.13115457
114	0xbd19f1ef	-0.03758424
115	0x3e43abe2	0.19108537
116	0x3e0697e2	0.13143876
117	0xbdb66f23	-0.089079164
118	0x3e110007	0.14160167
119	0x3cb6ecb3	0.022329664
120	0x3d1aedbd	0.03782438
121	0xba488b0c	-0.0007650114
122	0x3dc9d872	0.09855737
123	0xbda40081	-0.080079086
124	0x3b888df9	0.004167315
125	0x3e3985f7	0.1811751
126	0xbd1cb949	-0.03826264
127	0x3e14c992	0.14530018
128	0xbde894b0	-0.11356485
129	0x3e37d158	0.17950952
130	0x3c2e53ac	0.010640066
131	0x3de09ca3	0.10967376
132	0x3dbc523c	0.091953725
133	0xbc4e144d	-0.012578082
134	0x3d866777	0.06562703
135	0x3d9450e6	0.07241993
136	0x3d63e45e	0.05563771
137	0xbe04dd00	-0.1297493
138	0x3c4dd3fb	0.012562747
139	0x3e193222	0.1496053
140	0xbc8d39f3	-0.017239546
141	0xbe032d23	-0.12810187
142	0xbdd021b1	-0.10162676
143	0xbe642c41	-0.22282507
144	0x3e2015e9	0.15633358
145	0x3e235d5b	0.15953581
146	0xbe115c2d	-0.14195319
147	0xbe06af4a	-0.13152805
148	0xbd86ba5d	-0.06578515
149	0x3c8a272f	0.016864387
150	0xbe3b3849	-0.1828319
151	0x3d216b2b	0.039408844
152	0xbdf1085e	-0.11769174
153	0xbcb1d79c	-0.021709256
154	0x3e874b6a	0.26424724
155	0xbd96d08e	-0.073639974
156	0xbe29c819	-0.16580237
157	0xbd4191cd	-0.047258187
158	0x3d89ff0a	0.06738098
159	0xbe21425a	-0.15747967
160	0x3e09de4c	0.13463706
161	0x3de5565e	0.11198114
162	0x3e381683	0.17977338
163	0xbe2678b3	-0.1625698
164	0xbd13d9c4	-0.03609635
165	0x3e5d9e82	0.21642497
166	0xbca85c1f	-0.02055174
167	0x3e1dede0	0.15422773
168	0xbe216a8a	-0.15763298
169	0x3e4cce9e	0.20000693
170	0x3cf8ad9b	0.030356219
171	0xbdf32018	-0.11871356
172	0x3d38b77a	0.045096852
173	0x3d4e0292	0.05029542
174	0xbd436a08	-0.04770854
175	0x3df86ff0	0.121307254
176	0x3e049617	0.1294788
177	0xbdefb69d	-0.117047526
178	0xbe5ac10d	-0.21362706
179	0x3e020f9e	0.1270127
180	0x3e23780b	0.15963762
181	0xbe0ee573	-0.13954715
182	0xbe1e9931	-0.15488125
183	0xbe1da5aa	-0.15395227
184	0x3e02d81b	0.1277775
185	0xbdd4ed60	-0.10396838
186	0x3e013f3c	0.12621778
187	0xbd880935	-0.06642381
188	0x3d9500b7	0.07275527
189	0x3d85fbbc	0.06542155
190	0x3ddde8b3	0.108353995
191	0x3e10e86e	0.14151165
192	0x3d1683b4	0.036746696
193	0x3dcf0eb5	0.10110227
194	0xbe68ad89	-0.22722448
195	0xbd60fb59	-0.054927204
196	0xbe31e532	-0.17372587
197	0xbcebbaf6	-0.028775673
198	0x3c9e2937	0.019306762
199	0xbe1ea1a9	-0.15491356
200	0xbdf075b6	-0.117412016
201	0xbe2b0d38	-0.16704261
202	0x3d3f48e6	0.04670038
203	0xbdcceb8d	-0.10005865
204	0x3cfc1321	0.03077084
205	0xbddd5b73	-0.10808458
206	0x3e568f62	0.20953134
207	0xbd537fa2	-0.051635392
208	0x3da75e92	0.08172335
209	0x3dfd6077	0.12371915
210	0xbdb499c8	-0.08818394
211	0x3e006881	0.12539865
212	0xbd3c87be	-0.04602789
213	0x3dbcceb3	0.09219112
214	0x3e3677d4	0.17819148
215	0xbd319ee7	-0.04336443
216	0x3d6b13ee	0.057392053
217	0xbd1f38bd	-0.03887247
218	0x3c5b5159	0.013386094
219	0x3e0660d8	0.1312288
220	0x3e3a1579	0.18172254
221	0xbce3cee6	-0.027808618
222	0xbdd697d2	-0.10478176
223	0x3cfda5cc	0.030962847
224	0xbdc955b7	-0.09830802
225	0x3db46585	0.08808426
226	0xbe1f6a4f	-0.15567897
227	0xbe4a59e1	-0.19760849
228	0xbe1beb51	-0.15226485
229	0x3e32d506	0.17464074
230	0xbd94803d	-0.07251022
231	0x3e2d9fab	0.1695544
232	0xbd6c741d	-0.05772792
233	0x3dc064b1	0.09394205
234	0xbb73af3f	-0.0037183312
235	0xbdb49edc	-0.088193625
236	0xbd2a8020	-0.041626096
237	0x3de85d89	0.113459654
238	0x3d63ff12	0.055663176
239	0x3d07fdb1	0.033200923
240	0xbe463380	-0.19355583
241	0x3ced7673	0.028987145
242	0xbe28a2b6	-0.1646832
243	0xbde65748	-0.11247116
244	0xbc7e25e7	-0.015511966
245	0x3dbc0981	0.091815
246	0xbe3b639e	-0.1829972
247	0x3e3e2ecc	0.18572539
248	0xbdb720c6	-0.08941798
249	0x3d92fca4	0.071770936
250	0x3d490c97	0.049084272
251	0xbc642471	-0.013924704
252	0x3d84ecdd	0.064904906
253	0xbda9d732	-0.082929984
254	0x3de63a95	0.112416424
255	0xbc2aad46	-0.010417288

linear_relu_stack.2.bias f4 [64]
0	0xbda59c8b	-0.08086499
1	0x3b992e99	0.0046747443
2	0xba06229b	-0.0005116851
3	0xbd5bdc67	-0.05367699
4	0xbdc639a9	-0.096789666
5	0x3de8fbfd	0.11376188
6	0x3b99397d	0.0046760426
7	0xbd9c21a5	-0.07623605
8	0xbd415717	-0.047202196
9	0xbd5c9f3c	-0.053862795
10	0xbd95bcf3	-0.0731143
11	0x3c40ef15	0.011775752
12	0xbe103efb	-0.14086525
13	0x3e36f35f	0.17866276
14	0xbca8725e	-0.020562347
15	0x3d0e1a38	0.034692973
16	0x3e0ef89e	0.13962027
17	0x3d9be301	0.07611657
18	0xbe17a873	-0.14810352
19	0xbc9bf390	-0.019037038
20	0x3dab49f7	0.08363717
21	0xbd7ce7cf	-0.061744507
22	0x3dd02e30	0.101650596
23	0x3de56056	0.11200015
24	0xbde00f21	-0.109403856
25	0x3e0e48f9	0.13895024
26	0x3d05107d	0.032486428
27	0x3d5274ad	0.051380802
28	0xbe020d5c	-0.12700409
29	0x3de92f1f	0.11385941
30	0xbd4033ad	-0.046924282
31	0xbd1c6654	-0.038183525
32	0xbe01d874	-0.12680227
33	0x3d524bae	0.051341705
34	0x3def97e8	0.11698896
35	0xbe605590	-0.2190764
36	0x3de2534d	0.110510446
37	0x3d829897	0.063767605
38	0x3e419459	0.18904246
39	0xbda6009a	-0.081055835
40	0xbd34af3d	-0.044112433
41	0x3b6bd3d2	0.003598441
42	0x3def2833	0.11677589
43	0x3d3a4f62	0.04548586
44	0x3e3bbb94	0.18333274
45	0xbcaa5a43	-0.020794993
46	0x3db10eb8	0.086453855
47	0x3cdb8c31	0.026800247
48	0x3d67180a	0.05641941
49	0x3d84bd8a	0.06481464
50	0x3bcef240	0.0063154995
51	0x3d21821d	0.039430726
52	0xbdfcd8a7	-0.12346011
53	0xbdbc7e5b	-0.09203788
54	0xbd80d166	-0.062899396
55	0xbda4aafd	-0.08040426
56	0x3dee32a2	0.11630751
57	0x3d67698d	0.056497145
58	0xbe4b5d4c	-0.19859809
59	0x3dde5e43	0.10857823
60	0xbe461c7d	-0.19346805
61	0x3db0b6dd	0.086286284
62	0xbe032177	-0.12805735
63	0x3dd1719a	0.10226746

linear_relu_stack.4.weight f4 [128, 64]
0	0xbdacdcd3	-0.084405564
1	0x3c4d3393	0.012524503
2	0xbd92b565	-0.071635045
3	0xbd0141b1	-0.03155679
4	0x3d9c77d6	0.076400444
5	0x3e2f6789	0.1712934
6	0x3c86cc73	0.01645491
7	0x3d909b68	0.070608914
8	0x3dd16106	0.10223584
9	0x3d6f07ae	0.058356933
10	0xbe1ad410	-0.15119958
11	0x3db52c30	0.08846319
12	0xbcdb7753	-0.026790297
13	0xbdb88a85	-0.090107955
14	0x3c862b7f	0.016378162
15	0xbcad2742	-0.021136884
16	0xbcceb6c1	-0.025233628
17	0xbda2b15d	-0.079439856
18	0x3dc6a2f0	0.096990466
19	0x3d24c687	0.040228393
20	0xbce61bdd	-0.028089458
21	0xbda13cf3	-0.07872953
22	0xbc8b259b	-0.016985705
23	0xbde56694	-0.11201206
24	0xbdd570ee	-0.1042193
25	0x3e060169	0.13086475
26	0xbd885bbc	-0.06658122
27	0xbdf1e157	-0.11810558
28	0x3d954e53	0.0729033
29	0xbe051c89	-0.12999167
30	0xbcf0ed48	-0.02941002
31	0xbdb18266	-0.0866745
32	0x3d2d9cb4	0.042385772
33	0xbd804f43	-0.06265118
34	0x3d3158bf	0.043297525
35	0x3d41ab87	0.04728272
36	0x3d15c12d	0.03656118
37	0x3d593ab4	0.0530345
38	0xbe06d782	-0.13168147
39	0x3df2fa12	0.118641034
40	0xbdb8a107	-0.090150885
41	0xbd9bd9a5	-0.07609872
42	0x3d9fe223	0.07806804
43	0xbd02c2b3	-0.03192396
44	0xbe3d5c52	-0.18492249
45	0x3cf9c9cc	0.030491732
46	0xbe9d7990	-0.30756807
47	0x3e291fde	0.16516063
48	0x3db68010	0.08911145
49	0xbd5afaeb	-0.05346195
50	0x3c5f7304	0.013638262
51	0x3e15deaa	0.14635721
52	0xbdba2c03	-0.09090426
53	0x3a71d4e2	0.00092251424
54	0x3d8d5fba	0.06903024
55	0x3e18d7e8	0.14926112
56	0x3d897e0c	0.06713495
57	0x3d77cd68	0.060498625
58	0x3c900f90	0.017585546
59	0xbd23f98a	-0.0400329
60	0xbde1d288	-0.11026484
61	0x3d8d11bb	0.068881474
62	0xbcce93d9	-0.025216984
63	0xbce98019	-0.028503465
64	0x3e3356bd	0.17513557
65	0xbd103ac6	-0.0352123
66	0xbc4de2c8	-0.012566276
67	0x3d47f973	0.048821878
68	0xbd13dea8	-0.036101013
69	0xbd68ded6	-0.056853138
70	0xbd8f023d	-0.06982849
71	0x3e034046	0.12817487
72	0xbd347aac	-0.0440623
73	0xbd22b61c	-0.039724454
74	0x3d4abd19	0.049496744
75	0x3d0bbe56	0.034117065
76	0xbdb34e50	-0.08755171
77	0x3b3e368e	0.0029024216
78	0x3cbcf2ff	0.023065088
79	0x3e170cff	0.14751051
80	0x3e4a1f77	0.19738565
81	0x3ce865b3	0.028368806
82	0xbd122294	-0.035677508
83	0xbc45c675	-0.012071242
84	0xbdcb31c2	-0.099216
85	0x3e919696	0.284352
86	0x3dd3a9c4	0.103351146
87	0x3d24df38	0.04025194
88	0x3de7f0ff	0.11325263
89	0x3d4336ed	0.047659803
90	0x3d3bdf6f	0.04586738
91	0x3dd91905	0.10600475
92	0xbd5c94f6	-0.053852998
93	0xbd480008	-0.048828155
94	0x3c96644d	0.018358374
95	0x3c6869c3	0.014185372
96	0x3deae453	0.11469331
97	0xbd68cae0	-0.0568341
98	0x3d6b15f0	0.057393968
99	0x3d58bddb	0.052915435
100	0xbe2fca09	-0.17166914
101	0x3d1697a0	0.036765695
102	0x3d3550cc	0.044266507
103	0x3e52a2df	0.20569943
104	0xbd3f8380	-0.046756268
105	0x3d30e5c5	0.043187875
106	0xbd1878b8	-0.0372245
107	0xbca949fd	-0.020665163
108	0x3da7829f	0.08179211
109	0xbdde2eb6	-0.10848753
110	0x3dcf1f34	0.101133734
111	0x3da9322f	0.08261525
112	0xbc875cf5	-0.016523818
113	0xbe0747be	-0.13210961
114	0x3d8e3c1e	0.0694506
115	0x3d9c3ad6	0.076284096
116	0x3dbb68bf	0.09150838
117	0xbd1d2040	-0.038360834
118	0x3c165a90	0.009176865
119	0x3dd8458d	0.10560141
120	0x3ca66470	0.020311564
121	0x3dbb95df	0.09159445
122	0x3df7abef	0.120933406
123	0xbd8b0779	-0.06788535
124	0x3de0926b	0.10965427
125	0xbdc08593	-0.09400477
126	0x3d75aa63	0.059976947
127	0xbcaf863f	-0.021426318
128	0xbdac7b13	-0.08421912
129	0x3d002a34	0.031290248
130	0xbdd32326	-0.103094384
131	0xbdc04202	-0.0938759
132	0xbc95af78	-0.018272147
133	0xbcf2136e	-0.02955028
134	0x3ca69e55	0.02033917
135	0xbdb50132	-0.088381186
136	0xbd1b462c	-0.037908718
137	0xbd4f370d	-0.05058961
138	0xbe0c64ee	-0.13710377
139	0xbda59d30	-0.08086622
140	0x3d97e038	0.07415813
141	0xbd87133e	-0.06595467
142	0xbd2b8c41	-0.041881803
143	0x3d2bd755	0.041953404
144	0x3d00b188	0.031419307
145	0x3ddf5cca	0.1090637
146	0x3d88a129	0.06671364
147	0xbe2f0626	-0.17092189
148	0xbdd8ae38	-0.105801046
149	0xbab311ed	-0.0013661959
150	0x3dd9f58c	0.106425375
151	0x3de3ddc0	0.1112628
152	0x3e21c9f6	0.15799698
153	0x3ba781cd	0.005111909
154	0x3db4aa9a	0.08821602
155	0xbd027e28	-0.031858593
156	0x3d0001f1	0.03125185
157	0xbd159202	-0.036516197
158	0xbb56173f	-0.0032667664
159	0x3cd0b64c	0.02547755
160	0x3e2833b6	0.16425976
161	0x3a11ad66	0.00055571494
162	0x3e0d03b7	0.13770948
163	0xbd8edac2	-0.069753185
164	0xbc74db57	-0.014944873
165	0xbbd38dac	-0.0064560976
166	0x3d6220b0	0.055206954
167	0x3dfda93a	0.12385793
168	0x3cc34dc6	0.023840796
169	0xbc8bddaf	-0.01707348
170	0x3d941b8d	0.072318174
171	0xbe36137c	-0.1778087
172	0xbd8c6b9c	-0.06856462
173	0xbc920676	-0.017825346
174	0x3e332bc8	0.1749717
175	0xbbb221ad	-0.0054361434
176	0xbd02b34a	-0.031909265
177	0x3d4c16b9	0.049826358
178	0x3ddb403f	0.10705613
179	0x3df937d9	0.12168855
180	0x3d09398b	0.033502143
181	0xbd24f2dd	-0.040270675
182	0xbc138d7e	-0.009005902
183	0xbd074d55	-0.033032734
184	0xbc2043cc	-0.009781789
185	0xbc073430	-0.008252189
186	0xbc710a84	-0.01471198
187	0xbd9fe6d3	-0.07807698
188	0x3c103f79	0.008804196
189	0x3c0cf5bc	0.0086035095
190	0x3d0c4ddb	0.034253936
191	0xbd1fa576	-0.038976155
192	0xbdc9759a	-0.09836884
193	0x3dfaa38c	0.12238225
194	0xbb1acc30	-0.002362024
195	0xbdbbc572	-0.09168519
196	0xbcfd42e1	-0.03091568
197	0xbe1a39eb	-0.15061156
198	0x3ddde20f	0.10834133
199	0x3dc1cdfb	0.09463116
200	0xbddc6c0f	-0.10762798
201	0x3d24f565	0.04027309
202	0x3bc930b2	0.006139838
203	0x3cd07aa4	0.025449105
204	0xbc0b373a	-0.008497054
205	0x3d94a95c	0.07258865
206	0xbddeb0ab	-0.108735405
207	0xbd94187e	-0.07231234
208	0x3e029234	0.12751085
209	0x3df1f0b8	0.118134916
210	0xbdee2071	-0.116272815
211	0xbd51074e	-0.051032357
212	0xbd47d1e1	-0.04878414
213	0xbd0fde75	-0.03512426
214	0xba229307	-0.00062017184
215	0xbda3f8f1	-0.08006466
216	0xbd8f28ef	-0.06990229
217	0x3da4f128	0.080538094
218	0x3e14b4f0	0.14522147
219	0x3e110cb9	0.1416501
220	0xbcbd4aac	-0.023106895
221	0xbdfe8419	-0.124275394
222	0x3e0ea390	0.13929582
223	0xbd9e03ee	-0.07715593
224	0xbdd4bf04	-0.10387996
225	0xbe165854	-0.14682132
226	0x3d8e2f23	0.06942584
227	0x3df72182	0.12066938
228	0x3e24e1bd	0.16101737
229	0x3e192a9e	0.14957663
230	0xbd08e7bc	-0.033424124
231	0xbd72036a	-0.059085287
232	0x3dc2b146	0.095064685
233	0xbd39f2e1	-0.045397643
234	0x3c15d524	0.009145055
235	0x3d987a70	0.07445228
236	0xbe34dcf8	-0.17662418
237	0x3d796f12	0.06089694
238	0xbcb259d9	-0.021771358
239	0xbdc50d7b	-0.09621712
240	0xbc16c15b	-0.009201373
241	0xbd910def	-0.07082736
242	0xbdce68bb	-0.100785695
243	0x3d1bb837	0.038017478
244	0x3e01759f	0.12642525
245	0x3d92e624	0.07172802
246	0xbd8aa115	-0.06769005
247	0x3def1058	0.11673039
248	0xbd878cb3	-0.06618633
249	0x3d9b9e77	0.07598584
250	0xbd08dd64	-0.03341426
251	0x3c2be5da	0.010491813
252	0x3d96a8fd	0.07356451
253	0xbda2808f	-0.07934677
254	0x3e1123d7	0.14173828
255	0x3b8667a6	0.0041017113

linear_relu_stack.4.bias f4 [128]
0	0x3d1e2faf	0.038619693
1	0xbc90821b	-0.017640164
2	0xbc9838bc	-0.01858174
3	0x3db0b168	0.086275876
4	0x3dcfec75	0.101525225
5	0x3d0cd3e7	0.034381773
6	0xbd838e19	-0.06423587
7	0xbd49a730	-0.049231708
8	0xbe071b2b	-0.13193958
9	0xbdb9e19b	-0.09076234
10	0xbc6604f4	-0.014039267
11	0x3b00966d	0.001962091
12	0xbd4b01d6	-0.049562298
13	0xbd9f131c	-0.07767317
14	0x3d93e4b7	0.07221358
15	0x3d84609e	0.06463741
16	0xbdfd5a02	-0.12370683
17	0x3dfddde4	0.12395838
18	0x3d9d3c89	0.07677562
19	0x3d14371a	0.03618536
20	0x3cf90239	0.030396568
21	0x3c8a8027	0.01690681
22	0xbe0aa77d	-0.13540454
23	0xbda4f2ec	-0.08054146
24	0xbd8176ea	-0.06321509
25	0xbdb88118	-0.09008998
26	0xbdd41a1d	-0.10356543
27	0x3d25fde5	0.040525336
28	0xbd05cf50	-0.03266841
29	0xbdf575ca	-0.11985357
30	0xbd22a4b5	-0.039707858
31	0xbd6b7a98	-0.05748996
32	0xbe1b8786	-0.15188417
33	0xbd9e02bc	-0.07715365
34	0xbdbff416	-0.093727276
35	0xbd3f48db	-0.04670034
36	0x3e0a7927	0.13522778
37	0xbc97cba9	-0.01852973
38	0xbd90e3fb	-0.07074734
39	0xbc783be9	-0.015151002
40	0x3c90069e	0.01758128
41	0xbd2afb1c	-0.041743383
42	0xbd8939ab	-0.067004524
43	0x3db2ec37	0.08736461
44	0xbdafe76c	-0.08589062
45	0x3c908785	0.017642746
46	0x3da4af60	0.080412626
47	0xbd83f9e1	-0.06444145
48	0x3cd497d1	0.025951298
49	0xbd80994a	-0.062792376
50	0xbdde132b	-0.108435
51	0x3d878236	0.06616633
52	0x3cd660e1	0.026169242
53	0xbd97dc1e	-0.07415031
54	0x3dac24c7	0.08405452
55	0xbe0ea766	-0.13931045
56	0xbca9aefb	-0.02071332
57	0xbd83bc6f	-0.06432425
58	0xbe0de370	-0.13856292
59	0x3d869c5b	0.06572791
60	0x3caad9c6	0.020855796
61	0x3d4008a1	0.04688323
62	0xbd9b1361	-0.075720556
63	0x3d890641	0.06690646
64	0xbbb41d89	-0.005496685
65	0xbdf6acd1	-0.12044681
66	0xbdd2072a	-0.10255273
67	0xbc4c1876	-0.012457004
68	0xbbbd8a47	-0.005784306
69	0xbd0734a5	-0.03300919
70	0xbe07d9f7	-0.1326674
71	0xbde3f4ec	-0.111306995
72	0x3b4f284f	0.003160972
73	0xbdea97b8	-0.11454719
74	0x3dad40cf	0.08459627
75	0xbde71c70	-0.11284721
76	0x3db7d8bf	0.08976888
77	0x3c871d7f	0.016493557
78	0xbd96853f	-0.073496334
79	0x3d3f7707	0.046744373
80	0x3dfb4536	0.1226906
81	0xbe0d0627	-0.13771878
82	0xbde3b1aa	-0.11117871
83	0xbdad2e75	-0.084561266
84	0xbd8d5973	-0.06901827
85	0x3d3284fc	0.043583855
86	0x3dc1338d	0.09433661
87	0xbda89f23	-0.08233478
88	0xbe17568d	-0.1477911
89	0xbdbd77e8	-0.09251386
90	0x3dc77763	0.09739568
91	0xbd8feb4b	-0.070273004
92	0x3e1deafd	0.15421672
93	0x3cfc5f50	0.030807167
94	0x3bc618ff	0.0060454602
95	0x3d9288c2	0.07154991
96	0xbd9e11d1	-0.07718242
97	0x3d5daa57	0.054117527
98	0xbde4609f	-0.111512415
99	0xbdad2b30	-0.08455503
100	0x3d1b51a5	0.03791966
101	0xbdf2e20a	-0.1185952
102	0xbd59b5e8	-0.053151995
103	0x3dafc433	0.08582344
104	0xbe0222aa	-0.12708536
105	0xbdd92e62	-0.1060455
106	0x3dae1b97	0.08501356
107	0x3d278913	0.04090221
108	0x3c044898	0.008073948
109	0x3dd52cd1	0.10408939
110	0x3da64797	0.081191234
111	0xbdbad8cb	-0.09123381
112	0xbdfa3220	-0.12216592
113	0x3d35aa86	0.044352077
114	0x3d110c58	0.035412163
115	0xbd817d25	-0.063226976
116	0xbca28c91	-0.019842418
117	0xbd2c877d	-0.0421214
118	0xbdadb1b9	-0.084811635
119	0xbd777f94	-0.060424402
120	0xbdf40f8d	-0.119170286
121	0x3c1c174e	0.009527041
122	0xbe312cc6	-0.17302236
123	0xbc5a25fd	-0.013314721
124	0x3d54697e	0.051858418
125	0xbcdcaabb	-0.02693688
126	0xbdb991b2	-0.09060992
127	0xbd8c7739	-0.068586774

linear_relu_stack.6.weight f4 [64, 128]
0	0xbd752727	-0.05985179
1	0x3bb6172d	0.005556962
2	0x3d996dfd	0.07491682
3	0xbda5258e	-0.080638036
4	0xbd608cb9	-0.054821704
5	0xba93b07c	-0.0011267806
6	0xbda5a1dc	-0.08087513
7	0x3d5f8413	0.054569315
8	0x3cf31548	0.029673234
9	0xbd56ea47	-0.052469518
10	0xbdca49c4	-0.09877351
11	0x3c96fc78	0.018430933
12	0x3d277206	0.040880226
13	0x3d97002a	0.07373078
14	0x3dbb5d91	0.09148706
15	0x3bfa4ac0	0.0076383054
16	0x3d44d34a	0.048053063
17	0xbd19c9fb	-0.03754614
18	0x3dbca2f3	0.092107676
19	0xbd4b3937	-0.04961511
20	0x3e21d98a	0.15805641
21	0x3c3bed80	0.011470199
22	0xbd87bab8	-0.06627411
23	0x3d8c220d	0.06842432
24	0x3cd88657	0.026431246
25	0xbd97d4ee	-0.0741366
26	0x3a1045fe	0.0005503594
27	0xbbdb7e76	-0.006698425
28	0x3bf8425a	0.007576269
29	0x3cdcc4a7	0.02694924
30	0x3d39e2e3	0.04538239
31	0x3d45d50d	0.048298884
32	0x3d213bb8	0.039363593
33	0xbc0ae41b	-0.008477236
34	0x3e1a1044	0.15045267
35	0x3cd9381e	0.026516017
36	0xbca96598	-0.020678326
37	0xbca2caeb	-0.01987215
38	0xbd5deb21	-0.054179315
39	0x3c08d0b8	0.008350544
40	0x3a748d02	0.0009328873
41	0x3db25529	0.08707649
42	0xbd662c88	-0.056194812
43	0x3d821e10	0.0635339
44	0x3d86d817	0.065841846
45	0x3cd27f2f	0.025695411
46	0x3c63a576	0.013894429
47	0xbb8375aa	-0.0040118294
48	0xbe06c50e	-0.13161108
49	0xbd5b9d89	-0.053617034
50	0xbda14472	-0.07874383
51	0x3bd81080	0.006593764
52	0xbb0bfa1c	-0.0021358794
53	0x3c3d882c	0.01156811
54	0x3e060401	0.13087465
55	0xbd7c238d	-0.06155734
56	0xbd4a7129	-0.049424324
57	0x3d3a4ccb	0.04548339
58	0xb8c8d566	-9.576492e-05
59	0x3dafe1bb	0.085879765
60	0x3dab2e49	0.083584376
61	0x3df672ae	0.12033592
62	0x3db4f11b	0.0883505
63	0xbd6056a5	-0.05477013
64	0x3db92914	0.09041038
65	0xbdeccd5d	-0.115626074
66	0x3df0d73f	0.11759805
67	0xbc871454	-0.016489185
68	0xbc9e3599	-0.019312667
69	0x3dbe66ad	0.092969276
70	0x3d0d4319	0.034487817
71	0x3ca2d728	0.019877985
72	0xbdc15179	-0.09439368
73	0x3cd34c1c	0.025793128
74	0x3d03d9b8	0.032190055
75	0xbcfd5460	-0.030924022
76	0xbc367248	-0.011135645
77	0x3e162b50	0.1466496
78	0xbd1906fc	-0.037360176
79	0xbd672933	-0.056435775
80	0x3d65c47c	0.056095585
81	0x3caba259	0.020951437
82	0xbdca8604	-0.09888843
83	0x3c4eac44	0.0126143135
84	0xbd57ea72	-0.05271382
85	0x3e2071ee	0.1566846
86	0xbcbc5990	-0.022991925
87	0xbc4739f3	-0.012159812
88	0x3daea11e	0.085268244
89	0x3dbfd800	0.093673706
90	0x3dc2a2ac	0.095036834
91	0xbc3fee04	-0.011714462
92	0x3e0e5dd5	0.13902982
93	0x3df173d7	0.11789673
94	0x3d18a473	0.037266206
95	0x3dc2e776	0.09516804
96	0x3d580f8d	0.052749205
97	0xba90d5f6	-0.0011050093
98	0x3e037321	0.12836887
99	0x3d3d1fe7	0.046173003
100	0x3dbf9289	0.09354121
101	0x3d6c6a84	0.05771877
102	0xbdc6d44d	-0.09708462
103	0x3dbd7dd8	0.092525184
104	0x3c80bae5	0.015714118
105	0xbc92c536	-0.017916303
106	0xbd0e1140	-0.03468442
107	0xbd2d66af	-0.042334255
108	0xbd6f88a1	-0.05847991
109	0xbda26f28	-0.079313576
110	0xbd941c02	-0.072319046
111	0x3c8e5453	0.017374193
112	0x3cf82460	0.030290782
113	0xbd99218b	-0.07477101
114	0x3cdbcab3	0.026830053
115	0x3d169a25	0.036768097
116	0xbd95e388	-0.07318789
117	0xbcb90175	-0.022583703
118	0x3cabcff1	0.020973178
119	0x3dc41bf6	0.095756456
120	0xbc8523ff	-0.016252516
121	0x3da2e1a0	0.07953191
122	0x3ca82a23	0.020527905
123	0x3db0e8fa	0.08638187
124	0x3d92c6c9	0.071668215
125	0x3e169864	0.1470657
126	0x3cf0d0b2	0.029396389
127	0x3d69e165	0.05709972
128	0x3dda7ad9	0.106679626
129	0x3c4cef36	0.012508204
130	0x3c84000e	0.016113307
131	0xbdcb0528	-0.09913093
132	0xbc43ff57	-0.011962733
133	0xbe13f853	-0.14450197
134	0xbc8a6540	-0.016893983
135	0xbe24a4d7	-0.16078506
136	0xbddf9cf5	-0.10918609
137	0xbbd8647f	-0.006603777
138	0xbda87423	-0.08225276
139	0x3da8857b	0.082285844
140	0xbdf807dc	-0.12110874
141	0xbc8bdbbc	-0.017072551
142	0x3d9cf677	0.07664197
143	0xbe09da3b	-0.13462155
144	0xbdc5a7ec	-0.09651169
145	0xbd912b8f	-0.07088386
146	0x3d034808	0.032051116
147	0xbc253524	-0.0100834705
148	0xbd69ea73	-0.057108354
149	0x3d9cbdc2	0.07653381
150	0x3b91d83b	0.0044508255
151	0xbd8b9aae	-0.06816612
152	0x3d052c97	0.032513227
153	0x3db8e18f	0.09027397
154	0x3da38a34	0.079853445
155	0xbd1c5e53	-0.038175892
156	0xbd508ace	-0.050913624
157	0x3c0a455b	0.008439387
158	0xbc8c7a36	-0.017148118
159	0x3c3c92ab	0.011509578
160	0x3d551eaf	0.052031215
161	0xbc81c462	-0.015840713
162	0x3d019c73	0.031643342
163	0xbce4f93d	-0.027950877
164	0xbe328a79	-0.17435636
165	0x3d50fc44	0.05102183
166	0x3c2cd073	0.010547745
167	0xbdc040e2	-0.093873754
168	0xbca9d2e2	-0.02073044
169	0x3c860c99	0.016363429
170	0xbdc5258b	-0.096263014
171	0xbd0096e2	-0.031393893
172	0xbc5d3646	-0.013501709
173	0xbc808703	-0.015689379
174	0x3cf4ad34	0.029867746
175	0xbcbbccf9	-0.022924887
176	0x3d80e389	0.06293399
177	0x3a5df337	0.0008466723
178	0xbc496630	-0.01229243
179	0x3de49269	0.11160738
180	0x3da8f108	0.08249098
181	0xbe1fea69	-0.15616764
182	0x3dffde66	0.12493591
183	0xbd1e5a84	-0.03866054
184	0xb998a758	-0.0002911638
185	0x3d72b5bc	0.059255347
186	0x3ce9a9b6	0.028523307
187	0x3cf25214	0.029580154
188	0xbad4a622	-0.0016223828
189	0xbd44122c	-0.047868893
190	0xbda15626	-0.0787776
191	0x3da11613	0.078655384
192	0x3dbf79be	0.09349392
193	0xbd17b0f3	-0.037033986
194	0x3decc2d0	0.11560595
195	0xbd4cd336	-0.050006114
196	0xbd83fc30	-0.06444585
197	0xbdb155bb	-0.0865893
198	0xbd49602e	-0.04916399
199	0xbe260dbc	-0.16216177
200	0x3de0f8af	0.10984933
201	0x3cb961a6	0.02262957
202	0xbd99cefd	-0.07510183
203	0x3c92f95c	0.01794117
204	0xbd60bf81	-0.054870132
205	0xbcbab611	-0.022791894
206	0x3d882604	0.06647876
207	0xbc7bb1f1	-0.015362249
208	0x3da1bd16	0.078973934
209	0xbd9c839f	-0.07642292
210	0xbd7d6f07	-0.061873462
211	0x3d939394	0.07205883
212	0x3d298b64	0.0413927
213	0x3c981a56	0.018567245
214	0x3ba6a06b	0.0050850413
215	0x3d68527c	0.05671929
216	0xbdd7b3a4	-0.105323106
217	0xbd92c2ca	-0.07166059
218	0x3dc71e33	0.09722557
219	0xbd082817	-0.033241358
220	0xbc7bbb31	-0.015364454
221	0x3bd13172	0.006384068
222	0x3ce4486a	0.027866561
223	0x3dbcee4f	0.09225141
224	0xbd902394	-0.07038036
225	0xbd47d5ea	-0.04878799
226	0xbc931c59	-0.017957853
227	0x3cda6a13	0.026661908
228	0x3c9aa5e0	0.018877923
229	0x3c174def	0.009234889
230	0xbd637227	-0.055528786
231	0x3b527a2a	0.0032116272
232	0xbd898150	-0.067141175
233	0xbd312496	-0.04324778
234	0xbaa854ad	-0.0012842618
235	0x3c4019a3	0.011724862
236	0xbd43c1f5	-0.047792394
237	0xbdbe20b6	-0.09283583
238	0xbcd4248b	-0.025896331
239	0xbd2fd007	-0.042923
240	0xbd492529	-0.049107704
241	0x3d2cff82	0.04223586
242	0x3cb87a3c	0.022519223
243	0xbd860569	-0.06544001
244	0xbd5a9687	-0.05336621
245	0x3d273c7d	0.04082917
246	0x3cbd76d2	0.023127947
247	0xbaa449b2	-0.001253417
248	0x3b3e2fc2	0.0029020165
249	0x3cf8b2db	0.030358722
250	0x3d1f8914	0.038949087
251	0xbd89bf81	-0.067259796
252	0x3d6d8c9d	0.057995427
253	0xbd72ac34	-0.059246257
254	0x3df06184	0.1173735
255	0x3d9a68da	0.0753953

linear_relu_stack.6.bias f4 [64]
0	0x3d767204	0.060167328
1	0x3d9c0547	0.07618194
2	0x3c5b9e86	0.013404494
3	0xbd8bd58a	-0.06827839
4	0xbcc8ef9e	-0.02452832
5	0xbdb8fb27	-0.090322785
6	0xbdba6aba	-0.09102388
7	0xbdc08202	-0.09399797
8	0xbde13c93	-0.10997882
9	0x3d08c8ea	0.03339473
10	0xbdae292b	-0.08503946
11	0xbd6b473b	-0.057440978
12	0xbbcf4bd7	-0.0063261795
13	0xbdfe7a5e	-0.124256834
14	0x3d725b8e	0.059169345
15	0xbd1a33d7	-0.037647095
16	0x3da6ea9a	0.081502154
17	0xbc92963e	-0.017893907
18	0x3d640950	0.055672944
19	0x3dc02647	0.09382301
20	0xbdc50987	-0.09620958
21	0x3d8ccf41	0.06875468
22	0xbd02db40	-0.031947374
23	0x3d216d16	0.039410673
24	0x3c279164	0.010227535
25	0xbdf12fc2	-0.11776687
26	0x3cf8ee6a	0.030387122
27	0xbd92ff2b	-0.07177576
28	0xbbce9b0f	-0.0063051055
29	0x3d8ea3b4	0.06964818
30	0x3bec61ea	0.0072138207
31	0xbc3c07f8	-0.011476509
32	0x3d683d22	0.056698926
33	0x3dca518b	0.09878834
34	0xbc88e865	-0.016712377
35	0xbd902d7b	-0.07039925
36	0x3da7c208	0.081913054
37	0x3d5c9ef4	0.053862527
38	0x3d6e5212	0.058183737
39	0xbd705618	-0.058675855
40	0xbbb5372d	-0.005530259
41	0x3c3b66c2	0.011438074
42	0x3c496a21	0.0122933695
43	0x3bc416b6	0.0059841527
44	0xbc68815b	-0.014190997
45	0x3d755870	0.059898794
46	0xbc24d153	-0.010059672
47	0x3d283733	0.041068267
48	0xbdde402f	-0.10852086
49	0xbc681800	-0.014165878
50	0x3c8119e6	0.01575942
51	0x3c85dc22	0.016340319
52	0xbbb58000	-0.0055389404
53	0xbe006d40	-0.12541676
54	0xbda065c8	-0.07831913
55	0xbbd38a90	-0.006455727
56	0x3aceacf3	0.0015768096
57	0x3b9f38b0	0.0048590526
58	0x3d5abd71	0.05340332
59	0x3bc13640	0.0058963597
60	0xbd1f6b31	-0.038920585
61	0xbce52d04	-0.027975567
62	0xbd334abc	-0.043772444
63	0x3bde3c15	0.0067820647

linear_relu_stack.8.weight f4 [32, 64]
0	0xbdc571fc	-0.096408814
1	0xbd99e530	-0.07514417
2	0xbdaffa68	-0.08592683
3	0x3df9a7f4	0.12190238
4	0x3dae5919	0.08513088
5	0xbd53a663	-0.05167235
6	0x3bbd9184	0.005785169
7	0xbd133655	-0.035940487
8	0xbd791e9e	-0.060820214
9	0x3d3b58a4	0.04573883
10	0x3d662cca	0.056195058
11	0xbd96e52b	-0.07367929
12	0xbcece286	-0.028916609
13	0x3d873884	0.066025764
14	0xbdd7754d	-0.1052042
15	0xbd08104c	-0.033218667
16	0x3d9adf07	0.0756207
17	0x3d7cf730	0.061759174
18	0xbc75e0b2	-0.015007185
19	0x3d6d2271	0.057894174
20	0x3dbc9b27	0.092092805
21	0x3c900f57	0.01758544
22	0xbe0c1b2c	-0.1368224
23	0xbd2a4b4c	-0.041575715
24	0x3d1a76f7	0.03771111
25	0xbc3db7e8	-0.011579491
26	0xbd1bd7be	-0.038047545
27	0x3de9122d	0.1138042
28	0xbe27a9ce	-0.16373369
29	0xbdc9a3f7	-0.09845727
30	0x3d92c131	0.071657546
31	0x3c532c4b	0.012888978
32	0x3dc580f1	0.09643734
33	0xbd7da0c5	-0.0619209
34	0x3da8a246	0.08234076
35	0x3dbaed5b	0.09127303
36	0xbd5dcdea	-0.054151453
37	0x3d5de8bd	0.054177035
38	0x3cbe68f9	0.023243414
39	0xbdf255f3	-0.118328
40	0x3c5ff2c9	0.013668724
41	0xbb863cbf	-0.004096597
42	0xbe2a8da0	-0.16655588
43	0xbe15e79c	-0.14639133
44	0x3c04eca8	0.008113064
45	0xbdf01cde	-0.11724256
46	0xbb61567b	-0.0034383822
47	0xbe250a15	-0.16117127
48	0x3a59b52a	0.00083048886
49	0x3c3c099e	0.011476902
50	0xbca954a9	-0.020670252
51	0x3b46a24c	0.0030309139
52	0x3dde6968	0.108599484
53	0xbd92a21d	-0.07159827
54	0xbcf96b6a	-0.030446727
55	0xbc9119a8	-0.01771243
56	0x3c93b4ee	0.01803061
57	0x3c9d11b8	0.019173488
58	0xba407784	-0.0007342028
59	0x3ba9e5f4	0.0051848833
60	0xbd19caa6	-0.037546776
61	0xbdf9ef0e	-0.12203799
62	0x3db3d6ca	0.08781202
63	0x3d053f67	0.03253117
64	0x3e0a6627	0.1351553
65	0xbd2c21b5	-0.042024333
66	0x3d441387	0.047870185
67	0x3d863162	0.06552388
68	0x3d719d57	0.05898794
69	0xbe14c591	-0.1452849
70	0x3e10a0ea	0.14123884
71	0xbd170663	-0.036871325
72	0xbdd058e1	-0.10173202
73	0xbd692c59	-0.05692706
74	0xbd126a76	-0.03574606
75	0xbc32fe41	-0.010924877
76	0xbdea9a3a	-0.11455198
77	0x3cafe4a0	0.021471322
78	0x3da7868d	0.081799604
79	0xbd8e9288	-0.06961542
80	0xbe063ee9	-0.13109936
81	0x3d4e96c2	0.050436743
82	0xbdf0cc67	-0.11757737
83	0x3d2fc7d3	0.042915177
84	0x3d866217	0.06561678
85	0x3c8e4d81	0.017370941
86	0xbb52a8a2	-0.003214397
87	0x3ce250a2	0.02762634
88	0x3d5397a3	0.051658284
89	0x3de3fd97	0.11132353
90	0xbd063b3e	-0.03277134
91	0x3d5a0ecf	0.05323678
92	0x3c1d580f	0.009603514
93	0x3d986743	0.074415706
94	0x3d21dcd8	0.039517254
95	0xbdcac70a	-0.09901245
96	0x3dba6561	0.09101368
97	0x3e06be4f	0.13158534
98	0xbe293a77	-0.16526209
99	0x3d54a7eb	0.05191795
100	0xbdf284e2	-0.11841752
101	0x3d42e95d	0.047585834
102	0x3d148651	0.036260907
103	0xbd98f81c	-0.07469198
104	0xbe1b42bc	-0.15162176
105	0x3de6afa0	0.112639666
106	0xbd165a39	-0.036707137
107	0xbd1418da	-0.036156513
108	0x3dd08c2c	0.10182986
109	0x3d0b186e	0.033958845
110	0xbd1991a8	-0.037492424
111	0xbdfee4c5	-0.12445978
112	0xbd2e9694	-0.04262407
113	0xbe3c1c76	-0.18370232
114	0xbd949e3a	-0.07256742
115	0x3ceb19c7	0.028698815
116	0x3dcf279e	0.10114978
117	0xbdbd1a54	-0.09233537
118	0xbd1ed9af	-0.038781818
119	0x3dd606da	0.104505256
120	0x3d096756	0.033545814
121	0xbdf35a81	-0.118824966
122	0x3d871317	0.06595438
123	0x3d8d029e	0.06885265
124	0xbe01afa1	-0.12664653
125	0x3dd6b91c	0.104845256
126	0xbbc3e525	-0.005978244
127	0xbd81aa99	-0.06331367
128	0xbd0e2ac5	-0.034708757
129	0x3d048762	0.032355674
130	0x3da36506	0.07978253
131	0x3e18bada	0.14915028
132	0xbcd71527	-0.026255203
133	0xbd9bad1e	-0.07601379
134	0xbe131f4a	-0.14367405
135	0x3e07f66f	0.132776
136	0x3d4e8cdb	0.0504273
137	0x3d61258c	0.054967448
138	0x3e1ea37c	0.15492052
139	0xbd8d0281	-0.06885243
140	0x3d588b3d	0.052867163
141	0x3c11d782	0.008901479
142	0x3dc4d072	0.0961007
143	0x3ddca6ef	0.107740276
144	0xbe213903	-0.15744404
145	0x3d37e5cd	0.04489689
146	0xbd94c373	-0.072638415
147	0xbc8bf709	-0.017085569
148	0xbcf09da3	-0.029372042
149	0x3d01d6fc	0.031699166
150	0x3bc59425	0.006029623
151	0xbcad576d	-0.021159852
152	0x3c0739e9	0.008253553
153	0x3decd050	0.1156317
154	0x3da62499	0.08112449
155	0x3c3ff5c2	0.011716308
156	0xbdbd34a2	-0.092385545
157	0x3d76fffb	0.060302716
158	0x3e0bb654	0.13643771
159	0x3d75d529	0.06001774
160	0x3cdb62c9	0.026780503
161	0xbd90d5e3	-0.07072046
162	0x3d2aa3aa	0.04165999
163	0x3e0c7d77	0.13719736
164	0xbd20b638	-0.039236277
165	0x3c57c4d5	0.013169487
166	0x3bf84f98	0.0075778477
167	0xbd964cd0	-0.073388696
168	0x3e28f7e8	0.16500819
169	0xbd9b7c6a	-0.075920895
170	0xbdb2b56f	-0.08726012
171	0x3d60f95c	0.054925308
172	0x3bee1aab	0.0072663627
173	0xbd7a9cce	-0.061184697
174	0x3d256044	0.04037501
175	0xbd86fda3	-0.06591346
176	0xbb8bf2c5	-0.0042708837
177	0x3cb05bc3	0.02152813
178	0xbddeca84	-0.108784705
179	0xbdc3d7ce	-0.09562646
180	0xbdeb927d	-0.1150255
181	0x3d87b9ad	0.06627212
182	0x3d29240e	0.04129415
183	0xbda8e631	-0.082470305
184	0x3d3bdd3e	0.04586529
185	0x3cbb7819	0.022884415
186	0xbd3171e8	-0.04332152
187	0xbe308394	-0.17237693
188	0xbd940304	-0.07227138
189	0xbb9685ac	-0.0045935716
190	0x3ceae5f6	0.028674107
191	0x3d20883e	0.03919243
192	0x3df89cb4	0.12139264
193	0xbd432c7d	-0.04764985
194	0xbc61f080	-0.01379025
195	0x3d10833a	0.035281397
196	0xbde252c2	-0.11050941
197	0x3c355975	0.0110686915
198	0x3b87f747	0.004149351
199	0x3d50d8da	0.050988056
200	0x3daf6b1d	0.08565352
201	0xbc9953e3	-0.018716758
202	0xbd039d32	-0.032132335
203	0x3d4135fc	0.047170624
204	0xbd642b8f	-0.055705603
205	0xbd50202e	-0.05081194
206	0x3ddf62a6	0.109074876
207	0xbdde3c7d	-0.10851381
208	0x3d4ffa01	0.05077553
209	0x3e3b8ac3	0.18314652
210	0x3e1d0c03	0.15336613
211	0x3dd9f103	0.106416725
212	0xbd1d5807	-0.038414028
213	0xbb8d45dc	-0.0043113064
214	0x3dfe35c0	0.12412596
215	0x3dec6e13	0.115444325
216	0x3d0e75b2	0.03478021
217	0x3e09d26f	0.1345918
218	0x3c94dd80	0.018172026
219	0xbd089e22	-0.033353932
220	0xbd778b71	-0.060435716
221	0xbdbe35c5	-0.092875995
222	0x3d056911	0.032570902
223	0x3d442f8a	0.0478969
224	0xbe033716	-0.12813982
225	0x3d581208	0.05275157
226	0x3d93a74d	0.072096445
227	0x3d3c562f	0.04598063
228	0xbe25ded4	-0.16198283
229	0xbd5f2552	-0.05447895
230	0x3ca210ef	0.019783465
231	0x3e506fd3	0.20355158
232	0xbe193418	-0.14961278
233	0xbab59b51	-0.0013855492
234	0x3dc2eb32	0.09517516
235	0xbe09612e	-0.13415977
236	0x3d487b44	0.04894568
237	0xbdb6e6e2	-0.08930756
238	0x3be56480	0.007000506
239	0xbc8e8851	-0.017398985
240	0xbe0b7722	-0.13619664
241	0xbcba0740	-0.022708535
242	0xbcce4547	-0.025179518
243	0xbe48c7ae	-0.19607422
244	0x3ccbde26	0.024886202
245	0xbd0aca00	-0.03388405
246	0xbdb4c0a2	-0.08825804
247	0xbd426495	-0.047459204
248	0xbca9e37d	-0.020738358
249	0xbdd8a583	-0.10578444
250	0x3e024353	0.12720995
251	0x3dd1f027	0.102508835
252	0xbc7f096e	-0.015566213
253	0x3dfdac64	0.123863965
254	0x3d9c5716	0.07633798
255	0xbcd386ae	-0.025821056

linear_relu_stack.8.bias f4 [32]
0	0xbdde0263	-0.10840299
1	0x3d68b838	0.05681631
2	0xbd8f7c84	-0.07006171
3	0x3d7acc88	0.061230212
4	0xbd64d26e	-0.055864744
5	0x3cba7105	0.02275897
6	0x3d1d2525	0.038365502
7	0x3c8ff324	0.017571993
8	0x3d68c8d9	0.05683217
9	0xbd9164d2	-0.07099308
10	0x3d20a8d0	0.039223492
11	0xbcef1fde	-0.02919
12	0xbd641113	-0.055680346
13	0x3bbb49e1	0.005715594
14	0x3dbaa423	0.09113338
15	0xbd335303	-0.043780338
16	0x3dc64305	0.09680752
17	0x3dd35e22	0.10320689
18	0xbd4793d8	-0.04872498
19	0xbdde99e1	-0.10869194
20	0xbc9cd088	-0.019142404
21	0xbd6f5c86	-0.058437847
22	0x3d2eba28	0.042658
23	0xbcb17ecc	-0.021666907
24	0xbbc6a394	-0.0060619805
25	0x3ce39eae	0.027785625
26	0xbbacd3cc	-0.0052742716
27	0xbdae1a86	-0.08501153
28	0x3dd214df	0.10257887
29	0x3d0c16a7	0.03420129
30	0x3cd6402f	0.026153652
31	0xbda20386	-0.07910828

linear_relu_stack.10.weight f4 [1, 32]
0	0xbd57bcb0	-0.05267018
1	0x3dfab238	0.12241024
2	0x3e3cec3f	0.18449496
3	0xbe4911a7	-0.1963564
4	0x3d674d33	0.056470107
5	0xb81bb382	-3.712206e-05
6	0xbd0e1311	-0.034686152
7	0x3e18b350	0.14912152
8	0xbd25b902	-0.04045964
9	0xbdd1ab58	-0.10237759
10	0xbdb3b8ea	-0.08775504
11	0x3dd6eba3	0.10494163
12	0x3e396d8a	0.18108192
13	0x3e505add	0.20347162
14	0xbd5b58ee	-0.053551607
15	0xbdd5ff8b	-0.104491316
16	0xbaa4de09	-0.0012578379
17	0x3e07273e	0.13198563
18	0xbd6ccaa5	-0.057810444
19	0x3d9a93f2	0.075477496
20	0xbe10c330	-0.14136958
21	0x3dff44d4	0.124643
22	0xbbced662	-0.0063121775
23	0xbe1c0d30	-0.15239406
24	0x3d9d5452	0.076820984
25	0x3d649df6	0.055814706
26	0x3c76938d	0.015049827
27	0x3b2c0e0b	0.0026253487
28	0x3dd97644	0.106182605
29	0xbdcd35c1	-0.10020018
30	0xbe2f837c	-0.17140001
31	0xba09b0d9	-0.00052524876
