model/pendulum_model_17.pth (torch, 88722 bytes, 11 tensors)

linear_relu_stack.0.weight f4 [32, 3]
0.43538982 -0.078145005 0.37619668 0.065836966 0.0071762786 -0.36132294 -0.42485917 -0.39292252
-0.46965533 -0.339215 -0.47172627 -0.20809491 0.36508864 -0.08004571 0.08194125 -0.48357505
-0.3874692 -0.10659468 -0.077254675 -0.48893446 0.36716044 -0.16837938 0.009376396 0.23118931
-0.11921686 0.49751973 0.4008645 0.477386 0.12723705 -0.07730867 -0.17075048 -0.41599876
-0.22929193 -0.15168394 -0.28191784 0.5051487 0.47366977 0.32809895 -0.41250208 -0.36438447
0.19236644 -0.09788895 -0.3159066 -0.14455168 -0.4780201 -0.05391255 0.47762266 0.25945848
0.23036699 0.43942228 0.19963667 0.4235451 -0.55269545 0.35826042 0.41694346 0.62067646
0.34048724 -0.41687107 0.5530345 0.15067777 0.016546471 0.15907568 -0.2427959 -0.38925213
0.29234475 0.14281309 0.103160344 -0.49786618 -0.14726987 -0.056721848 0.3015498 0.33552969
0.5341389 0.5145304 -0.27426204 -0.06714483 0.0035458293 0.19878805 0.020706994 0.49604848
-0.5635407 -0.51967555 0.44146517 0.33635145 -0.14345042 0.33507505 -0.08139443 0.37601793
0.47102267 -0.27672607 0.16028126 -0.4860148 0.48621997 0.25325644 -0.4551452 -0.5540795
00000000: 6aeb de3e 7d0a a0bd da9c c03e 88d5 863d
00000010: fd26 eb3b 52ff b8be 2487 d9be 242d c9be
00000020: aa76 f0be 97ad adbe 1b86 f1be d516 55be
00000030: e6ec ba3e 01ef a3bd d0d0 a73d 2697 f7be
00000040: 5d62 c6be 504e dabd b337 9ebd 9e55 fabe
00000050: 74fc bb3e a56b 2cbe 759f 193c e4bc 6c3e
00000060: f827 f4bd e8ba fe3e 1d3e cd3e f06b f43e
00000070: 6e4a 023e 0254 9ebd 37d9 2ebe cafd d4be
00000080: 81cb 6abe 0953 1bbe 8957 90be 6d51 013f
00000090: d884 f23e 96fc a73e 7933 d3be 9a90 babe
000000a0: b5fb 443e 007a c8bd 83be a1be 5b05 14be
000000b0: 0dbf f4be 68d3 5cbd f58a f43e bed7 843e
000000c0: 53e5 6b3e f5fb e03e 8e6d 4c3e e7da d83e
000000d0: 737d 0dbf e96d b73e 9d79 d53e a7e4 1e3f
000000e0: 5854 ae3e 2070 d5be ab93 0d3f 464b 1a3e
000000f0: 778c 873c bce4 223e 7d9f 78be 0e4c c7be
00000100: 36ae 953e 983d 123e bb45 d33d 51e8 febe
00000110: eacd 16be 2b55 68bd bc64 9a3e 8cca ab3e
00000120: 54bd 083f 44b8 033f 136c 8cbe 3b83 89bd
00000130: 2561 683b 188f 4b3e b7a1 a93c 11fa fd3e
00000140: 3444 10bf 7509 05bf b907 e23e 4236 ac3e
00000150: abe4 12be f58e ab3e 1fb2 a6bd 6c85 c03e
00000160: e229 f13e 0aaf 8dbe c520 243e efd6 f8be
00000170: d3f1 f83e d4aa 813e cb08 e9be 27d8 0dbf

linear_relu_stack.0.bias f4 [32]
0.12190124 -0.47558752 0.27099717 -0.09431932 -0.5914878 0.09265815 -0.27206418 -0.23491718
-0.004751476 -0.14050141 0.17783056 0.16541056 -0.18825194 0.12828553 0.5973292 -0.52451336
-0.034346703 0.050931264 -0.23288132 0.49091452 -0.4673285 0.36527732 0.17119996 0.06513726
-0.3291466 0.31983492 0.5783642 -0.07864769 -0.31562603 0.2715285 -0.13598388 0.34828743
00000000: 5ba7 f93d 3580 f3be 24c0 8a3e 7d2a c1bd
00000010: bf6b 17bf 8ec3 bd3d ff4b 8bbe 218e 70be
00000020: 45b2 9bbb 9adf 0fbe 3719 363e 6361 293e
00000030: 1ec5 40be 485d 033e 91ea 183f 8246 06bf
00000040: 21af 0cbd 4d9d 503d 7178 6ebe 2659 fb3e
00000050: ae45 efbe a105 bb3e 0b4f 2f3e af66 853d
00000060: e785 a8be 67c1 a33e ad0f 143f 0a12 a1bd
00000070: bc99 a1be c905 8b3e 5c3f 0bbe bb52 b23e

linear_relu_stack.2.weight f4 [64, 32]
0.15778981 0.26364228 -0.22425655 0.12753685 -0.19060501 -0.21386951 0.040064048 -0.18922976
-0.105693236 0.107589126 -0.0813214 -0.097170725 -0.14430228 0.1388765 0.1558399 0.17747967
-0.020573033 -0.1687364 0.10684818 -0.073914744 0.17598185 0.012830042 0.032130413 -0.22513056
-0.10658494 -0.0755517 -0.21647246 0.040812008 0.16424619 -0.020517379 0.072268784 0.15073718
-0.13170724 0.059807405 -0.0555738 0.10262461 0.053719193 -0.06818935 0.30744696 0.031521004
-0.31938007 -0.041372623 0.033972926 0.21085139 -0.13604876 -0.06725656 0.05811283 -0.14956808
0.13471238 -0.21149188 0.07636949 -0.043312848 0.011360175 -0.11134419 0.09474682 -0.19000858
0.030958878 -0.16868713 0.06036591 -0.1796713 0.034147322 -0.023713747 -0.214136 -0.1723998
-0.062985726 0.24145941 -0.119835384 0.0006216314 0.13146701 0.18036486 -0.24092248 -0.0678038
0.17651533 0.06977023 0.11909232 -0.08339282 -0.114723146 0.10047888 0.114444114 0.14119366
0.14131667 0.007893286 -0.021905532 -0.16239062 0.05491068 0.111321434 0.124468595 -0.2753447
0.06257422 -0.044395402 -0.11573151 0.12693903 0.028655212 -0.01656089 0.021873975 0.09592194
-0.15553531 0.056650624 0.344683 -0.020102998 -0.038020115 0.12409355 -0.18815316 0.1661316
0.013234508 -0.06874022 -0.17487058 -0.080313876 0.082501166 -0.080947205 0.045462474 0.01623731
-0.23590353 0.10981727 -0.057058815 0.21701574 0.19310729 -0.08459676 0.110624425 0.025277529
0.07140302 -0.13074493 0.03865154 -0.12051221 0.0079211835 0.17849214 -0.067790575 0.12646028
-0.12590978 0.2403548 -0.033840537 0.09774096 0.09282056 -0.03968186 0.15040074 0.07105871
-0.07253501 -0.13703714 0.0523644 0.16255267 -0.040642597 -0.14091639 -0.24842092 -0.32608163
0.093507044 0.16404003 -0.17094669 -0.1511524 -0.0035687923 -0.0010518752 -0.23983775 0.082074545
-0.17238626 -0.11641225 0.48072326 -0.08126225 -0.20618853 -0.10216759 0.030546797 -0.17781946
0.112494394 0.114686385 0.19950397 -0.18205984 -0.06620357 0.31904647 -0.00665553 0.14810666
-0.1840115 0.20601574 0.040176544 -0.10972064 0.062173605 0.04159394 -0.09177499 0.12161718
0.08963834 -0.16234426 -0.3132897 0.16372682 0.18963133 -0.15817197 -0.16952115 -0.20989321
0.13328803 -0.07502024 0.078419685 -0.11094466 0.08869817 0.038166877 0.09730293 0.12272138
-0.047793623 0.21697772 -0.3388783 -0.116052195 -0.1851237 -0.08021745 0.05399432 -0.20712946
-0.13139634 -0.2383547 0.09367783 -0.038078714 -0.012389784 -0.20855236 0.16993739 -0.028029352
0.102667935 0.16333361 -0.099560015 0.18759885 0.0022484954 0.11258375 0.18358654 -0.08143074
0.10359338 -0.15406008 -0.01529447 0.084666945 0.3125254 -0.09786157 -0.08651488 0.058504198
-0.06455884 0.018091267 -0.27085993 -0.30362305 -0.13972577 0.17091022 -0.088673964 0.098663
-0.10861805 0.15025967 -0.03627849 -0.1387637 0.003463968 0.083773054 -0.044868533 -0.017662184
-0.19061427 0.09835104 -0.1953153 -0.08392417 -0.05869253 0.09332868 -0.1867683 0.24838097
-0.08999499 0.22495064 0.12142232 -0.0537189 0.015062427 -0.057579115 0.10250139 0.036409
00000000: a793 213e 1ffc 863e 82a3 65be 0599 023e
00000010: f62d 43be 9c00 5bbe 331a 243d 72c5 41be
00000020: b275 d8bd b057 dc3d d68b a6bd 7201 c7bd
00000030: fac3 13be a435 0e3e 7f94 1f3e 3bbd 353e
00000040: c788 a8bc 3cc9 2cbe 38d3 da3d 9d60 97bd
00000050: 9634 343e 1935 523c 2e9b 033d a088 66be
00000060: 3449 dabd daba 9abd f5aa 5dbe 7e2a 273d
00000070: 2730 283e 1014 a8bc a801 943d d95a 1a3e
00000080: 43de 06be 9cf8 743d 5aa1 63bd da2c d23d
00000090: a808 5c3d dca6 8bbd b069 9d3e 2b1c 013d
000000a0: c985 a3be 5776 29bd 3227 0b3d 6de9 573e
000000b0: 5e50 0bbe cfbd 89bd b807 6e3d 6028 19be
000000c0: 0bf2 093e 5491 58be 9b67 9c3d d068 31bd
000000d0: 0720 3a3c 6c08 e4bd 9f0a c23d 9c91 42be
000000e0: 799d fd3c 52bc 2cbe 3f42 773d c1fb 37be
000000f0: 10de 0b3d 5543 c2bc 7846 5bbe 9389 30be
00000100: a9fe 80bd 2341 773e 416c f5bd faf4 223a
00000110: 4a9f 063e 91b1 383e 62b4 76be b8dc 8abd
00000120: 6fc0 343e b2e3 8e3d ade6 f33d dbc9 aabd
00000130: f8f3 eabd dfc7 cd3d ad61 ea3d 1295 103e
00000140: 51b5 103e d752 013c 3b73 b3bc ba49 26be
00000150: 05ea 603d 7efc e33d 64e9 fe3d fbf9 8cbe
00000160: ea26 803d f4d7 35bd a404 edbd 4efc 013e
00000170: 56be ea3c b4aa 87bc 0d31 b33c b972 c43d
00000180: a644 1fbe 7c0a 683d 4a7a b03e 0baf a4bc
00000190: fbba 1bbd c224 fe3d 39ab 40be 671e 2a3e
000001a0: 8dd5 583c acc7 8cbd 4611 33be 9a7b a4bd
000001b0: 5ff6 a83d a6c7 a5bd dc36 3a3d 1b04 853c
000001c0: b290 71be e0e7 e03d 81b6 69bd 6039 5e3e
000001d0: ebbd 453e 1141 adbd 0f8f e23d d212 cf3c
000001e0: bf3b 923d 00e2 05be 1451 1e3d 1bcf f6bd
000001f0: dac7 013c a5c6 363e c9d5 8abd ce7e 013e
00000200: 7eee 00be 921f 763e 609c 0abd 6a2c c83d
00000210: b518 be3d 7289 22bd a702 1a3e 3b87 913d
00000220: 3c8d 94bd 7753 0cbe 0e7c 563d 3574 263e
00000230: da78 26bd 634c 10be 0e62 7ebe 2cf4 a6be
00000240: 9f80 bf3d 1cfa 273e a60c 2fbe b2c7 1abe
00000250: 66e2 69bb 13df 89ba 0798 75be b316 a83d
00000260: 0686 30be 8c69 eebd 5c21 f63e d36c a6bd
00000270: 1623 53be 3e3d d1bd 473d fa3c 4e16 36be
00000280: 7663 e63d b2e0 ea3d c54a 4c3e e56d 3abe
00000290: bd95 87bd 0f5a a33e a216 dabb 46a9 173e
000002a0: 836d 3cbe caf5 523e 2990 243d 37b5 e0bd
000002b0: c0a9 7e3d 685e 2a3d 87f4 bbbd 6e12 f93d
000002c0: 4e94 b73d 933d 26be 8267 a0be 01a8 273e
000002d0: b72e 423e d5f7 21be f496 2dbe 3fee 56be
000002e0: a87c 083e 36a4 99bd 809a a03d f436 e3bd
000002f0: 63a7 b53d df54 1c3d c246 c73d 5955 fb3d
00000300: 3fc3 43bd 682f 5e3e 7581 adbe c6ac edbd
00000310: 1191 3dbe 0c49 a4bd 2629 5d3d bf19 54be
00000320: c38c 06be 4113 74be 2ada bf3d 6df8 1bbd
00000330: 85fe 4abc c08e 55be 1104 2e3e d09d e5bc
00000340: 9143 d23d ed40 273e 1fe6 cbbd ea19 403e
00000350: 7e5b 133b 4f92 e63d 1cfe 3b3e 29c5 a6bd
00000360: c428 d43d edc1 1dbe a895 7abc dd65 ad3d
00000370: 5403 a03e a66b c8bd b72e b1bd 19a2 6f3d
00000380: 6d37 84bd 2334 943c 27ae 8abe 7b74 9bbe
00000390: 4614 0fbe 1703 2f3e b29a b5bd d40f ca3d
000003a0: 2473 debd acdd 193e c198 14bd 1218 0ebe
000003b0: bd03 633b 3591 ab3d 11c8 37bd 49b0 90bc
000003c0: 6330 43be 456c c93d bc00 48be 6fe0 abbd
000003d0: 9467 70bd 1b23 bf3d 3040 3fbe 9557 7e3e
000003e0: 4b4f b8bd 7659 663e 44ac f83d 5908 5cbd
000003f0: 66c8 763c 14d8 6bbd 40ec d13d 9b21 153d

linear_relu_stack.2.bias f4 [64]
-0.0810069 0.003708953 -0.057422183 -0.12237265 -0.135992 0.060942583 -0.07067903 -0.01012002
-0.120919675 -0.0814715 -0.106945485 -0.006996968 -0.14971022 0.17986643 -0.066834524 0.07323894
0.12762696 0.007913168 -0.18220797 -0.009364325 0.08306052 -0.055286255 0.069556445 0.11482049
-0.034336213 0.13621709 -0.0036882109 0.122743815 -0.18999386 0.07242872 -0.00027617515 -0.11954983
-0.15153888 0.0598509 0.11477688 -0.28607312 0.092911765 0.05754815 0.19523673 -0.104616195
-0.06787695 -0.021733724 0.10779651 0.026211673 0.15218222 -0.0053029335 0.12385373 0.015339335
0.0041185706 0.011252085 -0.012585595 0.026945269 -0.14040539 -0.14006272 -0.058312252 -0.08071636
0.03808048 0.03251355 -0.22463085 0.1120247 -0.25324836 0.025399847 -0.16232456 0.12975225
00000000: f2e6 a5bd e811 733b 8633 6bbd 839e fabd
00000010: 7d41 0bbe ee9e 793d 2bc0 90bd 71ce 25bc
00000020: bca4 f7bd 88da a6bd 3c06 dbbd d246 e5bb
00000030: a34d 19be e82e 383e 8ae0 88bd 4cfe 953d
00000040: a4b0 023e 3ba6 013c ba94 3abe d36c 19bc
00000050: a21b aa3d d773 62bd 9c73 8e3d 0127 eb3d
00000060: 21a4 0cbd 7e7c 0b3e e9b5 71bb 1c61 fb3d
00000070: c08d 42be 8255 943d 9acb 90b9 8bd6 f4bd
00000080: 022d 1bbe 3826 753d 2410 eb3d 2d78 92be
00000090: 8648 be3d 9cb7 6b3d 23ec 473e 0441 d6bd
000000a0: 1203 8bbd ec0a b2bc 6bc4 dc3d ddb9 d63c
000000b0: a8d5 1b3e 3bc4 adbb 06a7 fd3d d651 7b3c
000000c0: 13f5 863b aa5a 383c d033 4ebc 53bc dc3c
000000d0: 6ec6 0fbe 9a6c 0fbe d4d8 6ebd 9e4e a5bd
000000e0: 47fa 1b3d ee2c 053d a105 66be 356d e53d
000000f0: c5a9 81be 5713 d03c 6938 26be c6dd 043e

linear_relu_stack.4.weight f4 [128, 64]
-0.06556113 -0.016228259 -0.08654013 -0.16898479 0.029836196 0.17118734 -0.04775451 0.06113014
0.07427836 0.13556784 -0.07059512 0.09078572 -0.13441311 -0.059063025 0.007392452 -0.076189965
0.0014407077 -0.004029381 0.11842809 -0.09685617 0.0059607537 -0.051426448 0.08540788 -0.12476523
-0.091989115 0.11434747 -0.08108577 -0.14212559 0.07967197 -0.16798334 -0.06993394 -0.14416589
0.04951292 -0.048338618 0.061007526 0.10438972 0.13600433 0.05071781 -0.1689355 -0.031007497
-0.12001491 -0.057716366 0.090461224 -0.009588557 -0.31465325 0.07037384 -0.4871365 0.20190842
0.15421888 -0.044291995 0.031518683 0.16413932 -0.09982492 0.0116562685 0.0715066 0.14795567
0.084927924 0.16468868 -0.006518288 0.035264466 -0.06159242 0.05596824 0.044290908 -0.047791507
0.20774002 -0.025865838 -0.030863583 -0.04065051 -0.11060958 -0.100664526 -0.15459567 0.13438056
-0.063492164 -9.2957656e-05 0.10446089 0.04294311 -0.056609478 0.064127974 -0.086316854 0.14069252
0.2567163 0.070941664 -0.04871902 -0.04374081 -0.08296755 0.3032465 0.13870381 0.15574689
0.12075415 0.10111369 0.020591944 0.13859075 0.17550275 0.15490754 0.07250783 -0.005092027
0.21444157 0.028231222 0.12931237 0.06111994 -0.16865978 0.0054828105 0.07745979 0.154344
-0.042859323 0.20849949 -0.039219756 0.0016956693 0.07260961 -0.07177987 0.15326375 0.1645242
-0.017409684 -0.15293673 0.06755008 0.048552014 0.097392224 0.056914125 0.08059373 0.19860744
0.052431226 0.107576944 0.13822831 -0.10736974 0.1422465 -0.05710456 0.061605636 0.019072633
-0.08268957 0.11100255 -0.16176976 -0.20051818 -0.017568473 -0.015667576 0.09611955 0.0057534724
-0.14428161 -0.072397485 -0.09033886 -0.11685796 0.025858821 -0.034918755 -0.12187324 0.118889846
-0.006820377 0.19811372 0.04608126 -0.1808764 -0.0151316095 0.06698628 0.025831427 0.1691554
0.11577281 -0.020315388 0.02245637 -0.061431766 -0.028468924 0.04149866 -0.0022539617 -0.010111304
0.24705209 -0.009277987 0.22168297 0.005761061 -0.0058940863 -0.10115 -0.010244344 0.13967825
-0.03312259 0.0068635927 0.0066310624 -0.19872978 -0.09484776 0.10368667 0.100488305 -0.023216316
-0.08221678 0.0016095362 0.14555462 0.11528716 0.121877216 0.071111925 0.057651132 0.038926203
0.03397224 -0.0032176075 0.07538023 -0.10734975 0.051502272 0.010692794 0.10750541 0.04039466
-0.05442382 0.039985217 0.10361981 0.080890335 0.02428427 -0.1499864 0.122738026 0.056709684
-0.12149196 0.0357333 -0.159366 -0.0071125026 0.10317527 0.079483554 -0.13979219 -0.10271077
0.17391038 0.08029776 -0.1585371 -0.023622148 -0.05138834 -0.045284063 -0.0011541117 -0.11683402
-0.03658394 0.053254977 0.14919595 0.1638658 -0.0126780495 -0.21936819 0.116014704 -0.093725234
-0.17614667 -0.16737086 0.08448381 0.0685671 0.17772998 0.14653766 -0.034790475 -0.04763049
0.11372655 -0.01043265 -0.030134592 0.0038246387 -0.19354248 0.029296549 -0.045021534 -0.10486987
-0.013545502 -0.045489583 -0.07898744 -0.021847056 0.1669955 -0.0055086766 -0.095882446 0.07594924
-0.17990549 0.0062792553 -0.046747517 -0.0034674474 0.11817669 -0.025876826 0.14038956 -0.06700944
00000000: ea44 86bd 20f1 84bc f43b b1bd 590a 2dbe
00000010: 0a6b f43c bc4b 2f3e 3c9a 43bd 9963 7a3d
00000020: 411f 983d 4cd2 0a3e 2d94 90bd dded b93d
00000030: 97a3 09be 12ec 71bd 623c f23b 7c09 9cbd
00000040: 21d6 bc3a e608 84bb 6d8a f23d 875c c6bd
00000050: 6d52 c33b 8aa4 52bd 54ea ae3d ea84 ffbd
00000060: ca64 bcbd 022f ea3d 4c10 a6bd 5f89 11be
00000070: 0f2b a33d d303 2cbe 8739 8fbd 39a0 13be
00000080: 0fce 4a3d b7fe 45bd 07e3 793d 47ca d53d
00000090: b844 0b3e 7abd 4f3d 6dfd 2cbe 6f03 febc
000000a0: 61ca f5bd ff67 6cbd bc43 b93d 5319 1dbc
000000b0: 3b1a a1be 2920 903d f569 f9be 15c1 4e3e
000000c0: 8eeb 1d3e 866b 35bd bc19 013d 2314 283e
000000d0: 0271 ccbd eff9 3e3c 0d72 923d b181 173e
000000e0: b1ee ad3d 26a4 283e 5d97 d5bb 7971 103d
000000f0: 5548 7cbd f43e 653d 626a 353d 07c1 43bd
00000100: cdb9 543e 98e4 d3bc a0d5 fcbc 2681 26bd
00000110: 4787 e2bd 3429 cebd 544e 1ebe 0f9b 093e
00000120: 2e08 82bd 43f2 c2b8 97ef d53d 1de5 2f3d
00000130: 57df 67bd 8755 833d e4c6 b0bd b311 103e
00000140: 5270 833e dd49 913d 988d 47bd 9029 33bd
00000150: e4ea a9bd 2043 9b3e 5f08 0e3e 1d7c 1f3e
00000160: f44d f73d b214 cf3d 70b0 a83c bcea 0d3e
00000170: feb6 333e 15a0 1e3e fc7e 943d 05db a6bb
00000180: 9296 5b3e 2a45 e73c 766a 043e e758 7a3d
00000190: 26b5 2cbe 26a9 b33b 3da3 9e3d 5b0c 1e3e
000001a0: 428d 2fbd e480 553e e5a4 20bd 3841 de3a
000001b0: 59b4 943d 5301 93bd 2cf1 1c3e 0879 283e
000001c0: c19e 8ebc 729b 1cbe b257 8a3d 7ade 463d
000001d0: 9375 c73d c91e 693d 530e a53d c05f 4b3e
000001e0: 20c2 563d 4d51 dc3d b98b 0d3e abe4 dbbd
000001f0: 11a9 113e 79e6 69bd 3156 7c3d 363e 9c3c
00000200: 2659 a9bd 4e55 e33d f9a6 25be a354 4dbe
00000210: c2eb 8fbc 4a59 80bc 54da c43d a087 bc3b
00000220: 8fbe 13be 2245 94bd 9503 b9bd 3a53 efbd
00000230: e1d5 d33c f806 0fbd ad98 f9bd 857c f33d
00000240: 787d dfbb 53de 4a3e b4bf 3c3d aa37 39be
00000250: 92ea 77bc 1a30 893d 6e9c d33c 1337 2d3e
00000260: 4c1a ed3d 756c a6bc 6cf6 b73c e09f 7bbd
00000270: a937 e9bc 80fa 293d 34b7 13bb e2a9 25bc
00000280: 39fb 7c3e b302 18bc dc00 633e 48c7 bc3b
00000290: 2e23 c1bb bb27 cfbd e5d7 27bc d107 0f3e
000002a0: 8eab 07bd fde7 e03b 6249 d93b d27f 4bbe
000002b0: 8b3f c2bd ad59 d43d d0cc cd3d 2530 bebc
000002c0: 4561 a8bd 13f7 d23a 450c 153e ad1b ec3d
000002d0: c39a f93d 21a3 913d 9823 6c3d 1571 1f3d
000002e0: 7a26 0b3d 7fde 52bb f360 9a3d 30da dbbd
000002f0: 0cf4 523d d430 2f3c cc2b dc3d df74 253d
00000300: 83eb 5ebd 8ac7 233d 9f36 d43d d5a9 a53d
00000310: ceef c63c 0996 19be 135e fb3d 6a48 683d
00000320: c7d0 f8bd 155d 123d d730 23be ff0f e9bb
00000330: 8e4d d33d 46c8 a23d af25 0fbe 065a d2bd
00000340: 9015 323e 2773 a43d 8d57 22be 3c83 c1bc
00000350: 947c 52bd c87b 39bd 9045 97ba ad46 efbd
00000360: 0bd9 15bd e421 5a3d d3c6 183e 70cc 273e
00000370: 98b7 4fbc 0ea2 60be 1e99 ed3d 04f3 bfbd
00000380: cb5f 34be 4463 2bbe d905 ad3d e86c 8c3d
00000390: d9fe 353e f80d 163e 7580 0ebd 3018 43bd
000003a0: 77e9 e83d b5ed 2abc d2dc f6bc caa6 7a3b
000003b0: 0030 46be 51ff ef3c 8068 38bd 04c6 d6bd
000003c0: f4ed 5dbc 4953 3abd 2bc4 a1bd 99f8 b2bc
000003d0: de00 2b3e 2182 b4bb 045e c4bd 468b 9b3d
000003e0: 2539 38be 36c2 cd3b 537a 3fbd 1d3e 63bb
000003f0: 9f06 f23d a3fb d3bc 48c2 0f3e 3f3c 89bd

linear_relu_stack.4.bias f4 [128]
-0.013090364 -0.054488324 -0.079761654 0.080980755 0.087261006 0.012686684 -0.0125595685 -0.02888698
-0.19048811 -0.120632395 -0.054539926 -0.011510153 -0.17443405 -0.13702399 0.0021771728 -0.00025621292
-0.14813131 0.12696886 0.031372655 -0.0060825516 -0.002260034 -0.13021822 -0.12673773 -0.11228062
-0.0879283 -0.14154676 -0.20580077 0.005732347 -0.048477776 -0.060142085 -0.086720936 -0.06268086
-0.20007996 -0.09260563 -0.12168708 -0.105587974 0.11292308 -0.09396204 -0.093971275 -0.025505768
0.0134518435 -0.11539548 -0.08712535 0.020633312 -0.073456064 0.030930897 0.03773215 -0.10907911
-0.007448593 -0.0827736 -0.16067745 0.0025561068 -0.02523119 -0.08817015 0.03679754 -0.2360295
-0.017815674 -0.13171352 -0.16605939 0.13607708 -0.00090162974 0.061494797 -0.054567143 0.015506618
-0.105654955 -0.16362834 -0.14076114 -0.011896779 -0.015404801 -0.098362684 -0.1628946 -0.13168523
-0.086432196 -0.16627695 0.02623299 -0.15139 0.0812262 0.014912992 -0.077973515 0.020815589
0.11052435 -0.19707532 -0.053347964 -0.14346746 -0.10479311 -0.012264761 0.1116777 -0.15490183
-0.217718 -0.14017585 0.02349861 -0.094794035 0.10934114 -0.021082321 -0.051960208 0.055873193
-0.014049919 0.025882056 -0.16784984 -0.12528552 -0.017596185 -0.10731142 -0.09083594 0.06474454
-0.14560114 -0.09117637 0.07539029 0.054019 -0.078545414 0.071833156 0.044275977 -0.107816786
-0.17547579 0.019426048 -0.022350043 -0.055872317 -0.06854117 -0.04376799 -0.09363714 -0.12108137
-0.12943235 -0.040042337 -0.18280941 -0.08274012 0.10851045 -0.093582734 -0.14832361 -0.09990768
00000000: f778 56bc 262f 5fbd 145a a3bd 3dd9 a53d
00000010: e6b5 b23d cfdb 4f3c a6c6 4dbc 63a4 ecbc
00000020: 510f 43be 1e0e f7bd 4265 5fbd 1595 3cbc
00000030: d79e 32be 0450 0cbe e6ae 0e3b 5154 86b9
00000040: bcaf 17be 2004 023e 9d80 003d 2450 c7bb
00000050: 141d 14bb ed57 05be 89c7 01be 62f3 e5bd
00000060: c113 b4bd a2f1 10be 70bd 52be 69d6 bb3b
00000070: a290 46bd 8c57 76bd bf9a b1bd d35e 80bd
00000080: c3e1 4cbe 05a8 bdbd 1337 f9bd 823e d8bd
00000090: 3744 e73d 2c6f c0bd 0374 c0bd 79f1 d0bc
000000a0: 1f65 5c3c 7754 ecbd c76e b2bd 3107 a93c
000000b0: 2270 96bd cb62 fd3c 078d 1a3d de64 dfbd
000000c0: 5413 f4bb 3585 a9bd a188 24be 5b84 273b
000000d0: a4b1 cebc 8d92 b4bd 04b9 163d b8b1 71be
000000e0: 2df2 91bc e9df 06be 790b 2abe ca57 0b3e
000000f0: 595b 6cba f8e1 7b3d cc81 5fbd 780f 7e3c
00000100: a061 d8bd 308e 27be b023 10be b5ea 42bc
00000110: 6b64 7cbc 6072 c9bd d8cd 26be 7ed8 06be
00000120: 5d03 b1bd 8144 2abe 91e6 d63c fb05 1bbe
00000130: ec59 a63d 9f55 743c 94b0 9fbd 7485 aa3c
00000140: 975a e23d 1dce 49be 6583 5abd 22e9 12be
00000150: c59d d6bd 23f2 48bc 47b7 e43d 969e 1ebe
00000160: 78f1 5ebe 428a 0fbe 2880 c03c 6023 c2bd
00000170: 3fee df3d d5b4 acbc 3ad4 54bd 4adb 643d
00000180: a231 66bc 9b06 d43c d4e0 2bbe d94a 00be
00000190: e025 90bc 17c6 dbbd 3108 babd c998 843d
000001a0: 7718 15be adba babd 3966 9a3d 0743 5d3d
000001b0: 6bdc a0bd 431d 933d ba5a 353d 0ccf dcbd
000001c0: edaf 33be 6023 9f3c 7017 b7bc 5fda 64bd
000001d0: 505f 8cbd 1046 33bd d4c4 bfbd 82f9 f7bd
000001e0: ea89 04be 6f03 24bd 6432 3bbe a773 a9bd
000001f0: ba3a de3d 4ea8 bfbd 25e2 17be 669c ccbd

linear_relu_stack.6.weight f4 [64, 128]
-0.047401074 0.13240092 0.20489009 -0.041722894 -0.07427021 0.007872993 -0.0100893 0.033225548
-0.011627354 0.05470994 -0.08653515 0.20091227 0.114330955 0.044728413 0.18389954 0.033311978
0.038731042 0.008427834 0.10381399 -0.093948185 0.148076 0.07005763 0.08955961 0.00073309755
-0.07271262 0.00649432 0.009899376 -0.029158624 0.0030365463 0.06757313 0.083210774 0.13622798
0.18648173 -0.022242919 0.24383965 0.04022537 -0.004036764 0.033621594 -0.07332969 -0.12526582
-0.041193392 0.12790512 0.01301662 0.1002889 0.12327169 0.11054377 0.028137507 0.040392965
-0.085372806 -0.060354393 -0.01616515 0.0016671438 0.11759849 0.073262766 0.03703905 0.05924316
-0.097247474 0.08278137 0.051617227 0.02349786 0.042715237 0.1920521 0.07166711 0.004433414
0.13657731 -0.10238236 0.10399092 -0.013830953 0.017853368 0.08765107 0.15795706 0.09890511
-0.037299175 0.0024172137 0.08738523 -0.09588939 0.067406766 0.04391909 -0.013664816 0.10345525
0.008746894 -0.044379853 0.0017960414 0.08941392 -0.0272591 0.28789005 -0.10366575 0.030788433
0.15205003 0.12779883 -0.0034435932 0.031681515 0.12027474 0.019465575 0.09469421 0.054461688
-0.03255143 0.04211965 0.14556077 0.028745856 0.07301673 0.1438477 -0.036619596 0.00014731428
0.00019028266 -0.09130941 0.018036718 0.028318912 0.024566973 -0.044958193 0.02014059 0.045013078
0.116793625 -0.040160228 0.0072808783 0.23503116 -0.03323458 0.058857106 0.061731953 0.12759157
0.06572751 0.1333274 0.01565939 0.11559335 0.021730345 0.15534946 -0.048107687 0.07313932
0.13216718 -0.016237589 0.014184944 -0.119139805 0.0254202 -0.18026978 -0.061468188 -0.20235938
-0.18994585 -0.021517787 -0.157097 0.17454404 -0.07411932 -0.020082312 0.07001448 -0.19160457
-0.17398499 -0.27575478 0.082368165 -0.0042633796 -0.089853935 0.07694868 -0.06483451 -0.054264475
0.018983368 0.20334981 0.16926076 0.06820173 -0.13261263 0.07327861 -0.03395001 -0.031352103
0.12978187 -0.106917016 0.05942744 -0.002193855 -0.30379158 0.10129837 0.020426368 -0.20093659
0.035969414 -0.09389292 -0.087872185 -0.0712007 -0.023108799 -0.039472 0.074343845 -0.044828005
0.19674526 0.008481447 -0.08751346 0.20952092 0.12008475 -0.26716867 0.107899375 -0.037177194
0.065683946 0.088107415 0.1661755 0.080263615 0.015723849 -0.06047198 -0.10025222 0.05058187
0.14394478 -0.093286775 0.13953947 -0.017791307 -0.09202351 -0.13104899 -0.010351094 -0.2528325
0.1173895 1.7100549e-05 -0.10513955 -0.02364755 -0.23657289 0.06942413 0.1361222 0.018574495
0.04576406 -0.14785941 -0.036334306 0.06260105 0.0016181897 -0.025218975 0.061528374 0.040334597
-0.13686804 -0.08245926 0.17410989 -0.119385384 0.08393898 -0.0018327943 0.062116545 0.05099954
-0.111330345 -0.061339077 0.025279732 -0.066702455 0.026985956 -0.0009680089 -0.14399949 -0.010577488
-0.054586247 -0.03708066 0.012095414 -0.0019141667 -0.08237475 -0.014942341 -0.10522767 -0.048992276
-0.06737183 0.006204346 0.027545743 -0.068704784 -0.16144095 -0.04720413 -0.078962445 -0.02830271
-0.030598726 0.02211364 0.004662161 -0.11389363 0.06711296 -0.10867353 0.09211303 0.0818278
00000000: a127 42bd 1b94 073e b5ce 513e a0e5 2abd
00000010: fb1a 98bd bafd 003c 974d 25bc 8317 083d
00000020: a880 3ebc 8817 603d 5739 b1bd f2bb 4d3e
00000030: 5926 ea3d 2435 373d 2950 3c3e 2472 083d
00000040: 71a4 1e3d e614 0a3c 6e9c d43d e867 c0bd
00000050: 3ca1 173e 607a 8f3d 076b b73d 582d 403a
00000060: 5bea 94bd 4ece d43b fe30 223c 11de eebc
00000070: cb00 473b c863 8a3d 696a aa3d 597f 0b3e
00000080: 11f5 3e3e c836 b6bc 1ab1 793e 5cc3 243d
00000090: d546 84bb ccb6 093d e02d 96bd af45 00be
000000a0: 67ba 28bd 8ff9 023e a943 553c 4464 cd3d
000000b0: de75 fc3d c664 e23d a180 e63c 1873 253d
000000c0: f0d7 aebd 2b36 77bd c76c 84bc 1084 da3a
000000d0: 7ad7 f03d ca0a 963d 42b6 173d f5a8 723d
000000e0: af29 c7bd 4789 a93d 966c 533d 967e c03c
000000f0: 2cf6 2e3d 4ea9 443e 35c6 923d 2c46 913b
00000100: ecda 0b3e d8ad d1bd 31f9 d43d 399b 62bc
00000110: 3a41 923c 6782 b33d 7fbf 213e c38e ca3d
00000120: 05c7 18bd 1e6a 1e3b 07f7 b23d a861 c4bd
00000130: 8f0c 8a3d 81e4 333d 64e2 5fbc 59e0 d33d
00000140: 224f 0f3c a6c7 35bd 2669 eb3a a51e b73d
00000150: 7a4e dfbc 5366 933e b54e d4bd 0638 fc3c
00000160: 01b3 1b3e b2dd 023e e8ad 61bb 7ac4 013d
00000170: 9a52 f63d 4576 9f3c 0aef c13d 3813 5f3d
00000180: a654 05bd a785 2c3d e20d 153e 6e7c eb3c
00000190: cc89 953d d04c 133e 6efe 15bd 6078 1a39
000001a0: 9d86 4739 6e00 bbbd bdc1 933c 10fd e73c
000001b0: ad40 c93c 1526 38bd e1fd a43c a25f 383d
000001c0: 7f31 ef3d 0d7f 24bd 6f94 ee3b 02ac 703e
000001d0: fc20 08bd 2614 713d a5da 7c3d 5da7 023e
000001e0: 259c 863d fa86 083e 1f48 803c 35bc ec3d
000001f0: d603 b23c ee13 1f3e 910c 45bd 11ca 953d
00000200: d556 073e b104 85bc f867 683c 92ff f3bd
00000210: 063e d03c a498 38be 11c6 7bbd 4c37 4fbe
00000220: 2a81 42be 1246 b0bc 09de 20be acbb 323e
00000230: dfcb 97bd a983 a4bc c063 8f3d fd33 44be
00000240: 1f29 32be bb2f 8dbe a4b0 a83d d2b3 8bbb
00000250: 5705 b8bd 4597 9d3d f5c7 84bd 6d44 5ebd
00000260: 0283 9b3c ef3a 503e b152 2d3e 59ad 8b3d
00000270: 9bcb 07be 1913 963d 2a0f 0bbd 106b 00bd
00000280: 8ae5 043e 4ff7 dabd 306a 733d c7c6 0fbb
00000290: 928a 9bbe 8575 cf3d 3355 a73c 52c2 4dbe
000002a0: aa54 133d ee4a c0bd 55f6 b3bd acd1 91bd
000002b0: aa4e bdbc 64ad 21bd 9641 983d 929d 37bd
000002c0: 9777 493e c4f5 0a3c 423a b3bd a78c 563e
000002d0: feee f53d 55ca 88be 59fa dc3d 1d47 18bd
000002e0: 4e85 863d a971 b43d e929 2a3e 4061 a43d
000002f0: 4dcf 803c 78b1 77bd 0951 cdbd ef2e 4f3d
00000300: 4366 133e 230d bfbd 6fe3 0e3e 13bf 91bc
00000310: d276 bcbd b531 06be a397 29bc 4373 81be
00000320: e869 f03d 2673 8f37 6853 d7bd 82b8 c1bc
00000330: 2a40 72be 3d2e 8e3d 9e63 0b3e 8a29 983c
00000340: 1873 3b3d 7568 17be 48d3 14bd fb34 803d
00000350: 7019 d43a 0698 cebc 2d05 7c3d e435 253d
00000360: 2327 0cbe 67e0 a8bd dd49 323e 5380 f4bd
00000370: 33e8 ab3d 5f3a f0ba eb6d 7e3d e5e4 503d
00000380: 2a01 e4bd af3e 7bbd 7117 cf3c 4c9b 88bd
00000390: a711 dd3c fac1 7dba 9a74 13be 334d 2dbc
000003a0: d495 5fbd e4e1 17bd d82b 463c c7e4 faba
000003b0: 18b4 a8bd b8d0 74bc 9b81 d7bd 20ac 48bd
000003c0: 3efa 89bd d44d cb3b 9ca7 e13c 18b5 8cbd
000003d0: c750 25be 1e59 41bd 10b7 a1bd 16db e7bc
000003e0: 2eaa fabc aa27 b53c 0bc5 983b 1041 e9bd
000003f0: 8572 893d 3a90 debd c2a5 bc3d 5595 a73d

linear_relu_stack.6.bias f4 [64]
-0.017461507 0.07090963 -0.079838686 -0.12165347 0.04028536 -0.10346605 -0.1292188 -0.15507253
-0.10148587 -0.040155765 -0.1514408 -0.07659786 0.008087182 -0.20066768 0.06817016 -0.07040254
0.05299369 -0.07180091 0.044499714 0.044222716 -0.13998772 -0.003868946 -0.14523584 -0.028766688
-0.052385535 -0.1743072 -0.038193274 -0.053177655 -0.060967747 0.04693249 -0.032660827 -0.054014035
-0.03267254 0.08315144 -0.096780404 -0.07060761 0.1053875 -0.010113177 0.021936687 -0.054120038
-0.073294014 0.012198426 0.0055075316 -0.009039638 -0.050950494 -0.009897966 -0.066943586 -0.006724041
-0.12018689 -0.04866096 0.036977474 0.032298163 -0.07715252 -0.20837718 -0.0654098 -0.043689772
-0.08670019 -0.074990995 0.06966729 0.040400427 -0.09731909 -0.050141882 -0.02312251 -0.044795692
00000000: 6f0b 8fbc 1139 913d 7782 a3bd 7425 f9bd
00000010: 4302 253d 02e6 d3bd ef51 04be 55cb 1ebe
00000020: d3d7 cfbd 5f7a 24bd 4c13 1bbe 57df 9cbd
00000030: 1a80 043c d47b 4dbe cc9c 8b3d 352f 90bd
00000040: e90f 593d 5b0c 93bd 5545 363d e122 353d
00000050: f158 0fbe 258e 7dbb b4b8 14be 1ea8 ebbc
00000060: 3792 56bd 967d 32be 8d70 1cbd d0d0 59bd
00000070: 51b9 79bd 483c 403d 5cc7 05bd d23d 5dbd
00000080: a4d3 05bd 4d4b aa3d ce34 c6bd b99a 90bd
00000090: 67d5 d73d bdb1 25bc 91b4 b33c f9ac 5dbd
000000a0: 2c1b 96bd e8db 473c 8678 b43b fd1a 14bc
000000b0: 77b1 50bd 142b 22bc b819 89bd 5855 dcbb
000000c0: 8b24 f6bd b750 47bd b175 173d 144b 043d
000000d0: 2402 9ebd d460 55be 93f5 85bd 0cf4 32bd
000000e0: df8f b1bd e194 99bd b9ad 8e3d eb7a 253d
000000f0: 3b4f c7bd 9361 4dbd 6b6b bdbc b07b 37bd

linear_relu_stack.8.weight f4 [32, 64]
-0.05561008 -0.031233888 -0.07281886 0.0424365 -0.019056687 -0.01616446 0.044586003 -0.0071461843
-0.06156509 0.040509496 0.053019993 -0.021919597 -0.04609094 -0.07008139 -0.07436626 -0.012941332
0.07151793 0.106070854 0.0043542804 0.10875782 0.056984905 -0.009459138 -0.12636104 -0.02073307
0.0001378218 -0.07803666 -0.005742913 0.083441645 -0.2040914 0.030833744 0.10922445 -0.0136947725
0.04844876 -0.02389048 0.07387104 -0.019723516 -0.05944577 -0.03860299 0.011704159 -0.040072784
0.015550999 -0.04094358 -0.14197114 -0.048603185 0.022360967 -0.071089305 -0.0125199165 -0.068906285
-0.0010331277 0.016635707 -0.032484986 0.0034565951 0.04488695 -0.0846694 -0.013268898 -0.040934715
-0.07559489 -0.0046124663 0.06075558 0.014857417 0.011338823 -0.015407692 0.0055098645 0.0155626135
0.112107135 -0.10479784 -0.0003231264 -0.03920617 0.106817074 -0.23442055 0.17357367 -0.04183176
-0.17854297 -0.080755815 0.033163384 -0.13029875 -0.15455778 0.12240741 0.059059482 -0.06254903
-0.25323734 0.07519489 -0.15690382 0.103375286 0.03553268 0.0075482726 -0.054657526 0.03143197
-0.009187895 0.17443575 0.025792457 0.026249405 -0.0018586626 -0.035962604 0.069019094 -0.1185884
0.12571256 0.26377988 -0.19448972 0.035753485 -0.12159206 0.033437993 -0.036529854 -0.05074845
-0.10773432 0.21660459 -0.051958796 -0.042664018 0.027221022 -0.0069645382 -0.057600122 -0.18776901
-0.17081247 -0.23846155 -0.1594171 0.07820005 0.00835802 -0.1004189 -0.08457519 0.05413753
0.071382575 -0.16694728 0.020646049 0.041263837 -0.21705548 0.2007638 0.05031375 -0.11027088
-0.0048028366 0.008954835 0.050615367 0.17320968 -0.0075813173 -0.17008778 -0.131638 0.047393043
-0.0005590132 0.016816108 0.18866742 -0.10840674 0.052293576 0.0029227396 0.07862229 0.04038994
-0.0983342 0.10114187 -0.1257283 -0.11914644 -0.08176587 0.07011699 -0.010407322 -0.021936134
0.0048978007 0.10840662 0.10963906 0.04183154 -0.075617336 0.041595493 0.10805569 0.07105776
0.06959194 0.003578066 0.037324995 0.23613247 -0.018335925 0.033190846 0.09189974 0.008478216
0.19834144 -0.050475962 -0.05562093 0.010712248 0.03140861 -0.085274965 0.036531888 -0.0932498
-0.040349424 0.06574061 -0.07377732 -0.094662786 -0.10079175 0.06618755 0.057166133 -0.043414284
0.064293206 0.017444521 -0.045541 -0.13740793 -0.031676028 0.048588693 0.04773701 0.042850208
0.061743785 -0.051763523 -0.007896141 0.011097768 -0.117587455 -0.019717392 0.030717677 0.020714404
0.09010923 -0.0062183756 -0.013006948 0.0917265 -0.056300256 0.012492982 0.124616794 -0.09967466
-0.0073759845 0.201106 0.1668779 0.081401564 -0.06643427 0.04211963 0.17092939 0.07221212
0.033056155 0.14422883 0.06635521 -0.013875146 -0.1010007 -0.18037045 -0.011631448 0.060301945
-0.10937856 0.062772505 0.041357376 0.020251682 -0.15633404 -0.038343932 -0.06307118 0.29317263
-0.17408714 -0.0031581565 0.091149256 -0.10338655 0.09293419 -0.026765222 -0.0086823 -0.020963525
-0.22736026 -0.017599229 -0.015161002 -0.25984627 0.046416566 -0.060074385 -0.08066297 0.010652265
-0.0500432 -0.060311206 0.18291238 0.07369439 0.008300486 0.11774353 0.063770935 0.0037706448
00000000: 65c7 63bd 36de ffbc 0e22 95bd e5d1 2d3d
00000010: c51c 9cbc 546b 84bc d09f 363d 8a2a eabb
00000020: ad2b 7cbd 49ed 253d 7e2b 593d ba90 b3bc
00000030: dac9 3cbd d586 8fbd 564d 98bd e107 54bc
00000040: fe77 923d ad3b d93d 5aae 8e3b 6cbc de3d
00000050: 0169 693d 80fa 1abc ca64 01be 66d8 a9bc
00000060: 4284 1039 afd1 9fbd 0c2f bcbb 74e3 aa3d
00000070: 56fd 50be 0c97 fc3c 12b1 df3d 0a60 60bc
00000080: 3572 463d f8b5 c3bc b349 973d 3693 a1bc
00000090: 687d 73bd 2b1e 1ebd cdc2 3f3c 5c23 24bd
000000a0: 9ec9 7e3c 75b4 27bd e260 11be 2214 47bd
000000b0: 592e b73c 4597 91bd 5620 4dbc bd1e 8dbd
000000c0: 036a 87ba 9b47 883c fa0e 05bd 0b88 623b
000000d0: 61db 373d 2667 adbd cb65 59bc 29ab 27bd
000000e0: 7ed1 9abd 2c24 97bb d8da 783d 866c 733c
000000f0: 78c6 393c 8b70 7cbc 188c b43b 55fa 7e3c
00000100: 6d98 e53d 40a0 d6bd 4b69 a9b9 a696 20bd
00000110: e9c2 da3d f10b 70be 4cbd 313e c857 2bbd
00000120: f8d3 36be 4e63 a5bd 54d6 073d 096d 05be
00000130: 6544 1ebe bcb0 fa3d 5be8 713d b519 80bd
00000140: 53a8 81be c7ff 993d 65ab 20be 6cb6 d33d
00000150: b78a 113d 8057 f73b 92e0 5fbd cfbe 003d
00000160: d388 16bc 499f 323e b44a d33c fe08 d73c
00000170: 5e9e f3ba 864d 13bd e259 8d3d 7ade f2bd
00000180: cbba 003e 280e 873e 5028 47be 3f72 123d
00000190: 4205 f9bd 47f6 083d 54a0 15bd 9bdd 4fbd
000001a0: d0a3 dcbd 98cd 5d3e bfd2 54bd 77c0 2ebd
000001b0: 9ffe de3c c836 e4bb 1bee 6bbd 8546 40be
000001c0: 77e9 2ebe 442f 74be 3c3e 23be 5927 a03d
000001d0: 14f0 083c 6da8 cdbd c235 adbd 51bf 5d3d
000001e0: 0731 923d 3af4 2abe e721 a93c 4504 293d
000001f0: cb43 5ebe 0795 4d3e ca15 4e3d b3d5 e1bd
00000200: 1d61 9dbb 4db7 123c 0f52 4f3d e15d 313e
00000210: b36c f8bb 7e2b 2ebe 1dcc 06be 351f 423d
00000220: be8a 12ba efc1 893c 0832 413e 5a04 debd
00000230: ca31 563d 6f8b 3f3b b904 a13d ec6f 253d
00000240: 7163 c9bd 7823 cf3d ebbe 00be 0c03 f4bd
00000250: dd74 a7bd 7f99 8f3d 7983 2abc 68b3 b3bc
00000260: bb7d a03b 4a04 de3d 728a e03d 8d57 2b3d
00000270: 43dd 9abd 0960 2a3d 4d4c dd3d bb86 913d
00000280: 3886 8e3d fc7d 6a3b 18e2 183d b6cc 713e
00000290: 3935 96bc 20f3 073d ee35 bc3d 37e8 0a3c
000002a0: 051a 4b3e e2bf 4ebd c6d2 63bd 6d82 2f3c
000002b0: 51a6 003d a4a4 aebd 76a2 153d c0f9 bebd
000002c0: 7045 25bd 03a3 863d 9018 97bd 90de c1bd
000002d0: e86b cebd 578d 873d 0927 6a3d 2dd3 31bd
000002e0: 28ac 833d d0e7 8e3c 3389 3abd aab4 0cbe
000002f0: b9be 01bd f004 473d e287 433d b383 2f3d
00000300: 0de7 7c3d fd05 54bd d15e 01bc 6ad3 353c
00000310: b1d1 f0bd 5e86 a1bc a3a3 fb3c 41b1 a93c
00000320: 308b b83d 84c3 cbbb 181b 55bc 1adb bb3d
00000330: 199b 66bd 5daf 4c3c 1737 ff3d 3a22 ccbd
00000340: 3eb2 f1bb bbee 4d3e 0ae2 2a3e ddb5 a63d
00000350: b10e 88bd a285 2c3d 1d08 2f3e f3e3 933d
00000360: e465 073d b9b0 133e 3ee5 873d 9554 63bc
00000370: 74d9 cebd 08b3 38be d491 3ebc 2cff 763d
00000380: de01 e0bd df8e 803d 5a66 293d dbe6 a53c
00000390: 0816 20be 870e 1dbd 762b 81bd b91a 963e
000003a0: e643 32be 13f9 4ebb 76ac ba3d 54bc d3bd
000003b0: 4854 be3d bd42 dbbc 3540 0ebc b3bb abbc
000003c0: 21d1 68be 422c 90bc da65 78bc 920a 85be
000003d0: 4c1f 3e3d 8f10 76bd a132 a5bd d686 2e3c
000003e0: 19fa 4cbd e208 77bd 624d 3b3e 16ed 963d
000003f0: c3fe 073c 8523 f13d 569a 823d ec1c 773b

linear_relu_stack.8.bias f4 [32]
-0.12094598 0.08658801 -0.102223575 0.043421082 -0.13093251 -0.005917031 -0.03193293 0.052727576
-0.05634591 -0.08037702 -0.14876606 -0.035205986 -0.06230197 0.030297 0.02250896 -0.06747774
0.07986156 0.10612617 -0.11417688 -0.09424092 -0.021362273 0.013351834 -0.016078841 -0.047304057
-0.059892323 -0.046207592 -0.052258495 -0.07304241 0.06917509 0.04831826 -0.019053316 -0.07235876
00000000: 87b2 f7bd 0e55 b13d 985a d1bd 4eda 313d
00000010: 2c13 06be a7e3 c1bb 1bcc 02bd dff8 573d
00000020: f8ca 66bd b59c a4bd 2156 18be 2734 10bd
00000030: 5a30 7fbd 6a31 f83c b664 b83c c531 8abd
00000040: 758e a33d ad58 d93d 91d5 e9bd 6201 c1bd
00000050: efff aebc a7c1 5a3c c6b7 83bc e6c1 41bd
00000060: a751 75bd 2c44 3dbd 010d 56bd 4297 95bd
00000070: abab 8d3d 5ee9 453d b315 9cbc d430 94bd

linear_relu_stack.10.weight f4 [1, 32]
-0.00042894122 0.07209949 0.14960238 -0.15734196 0.03640429 0.00052377617 -0.0011606007 0.11035615
-0.0040676435 -0.07584425 -0.0633623 0.061493013 0.13965091 0.15678898 -0.07446093 -0.05847491
0.00041508078 0.043716624 -0.033106063 0.01949529 -0.07401745 0.09488243 -0.0017823519 -0.095891945
0.040653557 0.015969418 0.0008887939 0.002509509 0.017780466 -0.0400854 -0.10923646 0.00064743677
00000000: 84e3 e0b9 e6a8 933d 5e31 193e 401e 21be
00000010: aa1c 153d 064e 093a 4c1f 98ba 6802 e23d
00000020: de49 85bb 3b54 9bbd 18c4 81bd 19e0 7b3d
00000030: a600 0f3e 4a8d 203e f97e 98bd 6383 6fbd
00000040: 339f d939 3410 333d 399a 07bd 96b4 9f3c
00000050: 7696 97bd b851 c23d ce9d e9ba ff62 c4bd
00000060: 5884 263d 4cd2 823c f3fd 683a 9376 243b
00000070: 57a8 913c 9730 24bd 5db7 dfbd bfb8 293a
