model/pendulum_model_10.pth (torch, 88722 bytes, 11 tensors)

linear_relu_stack.0.weight f4 [32, 3]
0	0x3ef6a056	0.48169202
1	0xbf05a548	-0.52205324
2	0x3e8c0e8d	0.2735485
3	0x3f0873b0	0.53301525
4	0xbe61d12c	-0.22052449
5	0x3e114e0c	0.14189929
6	0xbeb9f94b	-0.36323008
7	0x3d567358	0.052356094
8	0x3e88487e	0.26617807
9	0xbdcf7aed	-0.10130868
10	0x3efe9321	0.49721625
11	0xbd5effd1	-0.054443184
12	0xbe03d531	-0.12874295
13	0x3ec98284	0.39357388
14	0x3e996eda	0.29967386
15	0xbe7a7944	-0.24460322
16	0xbdee03cc	-0.11621818
17	0xbe92a144	-0.2863866
18	0xbed1b135	-0.4095551
19	0x3e938641	0.28813365
20	0xbee38b01	-0.4444199
21	0x3ecc30eb	0.3988107
22	0xbec429f3	-0.38313255
23	0xbeb48fa5	-0.35265842
24	0x3f0b982b	0.54529065
25	0x3f065e14	0.524873
26	0x3ec3b22e	0.38221878
27	0x3e54b982	0.2077389
28	0xbef370f5	-0.47547117
29	0x3c8b68c3	0.017017728
30	0x3ed511d8	0.41615176
31	0xbec77fb1	-0.38964608
32	0xbf007f66	-0.50194395
33	0xbec585e2	-0.38578707
34	0xbb887e2d	-0.004165432
35	0xbf122884	-0.5709307
36	0xbf0305a4	-0.5118048
37	0xbdcdb26b	-0.10043796
38	0xbe7d16b2	-0.24715689
39	0x3e2f6ebe	0.17132089
40	0xbee2b369	-0.44277504
41	0x3e23ea32	0.16007307
42	0xbbf5708a	-0.0074902223
43	0xbe8a93c4	-0.2706586
44	0xbeae6d5a	-0.34067804
45	0xbdd3f711	-0.103498586
46	0x3e3a3e3d	0.18187805
47	0xbe6fb350	-0.23408246
48	0xbee5111c	-0.44739616
49	0xbe4ce871	-0.20010544
50	0xbee91bf8	-0.4552915
51	0x3eefd2bd	0.46840468
52	0x3eda4fdb	0.4263905
53	0xbe5c9c5e	-0.21544024
54	0x3e02e83e	0.12783906
55	0xbe33fdb6	-0.17577252
56	0x3d6bdab6	0.057581626
57	0xbd98495c	-0.07435867
58	0xbec49215	-0.38392702
59	0x3eeaab47	0.458338
60	0x3ede9d42	0.43479353
61	0xbea7605c	-0.32690704
62	0x3e34b65b	0.17647688
63	0xbeebafb3	-0.46032485
64	0x3ddfbf97	0.10925215
65	0x3eecc9aa	0.46247607
66	0x3e846833	0.25860748
67	0xbe25b150	-0.1618092
68	0x3dfe0eb9	0.12405152
69	0x3ee2ac91	0.44272283
70	0xbde185f1	-0.110118754
71	0xbc55c18c	-0.013046633
72	0x3ec9a954	0.39387
73	0x3f12ea36	0.5738863
74	0xbe940c8c	-0.28915823
75	0x3e89f911	0.26947835
76	0x3d908c07	0.07057958
77	0xbec014cc	-0.37515867
78	0xbe97869f	-0.29594895
79	0x3ebc00ba	0.36719304
80	0xbf1241dd	-0.5713175
81	0x3ee8c818	0.4546516
82	0x3ec1d7ec	0.37860048
83	0xbf019b57	-0.50627655
84	0xbe94d0c9	-0.2906554
85	0x3d079b4b	0.033107083
86	0xbf097792	-0.53698075
87	0xbea2faad	-0.31831875
88	0x3efe949a	0.4972275
89	0xbe93ab00	-0.288414
90	0xbee65961	-0.44990066
91	0xbee7db8b	-0.45284685
92	0x3dbf2f92	0.09335245
93	0xbefb9255	-0.4913508
94	0xbed00825	-0.40631214
95	0x3d89a7e8	0.06721479

linear_relu_stack.0.bias f4 [32]
0	0x3edabdd4	0.42722952
1	0xbe37c4b1	-0.17946126
2	0xbee95748	-0.45574403
3	0xbde849b3	-0.11342182
4	0xbe9210fd	-0.28528586
5	0x3d7c34ee	0.061573915
6	0x3c5cc78d	0.013475311
7	0x3e8b022d	0.27150097
8	0x3eb709d4	0.35749686
9	0x3f182dd3	0.5944492
10	0xbc2308f4	-0.009950865
11	0x3dd53eb5	0.10412351
12	0xbdcc1b55	-0.09966151
13	0x3e75f84d	0.240205
14	0x3edc8985	0.4307367
15	0x3dcb68dd	0.099321105
16	0xbe897dd8	-0.26853824
17	0xbc90f900	-0.017696857
18	0x3de2364d	0.11045513
19	0x3edd9320	0.4327631
20	0xbee91c3f	-0.45529363
21	0x3f0c43cb	0.54790944
22	0x3ef72564	0.48270714
23	0x3ef272eb	0.473533
24	0xbe99c577	-0.30033466
25	0xbea438b0	-0.320745
26	0xbefebe2a	-0.4975446
27	0x3d14d5af	0.036336597
28	0x3f094449	0.5361982
29	0x3cb0046a	0.02148648
30	0x3da2f1b9	0.07956261
31	0x3ed7f44f	0.4217858

linear_relu_stack.2.weight f4 [64, 32]
0	0x3dcca9df	0.09993338
1	0x3e2e0f0e	0.1699793
2	0xbd3eeaaa	-0.04661051
3	0xbd42722b	-0.04747216
4	0x3e33325d	0.17499681
5	0x3e01f9ff	0.12693022
6	0xbdf3cfb7	-0.11904853
7	0x3daf5fd0	0.08563197
8	0xbdcd77d2	-0.100326195
9	0x3d7e1876	0.062035047
10	0x3ca40ac3	0.020024663
11	0xbda657c2	-0.08122207
12	0xbbcb4bd6	-0.0062041087
13	0x3e60ed84	0.21965605
14	0x3dce70fb	0.10080143
15	0x3e33fd27	0.17577039
16	0xbd63b24a	-0.05558995
17	0xbddfcc78	-0.10927671
18	0xbc866306	-0.01640464
19	0x3d4a2c51	0.04935867
20	0xbc7f2591	-0.015572921
21	0xbe26165e	-0.1621947
22	0xbe3dc64d	-0.18532677
23	0x3bc81934	0.00610652
24	0xbd5921e7	-0.053010847
25	0x3dfc399c	0.123156756
26	0xbbe13bd1	-0.0068735857
27	0x3c663122	0.0140498
28	0xbd991b4a	-0.07475908
29	0xbc874cbe	-0.016516086
30	0x3c4a864a	0.012361119
31	0x3e04ca44	0.12967783
32	0xbe2d795f	-0.1694083
33	0xbe0f84cd	-0.14015503
34	0x3d20fadd	0.039301742
35	0x3ace2116	0.0015726413
36	0x3d220f02	0.039565094
37	0x3e40943a	0.18806544
38	0x3c8ee146	0.017441403
39	0x3df1f2c7	0.11813884
40	0x3de4383f	0.111435406
41	0x3c7c8f1e	0.015414981
42	0x3e26b033	0.16278152
43	0xbd64eddd	-0.055890907
44	0x3e25af8d	0.16180249
45	0x3db3aebd	0.08773563
46	0x3e21ab37	0.1578797
47	0x3e1f32fa	0.1554679
48	0xbb237332	-0.0024940488
49	0xbe040a78	-0.12894619
50	0xbe0dc62b	-0.13845126
51	0x3d004c1d	0.031322587
52	0x3deeb11a	0.11654873
53	0xbc4da3cd	-0.01255126
54	0x3d80b110	0.06283772
55	0xbd0c9c38	-0.03432867
56	0xbe508c0b	-0.20365922
57	0x3dac28b9	0.08406205
58	0xbc44ce90	-0.012012139
59	0x3b8fdf78	0.004390653
60	0x3dc89b5d	0.09795258
61	0x3c3e42cc	0.011612605
62	0x3e46f765	0.19430311
63	0xbd9e6765	-0.07734565
64	0x3e299343	0.16560082
65	0xbc9187b9	-0.017764913
66	0xbda4a945	-0.08040098
67	0xbce8fa69	-0.028439717
68	0x3dc5614d	0.09637699
69	0xbda21a25	-0.07915143
70	0x3e02b07e	0.12762639
71	0xbd09ec06	-0.033672355
72	0x3d225dc5	0.039640207
73	0xbd09b8c8	-0.033623487
74	0xbd76a4a2	-0.0602156
75	0xbe16c6a4	-0.14724213
76	0x3d6e5193	0.058183264
77	0x3e16ef51	0.1473973
78	0x3e4ce23d	0.20008178
79	0xbe1fe982	-0.1561642
80	0x3e0e1ca5	0.13878115
81	0xbe39e72a	-0.18154588
82	0x3e3a41bd	0.1818914
83	0xbde7031f	-0.11279892
84	0xbd3508dd	-0.044197906
85	0x3d862920	0.06550813
86	0x3d697dd9	0.057004783
87	0x3dc4927f	0.095982544
88	0xbe568a66	-0.20951232
89	0xbdd74a81	-0.10512257
90	0x3d31dd1a	0.04342375
91	0xbe550fd3	-0.20806818
92	0x3df2a15d	0.11847184
93	0xbe51212c	-0.2042281
94	0xbddf9ac3	-0.1091819
95	0xbd10002e	-0.03515642
96	0xbe009a5b	-0.12558882
97	0x3e1065b3	0.14101295
98	0x3d87b595	0.06626431
99	0xbd8604cb	-0.06543883
100	0xbd964cb4	-0.07338849
101	0x3d08fa02	0.03344155
102	0x3e46bdab	0.1940829
103	0xbd25de72	-0.040495344
104	0x3e17557b	0.14778702
105	0xbe28706b	-0.16449134
106	0x3db5dc6c	0.08879933
107	0xbbaa0f77	-0.005189832
108	0x3c83de98	0.016097352
109	0x3e1fd9c5	0.15610416
110	0x3dbf787d	0.09349153
111	0xbd6d07dc	-0.057868823
112	0x3d77bdcd	0.060483743
113	0x3c8c3a77	0.017117722
114	0x3ceb6ef6	0.028739434
115	0xbc96ceb9	-0.01840912
116	0x3dc484b6	0.09595625
117	0x3e0e3d9f	0.13890694
118	0xb9e7dde5	-0.00044225078
119	0x3d0faf84	0.035079494
120	0xbd6444fa	-0.055729844
121	0x3cb419ea	0.021985013
122	0x3ded5c88	0.115899146
123	0x3d9aeddd	0.075649
124	0x3e2602af	0.16211961
125	0xbb58fec6	-0.0033110841
126	0xbd2bc524	-0.041936055
127	0xbe0799ef	-0.13242315
128	0xbdc14200	-0.094364166
129	0xbe2cae25	-0.16863306
130	0x3ddbdf15	0.10735909
131	0xbe26973c	-0.16268629
132	0x3d808933	0.06276169
133	0x3c1bf9d2	0.009520011
134	0xbe0ba742	-0.13638023
135	0xbe0e83be	-0.13917443
136	0xbe1a1f14	-0.15050918
137	0x3d9f0dfb	0.077663384
138	0xbd82a5d4	-0.063792855
139	0x3da049cf	0.07826578
140	0x3d3d3505	0.04619314
141	0x3e20cdb2	0.15703467
142	0xbdbae7a1	-0.09126211
143	0x3e5257ff	0.2054138
144	0xbe3bf51f	-0.18355225
145	0xbe4640e1	-0.19360687
146	0xbe182e3e	-0.1486139
147	0x3db6bbb2	0.08922519
148	0xbe154bdd	-0.14579721
149	0x3ddfe743	0.109327815
150	0xbe2563ca	-0.16151348
151	0x3dd5a201	0.104312904
152	0xbdfd3369	-0.12363321
153	0xbdf3eaca	-0.11910017
154	0x3da9fc05	0.08300022
155	0xbe28de13	-0.16490965
156	0x3e22eced	0.15910693
157	0xbd2a0425	-0.04150786
158	0x3d958294	0.073002964
159	0xbe4d45f5	-0.20046218
160	0xbde204b4	-0.11036053
161	0x3cb05cee	0.021528687
162	0xbdf78e4c	-0.12087688
163	0x3dacff5f	0.08447146
164	0xbd87ba15	-0.06627289
165	0xbe09f246	-0.13471326
166	0xbd282435	-0.041050155
167	0x3de63297	0.11240118
168	0x3dd1f47f	0.10251712
169	0x3e1ff84d	0.15622063
170	0xbe219b27	-0.15781842
171	0x3ddca0be	0.10772847
172	0xbd869bcc	-0.06572685
173	0x3c5b29f8	0.013376705
174	0xbe361d2b	-0.17784564
175	0xbdf91b51	-0.12163413
176	0xbdfcebc4	-0.12349656
177	0x3e26c9a5	0.16287859
178	0x3a49fcba	0.00077052007
179	0x3ddd2bff	0.10799407
180	0x3d602f12	0.05473239
181	0x3de3bab9	0.11119599
182	0x3e36dfd2	0.17858818
183	0x3e33f6b4	0.17574579
184	0x3e0b0e77	0.13579737
185	0x3d2f166d	0.042745996
186	0x3e0f41cd	0.13989945
187	0xbd86d002	-0.06582643
188	0x3dbca8cb	0.09211882
189	0x3e0d0904	0.1377297
190	0x3e15d284	0.14631087
191	0xbd76f65e	-0.060293548
192	0x3d680e83	0.056654464
193	0x3dec85ed	0.11548982
194	0xbe0c8e26	-0.137261
195	0xbd848ba2	-0.06471945
196	0xbe1cc38d	-0.15308972
197	0x3e14bd52	0.14525345
198	0x3e2aa449	0.16664232
199	0x3e25fa2c	0.16208714
200	0x3d65f354	0.05614026
201	0x3e1fd081	0.15606882
202	0xbe040db7	-0.12895857
203	0xbcc3ceb1	-0.02390227
204	0xbd3f761f	-0.04674351
205	0x3d726099	0.059174154
206	0x3da860e9	0.08221609
207	0x3db34fd7	0.087554626
208	0xbdb06653	-0.08613267
209	0xbcff9796	-0.031200211
210	0x3d6f53f2	0.058429666
211	0xbe417ada	-0.1889452
212	0x3e1e1222	0.15436605
213	0xbd4147d6	-0.04718765
214	0x3dbc7d40	0.09203577
215	0x3e1559f2	0.14585093
216	0xbde9d969	-0.11418421
217	0xbd6aff2b	-0.057372253
218	0x3dcfd4ae	0.10147987
219	0x3d1f8ed1	0.03895456
220	0x3e1d914f	0.15387462
221	0x3de99528	0.114054024
222	0x3da66e97	0.08126562
223	0x3e51c7fa	0.20486441
224	0x3c66a0cf	0.014076426
225	0x3d7981b9	0.06091473
226	0xbd90362e	-0.07041584
227	0xbe0e27c2	-0.13882354
228	0x3dcaa780	0.09895229
229	0xbd3979c7	-0.04528215
230	0x3e18f1e7	0.14936028
231	0xbcb209da	-0.021733213
232	0xbb8949c1	-0.0041897004
233	0x3dd6c161	0.10486103
234	0x3dc89a25	0.09795026
235	0x3e2a6ae7	0.16642343
236	0x3d7e1614	0.062032774
237	0xbd05696a	-0.032571234
238	0x3e0b8a19	0.13626899
239	0x3dcb63a8	0.09931117
240	0x3d4d07ce	0.05005627
241	0xbe1ba5e2	-0.15199998
242	0x3c1e825b	0.009674634
243	0x3d64c499	0.055851553
244	0xbd83cf67	-0.06436043
245	0xbdf4a590	-0.11945641
246	0xbdfb0c2c	-0.12258181
247	0x3e1b0e58	0.1514219
248	0xbe3d8da6	-0.18511066
249	0xbc735ce7	-0.014853693
250	0xbe0a02be	-0.13477609
251	0x3de35d3e	0.11101769
252	0x3d8a9b05	0.06767849
253	0x3b860913	0.004090437
254	0x3e45bb76	0.19309792
255	0xbca118a1	-0.019665064

linear_relu_stack.2.bias f4 [64]
0	0xbe10464b	-0.14089315
1	0xbd8f577b	-0.069991075
2	0xbd9dd441	-0.077065
3	0xbb7e94ea	-0.0038846084
4	0x3df0a6f5	0.117505945
5	0x3dace3d3	0.084418915
6	0x3d84d4e8	0.06485921
7	0xbe31be66	-0.17357787
8	0xbb6811a5	-0.0035410908
9	0xbe0b520a	-0.13605514
10	0xbdff988f	-0.1248027
11	0x3d8b9beb	0.06816848
12	0xbe46abf1	-0.19401528
13	0x3d7c7eb4	0.06164427
14	0xbc8c5abd	-0.017133111
15	0xbdffaa1a	-0.12483616
16	0xbd039487	-0.03212407
17	0x3dfcd364	0.12345007
18	0xbde501eb	-0.111820064
19	0xbd317d22	-0.043332227
20	0xbe1ef04f	-0.15521358
21	0xbe0ddda4	-0.1385408
22	0xbde479e5	-0.11156062
23	0x3d9cb97a	0.07652564
24	0xbd9e1fda	-0.07720919
25	0xbcbd346a	-0.023096282
26	0x3da18f44	0.07888654
27	0xbe1c0c2e	-0.15239021
28	0xbc446949	-0.011987993
29	0x3e0d0986	0.13773164
30	0xbd9c4910	-0.07631123
31	0x3d8727c2	0.0659938
32	0xbe1a3a5b	-0.15061323
33	0x3e167502	0.14693072
34	0x3d90c107	0.07068067
35	0xbd7f7f25	-0.062377114
36	0xbe13104b	-0.14361684
37	0xbcfab766	-0.03060503
38	0xbce5affb	-0.028038016
39	0xbdcdea26	-0.10054426
40	0xbe2f1d87	-0.17101108
41	0x3e4c0056	0.19922003
42	0xbd33cca2	-0.043896325
43	0x3dcb73d6	0.09934203
44	0x3d65c0b0	0.056091964
45	0xbc82d188	-0.015969053
46	0x3ddfc43d	0.10926101
47	0xbc563714	-0.013074655
48	0x3df3f307	0.11911588
49	0xbcb6402c	-0.022247396
50	0xbd76a596	-0.06021651
51	0xbd2ca0ab	-0.042145412
52	0xbba46a79	-0.0050175753
53	0xbdb08c61	-0.08620525
54	0x3dc15ab1	0.09441126
55	0xbcc79b46	-0.024366032
56	0x3cd4164c	0.025889538
57	0xbddea5a1	-0.10871435
58	0x3e0c3c7d	0.1369495
59	0xbe2df7d4	-0.1698907
60	0xbe2f04bb	-0.17091648
61	0xbe0fc07f	-0.14038275
62	0x3dcc6c29	0.099815674
63	0x3dc73ac6	0.09728007

linear_relu_stack.4.weight f4 [128, 64]
0	0x3df71ecf	0.12066423
1	0xbd96d9b3	-0.073657416
2	0x3e0acef8	0.13555515
3	0xbde9f69b	-0.114239894
4	0x3bbff12c	0.0058576073
5	0x3d0e0a75	0.03467794
6	0x3d8c2b8c	0.068442434
7	0x3cfdb6e6	0.030971002
8	0xbdedc635	-0.116100706
9	0xbb780790	-0.0037846304
10	0x3d91ba11	0.071155675
11	0x3d705e9a	0.05868397
12	0x3d9ca7e8	0.07649213
13	0x3dced46e	0.100991115
14	0xbcee3857	-0.0290796
15	0xbde7395a	-0.11290236
16	0xbd9dc002	-0.07702638
17	0x3dbb08f8	0.0913257
18	0x3d693d3d	0.056943167
19	0xbdac3447	-0.084084086
20	0x3dfd78be	0.12376545
21	0xbd2cbbcb	-0.04217128
22	0x3dad0391	0.08447946
23	0x3d195cb4	0.037441924
24	0xbd0d4dfe	-0.034498207
25	0x3dda097e	0.10646342
26	0x3b28a481	0.0025732818
27	0xbd35cf1c	-0.044386968
28	0x3d986308	0.07440764
29	0xbdf5d685	-0.12003807
30	0x3de571bd	0.112033345
31	0x3e1e2885	0.15445144
32	0x3dbe1b46	0.09282546
33	0x3ddc8862	0.107682005
34	0x3be37bf5	0.006942267
35	0xbde4fbf4	-0.11180869
36	0x3d265905	0.04061224
37	0x3d6bb966	0.057549857
38	0x3c303092	0.010753768
39	0xbdc91097	-0.098176174
40	0x3d3e468f	0.04645401
41	0xbcd9b44b	-0.026575228
42	0xbdf45456	-0.11930148
43	0xbd76ee7d	-0.060286034
44	0x3cee68c4	0.02910269
45	0x3cd717a1	0.026256384
46	0x3c98d76a	0.018657405
47	0xbdcb3154	-0.09921518
48	0x3d159ba8	0.0365254
49	0x3d9e64f9	0.07734103
50	0xbdedb5ff	-0.116069786
51	0xbd4e9165	-0.050431628
52	0xbd2935cd	-0.041311074
53	0x3d493ceb	0.04913036
54	0x3dd1244d	0.10212002
55	0xbd8c878e	-0.068617925
56	0xbc80abb3	-0.015706873
57	0x3baed2e9	0.005335201
58	0xbcd909c9	-0.026493924
59	0x3d05b854	0.032646492
60	0x3d4f8077	0.050659623
61	0x3c06936e	0.008213861
62	0x3df52534	0.119699866
63	0x3dde05a2	0.10840918
64	0xbd8e46f5	-0.06947128
65	0x3e05fc4f	0.1308453
66	0x3decb05b	0.11557075
67	0x3d75c262	0.05999983
68	0x3dafa3a5	0.085761346
69	0x3d2323ea	0.039829172
70	0xbc2621d5	-0.010139902
71	0x3d73a8f6	0.059487306
72	0xbd39f68e	-0.04540115
73	0x3cedf84f	0.029049067
74	0xbdb3cd41	-0.087793835
75	0xbdb232c6	-0.087010905
76	0xbdd64740	-0.104628086
77	0x3d3c7739	0.046012137
78	0x3d3f9a09	0.04677776
79	0xbda5df9b	-0.0809929
80	0xbcaafa6f	-0.02087137
81	0x3db2923c	0.08719298
82	0x3d5c884a	0.053840913
83	0xbcb226f1	-0.021747084
84	0xbd919f94	-0.07110515
85	0x3d8b06de	0.06788419
86	0x3ccd4f97	0.025062365
87	0x3c290d61	0.010318131
88	0xbdc5ed6f	-0.096644275
89	0x3db9c837	0.09071391
90	0xbc32256b	-0.010873179
91	0x3dfb0c7d	0.12258241
92	0xbdeb0c92	-0.11477007
93	0x3dffb541	0.12485743
94	0xbdb732dc	-0.089452475
95	0xbcb11a42	-0.021618966
96	0xbd6e0a1d	-0.058115114
97	0x3d53bbef	0.0516929
98	0x3ccf9058	0.025337383
99	0x3e4b59a1	0.1985841
100	0x3e1618c7	0.1465789
101	0x3d4b4b1e	0.049632184
102	0x3deb3888	0.11485392
103	0xbb6958f3	-0.0035605996
104	0x3df39fe0	0.11895728
105	0x3c2f0ab1	0.010683701
106	0x3e2f3e7d	0.17113681
107	0x3d8edab5	0.06975309
108	0xbd2d69c8	-0.04233721
109	0xbdf27bb4	-0.11840001
110	0xbc23e4ee	-0.010003312
111	0xbe2a1963	-0.16611247
112	0xbd10e61c	-0.0353757
113	0x3d55514d	0.052079488
114	0x3e2bdec2	0.16784194
115	0xbddb7da4	-0.107173234
116	0xbc9fc9e7	-0.019505454
117	0x3d936252	0.071964875
118	0x3e0edeac	0.1395213
119	0xbdaaf69a	-0.08347817
120	0x3d2d701f	0.042343255
121	0x3d99b09c	0.07504389
122	0x3d2fc398	0.042911142
123	0x3dc06be6	0.0939558
124	0xbe08bdab	-0.13353603
125	0xbc0db082	-0.00864804
126	0x3cc71fee	0.024307217
127	0x3d98d985	0.074633636
128	0x3d2246c1	0.039618257
129	0x3dbcede5	0.09225062
130	0x3c1913ed	0.00934313
131	0x3d1a1c0f	0.037624415
132	0x3e041ef5	0.12902434
133	0xbd525a04	-0.051355377
134	0xbc02789a	-0.007963324
135	0xbd8a18e8	-0.06743032
136	0x3dad7439	0.08469433
137	0x3d88a019	0.06671161
138	0xbbf52e64	-0.007482337
139	0xbd6d1217	-0.05787858
140	0xbd03516c	-0.03206007
141	0x3d53c2eb	0.05169956
142	0x3dde5ce6	0.10857563
143	0xbdfb51fa	-0.12271495
144	0xbbb1b5c4	-0.0054232795
145	0xbd188a7e	-0.03724145
146	0xbd87f9a5	-0.06639413
147	0x3d7f8453	0.062382054
148	0xb9d85fc0	-0.0004127007
149	0x3d9010e4	0.07034472
150	0xbc329800	-0.010900497
151	0x3c6e8855	0.014558871
152	0xbdec5c1a	-0.115410045
153	0x3d869e89	0.06573207
154	0x3d503861	0.050835017
155	0x3cadccc7	0.02121581
156	0x3d1bf71f	0.03807747
157	0x3dafbd15	0.085809864
158	0xbddba96d	-0.10725675
159	0x3c83d480	0.016092539
160	0x3e0077e2	0.12545732
161	0x3d2581b7	0.04040691
162	0x3da5a201	0.080875404
163	0xbb83ce2c	-0.0040223803
164	0x3cdbd3f3	0.026834464
165	0xbd1c274c	-0.038123414
166	0x3c94b158	0.01815097
167	0x3d85c9a8	0.065326035
168	0xbd0d6815	-0.03452309
169	0xbcc207eb	-0.023685416
170	0xbc635ac5	-0.013876622
171	0x3cde5e36	0.027144533
172	0xbda5416c	-0.08069119
173	0x3d96d3fe	0.07364653
174	0xbda94fba	-0.0826716
175	0x3d00aa90	0.03141266
176	0x3d13d719	0.036093805
177	0x3b188d2c	0.0023277504
178	0xbc158c6f	-0.00912772
179	0x3d50bd95	0.05096205
180	0xbe074296	-0.13208994
181	0x3d59f831	0.05321521
182	0xbdbc1012	-0.09182753
183	0xbcdac7bb	-0.026706567
184	0x3ccad7aa	0.02476104
185	0x3d964882	0.073380485
186	0xbcf6a6b1	-0.030108782
187	0x3d8b45ea	0.068004444
188	0x3db0e28d	0.08636961
189	0xbcd01d0f	-0.025404481
190	0x3e038a1c	0.12845653
191	0x3d7d8224	0.06189169
192	0x3d870c74	0.06594172
193	0xbde26406	-0.11054234
194	0xbd81e9ce	-0.06343423
195	0x3d5e0c7b	0.05421112
196	0x3db574ce	0.08860169
197	0xbbd70a68	-0.00656252
198	0xbdac67e6	-0.084182546
199	0x3d1b830d	0.037966777
200	0xbc59c18e	-0.013290776
201	0x3db4cf03	0.08828547
202	0x3d315a79	0.043299172
203	0x3da4e0b3	0.080506705
204	0x3cd5c109	0.026093023
205	0xbd525d50	-0.05135852
206	0xbde42be2	-0.111411825
207	0xbde30f1e	-0.11086868
208	0xbd862941	-0.06550837
209	0x3db14739	0.08656163
210	0x3dd01859	0.10160894
211	0x3d77cf8b	0.060500663
212	0x3de88952	0.11354317
213	0xbdd5ba95	-0.10435978
214	0x3d8f1e1d	0.069881655
215	0x3d928d15	0.071558155
216	0x3da347fb	0.079727136
217	0xbd9a0712	-0.0752088
218	0x3cb7f3f2	0.02245519
219	0xbd447e49	-0.047971997
220	0x3d912285	0.07086662
221	0x3d33960a	0.04384426
222	0xbd1680e0	-0.036744
223	0xbca7fc37	-0.020506008
224	0x3e0d173f	0.13778399
225	0x3dd2479f	0.10267567
226	0xbcb6feba	-0.02233826
227	0xbd6e6773	-0.058204126
228	0xbdd06fd4	-0.101775795
229	0x3cdc39a4	0.026882954
230	0x3cc3a2fe	0.023881432
231	0x3d9d098f	0.07667839
232	0xbd508aa5	-0.05091347
233	0x3d41b225	0.047289032
234	0xbda66752	-0.081251755
235	0x3d84280d	0.064529516
236	0xbda2be9d	-0.07946513
237	0xbc1a8926	-0.009432113
238	0x3d82f988	0.063952506
239	0x3d9f34af	0.077737205
240	0xbdabf65a	-0.08396597
241	0xbd34367a	-0.043997265
242	0x3c8fadbf	0.017538903
243	0x3db7626e	0.08954321
244	0xbd50a534	-0.0509388
245	0xbd3848e3	-0.044991385
246	0xbdf0c7df	-0.117568724
247	0x3dcde39d	0.100531794
248	0x3d819a70	0.06328285
249	0x3d4ab26f	0.049486574
250	0x3c1babe0	0.009501427
251	0xbdfe0c17	-0.1240465
252	0x3cbd92ab	0.023141226
253	0x3e17f3f6	0.14839157
254	0x39857892	0.0002545757
255	0x3d111aa9	0.035425816

linear_relu_stack.4.bias f4 [128]
0	0x3d78ef07	0.06077483
1	0x3da68008	0.08129889
2	0xbdad6250	-0.08466017
3	0xbcae2f43	-0.02126277
4	0x3d95cab9	0.07314057
5	0x3d6559b5	0.055993754
6	0x3dcfbe26	0.1014369
7	0x3d0ba560	0.03409326
8	0xbc9d9411	-0.019235643
9	0x3d02e9cb	0.031961244
10	0xbb19e4d6	-0.0023482344
11	0x3dadf524	0.084940225
12	0xbd123048	-0.035690576
13	0x3b5878dd	0.0033031025
14	0xbc4c0f55	-0.012454827
15	0xbc35740e	-0.011075033
16	0x3c7e39fb	0.015516753
17	0x3bc4f971	0.006011181
18	0x3d7163ea	0.058933176
19	0x361df228	2.3535777e-06
20	0xbd8cb5c9	-0.0687061
21	0x3c56a7d0	0.013101533
22	0x3c4719bb	0.012152131
23	0xbdf9eee3	-0.12203767
24	0x3d9fd2d1	0.07803882
25	0x3cf6bd3c	0.03011953
26	0x3c4a2f6a	0.012340406
27	0x3dea6711	0.114454396
28	0xbc92c10d	-0.01791432
29	0x3d022aa7	0.031778958
30	0xbd4fe1bf	-0.050752398
31	0x3dd91632	0.105999365
32	0x3dcfe0be	0.10150288
33	0x3d92daac	0.071706146
34	0xbd9db4f4	-0.0770053
35	0x3d2dde32	0.04244823
36	0xbcec0a78	-0.028813586
37	0xbddb7e8a	-0.10717495
38	0xbda757f0	-0.081710696
39	0x3d8b834d	0.06812153
40	0xbdafa0d4	-0.085755974
41	0xbc2668d3	-0.010156828
42	0x3daadf05	0.08343319
43	0x3c0a0d4d	0.008426023
44	0xbdbb70de	-0.09152387
45	0x3d29a307	0.04141524
46	0x3d943c7f	0.07238101
47	0x3dc5292c	0.096269935
48	0x3dccb289	0.099949904
49	0xbde734cf	-0.11289369
50	0x3bb189d9	0.005418044
51	0xbdd81fa6	-0.105529115
52	0xbd31b988	-0.043389827
53	0x3d1051cf	0.03523427
54	0x3cd38e8b	0.025824806
55	0xbc430300	-0.011902571
56	0x3d60ecfb	0.054913502
57	0xbd88d2f0	-0.06680858
58	0x3d9f6d8a	0.07784565
59	0x3c2352cf	0.009968474
60	0xbdd00401	-0.10157014
61	0xbd28423a	-0.041078784
62	0xbdf49317	-0.11942118
63	0x3e09b9f7	0.13449846
64	0x3d999fa8	0.07501155
65	0xbd2b05ad	-0.04175346
66	0x3e0bc1a2	0.13648084
67	0x3d39788d	0.04528098
68	0xbd8b3e33	-0.06798973
69	0xbc414a65	-0.011797522
70	0x3d3a7843	0.045524847
71	0xbc73f6b3	-0.014890361
72	0xbd69e492	-0.057102747
73	0xbd86e19d	-0.06586001
74	0x3c5ed7fb	0.013601298
75	0xbded5d21	-0.115900286
76	0xbd0f66ed	-0.035010267
77	0xbdc78b2b	-0.09743341
78	0xbd9353cc	-0.07193717
79	0xbdd7488f	-0.10511886
80	0x3d5e2434	0.054233745
81	0x3d854178	0.06506628
82	0x3d9556bb	0.07291933
83	0x3d54be14	0.051939085
84	0xbcf12298	-0.02943544
85	0xbd153021	-0.036422852
86	0x3c8f3b45	0.017484317
87	0x3d66019b	0.056153875
88	0x3e02d764	0.12777478
89	0xbd1d1c8c	-0.038357303
90	0x3d11f788	0.035636455
91	0x3d476d3a	0.04868815
92	0x3bdf265d	0.006809993
93	0xbc9b2916	-0.01894049
94	0xbd71c1f3	-0.059022855
95	0x3b77887b	0.0037770558
96	0x3dc857b1	0.09782351
97	0xbd21fb67	-0.039546397
98	0x3dfd6e0d	0.12374506
99	0xbd32d118	-0.04365644
100	0xbdb3e64f	-0.08784162
101	0x3d793ec8	0.06085089
102	0x3d626693	0.055273604
103	0x3e03327c	0.12812227
104	0xbcd01e2a	-0.025405008
105	0xbd8e462a	-0.069469765
106	0xbd78b052	-0.060715027
107	0xbdeb739e	-0.114966616
108	0xbd803e42	-0.06261875
109	0x3caad854	0.020855106
110	0xbd206d4c	-0.039166734
111	0x3d92b943	0.07164242
112	0xbdd49f03	-0.103818916
113	0x3c68d367	0.0142105585
114	0x3de3a301	0.11115075
115	0x3d695075	0.056961495
116	0x3c3418f4	0.010992277
117	0xbe159d0e	-0.14610693
118	0x3d7975b8	0.06090328
119	0xbe0b3f89	-0.13598455
120	0xbdf2bedc	-0.1185281
121	0x3d9339d6	0.07188766
122	0x3dd1786a	0.10228045
123	0xbdb50820	-0.0883944
124	0xbcf103fa	-0.029420841
125	0x3d87c630	0.06629598
126	0xbde714d4	-0.112832695
127	0x3d704448	0.058658868

linear_relu_stack.6.weight f4 [64, 128]
0	0xbc8361a5	-0.016037771
1	0x3e01e69a	0.12685624
2	0xbd394212	-0.045229025
3	0xbda020cc	-0.078187555
4	0xbbe98588	-0.007126514
5	0x3d985164	0.07437399
6	0x3cc66cda	0.024221826
7	0x3d98f983	0.074694656
8	0x3c6a4bc9	0.014300295
9	0xbdbd2055	-0.092346825
10	0x3d7c1ee1	0.061552886
11	0x3da99a51	0.08281387
12	0xbde2179b	-0.11039659
13	0xbd9b2485	-0.07575325
14	0xbd3ab033	-0.045578193
15	0x3d265728	0.040610462
16	0xbd39b2ef	-0.04533666
17	0xbd9d61c0	-0.0768466
18	0xbcef511c	-0.02921348
19	0x3dc5e7d4	0.09663358
20	0xbc917157	-0.01775424
21	0xbd96223e	-0.0733075
22	0x3d5314d5	0.05153354
23	0xbd7633d7	-0.060108032
24	0xbda15191	-0.07876886
25	0xbccee3e8	-0.025255159
26	0xbd434863	-0.047676455
27	0xbd911209	-0.07083518
28	0x3d55402f	0.052063163
29	0x3d8543fa	0.06507106
30	0xbd8b3cc2	-0.06798698
31	0x3cb86c18	0.02251248
32	0xbba17f11	-0.0049284776
33	0x3dc63f68	0.096800625
34	0xbc0fe2cf	-0.008782103
35	0xbdc16815	-0.0944368
36	0xbb18f356	-0.00233384
37	0x3c7a9bbf	0.015295922
38	0xbd9f2b21	-0.07771898
39	0x3d8c47a9	0.068496056
40	0xbc79bb33	-0.015242386
41	0x3b930d42	0.0044876644
42	0xbdf8f162	-0.12155415
43	0xbd43a995	-0.047769148
44	0x3d5f57da	0.05452714
45	0xbdffe8e1	-0.1249559
46	0xbda352a9	-0.079747505
47	0x3c43ef7d	0.011958954
48	0xbd8cadd9	-0.06869096
49	0x3d175af1	0.036951963
50	0xbda99441	-0.0828023
51	0xbde3260a	-0.1109124
52	0xbdc9c280	-0.09851551
53	0x3d2bce33	0.041944694
54	0xbce36121	-0.027756276
55	0x3da507c7	0.08058124
56	0xbb95b294	-0.0045684073
57	0xbd8664c6	-0.0656219
58	0x3dab4fa6	0.08364801
59	0xbd657c7f	-0.05602693
60	0xbda8e50c	-0.08246812
61	0xbc1a029e	-0.009400038
62	0xbb7c320a	-0.0038481974
63	0xbdc388c4	-0.0954757
64	0x3ba72e97	0.0051019895
65	0xbd0ab444	-0.03386332
66	0xbc9d698b	-0.019215366
67	0x3db25ca4	0.08709076
68	0xbc349ddc	-0.011023965
69	0x3dbf78f0	0.09349239
70	0x3caab677	0.02083896
71	0x3d55c469	0.052189264
72	0x3d4f119c	0.050553903
73	0xbd1c248e	-0.0381208
74	0xbdab8eb3	-0.08376827
75	0xbca10b15	-0.019658605
76	0xbd7fac61	-0.062420253
77	0x3d593b55	0.0530351
78	0x3cfc13d2	0.03077117
79	0x3d86106b	0.065461
80	0x3dccb169	0.09994776
81	0x3c49a336	0.012306979
82	0x3db318c8	0.08744961
83	0xbb841848	-0.004031215
84	0x3b78c4a8	0.0037959013
85	0x3da980cf	0.082765214
86	0xbca07ce0	-0.019590795
87	0x3d254698	0.040350527
88	0xbd4b367a	-0.0496125
89	0xbd56c69b	-0.0524355
90	0x3d1e9239	0.038713668
91	0xbd8c8434	-0.06861153
92	0xbdb74499	-0.08948631
93	0xbb6607ff	-0.003509998
94	0x3d8982d1	0.067144044
95	0xbd7af96f	-0.061273035
96	0xbce54007	-0.027984632
97	0x3d77b93d	0.06047939
98	0xbdb7704b	-0.08956965
99	0x3cc52cb1	0.024069162
100	0x3c285047	0.010273046
101	0x3cdb0325	0.026734898
102	0x3df1c589	0.11805255
103	0xbd1ba524	-0.037999287
104	0xbc6eb097	-0.0145684695
105	0x3c3fb778	0.011701457
106	0x3c070793	0.008241552
107	0x3d542696	0.05179461
108	0x3d8426f8	0.06452745
109	0x3b2d0516	0.0026400737
110	0x3c73b2b1	0.014874146
111	0x3d4f39a7	0.05059209
112	0x3da23ef9	0.07922167
113	0xbd164297	-0.0366846
114	0x3cff65bb	0.031176439
115	0xbbb3d27c	-0.005487738
116	0x3c1c1b5f	0.00952801
117	0xbd7550aa	-0.05989138
118	0xbe12f888	-0.1435262
119	0x3da491f1	0.080356486
120	0x3d84da9b	0.06487008
121	0x3d254a7f	0.040354248
122	0xbd093899	-0.03350124
123	0xbbaef3e5	-0.005339133
124	0x3d270f20	0.04078591
125	0xbd9ad2eb	-0.07559761
126	0x3de86abc	0.11348483
127	0xbcbe7dcb	-0.023253342
128	0x3d60fa0f	0.054925974
129	0x3d35df62	0.044402488
130	0xbd3a3809	-0.045463596
131	0xbd9974df	-0.074929945
132	0xbca38761	-0.019962015
133	0x3d1545bb	0.036443453
134	0x3e00203a	0.12512293
135	0xbd9363ae	-0.07196747
136	0x3cf976b9	0.03045212
137	0xbe20ccad	-0.15703078
138	0x3cb7464c	0.022372387
139	0x3d906fe5	0.07052592
140	0x3dc78d31	0.09743727
141	0x3d3b1ff7	0.04568478
142	0x3b545e50	0.0032404847
143	0x3d90f508	0.07077986
144	0x3d844e72	0.06460275
145	0xbc8746ac	-0.016513191
146	0xbcb82082	-0.022476438
147	0x3c19a849	0.009378501
148	0xbd08a3e0	-0.03335941
149	0x3d5b49e9	0.053537283
150	0x3d12729e	0.03575384
151	0x3d56846a	0.052372374
152	0xbcbf0aca	-0.023320574
153	0x3c8ea5af	0.017412988
154	0x3de0e0ec	0.109804004
155	0xbd406c39	-0.04697821
156	0xbd5dd5af	-0.054158863
157	0xbb2f35fc	-0.0026735058
158	0xbdac597a	-0.08415504
159	0xbcdc7c45	-0.026914725
160	0x3b03322c	0.0020018918
161	0x3d2fcda4	0.042920724
162	0x3d3ed1a1	0.046586636
163	0xbb67c960	-0.0035367832
164	0xbd6c00c2	-0.05761791
165	0xbdd8aae1	-0.105794676
166	0xbdb79c81	-0.089653976
167	0x3dbfd22a	0.093662575
168	0x3d06b09e	0.03288328
169	0x3da92fee	0.08261095
170	0x3d75e7e1	0.06003559
171	0xbdd61281	-0.10452748
172	0xbd3025de	-0.043004863
173	0xbd7f0bf9	-0.062267277
174	0x3d593967	0.05303326
175	0x3d8a7a80	0.06761646
176	0x3c1831e3	0.009289238
177	0x3c1032f0	0.008801207
178	0xbd0a2e4a	-0.03373555
179	0xbd2cf515	-0.042225916
180	0xbdb176c2	-0.086652294
181	0xbce14f37	-0.027503593
182	0x3dc9b888	0.0984965
183	0x3d8b471b	0.06800672
184	0xbc8341d8	-0.016022608
185	0x3cd38423	0.025819844
186	0x3e007958	0.12546289
187	0x3ddce870	0.107865214
188	0xbd179fe4	-0.037017718
189	0x3bd8f157	0.006620567
190	0xbd0c62eb	-0.034274023
191	0x3c07b995	0.008283992
192	0x3d6ee57c	0.058324322
193	0x3da3f548	0.08005768
194	0x3d42fd7b	0.04760502
195	0x3d862c6f	0.06551444
196	0x3b00104e	0.0019540968
197	0xbcd547e3	-0.026035255
198	0xbd65efdd	-0.056136955
199	0xbcc6560e	-0.024210956
200	0xbcfea528	-0.031084612
201	0xbd97a275	-0.07404033
202	0x3d1670fe	0.03672885
203	0xbd474be0	-0.048656344
204	0xbc9647cb	-0.01834478
205	0x3c9d2ff9	0.019187914
206	0x3db5e076	0.08880703
207	0x3ce83807	0.028347028
208	0x3db5bfbc	0.08874461
209	0xbd6ab2ad	-0.057299305
210	0x3d9de483	0.07709601
211	0xbcfbd671	-0.030741902
212	0xbbbe4e07	-0.0058076414
213	0xbcc32cc6	-0.02382506
214	0xbd96c6f8	-0.07362169
215	0xbd80e412	-0.06293501
216	0x3d97933f	0.07401132
217	0xbbd3f9d7	-0.006468992
218	0xbc76be19	-0.015059971
219	0xbd669449	-0.05629376
220	0xbc931881	-0.01795602
221	0x3c773bd7	0.0150899505
222	0xbd784245	-0.060610075
223	0x3d530765	0.051520724
224	0x3d860ff5	0.06546012
225	0x3dd3c6d0	0.10340655
226	0x3d1d0a1b	0.038339715
227	0x3cd669a1	0.026173415
228	0x3da65c24	0.08123043
229	0xbcf51e23	-0.029921597
230	0x3d8672c4	0.065648586
231	0x3d05475b	0.032538753
232	0x3d6bd8c2	0.057579763
233	0xbc848795	-0.016177932
234	0xbb83f71f	-0.004027262
235	0xbcfa4c76	-0.030554038
236	0xbd9c026d	-0.0761765
237	0xbd819e67	-0.06329041
238	0xbd40ea51	-0.04709846
239	0x3d4baec5	0.04972722
240	0x3d099b6b	0.033595484
241	0x3ddf058a	0.10889728
242	0xbd1ad331	-0.037799064
243	0xbdab1ebf	-0.08355474
244	0x3d0227e3	0.03177632
245	0x3d04dfb8	0.032439917
246	0xbd71acb3	-0.05900259
247	0x3d451b74	0.048121884
248	0x3dccf733	0.10008087
249	0x3d96acf6	0.073572084
250	0xbd75e786	-0.06003525
251	0x3d021298	0.031756014
252	0x3dd12a73	0.10213175
253	0x3da8566e	0.0821961
254	0x3d3329be	0.04374098
255	0x3dbe6033	0.09295692

linear_relu_stack.6.bias f4 [64]
0	0xbc39bd57	-0.011336646
1	0x3db1b5bd	0.08677242
2	0xbd941cbc	-0.07232043
3	0x3be9b9ef	0.0071327607
4	0x3da92a61	0.08260036
5	0xbd41dcf1	-0.047329847
6	0xbd81aaaf	-0.063313834
7	0x3dadda27	0.08488875
8	0x3d32622a	0.043550648
9	0x3c629000	0.013828278
10	0x3d7d6358	0.06186232
11	0xbbc1639e	-0.005901768
12	0xbc3cda3a	-0.011526639
13	0x39f33069	0.0004638464
14	0xbcf85b8e	-0.030317094
15	0xbcbec8a0	-0.023289025
16	0x3d88e80c	0.066848844
17	0x3d9a9b49	0.075491495
18	0xbd1772be	-0.03697466
19	0x3d017bba	0.031612135
20	0x3d769b9b	0.06020699
21	0x3d48d715	0.049033243
22	0xbbe39f34	-0.0069464687
23	0x3da1ad82	0.07894422
24	0x3d6004b0	0.05469197
25	0x3bf6e44a	0.0075345384
26	0x3d0c030a	0.034182586
27	0x3cec0afd	0.028813833
28	0xbd802150	-0.06256354
29	0xbcdd5611	-0.027018579
30	0xbd595b56	-0.05306562
31	0xbb0f1900	-0.002183497
32	0x3d67ef62	0.056624778
33	0xbb2bc7d7	-0.0026211643
34	0x3c8c8cff	0.017157076
35	0xbc5612ee	-0.013066037
36	0x3d24c39d	0.040225614
37	0xbca0d702	-0.019633774
38	0xbcf15672	-0.029460166
39	0xbcb8c3dc	-0.02255433
40	0x3d129a6c	0.0357918
41	0x3d72c92b	0.05927388
42	0x3db7c4e8	0.08973104
43	0xbcafdc5b	-0.021467378
44	0xbd80536e	-0.06265913
45	0x3cdd39e2	0.02700514
46	0xbcdd545c	-0.027017765
47	0x3c7ca0ef	0.015419229
48	0xbd5e4b47	-0.05427101
49	0x3dad5f51	0.08465446
50	0xbd491198	-0.049089044
51	0x3c9eaf39	0.019370662
52	0x3d9a89b0	0.07545793
53	0xbccf6372	-0.025315974
54	0x3c98d5af	0.01865658
55	0xbac672e5	-0.0015140442
56	0xbd1f0cec	-0.038830683
57	0xbcc99e46	-0.024611603
58	0x3da29160	0.07937884
59	0xbd74f8be	-0.05980753
60	0x3c825c07	0.015913023
61	0xbcdbe46b	-0.026842317
62	0xbd8e4d42	-0.069483295
63	0xbd866a48	-0.0656324

linear_relu_stack.8.weight f4 [32, 64]
0	0x3e18590b	0.14877717
1	0x3cfe33e2	0.031030599
2	0x3d83163e	0.06400727
3	0xbe04081d	-0.1289372
4	0x3d7cb6a3	0.061697613
5	0xbe0c3135	-0.13690646
6	0x3d8c165f	0.068402044
7	0xbdd60269	-0.104496785
8	0x3d2cb76e	0.04216712
9	0xbdf2807c	-0.11840913
10	0xbd4afd50	-0.049557984
11	0x3d833dba	0.06408258
12	0x3d7e9a4e	0.062158875
13	0xbd9462f6	-0.07245438
14	0xbd1b5cf5	-0.037930448
15	0xbda40d27	-0.08010321
16	0xbae241d2	-0.0017262048
17	0x3dc67caa	0.096917465
18	0xbd8230f4	-0.06356993
19	0xbcfec58c	-0.031100057
20	0xbdb9cd29	-0.09072334
21	0xbdba1ee0	-0.0908792
22	0x3cdb75ee	0.026789632
23	0xbd6a3a3c	-0.057184443
24	0xbded975e	-0.116011366
25	0x3c8adcf1	0.016951056
26	0xbcd37af5	-0.025815466
27	0xbe03bb40	-0.12864399
28	0x3d87631a	0.06610699
29	0x3d96ce65	0.073635854
30	0xbddcc42b	-0.107796036
31	0xbda2d35f	-0.07950472
32	0x3da101c8	0.07861668
33	0xbd621fa9	-0.055205975
34	0xbe020de7	-0.12700616
35	0x3dc72fe9	0.09725935
36	0x3d590595	0.05298384
37	0xbc70188c	-0.01465429
38	0x3d6c339a	0.0576664
39	0x3e0260f7	0.12732302
40	0x3c98daba	0.018658984
41	0x3c73be9e	0.01487699
42	0x3d96f38e	0.07370673
43	0xbd2c0506	-0.04199698
44	0xbd812e89	-0.06307704
45	0xbd82a35e	-0.06378816
46	0x3df22bf9	0.11824793
47	0x3d4b67c2	0.049659498
48	0x3ddf19f1	0.1089362
49	0xbd190029	-0.03735367
50	0x3c8ced35	0.017202953
51	0xbdb645c5	-0.08900026
52	0xbcb07ff5	-0.02154539
53	0x3dea3e92	0.114377156
54	0xbd908538	-0.070566595
55	0x3d13e020	0.036102414
56	0x3d335525	0.043782372
57	0x3e00f4e5	0.1259342
58	0xbd05f3e2	-0.032703288
59	0x3dc2f1ac	0.095187515
60	0x3c4950b7	0.01228731
61	0xbe0bc0a8	-0.13647711
62	0xbd25ba69	-0.040460978
63	0x3e0739fd	0.13205715
64	0xbd741e82	-0.059599407
65	0x3d0b1f88	0.033965617
66	0x3d9e1b10	0.077200055
67	0x3da088c4	0.07838586
68	0x3e0d5f27	0.13805829
69	0xbbe2d5fd	-0.006922482
70	0xbda78a7e	-0.08180712
71	0xbcbab48b	-0.022791168
72	0xbdba0d9b	-0.09084626
73	0xba16fd57	-0.00057597965
74	0xbdb76671	-0.08955086
75	0x3d61cc55	0.055126507
76	0x3e0c365f	0.13692616
77	0xbe25fcad	-0.1620967
78	0x3deddde7	0.1161459
79	0xbd8ada46	-0.067799136
80	0xbdfa788e	-0.12230025
81	0x3da67a29	0.08128769
82	0x3c0d0e04	0.008609299
83	0xbd15e0cf	-0.036591347
84	0xbdb4c003	-0.08825686
85	0x3b3e58b4	0.002904457
86	0x3dd28f72	0.10281266
87	0xbdc6ff51	-0.097166665
88	0xbcf7f0f3	-0.03026626
89	0xbdc337f5	-0.09532157
90	0x3daa6a59	0.083210655
91	0xbda346de	-0.07972501
92	0xbd92113c	-0.071321934
93	0x3d181630	0.037130535
94	0x3dc10b44	0.09425977
95	0x3c51b43d	0.01279932
96	0x3b5b9aca	0.003350901
97	0xbdae0b61	-0.08498264
98	0x3ba8ed39	0.0051552323
99	0x3d84de46	0.06487708
100	0xbd012da2	-0.03153766
101	0x3de8ba2b	0.11363634
102	0xbdab3f8b	-0.08361729
103	0x3d0d4556	0.034489952
104	0xbccdbac8	-0.025113478
105	0x3d64cf69	0.055861864
106	0x3c9ed116	0.01938681
107	0xbd25219f	-0.040315267
108	0x3da9311a	0.082613185
109	0x3d90e543	0.07074978
110	0x3d7c9d50	0.061673462
111	0xbd04b962	-0.032403357
112	0x3deae1ea	0.11468871
113	0xbcb31fce	-0.021865752
114	0xbd8b6848	-0.068069994
115	0x3d8e7951	0.06956733
116	0x3d901273	0.07034769
117	0x3da1b9da	0.078967765
118	0xbdd33991	-0.10313714
119	0x3dfe62cc	0.12421188
120	0x3d704143	0.05865599
121	0x3e25ac15	0.16178925
122	0x3da1a7cb	0.07893332
123	0xbd503194	-0.05082853
124	0x3d980c2b	0.07424196
125	0xbbb86fe6	-0.0056285737
126	0x3ce4a9a1	0.027912917
127	0xbdb92cd9	-0.09041757
128	0xbdbd63b3	-0.09247532
129	0xbdf010c0	-0.11721945
130	0x3d9fcafe	0.078023896
131	0x3d5a8793	0.05335195
132	0x3d194d72	0.037427373
133	0x3cd84c33	0.026403522
134	0xbc5949ca	-0.013262222
135	0xbcbaec42	-0.022817735
136	0x3d0e45c0	0.034734488
137	0x3d6201a6	0.055177353
138	0x3dae29b4	0.08504048
139	0xbd1279c0	-0.03576064
140	0xbc7b0f7f	-0.015323519
141	0xbc348bd2	-0.011019664
142	0x3da59043	0.08084156
143	0x3daac01e	0.08337425
144	0x3db45bbc	0.088065594
145	0xbd81379d	-0.063094355
146	0x3d492aac	0.04911296
147	0x3c32b03a	0.0109062735
148	0xbd8fdd71	-0.070246585
149	0xbdad5f4c	-0.08465442
150	0x3d6f064b	0.05835561
151	0xbd02dc00	-0.03194809
152	0xbcb7b7ec	-0.022426568
153	0xbbd00400	-0.006348133
154	0xbddbee5d	-0.107388236
155	0xbc9cf2bf	-0.01915872
156	0x3d8f433a	0.06995244
157	0x3d1b9ec8	0.037993222
158	0x3deffcff	0.11718177
159	0x3dab3737	0.08360141
160	0xbc411fda	-0.011787379
161	0x3d160ef9	0.036635373
162	0x3ca29408	0.019845977
163	0xbd969f25	-0.07354573
164	0xbd9554fc	-0.072916
165	0x3dd4f044	0.103973895
166	0x3dcd0aab	0.100118004
167	0x3dca09f9	0.098651834
168	0xbdaf976b	-0.085738026
169	0x3d1c629b	0.038179975
170	0xbd997269	-0.07492525
171	0x3d59b945	0.053155202
172	0xbdc0322d	-0.0938457
173	0xbdf64620	-0.12025094
174	0x3dd58f2f	0.10427701
175	0xbde142f2	-0.10999097
176	0xbc9c8aa3	-0.019109076
177	0x3d93c543	0.07215359
178	0xbcf2e4bc	-0.029650085
179	0x3d65e1bf	0.05612349
180	0x3d8c5fc1	0.06854201
181	0xbd83de5a	-0.064388946
182	0xbdce37a8	-0.10069209
183	0xbcc4f48c	-0.02404239
184	0x3dba5467	0.0909813
185	0x3c982baf	0.018575517
186	0xbda83cba	-0.08214708
187	0xbdeab090	-0.11459458
188	0xbde9377e	-0.113875374
189	0xbdcbe254	-0.09955278
190	0xbd015d7c	-0.031583294
191	0x3aa4652a	0.0012542356
192	0x3dc1a5dc	0.09455463
193	0x3dce3dcd	0.10070381
194	0x3debf64a	0.11521585
195	0x3bc5923c	0.0060293954
196	0xbcc72786	-0.024310838
197	0xbe2feae3	-0.17179446
198	0x3d49535b	0.04915176
199	0x3de26226	0.110538766
200	0x3c9e27ea	0.019306142
201	0xbd565161	-0.052323703
202	0xbde4e763	-0.11176946
203	0xbce05079	-0.027382122
204	0xbde5502a	-0.11196931
205	0xbdb8924e	-0.090122804
206	0xbdb6f04f	-0.08932554
207	0x3db40aed	0.087911464
208	0xbe148207	-0.14502726
209	0x3c996a7e	0.018727537
210	0xbd39d535	-0.045369346
211	0x3ddb9feb	0.10723861
212	0x3d448004	0.047973648
213	0xbdd70e1f	-0.1050074
214	0x3e0e16f3	0.13875942
215	0xbd967e2a	-0.07348283
216	0x3d4906b3	0.049078654
217	0x3e30c3c1	0.17262174
218	0xbbe050bd	-0.0068455623
219	0xbc684002	-0.014175417
220	0x3c8a40b5	0.016876558
221	0x3c86d6a5	0.016459772
222	0x3dfe159f	0.12406468
223	0xbd80834e	-0.062750444
224	0x3b8cbca9	0.004294951
225	0x3b897c78	0.004195746
226	0xbdc48002	-0.09594728
227	0x3bb3a5f1	0.0054824282
228	0xbe0a6107	-0.13513575
229	0x3da82503	0.082101844
230	0x3de04418	0.10950488
231	0x3e2848ab	0.1643397
232	0xbd3c8e99	-0.04603443
233	0xbdf8b7b7	-0.12144416
234	0xbd5b8534	-0.05359383
235	0xbdb431b2	-0.08798541
236	0xbdb468e0	-0.08809066
237	0xbd17df91	-0.037078444
238	0xbcc17385	-0.023614654
239	0xbd91b9cd	-0.07115517
240	0x3d64715d	0.055772174
241	0xbdf98fcc	-0.1218563
242	0x3d0dbe5d	0.034605373
243	0xbd301808	-0.042991668
244	0x3da62434	0.08112374
245	0xbc376ac9	-0.011194893
246	0x3dd20f21	0.10256792
247	0x3e08a4dd	0.1334414
248	0xbdc37181	-0.095431335
249	0x3d955a11	0.072925694
250	0x3d94eafa	0.07271381
251	0xbda87d6d	-0.08227048
252	0xbca0cff9	-0.01963042
253	0xbbde75c1	-0.0067889397
254	0x3d80d77e	0.06291102
255	0xbd844c7f	-0.06459903

linear_relu_stack.8.bias f4 [32]
0	0x3cdccea2	0.026953999
1	0x3cadca09	0.021214502
2	0xbdc0f50c	-0.09421739
3	0xbde6f807	-0.11277776
4	0xbd31f119	-0.04344282
5	0xbd233984	-0.039849773
6	0x3d2d7172	0.042344518
7	0xbcf098ae	-0.029369678
8	0x3dad2214	0.084537655
9	0xbd8ab5c5	-0.06772951
10	0xbd6315ba	-0.055440642
11	0xbdadc7e9	-0.084853955
12	0xbbac0226	-0.0052492796
13	0xbd8f9de2	-0.07012536
14	0x3d81db81	0.06340695
15	0xbd68559e	-0.056722276
16	0x3d678b6a	0.05652944
17	0x3d9248f9	0.07142825
18	0xbc95ae18	-0.018271491
19	0x3d9825b8	0.07429069
20	0x3d8b0c41	0.067894466
21	0x3ced1c00	0.028944016
22	0xbdacd6bb	-0.08439394
23	0x3dae1ce4	0.08501604
24	0x3e018561	0.12648536
25	0xb945a26e	-0.00018847894
26	0x3b8f09a1	0.0043651615
27	0x3d7bce5a	0.06147609
28	0x3d439748	0.047751695
29	0xbdcfb989	-0.1014281
30	0x3dedc413	0.11609664
31	0x3d202d0d	0.039105464

linear_relu_stack.10.weight f4 [1, 32]
0	0xbe6761f0	-0.22595954
1	0xbdba8640	-0.091076374
2	0xbb1a7adb	-0.0023571763
3	0xbe3e7424	-0.18598992
4	0x3e84602c	0.25854623
5	0x3dddb081	0.10824681
6	0xbe54053c	-0.20705122
7	0x3db00b6f	0.08595931
8	0xbe509615	-0.20369752
9	0xbe0d2465	-0.13783415
10	0x3e1876cd	0.14889069
11	0xbe4e6fb3	-0.20159797
12	0x3e2f5273	0.17121296
13	0xbe8ca47a	-0.27469236
14	0xbdfb0202	-0.12256242
15	0xbe3ac004	-0.1823731
16	0x3e870865	0.26373592
17	0xbd03c6f5	-0.032172162
18	0xbe25b374	-0.16181737
19	0xbe700cbe	-0.23442361
20	0xbe498c4d	-0.19682427
21	0xbe2fa4a2	-0.17152646
22	0xbe25b89d	-0.16183706
23	0xbea57fdf	-0.3232412
24	0x3da03b05	0.07823757
25	0x3e1d6f3a	0.15374461
26	0xbe59b647	-0.2126094
27	0x3df61ecb	0.12017592
28	0x3e39de85	0.1815129
29	0xbe2c1e8c	-0.16808528
30	0x3e85a9c1	0.26106074
31	0x3e447992	0.19187
