model/pendulum_model_9.pth (torch, 88706 bytes, 11 tensors)

linear_relu_stack.0.weight f4 [32, 3]
0.44790688 -0.076376095 0.37619668 0.06836228 0.016092641 -0.36132294 -0.43629414 -0.38357478
-0.46965533 -0.33066198 -0.45989114 -0.20809491 0.42261037 -0.073142916 0.08194125 -0.49698335
-0.36570805 -0.10659468 -0.08004352 -0.492797 0.36716044 -0.2070536 0.043427944 0.23118931
-0.1240684 0.50178635 0.4008645 0.49572778 0.11859193 -0.07730867 -0.18449578 -0.39593226
-0.22929193 -0.16472922 -0.30139968 0.5051487 0.4839997 0.33613187 -0.41250208 -0.3753784
0.180046 -0.09788895 -0.3152836 -0.16223064 -0.4780201 -0.06058154 0.47522086 0.25945848
0.2426592 0.41765332 0.19963667 0.41902128 -0.5257526 0.35826042 0.41650888 0.59198785
0.34048724 -0.4185934 0.5485272 0.15067777 0.024478395 0.12917146 -0.2427959 -0.39389724
0.27803954 0.14281309 0.13151583 -0.49362963 -0.14726987 -0.062299866 0.26976448 0.33552969
0.54952204 0.5263737 -0.27426204 -0.0689382 -0.006746322 0.19878805 0.029900232 0.4826226
-0.5635407 -0.53105444 0.4383699 0.33635145 -0.18037532 0.33783317 -0.08139443 0.38235053
0.4619243 -0.27672607 0.16133545 -0.44711182 0.48621997 0.25704584 -0.45154053 -0.5540795
00000000: 0d54 e53e 126b 9cbd da9c c03e 8601 8c3d
00000010: b7d4 833c 52ff b8be f261 dfbe ea63 c4be
00000020: aa76 f0be 874c a9be da76 ebbe d516 55be
00000030: 6360 d83e f4cb 95bd d0d0 a73d 9a74 febe
00000040: 163e bbbe 504e dabd dbed a3bd e34f fcbe
00000050: 74fc bb3e dc05 54be 80e1 313d e4bc 6c3e
00000060: 9317 febd 1275 003f 1d3e cd3e 08d0 fd3e
00000070: 53e0 f23d 0254 9ebd 76ec 3cbe a2b7 cabe
00000080: 81cb 6abe c7ae 28be 0f51 9abe 6d51 013f
00000090: cfce f73e 7a19 ac3e 7933 d3be 9931 c0be
000000a0: fb5d 383e 007a c8bd da6c a1be ca1f 26be
000000b0: 0dbf f4be 5924 78bd 2650 f33e bed7 843e
000000c0: a77b 783e a8d6 d53e 8e6d 4c3e f589 d63e
000000d0: b997 06bf e96d b73e a740 d53e 848c 173f
000000e0: 5854 ae3e e051 d6be 476c 0c3f 464b 1a3e
000000f0: ea86 c83c 8645 043e 7d9f 78be e6ac c9be
00000100: 335b 8e3e 983d 123e 16ac 063e 06bd fcbe
00000110: eacd 16be 252e 7fbd 921e 8a3e 8cca ab3e
00000120: 7aad 0c3f 6dc0 063f 136c 8cbe 792f 8dbd
00000130: 4010 ddbb 188f 4b3e 55f1 f43c 4f1a f73e
00000140: 3444 10bf 2ff3 07bf 0572 e03e 4236 ac3e
00000150: 4fb4 38be 78f8 ac3e 1fb2 a6bd 73c3 c33e
00000160: 5881 ec3e 0aaf 8dbe 1f35 253e d7eb e4be
00000170: d3f1 f83e 839b 833e 5230 e7be 27d8 0dbf

linear_relu_stack.0.bias f4 [32]
0.13682021 -0.488737 0.23787613 -0.15941338 -0.49472725 0.071380034 -0.25863078 -0.3157394
0.0335606 -0.116175264 0.21207191 0.20700493 -0.14152715 0.08834415 0.558654 -0.50889176
0.00727931 0.08870757 -0.18749543 0.4758139 -0.4387858 0.35389954 0.030878713 0.08234581
-0.29364046 0.3812578 0.4401853 -0.108415484 -0.3155971 0.34754547 -0.17838126 0.36385694
00000000: 991a 0c3e bc3b fabe cd95 733e 433d 23be
00000010: e44c fdbe b22f 923d 416b 84be 98a8 a1be
00000020: d776 093d 4ced edbd 6129 593e 1af9 533e
00000030: 7eec 10be c7ed b43d f303 0f3f bb46 02bf
00000040: 4787 ee3b 51ac b53d cdfe 3fbe e19d f33e
00000050: 88a8 e0be 5232 b53e 5bf5 fc3c eca4 a83d
00000060: 0b58 96be 3934 c33e f85f e13e f008 debd
00000070: f195 a1be 7bf1 b13e 94a9 36be 754b ba3e

linear_relu_stack.2.weight f4 [64, 32]
0.16076906 0.2242891 -0.19790713 0.13164894 -0.17685275 -0.19444372 0.054209072 -0.20087174
-0.11869241 0.11549448 -0.07940352 -0.11629705 -0.12134962 0.13425575 0.14816387 0.16629241
-0.015502951 -0.15084714 0.08583737 -0.08412427 0.1760408 0.006056512 0.03528646 -0.21656397
-0.06988994 -0.08236295 -0.2275126 0.02641186 0.14728637 -0.010624985 0.077392444 0.14751218
-0.12785594 0.05926991 -0.06229921 0.10171295 0.050845474 -0.06651734 0.2656013 0.015227182
-0.29270223 -0.03706639 0.014346069 0.2016242 -0.14381418 -0.0754246 0.06676108 -0.10175897
0.12017491 -0.19349371 0.057524957 -0.034814656 0.0008918136 -0.10693092 0.1335796 -0.19054507
0.01977198 -0.16213587 -0.005594198 -0.18792659 0.037647575 -0.038952447 -0.18763296 -0.14900376
-0.047747012 0.20672105 -0.096376784 -0.0020402856 0.14213379 0.16653515 -0.2632234 -0.09757125
0.18514806 0.062345866 0.09734089 -0.115086086 -0.12242295 0.11059425 0.091523185 0.15934996
0.08477808 0.01129048 0.0042729797 -0.1570017 0.005595929 0.10900688 0.14994109 -0.32299596
0.055343997 0.019050526 -0.13874565 0.10368078 0.04590044 0.007909239 0.041252136 0.11437914
-0.13132168 -0.007302549 0.27742228 -0.057400804 -0.034628745 0.09588986 -0.16444996 0.15666635
0.031299084 -0.0622605 -0.13856743 -0.063102596 0.0670018 -0.07171332 0.025065914 0.0004572285
-0.21959405 0.124602035 -0.055508085 0.20845853 0.1470728 -0.07295672 0.1338635 0.03874471
0.04894161 -0.025741862 0.07644339 -0.10085112 0.005929983 0.1752841 -0.045361757 0.13914235
-0.11945591 0.22001249 -0.021743672 0.09707006 0.09205464 -0.028400822 0.10228235 0.072403796
-0.006754388 -0.13146973 0.030490352 0.15927151 -0.03119461 -0.13386126 -0.1806275 -0.27096075
0.11050342 0.1587128 -0.15944448 -0.14289805 -0.029044773 0.0076908716 -0.20845845 0.0808461
-0.15208897 -0.06492497 0.39228448 -0.077363454 -0.18471235 -0.080053836 0.0536146 -0.16984162
0.12580377 0.1142984 0.19429858 -0.16942175 -0.0491505 0.26907414 -0.007896706 0.14696106
-0.1735827 0.20286098 0.04365224 -0.10576988 0.05024834 0.052065972 -0.07928372 0.12197299
0.103612386 -0.13852206 -0.26769122 0.14182262 0.16928862 -0.14639172 -0.15767059 -0.19532438
0.12483311 -0.09399997 0.09273414 -0.090450145 0.08376411 0.04727367 0.10561072 0.13368285
-0.007620939 0.16254799 -0.27955282 -0.085350126 -0.1879701 -0.0641026 0.039261974 -0.19215006
-0.13570167 -0.20268779 0.07346526 -0.07336563 0.011765471 -0.16924441 0.20458324 -0.043490365
0.0990078 0.14482611 -0.090252444 0.15948279 -0.02417067 0.093874104 0.17126332 -0.06899244
0.080046155 -0.10178498 0.0022428918 0.10350002 0.24488558 -0.065632224 -0.11018854 0.045828965
-0.062375914 0.064079635 -0.24875689 -0.28145018 -0.1295141 0.13604192 -0.06781767 0.12189009
-0.08485289 0.13302703 0.01163609 -0.08411743 -0.017560251 0.10130346 0.013359156 0.0028444359
-0.1411615 0.061821356 -0.15848128 -0.10743512 -0.034362312 0.085615225 -0.18887147 0.24235655
-0.06952159 0.13700938 0.123109706 -0.041858718 0.035421476 -0.07243803 0.10658263 0.015284131
00000000: a5a0 243e 0bac 653e 2ba8 4abe fbce 063e
00000010: e318 35be 411c 47be 550a 5e3d 52b1 4dbe
00000020: 0215 f3bd 5f88 ec3d 509e a2bd 262d eebd
00000030: 2686 f8bd 577a 093e 45b8 173e 8f48 2a3e
00000040: 1700 7ebc ac77 1abe 81cb af3d 5849 acbd
00000050: 0a44 343e b475 c63b 8988 103d f2c2 5dbe
00000060: 7522 8fbd e8ad a8bd 10f9 68be af5d d83c
00000070: 3dd2 163e 6b14 2ebc ee7f 9e3d 6f0d 173e
00000080: abec 02be 01c5 723d 752d 7fbd e14e d03d
00000090: 5843 503d 3e3a 88bd e5fc 873e 6e7b 793c
000000a0: 11dd 95be edd2 17bd c60b 6b3c 9376 4e3e
000000b0: 0644 13be 3678 9abd 08ba 883d 0267 d0bd
000000c0: 431e f63d 3723 46be 4a9f 6b3d d099 0ebd
000000d0: 99c8 693a 99fe dabd 17c9 083e 3f1e 43be
000000e0: d9f8 a13c f206 26be 894f b7bb d46f 40be
000000f0: 5834 1a3d 9a8c 1fbd db22 40be 7194 18be
00000100: 5f92 43bd afae 533e 3161 c5bd 50b6 05bb
00000110: 858b 113e 3188 2a3e 38c5 86be 6fd3 c7bd
00000120: 7497 3d3e 615e 7f3d a95a c73d 41b2 ebbd
00000130: e2b8 fabd 3d7f e23d 8270 bb3d a32c 233e
00000140: 21a0 ad3d b5fb 383c 5a04 8c3b 0ec5 20be
00000150: 0e5e b73b 003f df3d 288a 193e ba5f a5be
00000160: 63b0 623d d90f 9c3c 5713 0ebe 9756 d43d
00000170: 1a02 3c3d c195 013c 00f8 283d 9c3f ea3d
00000180: 3179 06be 394a efbb 4b0a 8e3e 1b1d 6bbd
00000190: dfd6 0dbd e761 c43d 9265 28be 256d 203e
000001a0: 7833 003d de04 7fbd 9fe4 0dbe ef3b 81bd
000001b0: 3d38 893d 6fde 92bd 0857 cd3c 2cb8 ef39
000001c0: 43dd 60be 5a2f ff3d 725c 63bd 2776 553e
000001d0: 419a 163e 556a 95bd 8313 093e c6b2 1e3d
000001e0: ff76 483d 99e0 d2bc 5a8e 9c3d 088b cebd
000001f0: 4e50 c23b ad7d 333e 40cd 39bd 557b 0e3e
00000200: 4da5 f4bd f44a 613e c91f b2bc abcc c63d
00000210: 2587 bc3d d7a8 e8bc 6979 d13d 7148 943d
00000220: ea53 ddbb 00a0 06be e7c6 f93c 1218 233e
00000230: d78b ffbc ed12 09be 6af6 38be 5ebb 8abe
00000240: 9e4f e23d 9c85 223e 6a45 23be de53 12be
00000250: 4eef edbc b503 fc3b 2276 55be a492 a53d
00000260: 36bd 1bbe 62f7 84bd 83d9 c83e bb70 9ebd
00000270: 3c25 3dbe 44f3 a3bd fc9a 5b3d f6ea 2dbe
00000280: b4d2 003e 4815 ea3d 35f6 463e e57c 2dbe
00000290: 0952 49bd 16c4 893e 3061 01bc f67c 163e
000002a0: aabf 31be caba 4f3e b1cc 323d e19d d8bd
000002b0: 34d1 4d3d 2143 553d 815f a2bd facc f93d
000002c0: bb32 d43d bad8 0dbe d30e 89be f339 113e
000002d0: ff59 2d3e b6e7 15be 6674 21be 1d03 48be
000002e0: 80a8 ff3d 0e83 c0bd 66eb bd3d ed3d b9bd
000002f0: 858c ab3d 09a2 413d 6f4a d83d 28e4 083e
00000300: 12b9 f9bb fb72 263e 8c21 8fbe 0ccc aebd
00000310: 3c7b 40be 3948 83bd 2ad1 203d fcc2 44be
00000320: 61f5 0abe 638d 4fbe f474 963d b840 96bd
00000330: f6c3 403c 684e 2dbe 457e 513e f422 32bd
00000340: 9ac4 ca3d 4c4d 143e 46d6 b8bd 754f 233e
00000350: 9201 c6bc 1141 c03d a75f 2f3e e94b 8dbd
00000360: 3def a33d a574 d0bd 7bfd 123b d2f7 d33d
00000370: 49c3 7a3e 306a 86bd 87aa e1bd 27b7 3b3d
00000380: e37d 7fbd 2f3c 833d 20ba 7ebe 3d1a 90be
00000390: 589f 04be 934e 0b3e fee3 8abd 83a1 f93d
000003a0: 5ac7 adbd 3d38 083e 4da5 3e3c c245 acbd
000003b0: 84da 8fbc 3078 cf3d 5de0 5a3c b769 3a3b
000003c0: a48c 10be 6438 7d3d eb48 22be f206 dcbd
000003d0: 7fbf 0cbd 0957 af3d 8667 41be 512c 783e
000003e0: 5661 8ebd 304c 0c3e f120 fc3d 0c74 2bbd
000003f0: 1c16 113d 645a 94bd fe47 da3d 4b6a 7a3c

linear_relu_stack.2.bias f4 [64]
-0.08389181 0.0013329246 -0.029122788 -0.075178035 -0.11771355 0.08532445 -0.03203986 -0.037481397
-0.08535977 -0.0629486 -0.086301394 0.0104757035 -0.14595242 0.1783133 -0.046313033 0.067039296
0.1300393 0.0436128 -0.16407062 -0.01520356 0.09797709 -0.060731467 0.083769366 0.11187306
-0.07674197 0.13915248 0.020843456 0.08994962 -0.15316236 0.094005935 -0.026309472 -0.08643449
-0.13761912 0.038929693 0.12118087 -0.25200167 0.09947354 0.061008424 0.18995558 -0.0884401
-0.05838878 -0.017951885 0.110497236 0.04097827 0.16217038 -0.023377597 0.10558998 0.01708877
0.031656347 0.039777227 -0.006031224 0.033526607 -0.14280649 -0.11961666 -0.0658638 -0.07589577
0.09256945 0.048202254 -0.21454774 0.11233948 -0.22110543 0.071449354 -0.14428253 0.12659876
00000000: 78cf abbd 87b5 ae3a ea92 eebc f1f6 99bd
00000010: cd13 f1bd 96be ae3d 3a3c 03bd 1886 19bd
00000020: 1ad1 aebd 32eb 80bd c9be b0bd 49a2 2b3c
00000030: 8d74 15be c397 363e bcb2 3dbd e64b 893d
00000040: 0629 053e 56a3 323d 2102 28be 5a18 79bc
00000050: 36a8 c83d 8fc1 78bd 468f ab3d b41d e53d
00000060: e52a 9dbd fd7d 0e3e e5bf aa3c 8237 b83d
00000070: 98d6 1cbe 2f86 c03d f686 d7bc 9104 b1bd
00000080: 07ec 0cbe be74 1f3d ad2d f83d 5d06 81be
00000090: c9b8 cb3d f8e3 793d b783 423e 1520 b5bd
000000a0: 1329 6fbd d50f 93bc 604c e23d d5d8 273d
000000b0: fe0f 263e 6082 bfbc 8f3f d83d c0fd 8b3c
000000c0: 16aa 013d 72ed 223d 93a1 c5bb 3253 093d
000000d0: dd3b 12be 94f9 f4bd 9ae3 86bd 3e6f 9bbd
000000e0: 0d95 bd3d ba6f 453d 67b2 5bbe 3e12 e63d
000000f0: 7669 62be 0a54 923d cdbe 13be 1ba3 013e

linear_relu_stack.4.weight f4 [128, 64]
-0.08848035 -0.002181059 -0.08369045 -0.09042942 0.052387297 0.17080761 -0.024059163 0.07634155
0.0842133 0.09269819 -0.14903143 0.085281745 -0.07258799 -0.0846879 0.014243175 -0.08541108
-0.03444811 -0.047179937 0.102103904 -0.05788942 -0.0058932984 -0.07290138 0.05089163 -0.12501425
-0.08805501 0.11856276 -0.07436503 -0.11928602 0.09839525 -0.20245948 -0.049551267 -0.12237124
0.04107453 -0.09119632 0.057421733 0.061853174 0.08534803 0.06448605 -0.16925673 0.052562583
-0.11520687 -0.06911249 0.083434545 -0.015562031 -0.25798085 0.083549805 -0.42503297 0.18538252
0.12313287 -0.058409 0.030104132 0.15169138 -0.10501551 0.007055572 0.074366316 0.20026669
0.0452133 0.11872894 0.03448296 -0.0036528502 -0.097403996 0.085759975 -0.007125912 -0.044525795
0.199799 -0.04470015 -0.0062142853 0.007237595 -0.0557736 -0.08132835 -0.105649605 0.12913352
-0.061245613 -0.009733092 0.08084582 0.038360596 -0.073051944 0.014190382 -0.012598677 0.1437083
0.2678342 0.056558084 -0.039569054 -0.034955643 -0.08713092 0.3116297 0.1279195 0.12835492
0.1232286 0.099331565 0.026196709 0.12314791 0.019757597 0.068168096 0.07937914 0.0011067949
0.18632556 -0.037796147 0.14867988 0.05069994 -0.17502697 0.03209401 0.0553925 0.1598265
-0.045740936 0.10289323 -0.041088495 -0.020449214 0.07901971 -0.09481801 0.13220496 0.17441116
-0.03232207 -0.1569012 0.0776485 0.088713065 0.12528263 0.0050931117 0.03935822 0.15502553
0.024696637 0.10256702 0.13538468 -0.11350216 0.110529155 -0.09105785 0.060073968 -0.009478929
-0.07072749 0.051400613 -0.122576825 -0.12707047 -0.027789574 -0.034206975 0.097871095 -0.06836583
-0.10573079 -0.06935952 -0.14393607 -0.09118712 0.05315156 -0.050407633 -0.07014708 0.07205445
0.049590573 0.13961378 0.059350174 -0.17965122 -0.07341195 0.04817308 0.089877754 0.16964936
0.17143342 -0.006066287 0.050436858 -0.057169408 -0.020365939 -0.036281828 -0.01585635 0.0075641256
0.2231723 -0.016612345 0.22887005 -0.058204733 -0.027501334 -0.031214952 0.029174611 0.11815854
-0.016516885 0.0036098303 0.012630492 -0.21821308 -0.08648528 0.034986652 0.19299549 -0.025084741
-0.048951637 0.03189558 0.13255453 0.12586115 0.067711934 -0.017338851 -0.007034998 -0.020699017
0.0011817546 -0.013331911 0.014661748 -0.047703102 0.026197327 0.017048875 0.044185366 -0.041372746
-0.0788611 0.089962766 0.002732714 -0.03274954 0.0065060765 -0.1479201 0.13235423 0.07675312
-0.09692459 0.04806254 -0.1148473 0.011164119 0.06831104 0.09215297 -0.095050216 -0.049501754
0.1533227 0.13398524 -0.15478611 -0.033916336 -0.057766054 -0.036790844 -0.0135345 -0.08148007
-0.061121818 0.05264433 0.18389712 0.16380636 -0.08075277 -0.1637907 0.12193311 -0.1059127
-0.15161738 -0.15044324 0.061297815 0.09942044 0.18020354 0.10838642 -0.028315654 -0.09831703
0.10645791 -0.030172247 -0.0033432546 0.06733366 -0.1830306 0.036089 -0.089777395 -0.11170353
-0.010341443 -0.06669075 -0.086647145 -0.0031728563 0.15466361 0.051875822 -0.065688476 0.082595326
-0.15055054 0.06683779 -0.051960908 0.05803057 0.060491286 -0.037645545 0.13904627 -0.02694502
00000000: 3035 b5bd 19f0 0ebb e665 abbd 0f33 b9bd
00000010: 1094 563d 31e8 2e3e b917 c5bc f558 9c3d
00000020: 0678 ac3d 8cd8 bd3d b29b 18be 32a8 ae3d
00000030: 03a9 94bd da70 adbd 355c 693c 01ec aebd
00000040: 7619 0dbd c03f 41bd da1b d13d 751d 6dbd
00000050: 921c c1bb 524d 95bd be73 503d bc03 00be
00000060: 2f56 b4bd 08d1 f23d b14c 98bd 3b4c f4bd
00000070: 7383 c93d 8a51 4fbe 45f6 4abd c69d fabd
00000080: c43d 283d 23c5 babd 0d33 6b3d c159 7d3d
00000090: f3ca ae3d 4311 843d a351 2dbe dd4b 573d
000000a0: 94f1 ebbd d98a 8dbd bbdf aa3d e4f7 7ebc
000000b0: 1116 84be 291c ab3d ec9d d9be ead4 3d3e
000000c0: 162d fc3d 473e 6fbd f19c f63c fc54 1b3e
000000d0: 5f12 d7bd 6d32 e73b 5e4d 983d b612 4d3e
000000e0: 9531 393d 2928 f33d 013e 0d3d a864 6fbb
000000f0: bf7b c7bd eda2 af3d 7b80 e9bb ae60 36bd
00000100: 1c98 4c3e 8117 37bd 34a1 cbbb 5929 ed3b
00000110: dc72 64bd 7a8f a6bd d25e d8bd 943b 043e
00000120: aedc 7abd 8c77 1fbc 7e92 a53d 0020 1d3d
00000130: 429c 95bd c77e 683c ae6a 4ebc 4528 133e
00000140: 9021 893e 73a9 673d 2913 22bd a62d 0fbd
00000150: b271 b2bd ee8d 9f3e 54fd 023e 796f 033e
00000160: 475f fc3d 596e cb3d 7b9a d63c f934 fc3d
00000170: afda a13c b79b 8b3d 8891 a23d e011 913a
00000180: 21cc 3e3e 22d0 1abd 8a3f 183e beaa 4f3d
00000190: 453a 33be 0275 033d 3fe3 623d 8fa9 233e
000001a0: d95a 3bbd b0b9 d23d 694c 28bd 1c85 a7bc
000001b0: 16d5 a13d f22f c2bd bd60 073e d798 323e
000001c0: 2664 04bd b5aa 20be 2d06 9f3d 32af b53d
000001d0: 174a 003e 1ee4 a63b 1636 213d 03bf 1e3e
000001e0: 9a50 ca3c a80e d23d 48a2 0a3e d273 e8bd
000001f0: 1c5d e23d 8a7c babd 1f10 763d 834d 1bbc
00000200: 93d9 90bd 7389 523d 8f09 fbbd c31e 02be
00000210: f6a6 e3bc 9d1c 0cbd a470 c83d 6203 8cbd
00000220: 6289 d8bd 5d0c 8ebd fa63 13be 50c0 babd
00000230: 73b5 593d 3c78 4ebd 46a9 8fbd 4991 933d
00000240: 7c1f 4b3d eaf6 0e3e 2b19 733d 7df6 37be
00000250: 0159 96bd 2351 453d d411 b83d 90b8 2d3e
00000260: 3e8c 2f3e b4c7 c6bb e196 4e3d 782a 6abd
00000270: 78d6 a6bc 419c 14bd 2de5 81bc 7cdc f73b
00000280: 4887 643e 9d16 88bc e95c 6a3e 1668 6ebd
00000290: 7a4a e1bc 80b6 ffbc 98ff ee3c 1bfd f13d
000002a0: 6b4e 87bc e792 6c3b 20f0 4e3c 4073 5fbe
000002b0: 321f b1bd 2a4e 0f3d 9ca0 453e 847e cdbc
000002c0: 8381 48bd f1a4 023d 60bc 073e bfe1 003e
000002d0: 8eac 8a3d 350a 8ebc d785 e6bb fc90 a9bc
000002e0: 1be5 9a3a 166e 5abc d437 703c 5464 43bd
000002f0: c79b d63c 15aa 8b3c b7fb 343d 7876 29bd
00000300: ee81 a1bd 663e b83d 5517 333b 6224 06bd
00000310: ed30 d53b 5e78 17be de87 073e bd30 9d3d
00000320: 6680 c6bd 3add 443d 1035 ebbd b5e9 363c
00000330: a9e6 8b3d b2ba bc3d b0a9 c2bd 5ac2 4abd
00000340: a000 1d3e 6d33 093e 4080 1ebe dbeb 0abd
00000350: 199c 6cbd ffb1 16bd cfbf 5dbc 06df a6bd
00000360: df5a 7abd 95a1 573d 874f 3c3e dbbc 273e
00000370: b561 a5bd c0b8 27be 11b8 f93d c2e8 d8bd
00000380: 9641 1bbe cb0d 1abe 6b13 7b3d f29c cb3d
00000390: 4787 383e b3f9 dd3d 3bf6 e7bc 705a c9bd
000003a0: 9b06 da3d ca2b f7bc 811a 5bbb 3be6 893d
000003b0: 606c 3bbe 0fd2 133d 36dd b7bd d2c4 e4bd
000003c0: 286f 29bc 2995 88bd 0f74 b1bd b2ef 4fbb
000003d0: 2360 1e3e be7b 543d ae87 86bd bd27 a93d
000003e0: ec29 1abe 40e2 883d f6d4 54bd 77b1 6d3d
000003f0: b6c5 773d 3732 1abd 2562 0e3e cdbb dcbc

linear_relu_stack.4.bias f4 [128]
0.0046848743 -0.03361604 -0.04109798 0.10013362 0.09159486 0.023437958 -0.040369324 -0.038383976
-0.15887766 -0.1091182 -0.031877577 0.0010672674 -0.09885518 -0.10742492 0.02668222 0.040760506
-0.13585937 0.11816208 0.03741364 0.01612661 0.014220592 -0.04177112 -0.1276103 -0.08941277
-0.07117748 -0.1179864 -0.1533723 0.023112295 -0.036207274 -0.07652675 -0.05315447 -0.071619846
-0.17725924 -0.07258425 -0.09751272 -0.08078558 0.13247813 -0.05160711 -0.08410667 -0.018287443
0.018400274 -0.06978979 -0.058513474 0.05769574 -0.06844402 0.039429516 0.068798736 -0.090124644
0.01813604 -0.0714899 -0.13242103 0.03662051 -0.0078501 -0.081577495 0.06712608 -0.17362626
-0.014435238 -0.09753629 -0.1509758 0.09299079 -0.0004560514 0.046573337 -0.053030092 0.020953104
-0.047865555 -0.12739716 -0.12319757 -0.014856539 -0.006303113 -0.07635354 -0.1489441 -0.11641123
-0.040180817 -0.12882935 0.04806083 -0.1345442 0.08188126 0.014501137 -0.073508404 0.033458844
0.123960406 -0.16588564 -0.085783176 -0.10136468 -0.09154327 0.018779589 0.09184952 -0.118446484
-0.19150104 -0.115869686 0.057522427 -0.09695909 0.13323423 -0.0017428595 -0.013843844 0.058453493
-0.024659973 0.04644351 -0.14263037 -0.1001479 0.0060020317 -0.12192095 -0.075578466 0.068123095
-0.14477108 -0.09963062 0.08213791 0.037637178 -0.03594779 0.07764255 0.06500644 -0.09700218
-0.16652024 0.056330275 -0.01011683 -0.065642424 -0.0463951 -0.044308543 -0.09553881 -0.087041065
-0.1304068 -0.007937429 -0.18932615 -0.04687133 0.047075856 -0.055956423 -0.118180595 -0.08886125
00000000: 9383 993b f9b0 09bd 5b56 28bd db12 cd3d
00000010: 1696 bb3d f600 c03c 4e5a 25bd 8438 1dbd
00000020: d3b0 22be 5d79 dfbd 1092 02bd 8de3 8b3a
00000030: 9674 cabd 9901 dcbd ac94 da3c 7df4 263d
00000040: b81e 0bbe f6fe f13d 0c3f 193d f41b 843c
00000050: 7cfd 683c 3218 2bbd 46ac 02be 0b1e b7bd
00000060: 80c5 91bd dba2 f1bd a10d 1dbe ff55 bd3c
00000070: 144e 14bd 0fba 9cbd 80b8 59bd 6dad 92bd
00000080: 7283 35be 0da7 94bd c0b4 c7bd e972 a5bd
00000090: 59a8 073e fa61 53bd 1e40 acbd 8ccf 95bc
000000a0: 2cbc 963c f3ed 8ebd d3ab 6fbd 5e52 6c3d
000000b0: 612c 8cbd d880 213d 5ae6 8c3d 4593 b8bd
000000c0: 0892 943c 4c69 92bd 6199 07be 63ff 153d
000000d0: b59d 00bc 1a12 a7bd 6679 893d 15cb 31be
000000e0: c781 6cbc 1bc1 c7bd 6699 1abe f571 be3d
000000f0: 2f1a efb9 afc3 3e3d 1536 59bd d8a5 ab3c
00000100: ac0e 44bd 6774 02be 024f fcbd d768 73bc
00000110: 588a cebb 3f5f 9cbd cd84 18be 0369 eebd
00000120: a494 24bd d7eb 03be 6fdb 443d f4c5 09be
00000130: 5db1 a73d 2d96 6d3c 938b 96bd 240c 093d
00000140: f4de fd3d eddd 29be 17af afbd 4998 cfbd
00000150: 0a7b bbbd a7d7 993c 9a1b bc3d 1294 f2bd
00000160: d918 44be 164d edbd a39c 6b3d 7d92 c6bd
00000170: 8e6e 083e a970 e4ba 4ad1 62bc ee6c 6f3d
00000180: b603 cabc 8d3b 3e3d b20d 12be 581a cdbd
00000190: b1ac c43b b1b1 f9bd e2c8 9abd 1f84 8b3d
000001a0: df3e 14be 230b ccbd ec37 a83d 7129 1a3d
000001b0: fd3d 13bd 0f03 9f3d 1922 853d 14a9 c6bd
000001c0: 4884 2abe 93ba 663d 0fc1 25bc 896f 86bd
000001d0: ca08 3ebd e07c 35bd daa9 c3bd 9642 b2bd
000001e0: 5c89 05be fd0b 02bc b7de 41be 27fc 3fbd
000001f0: 9dd2 403d 9032 65bd ab08 f2bd e3fc b5bd

linear_relu_stack.6.weight f4 [64, 128]
-0.06804872 0.053312935 0.1053044 -0.038088433 -0.031403575 0.010865053 -0.0391978 0.043053545
-0.00059961155 -0.00021681767 -0.09913084 0.13128732 0.100518085 0.07006625 0.12985672 0.06879149
0.06031598 -0.015198562 0.0709024 -0.062216833 0.14208071 0.017901964 0.01998884 0.043925688
-0.00044163206 -0.07200226 0.010959909 -0.012998544 0.017661575 -0.017308898 0.048682436 0.09081589
0.11023632 -0.016955001 0.20589876 0.0613904 -0.03313179 -0.01579522 -0.04955182 -0.05901097
-0.015858553 0.10644699 -0.027091226 0.0689896 0.089349434 0.040196195 0.019726003 0.010482731
-0.1272317 -0.053000446 -0.060063347 -0.016259886 0.03550453 0.075304575 0.088034935 -0.01940085
-0.111002475 0.04516224 0.017332416 0.06944116 0.053545073 0.16161093 0.11200901 -0.06975994
0.09916462 -0.12082925 0.11256949 -0.0033548197 -0.0023239034 0.104141295 0.042548314 0.06460329
-0.09564719 0.042659596 0.07149555 -0.070326515 0.031133184 0.09582769 -0.039736245 -0.008186923
0.0331222 -0.008913952 -0.025677823 0.028606864 -0.04893897 0.2269996 -0.04830453 0.0062105116
0.1165926 0.14951366 0.04657087 0.00063682056 0.122718945 0.07060308 0.02586104 0.062687196
0.036969807 0.006079668 0.15655369 0.031028187 0.09743729 0.09046962 -0.067710444 0.048058003
0.012819231 0.00848193 0.0021851938 -0.021101031 -0.030686313 -0.08196486 -0.05525613 0.028619666
0.07917781 -0.04599589 0.0239067 0.21253288 -0.06265664 0.02832312 -0.022274666 0.11973242
0.0013890186 0.058925502 0.02936327 0.09948623 0.062381417 0.15754414 -0.02237825 0.06567202
0.11946857 -0.030315462 0.027784659 -0.111012734 -0.0051014633 -0.16369797 -0.043991435 -0.13877146
-0.14043003 -0.00050569983 -0.1203421 0.11248042 -0.08096658 -0.0053582643 0.0463415 -0.14145361
-0.12819017 -0.15208033 0.059171952 -0.00856098 -0.061808538 0.05103365 -0.0470005 -0.059354383
0.027810346 0.1518566 0.09318616 0.03802966 -0.094178565 0.07265111 -0.018996539 -0.03056099
0.08749675 -0.090087265 0.056590308 -0.009959467 -0.23101857 0.12186249 0.028227635 -0.18578523
0.01262529 -0.027938262 -0.101300105 -0.059181675 -0.022045437 -0.056269918 0.060453545 -0.04041148
0.13525888 0.013342258 -0.0335042 0.16586381 0.13347413 -0.19314949 0.14373975 -0.017310329
0.031068772 0.025711536 0.081204735 0.06856001 0.025576472 -0.06311691 -0.08575395 0.06470508
0.11179777 -0.068127654 0.12952149 -0.033805497 -0.09232982 -0.09963166 -0.027843121 -0.23740523
0.12290579 -0.002333495 -0.07578062 0.012533555 -0.14833303 0.02102126 0.124278754 0.014540328
0.072949186 -0.091538355 -0.06583543 0.07659486 0.02510028 -0.028564095 0.03125445 0.058339905
-0.12874219 -0.082445025 0.16506477 -0.056540582 0.04153666 0.029041203 0.061692216 0.101624355
-0.06076765 -0.022965005 -0.015262667 -0.001796534 0.000826609 0.012799904 -0.12345506 -0.012835507
-0.0694314 -0.04340731 -0.031494956 -0.0099089015 -0.04691754 -0.03161751 -0.095001854 -0.06799084
-0.061696675 0.010273743 -0.0009867569 -0.065080576 -0.074731626 0.019584395 0.0062083183 -0.023723742
0.0058014165 0.041092217 0.030810516 -0.1039089 0.06657254 -0.10213908 0.14169267 0.090020604
00000000: 215d 8bbd aa5e 5a3d d5a9 d73d 9e02 1cbd
00000010: 09a1 00bd 5603 323c df8d 20bd ea58 303d
00000020: 402f 1dba 8d59 63b9 1c05 cbbd 2f70 063e
00000030: 6ddc cd3d e57e 8f3d 29f9 043e 8de2 8c3d
00000040: e40d 773d 6403 79bc 4735 913d 14d7 7ebd
00000050: 9b7d 113e 24a7 923c a3bf a33c 6ceb 333d
00000060: da8a e7b9 ec75 93bd 3191 333c d8f7 54bc
00000070: 02af 903c 64cb 8dbc 3c67 473d aefd b93d
00000080: 94c3 e13d 37e5 8abc 20d7 523e 8074 7b3d
00000090: 33b5 07bd fa64 81bc d9f6 4abd 7db5 71bd
000000a0: cce9 81bc e100 da3d 6bee ddbc 6b4a 8d3d
000000b0: d6fc b63d c4a4 243d 6d98 a13c c3bf 2b3c
000000c0: 0749 02be ff16 59bd fc04 76bd 7433 85bc
000000d0: 336d 113d 4939 9a3d a94b b43d 88ee 9ebc
000000e0: 4455 e3bd 0afc 383d b6fc 8d3c 2b37 8e3d
000000f0: 1452 5b3d 567d 253e fb64 e53d 4dde 8ebd
00000100: d216 cb3d 5375 f7bd d58a e63d 89dc 5bbb
00000110: a14c 18bb 0848 d53d 2447 2e3d bb4e 843d
00000120: ade2 c3bd d4bb 2e3d 426c 923d 5907 90bd
00000130: 050b ff3c 4f41 c43d 79c2 22bd 7222 06bc
00000140: 25ab 073d d30b 12bc 4c5a d2bc f158 ea3c
00000150: 3b74 48bd 9572 683e f9da 45bd 8c81 cb3b
00000160: 1ac8 ee3d 1c1a 193e 19c1 3e3d 4ef0 263a
00000170: 1254 fb3d 5998 903d 88da d33c 2562 803d
00000180: a76d 173d f437 c73b 9c4f 203e d32e fe3c
00000190: 348d c73d 2348 b93d c6ab 8abd 78d8 443d
000001a0: c007 523c cbf7 0a3c 7835 0f3b 12dc acbc
000001b0: dd61 fbbc 31dd a7bd 4054 62bd ca73 ea3c
000001c0: fa27 a23d 3066 3cbd fcd7 c33c 38a2 593e
000001d0: 2052 80bd e305 e83c 5c79 b6bc 4536 f53d
000001e0: bb0f b63a de5b 713d 3e8b f03c 70bf cb3d
000001f0: a883 7f3d 4053 213e 9752 b7bc 0d7f 863d
00000200: f0ab f43d 2258 f8bc a79c e33c a55a e3bd
00000210: 2d2a a7bb 71a0 27be 5d30 34bd 1b1a 0ebe
00000220: e4cc 0fbe f190 04ba eb75 f6bd 225c e63d
00000230: ced1 a5bd 6194 afbb 96d0 3d3d 37d9 10be
00000240: 4944 03be f2ba 1bbe 4a5e 723d 5a43 0cbc
00000250: f32a 7dbd a908 513d 9983 40bd 951d 73bd
00000260: 86d2 e33c 4c80 1b3e 63d8 be3d fdc4 1b3d
00000270: b1e0 c0bd 1bca 943d a19e 9bbc 0b5b fabc
00000280: 7f31 b33d ac7f b8bd 3dcb 673d 082d 23bc
00000290: 2290 6cbe 0b93 f93d a43d e73c 7c3e 3ebe
000002a0: 4eda 4e3c c8de e4bc 6e76 cfbd 7c68 72bd
000002b0: a298 b4bc 497b 66bd 239e 773d 8286 25bd
000002c0: 4e81 0a3e 7c99 5a3c b33b 09bd 34d8 293e
000002d0: 71ad 083e fbc8 45be 8330 133e 64ce 8dbc
000002e0: f083 fe3c 00a1 d23c ab4e a63d 3169 8c3d
000002f0: c085 d13c 7043 81bd c49f afbd 1984 843d
00000300: 3bf6 e43d 8386 8bbd 48a1 043e a277 0abd
00000310: 6b17 bdbd af0b ccbd 4217 e4bc 5b1a 73be
00000320: 08b6 fb3d 8ded 18bb df32 9bbd 8a59 4d3c
00000330: 9de4 17be c734 ac3c dc85 fe3d 8e3a 6e3c
00000340: 6266 953d 7678 bbbd bad4 86bd c4dd 9c3d
00000350: 1a9f cd3c 40ff e9bc ab04 003d d3f5 6e3d
00000360: fed4 03be f0d8 a8bd bd06 293e 1997 67bd
00000370: 5822 2a3d d1e7 ed3c fab0 7c3d 6e20 d03d
00000380: 80e7 78bd 1b21 bcbc 4410 7abc ae79 ebba
00000390: cab0 583a b0b6 513c 02d6 fcbd 054c 52bc
000003a0: 0d32 8ebd ddcb 31bd db00 01bd f258 22bc
000003b0: 9b2c 40bd 5d81 01bd 5590 c2bd c83e 8bbd
000003c0: a7b5 7cbd 3453 283c 1156 81ba f748 85bd
000003d0: e50c 99bd 746f a03c 266f cb3b 4b58 c2bc
000003e0: cf19 be3b 5050 283d 5666 fc3c 30ce d4bd
000003f0: 2f57 883d 4b2e d1bd e217 113e b95c b83d

linear_relu_stack.6.bias f4 [64]
0.024790952 0.07867346 -0.039454844 -0.09960088 0.016798843 -0.10474231 -0.10570378 -0.1366358
-0.105644144 -0.009947576 -0.12635565 -0.063412845 0.0025512397 -0.15828447 0.06794923 -0.05099491
0.07606978 -0.04651451 0.060544647 0.070615344 -0.12862527 0.035159893 -0.09401366 -0.0065941634
-0.027700156 -0.15713237 0.0029577247 -0.062461324 -0.030343046 0.06220088 -0.026668763 -0.028457602
0.017920248 0.09561378 -0.07815254 -0.075255275 0.10815073 0.010881995 0.036530033 -0.048082154
-0.035954922 0.009791228 0.00422535 -0.004506781 -0.029148739 0.028157936 -0.053482898 0.006298991
-0.11899565 -0.025676554 0.037158772 0.017811822 -0.044291507 -0.16838302 -0.068128996 -0.03614622
-0.04143296 -0.037307307 0.06816223 0.02452007 -0.066172615 -0.045945562 -0.031926166 -0.046365827
00000000: 6516 cb3c 8d1f a13d 679b 21bd 8cfb cbbd
00000010: ba9d 893c 2383 d6bd 397b d8bd 41ea 0bbe
00000020: f55b d8bd 28fb 22bc 6063 01be 98de 81bd
00000030: b332 273b 5315 22be f728 8b3d 0ae0 50bd
00000040: 79ca 9b3d 0086 3ebd aafd 773d c79e 903d
00000050: 58b6 03be d203 103d 3c8a c0bd da13 d8bb
00000060: 70eb e2bc 4fe7 20be 63d6 413b 72d7 7fbd
00000070: fb91 f8bc 5ac6 7e3d 7378 dabc eb1f e9bc
00000080: 7ccd 923c 28d1 c33d 700e a0bd 701f 9abd
00000090: 217e dd3d 654a 323c 84a0 153d cbf1 44bd
000000a0: 7845 13bd 636b 203c ce74 8a3b 9fad 93bb
000000b0: 56c9 eebc 79ab e63c e210 5bbd c467 ce3b
000000c0: feb3 f3bd a357 d2bc cc33 183d 19ea 913c
000000d0: 036b 35bd 996c 2cbe 3787 8bbd 0f0e 14bd
000000e0: 9cb5 29bd 8ccf 18bd a498 8b3d 50de c83c
000000f0: 8285 87bd 6a31 3cbd 03c5 02bd 18ea 3dbd

linear_relu_stack.8.weight f4 [32, 64]
-0.10243782 -0.111439176 -0.051844448 0.15491723 0.03999299 -0.10688292 0.012063496 -0.07510008
-0.06922462 0.1101872 0.03784477 -0.06941668 -0.03199593 0.08949545 -0.16841918 -0.045547083
0.055650864 0.029814174 0.017740466 0.023845159 0.11885475 -0.028517159 -0.15811372 -0.05628385
0.03697507 -0.009740427 -0.007016693 0.11735543 -0.1842706 -0.052706737 0.100385256 0.014595446
0.10833798 -0.02708011 0.12666604 0.022028321 -0.054679565 0.042125814 0.059058532 -0.0847613
0.046827562 0.004535435 -0.20434576 -0.15972847 0.011111495 -0.10293912 0.02989254 -0.13678089
-0.006234075 0.03385634 -0.08094602 -0.029224789 0.11898083 -0.022165366 -0.02408179 -0.022248363
0.0021500962 -0.00048491653 -0.004604244 -0.003380322 -0.05050175 -0.06816306 0.07174917 0.07181865
0.13720417 -0.07308504 0.015362502 0.007201557 0.084865764 -0.20388092 0.1422992 -0.04374392
-0.13467743 -0.0655819 -0.014124704 -0.08379852 -0.14415492 0.10444083 0.082470596 -0.068214774
-0.1799168 0.069579996 -0.13703088 0.055437762 0.05454558 0.020454144 -0.02624609 0.01690349
0.019486595 0.11753218 0.008414637 0.052773125 -0.007207626 0.03095547 0.038508013 -0.10850748
0.099840775 0.21172509 -0.21218263 0.03242261 -0.105759464 0.051128488 0.013963461 -0.058536027
-0.124011755 0.14613082 -0.053475343 -0.030601695 0.07121736 0.009088239 -0.033312533 -0.15288568
-0.13795464 -0.22473493 -0.14367035 0.042819332 0.07758571 -0.10870128 -0.049710594 0.05987393
0.040467005 -0.13114181 0.059411023 0.031886768 -0.16478355 0.16786352 0.007800683 -0.05816845
-0.00618079 0.025639389 0.060705796 0.1503653 -0.021084888 -0.13605069 -0.13451883 0.07604755
0.037174977 0.016835468 0.173129 -0.10132044 0.05673626 -0.00020996196 0.11099542 0.0730657
-0.112998754 0.07292799 -0.08110465 -0.08478587 -0.057145707 0.061544277 -0.010906892 -0.031061102
-0.007217631 0.11447204 0.09347939 0.022919884 -0.07582941 0.042392258 0.12023071 0.066204526
0.04581196 -0.034883916 0.03316859 0.19659555 -0.034075074 0.0059123836 0.036335904 -0.04410013
0.19361883 -0.07818044 -0.08472826 0.01346309 0.02605171 -0.0730479 0.05085924 -0.06537884
-0.0100812 0.026859697 -0.06671906 -0.089003876 -0.09497989 0.056088846 0.044479504 -0.062681735
0.07741921 0.028096333 -0.04475222 -0.14999 -0.0527707 0.026459377 0.038142286 0.03763785
0.118200034 -0.042604323 -0.014115999 0.027945653 -0.102507696 0.009075455 0.018776083 0.03590932
0.07562919 -0.028511042 -0.018962728 0.057665348 -0.059433997 -0.0025836383 0.12055045 -0.09932152
0.014787381 0.18911839 0.1823144 0.09825309 -0.03581755 0.019602118 0.15468624 0.091354094
0.01800875 0.14766562 0.03905404 -0.024158843 -0.07145026 -0.13986796 0.020521019 0.04999441
-0.12290839 0.060793314 0.05133284 0.036572233 -0.1669604 -0.05371106 -0.013766244 0.24679585
-0.16919768 0.005246803 0.06640449 -0.14364992 0.066190995 -0.067102715 -0.007985564 -0.025726333
-0.20191073 -0.012424978 -0.015168256 -0.22416343 0.03470243 -0.043599814 -0.07996876 -0.019306691
-0.03644314 -0.09887896 0.14427556 0.08236115 0.0072267368 0.11396664 0.0888007 -0.021946868
00000000: ebca d1bd 393a e4bd d85a 54bd 9fa2 1e3e
00000010: b1cf 233d 6fe5 dabd f8a5 453c 12ce 99bd
00000020: a3c5 8dbd d4a9 e13d 1e03 1b3d 552a 8ebd
00000030: 2a0e 03bd 6449 b73d 1476 2cbe 948f 3abd
00000040: 29f2 633d db3c f43c 7454 913c ec56 c33c
00000050: 1f6a f33d d19c e9bc 90e8 21be e589 66bd
00000060: 2c73 173d 5096 1fbc 49ec e5bb 0b58 f03d
00000070: 6fb1 3cbe 05e3 57bd c996 cd3d bd21 6f3c
00000080: 4ee0 dd3d 1bd7 ddbc beb4 013e bd74 b43c
00000090: aef7 5fbd 1e8c 2c3d 5ce7 713d 5597 adbd
000000a0: 42ce 3f3d fc9d 943b 0440 51be dc8f 23be
000000b0: fd0c 363c bfd1 d2bd 33e1 f43c 4a10 0cbe
000000c0: 3647 ccbb f2ac 0a3d 07c7 a5bd d368 efbc
000000d0: 39ac f33d 2494 b5bc 2d47 c5bc 3342 b6bc
000000e0: a1e8 0c3b 653c feb9 33df 96bb 6488 5dbb
000000f0: ecda 4ebd 1399 8bbd 3bf1 923d a815 933d
00000100: 407f 0c3e 9cad 95bd 01b3 7b3c 0afb eb3b
00000110: 1ace ad3d 29c6 50be e2b6 113e d32c 33bd
00000120: e1e8 09be ce4f 86bd 4d6b 67bc 8f9e abbd
00000130: 599d 13be 13e5 d53d 58e6 a83d 30b4 8bbd
00000140: 1c3c 38be f57f 8e3d d351 0cbe b512 633d
00000150: 306b 5f3d 738f a73c 0a02 d7bc 3079 8a3c
00000160: 5aa2 9f3c b6b4 f03d 8cdd 093c a228 583d
00000170: f32d ecbb 5396 fd3c 94ba 1d3d 2b39 debd
00000180: 5279 cc3d 76ce 583e 6746 59be 92cd 043d
00000190: 6b98 d8bd 1b6c 513d 00c7 643c 79c3 6fbd
000001a0: e0f9 fdbd 51a3 153e f608 5bbd 68b0 fabc
000001b0: 68da 913d d6e6 143c b972 08bd 108e 1cbe
000001c0: fb43 0dbe ea20 66be 521e 13be 5363 2f3d
000001d0: 42e5 9e3d c79e debd 569d 4bbd 5e3e 753d
000001e0: bbc0 253d 0a4a 06be f958 733d b39b 023d
000001f0: 05bd 28be 6ae4 2b3e df9c ff3b 0a42 6ebd
00000200: 3988 cabb b209 d23c a4a6 783d 5cf9 193e
00000210: 37ba acbc df50 0bbe 4ebf 09be d1be 9b3d
00000220: ca44 183d 89ea 893c bb48 313e 1781 cfbd
00000230: 4864 683d 3c29 5cb9 9151 e33d 78a3 953d
00000240: e46b e7bd 455b 953d 321a a6bd 37a4 adbd
00000250: 9e11 6abd da15 7c3d d2b2 32bc da73 febc
00000260: e181 ecbb 5170 ea3d 1f72 bf3d 7bc2 bb3c
00000270: 734c 9bbd 81a3 2d3d 853b f63d 3d96 873d
00000280: 52a5 3b3d 70e2 0ebd cadb 073d 5850 493e
00000290: 4e92 0bbd abbc c13b f5d4 143d 57a2 34bd
000002a0: 0444 463e 111d a0bd 0386 adbd 4b94 5c3c
000002b0: 656a d53c 239a 95bd c751 503d 57e5 85bd
000002c0: 9e2b 25bc de08 dc3c 01a4 88bd aa47 b6bd
000002d0: d184 c2bd 6bbd 653d 2430 363d 485f 80bd
000002e0: f68d 9e3d 482a e63c 1b4e 37bd fb96 19be
000002f0: 1726 58bd 56c1 d83c 163b 1c3d 252a 1a3d
00000300: dc12 f23d df81 2ebd cb46 67bc 48ee e43c
00000310: 8eef d1bd 38b1 143c 4dd0 993c a715 133d
00000320: 7ae3 9a3d fd8f e9bc b957 9bbc 8032 6c3d
00000330: 1071 73bd 4252 29bb 28e3 f63d 1569 cbbd
00000340: c546 723c 40a8 413e a0b0 3a3e eb38 c93d
00000350: 6cb5 12bd 9f94 a03c 1266 1e3e db17 bb3d
00000360: 1687 933c a835 173e 21f7 1f3d c4e8 c5bc
00000370: 8454 92bd 8c39 0fbe b21b a83c f0c6 4c3d
00000380: 65b7 fbbd 6902 793d 6242 523d c4cc 153d
00000390: abf7 2abe 2100 5cbd d08b 61bc 0db8 7c3e
000003a0: 2842 2dbe 60ed ab3b 14ff 873d f718 13be
000003b0: 258f 873d 266d 89bd e2d5 02bc 08c0 d2bc
000003c0: b0c1 4ebe 2392 4bbc 4784 78bc 198b 65be
000003d0: 2324 0e3d b895 32bd a9c6 a3bd 1129 9ebc
000003e0: 6745 15bd 0d81 cabd f9bc 133e f6ac a83d
000003f0: 43ce ec3b 5767 e93d 24dd b53d ebc9 b3bc

linear_relu_stack.8.bias f4 [32]
-0.16023152 0.062423933 -0.08885201 0.060237188 -0.10405437 0.007856237 -0.02206055 0.042087376
-0.02120995 -0.075666204 -0.03631237 -0.03429788 -0.06871113 0.013691879 0.055830624 -0.047510713
0.08068663 0.107633784 -0.0779922 -0.104486115 -0.03642255 -0.023574838 0.006273564 -0.038516093
-0.042508874 -0.0026928426 -0.058931205 -0.08871826 0.08333523 0.050635226 0.0022441957 -0.071740165
00000000: bb13 24be 3db0 7f3d 0bf8 b5bd 45bb 763d
00000010: 751a d5bd 72b7 003c 54b8 b4bc d063 2c3d
00000020: 7dc0 adbc e2f6 9abd 48bc 14bd ef7b 0cbd
00000030: 6cb8 8cbd e753 603c a7ae 643d 989a 42bd
00000040: 083f a53d 1a6f dc3d 60ba 9fbd d1fc d5bd
00000050: d02f 15bd 0520 c1bc 7892 cd3b 0dc3 1dbd
00000060: c91d 2ebd 677a 30bb d961 71bd ebb1 b5bd
00000070: a9ab aa3d e266 4f3d 5b13 133b 82ec 92bd

linear_relu_stack.10.weight f4 [1, 32]
-0.009083196 0.07807367 0.1660001 -0.18440239 0.049468197 -0.0005708197 -0.0010809967 0.1277244
-0.014033623 -0.07932309 -0.068214536 0.07603076 0.17538202 0.17497826 -0.07361176 -0.06900056
-0.0013439318 0.071463086 -0.037561294 0.03851783 -0.10332313 0.11019219 -0.0023107147 -0.12016083
0.046682574 0.022282086 -0.00066331535 -9.672351e-05 0.06537376 -0.06872251 -0.14028858 0.0009191731
00000000: afd1 14bc 17e5 9f3d eefb 293e fbd3 3cbe
00000010: 2a9f 4a3d 10a3 15ba 3bb0 8dba 2fca 023e
00000020: 48ed 65bc 2574 a2bd 10b4 8bbd 04b6 9b3d
00000030: 5897 333e 802d 333e c3c1 96bd 2a50 8dbd
00000040: de26 b0ba 3d5b 923d dfd9 19bd dfc4 1d3d
00000050: 149b d3bd 71ac e13d 5c6f 17bb e216 f6bd
00000060: 3a36 3f3d ec88 b63c 57e2 2dba 0ad8 cab8
00000070: aee2 853d 63be 8cbd cfa7 0fbe aaf4 703a
