model/pendulum_model_15.pth (torch, 88722 bytes, 11 tensors)

linear_relu_stack.0.weight f4 [32, 3]
0.48222983 -0.5222665 0.2735485 0.53402317 -0.22227117 0.14189929 -0.36334735 0.05565824
0.26617807 -0.10177782 0.49815184 -0.054443184 -0.12732309 0.3935174 0.29967386 -0.24438524
-0.1164184 -0.2863866 -0.41025904 0.28864637 -0.4444199 0.39863142 -0.38490197 -0.35265842
0.5466595 0.5244176 0.38221878 0.2084595 -0.47762135 0.017017728 0.4155215 -0.38906547
-0.50194395 -0.38509694 -0.004214462 -0.5709307 -0.51039124 -0.10079507 -0.24715689 0.17141593
-0.4435904 0.16007307 -0.009009886 -0.27012494 -0.34067804 -0.103292726 0.18222933 -0.23408246
-0.44662395 -0.1994065 -0.4552915 0.46704292 0.42547014 -0.21544024 0.12769921 -0.1760517
0.057581626 -0.073913835 -0.38300246 0.458338 0.4346145 -0.3278924 0.17647688 -0.46079138
0.10908627 0.46247607 0.2586016 -0.16113827 0.12405152 0.4424283 -0.109620735 -0.013046633
0.39321563 0.57384926 -0.28915823 0.2698055 0.07071669 -0.37515867 -0.2968104 0.36748573
-0.5713175 0.45393082 0.37517944 -0.50627655 -0.29105988 0.0325889 -0.53698075 -0.31790492
0.49686718 -0.288414 -0.44973713 -0.45186836 0.09335245 -0.49054214 -0.40592068 0.06721479
00000000: d4e6 f63e 42b3 05bf 8d0e 8c3e beb5 083f
00000010: 0e9b 63be 0c4e 113e aa08 babe e5f9 633d
00000020: 7e48 883e e470 d0bd c20d ff3e d1ff 5ebd
00000030: fc60 02be 1d7b c93e da6e 993e 2040 7abe
00000040: c56c eebd 44a1 92be 790d d2be 75c9 933e
00000050: 018b e3be 6b19 cc3e df11 c5be a58f b4be
00000060: e1f1 0b3f 3b40 063f 2eb2 c33e 6876 553e
00000070: c98a f4be c368 8b3c 3cbf d43e 9733 c7be
00000080: 667f 00bf 6d2b c5be 7819 8abb 8428 12bf
00000090: 00a9 02bf a56d cebd b216 7dbe a887 2f3e
000000a0: 481e e3be 32ea 233e 339e 13bc d14d 8abe
000000b0: 5a6d aebe 238b d3bd 539a 3a3e 50b3 6fbe
000000c0: e5ab e4be 3831 4cbe f81b e9be 4020 ef3e
000000d0: 39d7 d93e 5e9c 5cbe 95c3 023e e646 34be
000000e0: b6da 6b3d 2360 97bd e618 c4be 47ab ea3e
000000f0: cb85 de3e 83e1 a7be 5bb6 343e d9ec ebbe
00000100: 9f68 df3d aac9 ec3e 6e67 843e 6e01 25be
00000110: b90e fe3d f685 e23e d680 e0bd 8cc1 55bc
00000120: 8f53 c93e c9e7 123f 8c0c 94be f223 8a3e
00000130: e9d3 903d cc14 c0be 88f7 97be 1727 bc3e
00000140: dd41 12bf 9f69 e83e 8517 c03e 579b 01bf
00000150: cd05 95be f07b 053d 9277 09bf 6fc4 a2be
00000160: 6065 fe3e 00ab 93be f243 e6be 4a5b e7be
00000170: 922f bf3d 5728 fbbe d6d4 cfbe e8a7 893d

linear_relu_stack.0.bias f4 [32]
0.42716312 -0.17870136 -0.45372918 -0.11457802 -0.2852707 0.06215846 0.013559814 0.27101538
0.3585678 0.59566814 -0.011140276 0.10475376 -0.09772202 0.23992515 0.42943686 0.09976502
-0.2672843 -0.01879426 0.11100794 0.43275094 -0.4561407 0.54831886 0.48287252 0.4712104
-0.30179182 -0.32081252 -0.49760956 0.03458067 0.5383813 0.021074098 0.07926614 0.4217958
00000000: 20b5 da3e 7dfd 36be 314f e8be e2a7 eabd
00000010: 000f 92be df99 7e3d fb29 5e3c 87c2 8a3e
00000020: 3396 b73e b57d 183f b485 36bc 2489 d63d
00000030: 7b22 c8bd f0ae 753e 26df db3e 9a51 cc3d
00000040: 7dd9 88be 6cf6 99bc 2158 e33d 8891 dd3e
00000050: 468b e9be a05e 0c3f 113b f73e 7d42 f13e
00000060: 7584 9abe 8a41 a4be aec6 febe 76a4 0d3d
00000070: 5bd3 093f 96a3 ac3c 4956 a23d 9ef5 d73e

linear_relu_stack.2.weight f4 [64, 32]
0.10013303 0.17045863 -0.047181785 -0.04831934 0.17574207 0.12662731 -0.120371826 0.085299626
-0.10045359 0.06229237 0.019686805 -0.08205308 -0.006542385 0.22058076 0.09976826 0.17512228
-0.05604732 -0.10911505 -0.015826264 0.04821251 -0.015857967 -0.16335958 -0.18583111 0.006254069
-0.05291728 0.12353066 -0.008132162 0.014066031 -0.07585671 -0.017000413 0.012228989 0.12945281
-0.16851585 -0.14038579 0.03923163 0.0027835001 0.03869703 0.18794349 0.017278595 0.11925123
0.1123086 0.015548807 0.16394866 -0.054986626 0.16205712 0.08750256 0.15860148 0.15544783
-0.0020800445 -0.1287939 -0.13785191 0.03189618 0.118192464 -0.010247461 0.06425376 -0.03405207
-0.20423922 0.084030256 -0.012216273 0.004695575 0.09923754 0.010678248 0.19395593 -0.077631444
0.16589448 -0.017942898 -0.080099836 -0.030099785 0.095117226 -0.0784254 0.12799056 -0.033433415
0.039656475 -0.03367523 -0.06007345 -0.14648563 0.058351755 0.14697139 0.199823 -0.1577431
0.13927974 -0.18211785 0.18184498 -0.11280266 -0.044251196 0.066469654 0.05713844 0.09563074
-0.2105506 -0.10558345 0.043532263 -0.20864812 0.119646 -0.20457965 -0.10855241 -0.03487235
-0.124694474 0.14119413 0.06706549 -0.06549674 -0.07340193 0.03439135 0.19435553 -0.040056653
0.14756215 -0.16465765 0.08948657 -0.0030275192 0.016503694 0.15745978 0.096315354 -0.056942567
0.061386295 0.016494503 0.030211158 -0.0162827 0.09740346 0.14186369 -0.00011213454 0.034677908
-0.056918483 0.021643065 0.11414613 0.07512862 0.16185413 -0.0048600635 -0.04137816 -0.13186796
-0.09439456 -0.16845044 0.106671594 -0.1616019 0.06338613 0.009040276 -0.13649596 -0.13900533
-0.15035623 0.07714009 -0.06358399 0.07744299 0.045241535 0.15604421 -0.09231392 0.20665765
-0.1844007 -0.19322497 -0.14899147 0.088538654 -0.1456733 0.10835553 -0.16160858 0.10415033
-0.12309761 -0.118383735 0.08352627 -0.1646285 0.15889154 -0.041079205 0.072581194 -0.20112887
-0.11058768 0.02127888 -0.121183775 0.08572579 -0.06546987 -0.13499773 -0.04129781 0.11210904
0.10266008 0.15598485 -0.15814787 0.10755198 -0.06550585 0.013008268 -0.17815289 -0.121099345
-0.123286754 0.16330712 0.00048681354 0.10768017 0.054466784 0.110956736 0.17849222 0.17568968
0.13620017 0.043108247 0.14022726 -0.06529327 0.09256099 0.13803847 0.14581911 -0.060425535
0.05621738 0.115417615 -0.13747256 -0.06629548 -0.15480483 0.14509273 0.1666732 0.16183762
0.056807443 0.1560103 -0.12919043 -0.02394648 -0.047389403 0.058668047 0.08151011 0.08687858
-0.08678728 -0.030627819 0.05802754 -0.18917842 0.1542305 -0.047202613 0.09222765 0.14581382
-0.11379302 -0.056775007 0.101647675 0.039565787 0.1541401 0.11436796 0.08059353 0.20414263
0.013491642 0.060715444 -0.07013447 -0.14057824 0.09807276 -0.045200706 0.14924623 -0.022331197
-0.0041789035 0.10476851 0.0974325 0.16673936 0.06252444 -0.033001363 0.13555092 0.098713286
0.050593037 -0.15199041 0.00943034 0.055510808 -0.06452826 -0.11937541 -0.12277899 0.15120652
-0.18561085 -0.015017909 -0.13479373 0.11108299 0.06742116 0.0041837287 0.19333833 -0.019515194
00000000: 8c12 cd3d b58c 2e3e b041 41bd 80ea 45bd
00000010: bbf5 333e 97aa 013e 8185 f6bd 92b1 ae3d
00000020: 9dba cdbd 4926 7f3d 3946 a13c 720b a8bd
00000030: 8161 d6bb ecdf 613e 4d53 cc3d 4153 333e
00000040: e091 65bd b677 dfbd 15a6 81bc 7b7a 453d
00000050: 91e8 81bc bc47 27be 834a 3ebe efee cc3b
00000060: cabf 58bd a5fd fc3d c23c 05bc 3675 663c
00000070: c35a 9bbd 7344 8bbc 195c 483c 478f 043e
00000080: 6b8f 2cbe 4bc1 0fbe 58b1 203d 626b 363b
00000090: c780 1e3d 4274 403e d78b 8d3c fd39 f43d
000000a0: 0d02 e63d 6cc0 7e3c 28e2 273e a839 61bd
000000b0: 4df2 253e 8b34 b33d 6d68 223e b72d 1f3e
000000c0: 5b51 08bb 8ce2 03be 0d29 0dbe 92a5 023d
000000d0: e40e f23d f7e4 27bc 7a97 833d 2f7a 0bbd
000000e0: 1624 51be 0e18 ac3d c326 48bc 57dd 993b
000000f0: 0d3d cb3d d1f3 2e3c 629c 463e 3cfd 9ebd
00000100: 3ee0 293e fcfc 92bc 620b a4bd d393 f6bc
00000110: d2cc c23d 7f9d a0bd f50f 033e 7af1 08bd
00000120: d46e 223d 0aef 09bd 940f 76bd 5400 16be
00000130: 4002 6f3d ab7f 163e 679e 4c3e 6887 21be
00000140: 599f 0e3e 1a7d 3abe 9235 3a3e 1505 e7bd
00000150: be40 35bd 3e21 883d ff09 6a3d 0dda c33d
00000160: 949a 57be 233c d8bd e34e 323d daa7 55be
00000170: f608 f53d 547d 51be ba50 debd 4fd6 0ebd
00000180: d15f ffbd 3295 103e a259 893d 2823 86bd
00000190: c053 96bd f2dd 0c3d 2305 473e 7212 24bd
000001a0: 881a 173e 049c 28be bc44 b73d 5869 46bb
000001b0: c132 873c 233d 213e fc40 c53d 9c3c 69bd
000001c0: 3270 7b3d 7b1f 873c 647d f73c 4c63 85bc
000001d0: 777b c73d b744 113e c629 ebb8 6c0a 0e3d
000001e0: 5b23 69bd cc4c b13c 72c5 e93d 09dd 993d
000001f0: 17bd 253e 2b41 9fbb 257c 29bd 6508 07be
00000200: ef51 c1bd 467e 2cbe a376 da3d f87a 25be
00000210: 96d0 813d aa1d 143c 99c5 0bbe 6a57 0ebe
00000220: fcf6 19be a0fb 9d3d 5338 82bd 6e9a 9e3d
00000230: 304f 393d 0eca 1f3e 150f bdbd 109e 533e
00000240: 89d3 3cbe c4dc 45be 3891 18be c153 b53d
00000250: 622b 15be 81e9 dd3d b87c 25be c54c d53d
00000260: 9a1a fcbd 2c73 f2bd d20f ab3d 6094 28be
00000270: 77b4 223e ab42 28bd 73a5 943d baf4 4dbe
00000280: cb7b e2bd 0c51 ae3c 332f f8bd 0191 af3d
00000290: 1115 86bd d83c 0abe e427 29bd 6d99 e53d
000002a0: 733f d23d 7eba 1f3e 84f1 21be 3644 dc3d
000002b0: ee27 86bd a120 553c b66d 36be ef02 f8bd
000002c0: c47d fcbd fb39 273e 023b ff39 6c87 dc3d
000002d0: 9018 5f3d 493d e33d aac6 363e ffe7 333e
000002e0: 0f78 0b3e 4692 303d bc97 0f3e 7ab8 85bd
000002f0: 9e90 bd3d f559 0d3e 9b51 153e c480 77bd
00000300: 3244 663d 1260 ec3d 9bc5 0cbe edc5 87bd
00000310: 2885 1ebe 3093 143e 61ac 2a3e c3b8 253e
00000320: ecae 683d 2ac1 1f3e 7f4a 04be 692b c4bc
00000330: 641b 42bd e84d 703d c6ee a63d 66ed b13d
00000340: 88bd b1bd 31e7 fabc 49ae 6d3d fdb7 41be
00000350: 9aee 1d3e 8757 41bd dae1 bc3d 3850 153e
00000360: 510c e9bd e98c 68bd a82c d03d bc0f 223d
00000370: e7d6 1d3e c039 ea3d 380e a53d c40a 513e
00000380: 0c0c 5d3c c2b0 783d a9a2 8fbd bef3 0fbe
00000390: 5fda c83d 6024 39bd 01d4 183e eaef b6bc
000003a0: 2fef 88bb df90 d63d b18a c73d b9bd 2a3e
000003b0: d00c 803d 702c 07bd dccd 0a3e 312a ca3d
000003c0: a53a 4f3d 60a3 1bbe b681 1a3c 4d5f 633d
000003d0: 6427 84bd 187b f4bd 8d73 fbbd e2d5 1a3e
000003e0: c510 3ebe ad0d 76bc 5e07 0abe 7b7f e33d
000003f0: 1b14 8a3d a917 893b 7cfa 453e 54de 9fbc

linear_relu_stack.2.bias f4 [64]
-0.14170438 -0.06864223 -0.076917596 -0.004156553 0.11703659 0.084366426 0.065107286 -0.17400275
-0.0028849356 -0.1369187 -0.12620589 0.06802575 -0.19498047 0.062208563 -0.01722965 -0.12516789
-0.032724213 0.123321585 -0.11281133 -0.04355016 -0.15622726 -0.13831598 -0.11420009 0.076428816
-0.07694103 -0.023012035 0.07884025 -0.1523733 -0.012989749 0.13729587 -0.0771585 0.06478463
-0.15079108 0.14668384 0.07036246 -0.062468294 -0.14436445 -0.030697307 -0.027464867 -0.100898884
-0.17127338 0.19919692 -0.0443537 0.09965906 0.05610445 -0.016768001 0.10898606 -0.012953343
0.11903454 -0.022211926 -0.05921014 -0.04075172 -0.0045333314 -0.0876355 0.09421663 -0.024812488
0.025125032 -0.10885795 0.13665833 -0.17001897 -0.17099985 -0.14073294 0.09980979 0.09817005
00000000: f41a 11be 4c94 8cbd f986 9dbd b233 88bb
00000010: e1b0 ef3d 4ec8 ac3d f856 853d c72d 32be
00000020: 3011 3dbb 6a34 0cbe 1e3c 01be 1651 8b3d
00000030: f6a8 47be 68ce 7e3d 3225 8dbc 032c 00be
00000040: d309 06bd 0790 fc3d a009 e7bd a761 32bd
00000050: 0afa 1fbe b4a2 0dbe bde1 e9bd b686 9c3d
00000060: 4293 9dbd bc83 bcbc ff76 a13d bf07 1cbe
00000070: f5d2 54bc 4a97 0c3e 4705 9ebd cead 843d
00000080: fa68 1abe 4a34 163e 321a 903d c1de 7fbd
00000090: 46d4 13be eb78 fbbc 00fe e0bc 13a4 cebd
000000a0: 4a62 2fbe 47fa 4b3e 3aac 35bd 0d1a cc3d
000000b0: c8cd 653d 0c5d 89bc 1534 df3d 423a 54bc
000000c0: 62c8 f33d c9f5 b5bc 5586 72bd 47eb 26bd
000000d0: 578c 94bb 3e7a b3bd a6f4 c03d 8f43 cbbc
000000e0: 03d3 cd3c ebf0 debd 29f0 0b3e 7419 2ebe
000000f0: 961a 2fbe 4c1c 10be 1369 cc3d 610d c93d

linear_relu_stack.4.weight f4 [128, 64]
0.12116328 -0.07298043 0.13504137 -0.113459356 0.0057969633 0.035258897 0.06876296 0.030975144
-0.11595675 -0.003873726 0.07100398 0.05946549 0.07746236 0.10138789 -0.028719366 -0.11283132
-0.07662795 0.09128789 0.05731085 -0.08465859 0.12416137 -0.04233067 0.08480477 0.0379414
-0.034720182 0.10584611 0.0045941058 -0.04360254 0.07369034 -0.119552016 0.11238859 0.1563701
0.09236933 0.10828099 0.006980543 -0.1110582 0.040990684 0.057612613 0.01199392 -0.09793925
0.049110066 -0.026598085 -0.11916575 -0.060016956 0.029008944 0.026585981 0.019061295 -0.09935962
0.03637018 0.07757829 -0.11560075 -0.050006706 -0.041646075 0.049467713 0.101620905 -0.0683602
-0.01567542 0.0059716417 -0.026241979 0.0321105 0.05097495 0.009025417 0.11983802 0.109712206
-0.07138995 0.13161604 0.11448483 0.059706368 0.08603422 0.040025603 -0.010233871 0.059228208
-0.045419 0.030653827 -0.08851022 -0.087257385 -0.10414551 0.04577866 0.04707623 -0.08134808
-0.0207725 0.08958056 0.053532727 -0.02191367 -0.07146246 0.0668347 0.023502247 0.009919923
-0.097786374 0.090344846 -0.009635991 0.122247085 -0.11428324 0.12554641 -0.09007603 -0.020854432
-0.057496123 0.051668845 0.02608488 0.20073025 0.14656234 0.048291918 0.11373828 -0.0034071289
0.11898792 0.010844143 0.17168242 0.070499405 -0.0446514 -0.11841905 -0.009993045 -0.16690694
-0.035101954 0.051776372 0.16855074 -0.11016805 -0.019269848 0.070534 0.13921404 -0.0846567
0.042672735 0.07498196 0.04302096 0.09431333 -0.13454875 -0.0080986805 0.024130762 0.0731088
0.03939231 0.091465324 0.008632365 0.038492274 0.1290011 -0.05098849 -0.008019354 -0.06816042
0.08369574 0.06754696 -0.007753031 -0.057868764 -0.03258386 0.051378686 0.10941145 -0.122256
-0.005496988 -0.03727462 -0.06647659 0.062470715 -0.0004400689 0.070308015 -0.011064339 0.014509384
-0.11603174 0.06427339 0.050957266 0.021637097 0.037938353 0.0869604 -0.10752621 0.015853545
0.1252378 0.041332938 0.08175003 -0.0028282409 0.026836175 -0.038504306 0.01795434 0.06531502
-0.034457043 -0.022795392 -0.0132284155 0.027849419 -0.08129256 0.07350948 -0.082887806 0.031189734
0.03578919 0.0022122536 -0.008542196 0.051005624 -0.13205807 0.053122904 -0.09226627 -0.026818391
0.025165936 0.07337509 -0.030045353 0.06796686 0.08634182 -0.025599193 0.12818995 0.06160052
0.06665155 -0.11073798 -0.06405332 0.052675486 0.089368455 -0.0073130755 -0.08587755 0.037693698
-0.012861659 0.08918191 0.044591147 0.08036674 0.02507925 -0.050703343 -0.1118488 -0.11144775
-0.06717538 0.08690006 0.10118579 0.0591811 0.11286594 -0.10568801 0.06922866 0.069051646
0.080106504 -0.07520424 0.023173435 -0.048986044 0.072925545 0.042984243 -0.037459895 -0.020654455
0.14032505 0.103378326 -0.022677384 -0.058529828 -0.102681495 0.027134804 0.026152326 0.07611319
-0.05137405 0.04620547 -0.081896074 0.06374191 -0.07937102 -0.009323981 0.06453823 0.08006575
-0.08403436 -0.044643234 0.016844284 0.091600634 -0.050209384 -0.045254786 -0.1190924 0.10023173
0.065135695 0.046756025 0.009352705 -0.12400052 0.022292892 0.14927436 -1.4085321e-05 0.03742623
00000000: 7424 f83d c476 95bd 4948 0a3e 615d e8bd
00000010: 74f4 bd3b a26b 103d 98d3 8c3d 96bf fd3c
00000020: bc7a edbd 56de 7dbb 896a 913d 1692 733d
00000030: 96a4 9e3d 74a4 cf3d e044 ebbc 1b14 e7bd
00000040: 1def 9cbd 25f5 ba3d c8be 6a3d 7c61 adbd
00000050: 5148 fe3d ed62 2dbd 20ae ad3d 7168 1b3d
00000060: c036 0ebd d8c5 d83d 278a 963b 9498 32bd
00000070: f6ea 963d b0d7 f4bd fd2b e63d 7c1f 203e
00000080: 222c bd3d 6cc2 dd3d 0abd e43b 7b72 e3bd
00000090: d9e5 273d 34fb 6b3d 2682 443c 6094 c8bd
000000a0: a327 493d 3ae4 d9bc 2c0d f4bd 57d4 75bd
000000b0: 2aa4 ed3c d8ca d93c 6f26 9c3c 0e7d cbbd
000000c0: e6f8 143d 5ee1 9e3d 16c0 ecbd d5d3 4cbd
000000d0: 1395 2abd a89e 4a3d 9f1e d03d 6f00 8cbd
000000e0: bd69 80bc c3ad c33b 6bf9 d6bc 4d86 033d
000000f0: 1ccb 503d 58df 133c a36d f53d cbb0 e03d
00000100: e534 92bd 5bc6 063e 0677 ea3d aa8e 743d
00000110: b632 b03d e3f1 233d f7ab 27bc 4799 723d
00000120: 4609 3abd bc1d fb3c d944 b5bd 00b4 b2bd
00000130: 3e4a d5bd 6782 3b3d 01d3 403d d299 a6bd
00000140: 172b aabc 0376 b73d 2245 5b3d 4c84 b3bc
00000150: e95a 92bd a2e0 883d c987 c03c 2c87 223c
00000160: 3944 c8bd b806 b93d 47e0 1dbc ae5c fa3d
00000170: 550d eabd 3d8f 003e c879 b8bd ead6 aabc
00000180: 0e81 6bbd b6a2 533d f5af d53c 3b8c 4d3e
00000190: 7014 163e bfcd 453d 9eef e83d 234a 5fbb
000001a0: f0af f33d a2ab 313c 84cd 2f3e fe61 903d
000001b0: 63e4 36bd b085 f2bd deb9 23bc a7e9 2abe
000001c0: 11c7 0fbd 7613 543d 9198 2c3e c99f e1bd
000001d0: cddb 9dbc 2174 903d 208e 0e3e 7e60 adbd
000001e0: 9bc9 2e3d 2490 993d bf36 303d 5927 c13d
000001f0: 26c7 09be 54b0 04bc e0ad c53c 11ba 953d
00000200: d559 213d 2c52 bb3d c36e 0d3c 13aa 1d3d
00000210: dd18 043e 4fd9 50bd 9c63 03bc b197 8bbd
00000220: ac68 ab3d 1056 8a3d 230d febb cc07 6dbd
00000230: a776 05bd 7572 523d 1c13 e03d 5b61 fabd
00000240: 1420 b4bb 46ad 18bd e124 88bd 4be1 7f3d
00000250: 0cb9 e6b9 a6fd 8f3d 3447 35bc c4b8 6d3c
00000260: 0da2 edbd c4a1 833d 91b8 503d 4840 b13c
00000270: 3f65 1b3d 4b18 b23d b436 dcbd 4bdf 813c
00000280: 563e 003e ba4c 293d 8f6c a73d 025a 39bb
00000290: 8ad7 db3c b1b6 1dbd fb14 933c e2c3 853d
000002a0: d422 0dbd 67bd babc ffbb 58bc 7724 e43c
000002b0: b77c a6bd 238c 963d 15c1 a9bd 9d81 ff3c
000002c0: b097 123d 75fb 103b 91f4 0bbc 46eb 503d
000002d0: 3b3a 07be 6797 593d 19f6 bcbd 3eb2 dbbc
000002e0: cb28 ce3c ae45 963d ac21 f6bc 3632 8b3d
000002f0: fbd3 b03d 66b5 d1bc 3a44 033e d450 7c3d
00000300: 9c80 883d 98ca e2bd 632e 83bd 40c2 573d
00000310: cf06 b73d 86a2 efbb 92e0 afbd b564 1a3d
00000320: b5b9 52bc 01a5 b63d 35a5 363d 5197 a43d
00000330: 0073 cd3c 4fae 4fbd fc10 e5bd b83e e4bd
00000340: 3f93 89bd a9f8 b13d 7f3a cf3d e267 723d
00000350: 4226 e73d f572 d8bd c1c7 8d3d f36a 8d3d
00000360: e10e a43d ae04 9abd 37d6 bd3c 97a5 48bd
00000370: fd59 953d 3f10 303d 8c6f 19bd 8833 a9bc
00000380: 5fb1 0f3e 04b8 d33d ecc5 b9bc f9bc 6fbd
00000390: ad4a d2bd cf49 de3c 673d d63c 3be1 9b3d
000003a0: 996d 52bd f241 3d3d 21b9 a7bd 1e8b 823d
000003b0: 468d a2bd 9cc3 18bc 9f2c 843d 83f9 a33d
000003c0: 351a acbd d3db 36bd 06fd 893c 1d99 bb3d
000003d0: 5ba8 4dbd 155d 39bd b7e6 f3bd 4b46 cd3d
000003e0: dd65 853d 3f83 3f3d 173c 193c fcf3 fdbd
000003f0: 959f b63c 61db 183e fe4f 6cb7 3f4c 193d

linear_relu_stack.4.bias f4 [128]
0.061146304 0.08118262 -0.08456313 -0.022091672 0.0728586 0.055895794 0.101152636 0.03408147
-0.019078007 0.032278977 -0.001998687 0.08428972 -0.03637834 0.002835511 -0.013149574 -0.011368635
0.014916213 0.0060220403 0.058440905 0.00012631997 -0.068893105 0.013232217 0.01338656 -0.12381991
0.077871054 0.030428635 0.012729054 0.11505129 -0.018376937 0.031572692 -0.050662085 0.104607224
0.10082004 0.071043365 -0.07718339 0.041549947 -0.028698279 -0.108029224 -0.08228285 0.06788434
-0.08570247 -0.010233704 0.08363937 0.0076841246 -0.0921209 0.041331425 0.072053105 0.09659466
0.10000883 -0.11304343 0.0049892343 -0.10516595 -0.043797504 0.035429493 0.025760042 -0.011223169
0.054577187 -0.066545755 0.07773827 0.009915024 -0.10214326 -0.04139395 -0.11980093 0.1342186
0.07426364 -0.041349698 0.1364045 0.04530049 -0.06788758 -0.011850198 0.044420455 -0.015132914
-0.05616954 -0.06683851 0.012933632 -0.116044514 -0.035854887 -0.09681647 -0.072292514 -0.10329199
0.053128812 0.06476593 0.07250688 0.051243197 -0.029744787 -0.03649656 0.01771727 0.05604704
0.1275195 -0.038348388 0.03533475 0.0489313 0.006526965 -0.018308131 -0.059325885 0.0039802487
0.097468875 -0.040344235 0.12352628 -0.04365315 -0.08786491 0.061330985 0.055058602 0.12850134
-0.025930716 -0.06999897 -0.0609759 -0.11492053 -0.06320559 0.020810012 -0.039102256 0.071025655
-0.10384472 0.014570804 0.11359015 0.05696761 0.010963303 -0.14705646 0.060793336 -0.13648215
-0.118593216 0.07103777 0.101722725 -0.08934034 -0.029577743 0.06607745 -0.113322884 0.0589842
00000000: 8c74 7a3d 1343 a63d 6f2f adbd 98f9 b4bc
00000010: e436 953d fdf2 643d 1d29 cf3d 0399 0b3d
00000020: 7b49 9cbc f636 043d 67fc 02bb 17a0 ac3d
00000030: 7401 15bd fbd3 393b 5071 57bc 8343 3abc
00000040: 2263 743c 8954 c53b bb5f 6f3d c274 0439
00000050: d417 8dbd f1cb 583c 4d53 5b3c 4b95 fdbd
00000060: dc7a 9f3d 7945 f93c 868d 503c 03a0 eb3d
00000070: 3b8b 96bc 5e52 013d 0c83 4fbd 503c d63d
00000080: bd7a ce3d 2f7f 913d 5312 9ebd 4730 2a3d
00000090: a718 ebbc 6d3e ddbd e983 a8bd f206 8b3d
000000a0: c784 afbd 44ab 27bc 1e4b ab3d 1ccb fb3b
000000b0: e2a9 bcbd 244b 293d 9490 933d 6cd3 c53d
000000c0: 6ed1 cc3d 5083 e7bd bb7c a33b 3f61 d7bd
000000d0: 0365 33bd 841e 113d b906 d33c 62e1 37bc
000000e0: 548c 5f3d 2449 88bd 3e35 9f3d a072 223c
000000f0: 7c30 d1bd b48c 29bd 315a f5bd 9a70 093e
00000100: 8917 983d 4d5e 29bd 9fad 0b3e 028d 393d
00000110: a508 8bbd 5527 42bc 39f2 353d 0bf0 77bc
00000120: 0812 66bd a1e2 88bd 96e7 533c bfa8 edbd
00000130: 93dc 12bd b747 c6bd 190e 94bd c08a d3bd
00000140: 999d 593d 00a4 843d 7d7e 943d 63e4 513d
00000150: 57ab f3bc 6b7d 15bd cf23 913c 9591 653d
00000160: 7994 023e 3313 1dbd 2cbb 103d 306c 483d
00000170: 27e0 d53b effa 95bc b3ff 72bd bf6c 823b
00000180: c39d c73d ff3f 25bd 59fb fc3d a5cd 32bd
00000190: 85f2 b3bd 3336 7b3d 2185 613d db95 033e
000001a0: a76c d4bc 9f5b 8fbd dec1 79bd 745b ebbd
000001b0: ef71 81bd c279 aa3c b029 20bd e675 913d
000001c0: 8aac d4bd 62ba 6e3c f4a1 e83d de56 693d
000001d0: 6d9f 333c f895 16be 6f02 793d fac1 0bbe
000001e0: 00e1 f2bd 407c 913d 0154 d03d 11f8 b6bd
000001f0: 064d f2bc 9d53 873d d415 e8bd 6b99 713d

linear_relu_stack.6.weight f4 [64, 128]
-0.01618825 0.12710477 -0.045869604 -0.07855983 -0.007560023 0.07425903 0.023759026 0.075052775
0.015131498 -0.09288703 0.061645135 0.08236134 -0.11071343 -0.075914845 -0.04598711 0.040987525
-0.045304745 -0.076559775 -0.028535556 0.09709564 -0.017529825 -0.0722196 0.051481254 -0.059687387
-0.07900773 -0.026424075 -0.048342355 -0.07137574 0.05165964 0.06430711 -0.068032935 0.024426568
-0.004511795 0.09803899 -0.008876817 -0.09487914 -0.0024333815 0.015066977 -0.07772242 0.06861785
-0.014173333 0.004685622 -0.122923315 -0.048164908 0.054907914 -0.12549803 -0.079706654 0.012949941
-0.06865691 0.036937468 -0.08367502 -0.11119081 -0.09927477 0.043060552 -0.027150698 0.079980075
-0.0031547446 -0.06608818 0.0841083 -0.057261165 -0.08232284 -0.009356536 -0.0030377577 -0.09568149
0.0053177094 -0.03385874 -0.01872107 0.087545365 -0.009534274 0.093819566 0.020786736 0.05302734
0.05154572 -0.037444483 -0.08391024 -0.021401105 -0.061859295 0.05312748 0.031150706 0.06655346
0.10009164 0.011719904 0.088329025 -0.0021286386 0.003956256 0.08365298 -0.019123787 0.040287405
-0.05011506 -0.052515298 0.039007034 -0.068741456 -0.08935646 -0.004015266 0.06555549 -0.062456675
-0.027872512 0.059791293 -0.09155988 0.02420586 0.011461908 0.02664254 0.119567536 -0.037716743
-0.012684225 0.012637796 0.008589269 0.05197318 0.06451787 0.0018907207 0.0142459655 0.051082306
0.079957984 -0.03713682 0.031193532 -0.0047522034 0.011555201 -0.0612353 -0.14525855 0.08031847
0.0656509 0.039933592 -0.033736892 -0.0044509983 0.041232005 -0.07605086 0.11384566 -0.02218999
0.054735504 0.044573657 -0.045453373 -0.07575046 -0.01968412 0.034989145 0.12491586 -0.071072735
0.03093971 -0.15697534 0.022432124 0.07076687 0.09649915 0.04636219 0.0013094795 0.07022489
0.065622136 -0.01556929 -0.021359079 0.009471635 -0.033226404 0.05347046 0.03588188 0.052254025
-0.023309974 0.017436618 0.10924237 -0.04800915 -0.05501901 -0.003970673 -0.08422106 -0.02559976
0.002024478 0.04462273 0.045788515 -0.0033894533 -0.056915704 -0.1055826 -0.09005439 0.09407742
0.032876387 0.08311845 0.06031033 -0.10498428 -0.04335988 -0.06155505 0.053587403 0.06843026
0.010446555 0.009462379 -0.034287885 -0.041558392 -0.08771217 -0.026877623 0.099318124 0.068002746
-0.018315068 0.025704233 0.12463987 0.107275784 -0.035785425 0.007613959 -0.033685498 0.009379913
0.059317477 0.08040757 0.04879164 0.06549233 0.0018757201 -0.025543852 -0.055065967 -0.02256696
-0.031386446 -0.0757374 0.037321523 -0.050506003 -0.019084489 0.019269917 0.08921917 0.028356863
0.08909939 -0.056816895 0.076411664 -0.032189377 -0.005281497 -0.022752881 -0.07472891 -0.065123625
0.074266545 -0.006460756 -0.015365812 -0.056255814 -0.016659359 0.015513709 -0.06015752 0.051440306
0.06600486 0.10227226 0.03706597 0.028461363 0.0815406 -0.029888956 0.06432791 0.0332249
0.058572613 -0.015593126 -0.0038887714 -0.030032715 -0.07715011 -0.06259947 -0.04743784 0.050830822
0.03429833 0.10909003 -0.037534285 -0.08279249 0.032474652 0.032182436 -0.059737414 0.047714863
0.10093308 0.073875025 -0.058111876 0.03323329 0.10273645 0.08131196 0.04401034 0.093459964
00000000: 399d 84bc c127 023e c4e1 3bbd fae3 a0bd
00000010: 12ba f7bb 1e15 983d 4aa2 c23c 45b5 993d
00000020: 1aea 773c 8e3b bebd 9c7f 7c3d 10ad a83d
00000030: b9bd e2bd 3e79 9bbd fb5c 3cbd 89e2 273d
00000040: 7891 39bd 5fcb 9cbd 66c3 e9bc 14da c63d
00000050: b59a 8fbc dfe7 93bd 02de 523d c37a 74bd
00000060: cece a1bd 4d77 d8bc a202 46bd 722d 92bd
00000070: 0f99 533d 72b3 833d da54 8bbd 3a1a c83c
00000080: aed7 93bb aac8 c83d 1270 11bc ff4f c2bd
00000090: 5e79 1fbb 7bdb 763c ef2c 9fbd 8487 8c3d
000000a0: 4437 68bc d989 993b 38bf fbbd 9148 45bd
000000b0: 1fe7 603d 8e82 00be 3e3d a3bd fd2b 543c
000000c0: fe9b 8cbd be4b 173d cf5d abbd 02b8 e3bd
000000d0: 9250 cbbd 4360 303d 246b debc 98cc a33d
000000e0: d5bf 4ebb 3d59 87bd f940 ac3d af8a 6abd
000000f0: e198 a8bd 284c 19bc 1e15 47bb a8f4 c3bd
00000100: 2e40 ae3b 76af 0abd ee5c 99bc fc4a b33d
00000110: a535 1cbc 7924 c03d f248 aa3c 3233 593d
00000120: 9b21 533d 635f 19bd 22d9 abbd 5f51 afbc
00000130: 2c60 7dbd 339c 593d c42f ff3c 2e4d 883d
00000140: d9fc cc3d d704 403c d9e5 b43d a180 0bbb
00000150: 7ba3 813b 4152 ab3d 7da9 9cbc 6804 253d
00000160: 7345 4dbd 481a 57bd d7c5 1f3d 52c8 8cbd
00000170: 8500 b7bd 7e92 83bb f541 863d 92d2 7fbd
00000180: e554 e4bc b7e7 743d bf83 bbbd 5e4b c63c
00000190: baca 3b3c 7541 da3c d3df f43d df7c 1abd
000001a0: 7fd1 4fbc c20e 4f3c 01ba 0c3c d4e1 543d
000001b0: f221 843d 0fd2 f73a e967 693c ae3b 513d
000001c0: 03c1 a33d c71c 18bd 9489 ff3c 5fb8 9bbb
000001d0: 0752 3d3c ded1 7abd a8be 14be 037e a43d
000001e0: fb73 863d 6891 233d b22f 0abd aed9 91bb
000001f0: e4e2 283d 8ec0 9bbd ea27 e93d c8c7 b5bc
00000200: 5632 603d de92 363d 512d 3abd 0f23 9bbd
00000210: 9740 a1bc c750 0f3d e3d3 ff3d 958e 91bd
00000220: 4675 fd3c 25be 20be 93c3 b73c 39ee 903d
00000230: 59a1 c53d 48e6 3d3d d7a2 ab3a 11d2 8f3d
00000240: e664 863d 5616 7fbc 3cf9 aebc eb2e 1b3c
00000250: 6918 08bd d703 5b3d e1f8 123d 5108 563d
00000260: 8ff4 bebc 3dd7 8e3c 77ba df3d 3ea5 44bd
00000270: 9d5b 61bd 6b1c 82bb 177c acbd 96b6 d1bc
00000280: 1bad 043b 53c6 363d bd8c 3b3d 9721 5ebb
00000290: 7120 69bd b13b d8bd 706e b8bd aaab c03d
000002a0: 64a9 063d 023a aa3d f707 773d 0002 d7bd
000002b0: 219a 31bd 2621 7cbd 777e 5b3d 2a25 8c3d
000002c0: 0728 2b3c 1808 1b3c 7471 0cbd 2239 2abd
000002d0: 70a2 b3bd 762e dcbc 4d67 cb3d 0645 8b3d
000002e0: 7b09 96bc af91 d23c 3043 ff3d 68b3 db3d
000002f0: bd93 12bd 847e f93b cef9 09bd 35ae 193c
00000300: e2f6 723d b9ac a43d bed9 473d d820 863d
00000310: b9da f53a 5741 d1bc da8c 61bd 58de b8bc
00000320: 138f 00bd 361c 9bbd 74de 183d 62df 4ebd
00000330: 1357 9cbc f2db 9d3c 8ab8 b63d a74c e83c
00000340: be79 b63d d5b8 68bd b87d 9c3d 02d9 03bd
00000350: 6810 adbb 4064 babc 790b 99bd 895f 85bd
00000360: 0f19 983d c0b4 d3bb e3c0 7bbc 7f6c 66bd
00000370: 3579 88bc 362d 7e3c bb67 76bd 12b3 523d
00000380: 8e2d 873d 1e74 d13d 7dd2 173d ce27 e93c
00000390: c2fe a63d afd9 f4bc 5abe 833d d516 083d
000003a0: d6e9 6f3d 507a 7fbc c2da 7ebb 2b07 f6bc
000003b0: e000 9ebd 2734 80bd 2e4e 42bd fb33 503d
000003c0: 687c 0c3d 986a df3d 8dbd 19bd 1c8f a9bd
000003d0: 2404 053d bbd1 033d 38af 74bd a970 433d
000003e0: 01b6 ce3d ca4b 973d b806 6ebd a11f 083d
000003f0: 7d67 d23d e386 a63d 3044 343d f067 bf3d

linear_relu_stack.6.bias f4 [64]
-0.011484846 0.08695885 -0.0721256 0.007093918 0.082659334 -0.04706094 -0.063279696 0.085567944
0.04309106 0.0138077475 0.061477248 -0.0058038086 -0.011420259 0.0009908724 -0.031143047 -0.023338124
0.06703744 0.075284176 -0.03722875 0.03135919 0.060287274 0.049119607 -0.007230377 0.078572996
0.054090336 0.0072553344 0.03421586 0.029355431 -0.06249894 -0.027194861 -0.05310056 -0.002261733
0.05714865 -0.002822955 0.017536117 -0.012719912 0.041430414 -0.019657495 -0.029546894 -0.023044273
0.03577862 0.05905348 0.08967663 -0.021273524 -0.06357501 0.026815327 -0.027239177 0.015139562
-0.054323766 0.08429182 -0.0502029 0.019681238 0.07503186 -0.0253047 0.018647863 -0.0018499593
-0.038795676 -0.024736028 0.07923802 -0.059921358 0.015527455 -0.026015589 -0.06958459 -0.06619378
00000000: ef2a 3cbc 7b17 b23d 96b6 93bd 1974 e83b
00000010: 4c49 a93d f9c2 40bd c998 81bd 3f3e af3d
00000020: 4080 303d e439 623c 91cf 7b3d e02d bebb
00000030: 0a1c 3bbc 29e0 813a b41f ffbc 982f bfbc
00000040: ed4a 893d 972e 9a3d 2c7d 18bd 7e72 003d
00000050: caef 763d a431 493d ccec ecbb e1ea a03d
00000060: d48d 5d3d 28be ed3b ee25 0c3d cd7a f03c
00000070: e3fe 7fbd c2c7 debc f97f 59bd 9539 14bb
00000080: b414 6a3d 5301 39bb e7a7 8f3c 2e67 50bc
00000090: f0b2 293d c108 a1bc 540c f2bc 58c7 bcbc
000000a0: 9a8c 123d 10e2 713d 62a8 b73d d045 aebc
000000b0: 9d33 82bd d1ab db3c b224 dfbc ed0b 783c
000000c0: 9982 5ebd 31a1 ac3d 8ea1 4dbd 8c3a a13c
000000d0: 4eaa 993d cd4b cfbc 67c3 983c 557a f2ba
000000e0: 37e8 1ebd 36a3 cabc 8b47 a23d 1970 75bd
000000f0: de66 7e3c a51e d5bc 5e82 8ebd 9b90 87bd

linear_relu_stack.8.weight f4 [32, 64]
0.14885335 0.031472903 0.06291662 -0.12905537 0.06167271 -0.13710748 0.068385996 -0.10427277
0.03940337 -0.1166358 -0.050241683 0.06426021 0.062296454 -0.07204406 -0.03642556 -0.07983571
-0.00095635775 0.09667132 -0.06459905 -0.03089213 -0.091923274 -0.09210463 0.02575787 -0.05739566
-0.11569879 0.015822405 -0.027581068 -0.13027318 0.065676905 0.072169885 -0.10841829 -0.07831071
0.07938889 -0.053143907 -0.12838916 0.09675976 0.0529284 -0.015545916 0.055877186 0.12749271
0.019513715 0.015321915 0.07441201 -0.042329185 -0.064157255 -0.06540681 0.119124554 0.04905248
0.108527176 -0.032699306 0.017499028 -0.08837953 -0.0218749 0.11481944 -0.073433965 0.03564875
0.04431388 0.12670103 -0.03299349 0.09604268 0.010969887 -0.13725394 -0.04148107 0.13114084
-0.059166815 0.034737114 0.07631359 0.077427424 0.13763252 -0.0064281006 -0.08124609 -0.023069665
-0.09464453 0.00081100565 -0.08949823 0.056288965 0.1373362 -0.162189 0.117093034 -0.067573965
-0.12254752 0.08158809 0.00830687 -0.03635561 -0.08827639 0.0030479152 0.1021199 -0.09747944
-0.029633828 -0.095977575 0.0804549 -0.08028486 -0.07150851 0.035721414 0.09567808 0.013792733
0.0027421142 -0.084417656 0.004562434 0.06474451 -0.03223622 0.11296414 -0.087076 0.031981595
-0.024709988 0.05551957 0.019992359 -0.041166466 0.08171602 0.068790756 0.06132947 -0.03297901
0.11468184 -0.018804286 -0.066618234 0.07047485 0.07049251 0.078860745 -0.10460942 0.12375623
0.05924456 0.16087653 0.07891616 -0.050788317 0.07353506 -0.006354812 0.026844023 -0.09132527
-0.09239988 -0.11770493 0.07806759 0.05360047 0.036454394 0.026517523 -0.013612303 -0.022668893
0.034631643 0.055167433 0.08448484 -0.035939053 -0.016203102 -0.010888669 0.08088644 0.0823608
0.08819517 -0.06368769 0.04882146 0.011213858 -0.07019398 -0.084616706 0.058578808 -0.031838562
-0.022165712 -0.00632716 -0.10738791 -0.019426849 0.069223136 0.037612427 0.117081605 0.08363276
-0.011928725 0.03664675 0.02008191 -0.073408365 -0.07286854 0.104013346 0.10002704 0.09864468
-0.08595898 0.03844226 -0.07578148 0.053356532 -0.09404975 -0.12023808 0.104458734 -0.1099002
-0.019921768 0.07221865 -0.029761124 0.05566045 0.06796513 -0.06511239 -0.10061218 -0.023825966
0.09014583 0.018953068 -0.082587354 -0.11447943 -0.11390481 -0.099165946 -0.03169617 0.00095247774
0.09644106 0.10059707 0.11575713 0.006186034 -0.026192281 -0.17233917 0.04854813 0.110910125
0.019462515 -0.052054346 -0.11220117 -0.027026186 -0.112022 -0.08951748 -0.089301534 0.08760674
-0.14577858 0.01863473 -0.045014642 0.1085672 0.049052086 -0.10444386 0.13901614 -0.07457123
0.047796044 0.17406945 -0.0046436423 -0.014621093 0.016142685 0.014060939 0.12436701 -0.06266797
0.0037617513 0.0050355378 -0.096499234 0.0060432833 -0.13602497 0.08267174 0.1089466 0.1663222
-0.04607996 -0.12087924 -0.053479325 -0.08790663 -0.089864165 -0.039628055 -0.020251883 -0.07109159
0.05546581 -0.120952345 0.034943193 -0.042929642 0.080560036 -0.011640218 0.10228945 0.13327377
-0.09577062 0.07881546 0.073356934 -0.082266755 -0.017828578 -0.0069602053 0.06218191 -0.065781504
00000000: 036d 183e bbe9 003d 6eda 803d 1727 04be
00000010: 869c 7c3d e765 0cbe f50d 8c3d f68c d5bd
00000020: 6e65 213d c0de eebd 39ca 4dbd db9a 833d
00000030: 912a 7f3d d68b 93bd f832 15bd e880 a3bd
00000040: 15b4 7aba 9dfb c53d 824c 84bd 7e11 fdbc
00000050: 4542 bcbd 5aa1 bcbd 2b02 d33c b617 6bbd
00000060: 7df3 ecbd fd9d 813c b1f1 e1bc 5566 05be
00000070: 9d81 863d cecd 933d 690a debd 5e61 a0bd
00000080: a496 a23d 6dad 59bd 7378 03be fb29 c63d
00000090: 73cb 583d 4cb4 7ebc 7adf 643d 738d 023e
000000a0: 3adb 9f3c c508 7b3c 5365 983d 5e61 2dbd
000000b0: e164 83bd 01f4 85bd 93f7 f33d 41eb 483d
000000c0: 7f43 de3d b5ef 05bd 1f5a 8f3c 5400 b5bd
000000d0: fe32 b3bc 7426 eb3d 8c64 96bd 6c04 123d
000000e0: 7982 353d eabd 013e 2f24 07bd 06b2 c43d
000000f0: 0abb 333c 4c8c 0cbe 0ee8 29bd c949 063e
00000100: e758 72bd 8148 0e3d 4d4a 9c3d 4592 9e3d
00000110: 8aef 0c3e d1a2 d2bb 5a64 a6bd 98fc bcbc
00000120: fed4 c1bd ab99 543a d94a b7bd 428f 663d
00000130: dca1 0c3e e014 26be 79ce ef3d 3864 8abd
00000140: 32fa fabd a817 a73d 8a19 083c 9fe9 14bd
00000150: 41ca b4bd 88bf 473b 3d24 d13d 4da3 c7bd
00000160: a4c2 f2bc e48f c4bd 8ac5 a43d 646c a4bd
00000170: 0e73 92bd 9e50 123d dff2 c33d eafa 613c
00000180: 0bb5 333b 2ae3 acbd 7880 953b c598 843d
00000190: 200a 04bd be59 e73d e754 b2bd 22ff 023d
000001a0: 9a6c cabc 7d68 633d 04c7 a33c 2b9e 28bd
000001b0: bb5a a73d 2be2 8c3d 9c34 7b3d 0015 07bd
000001c0: 50de ea3d 720b 9abc 246f 88bd 1e55 903d
000001d0: 615e 903d be81 a13d 773d d6bd e873 fd3d
000001e0: 6caa 723d d1bc 243e cc9e a13d 6907 50bd
000001f0: 8d99 963d 073c d0bb ffe7 db3c be08 bbbd
00000200: 263c bdbd 480f f1bd e7e1 9f3d 2b8c 5b3d
00000210: 3451 153d 473b d93c 2306 5fbc 1db4 b9bc
00000220: e9d9 0d3d 3ff7 613d 6306 ad3d d434 13bd
00000230: 5ebc 84bc 6366 32bc caa7 a53d c7ac a83d
00000240: ab9f b43d b16e 82bd 03f9 473d 54ba 373c
00000250: ddc1 8fbd 864b adbd 55f0 6f3d 2769 02bd
00000260: de94 b5bc 1154 cfbb 31ee dbbd 0e25 9fbc
00000270: dcc4 8d3d 7d0f 1a3d 7bc8 ef3d a747 ab3d
00000280: b370 43bc e71a 163d d182 a43c 2057 96bd
00000290: 1a3c 95bd f304 d53d fada cc3d 3906 ca3d
000002a0: 430b b0bd a275 1d3d 5233 9bbd 618c 5a3d
000002b0: 289d c0bd 623f f6bd 76ee d53d 5b13 e1bd
000002c0: fa32 a3bc 5fe7 933d 9acd f3bc 36fc 633d
000002d0: 4d31 8b3d a559 85bd c20d cebd ac2e c3bc
000002e0: 609e b83d 7743 9b3c 8f23 a9bd 3174 eabd
000002f0: ed46 e9bd 8417 cbbd d8d3 01bd b3af 793a
00000300: e482 c53d d605 ce3d 1312 ed3d 37b4 ca3b
00000310: 3291 d6bc ae79 30be 67da 463d d924 e33d
00000320: da6f 9f3c f036 55bd bac9 e5bd 0566 ddbc
00000330: ca6b e5bd f154 b7bd b9e3 b6bd 2a6b b33d
00000340: fb46 15be dca7 983c 4661 38bd 7b58 de3d
00000350: d7ea 483d aae6 d5bd 3f5a 0e3e cdb8 98bd
00000360: c9c5 433d 433f 323e b229 98bb 4f8d 6fbc
00000370: aa3d 843c da5f 663c 22b4 fe3d 1158 80bd
00000380: b787 763b 2701 a53b 64a1 c5bd bc06 c63b
00000390: 214a 0bbe cd4f a93d 651f df3d 5e50 2a3e
000003a0: 57be 3cbd 898f f7bd 230d 5bbd 6408 b4bd
000003b0: b40a b8bd 0751 22bd 47e7 a5bc 7898 91bd
000003c0: 1e30 633d ddb5 f7bd 9820 0f3d fed6 2fbd
000003d0: a9fc a43d 9db6 3ebc 227d d13d eb78 083e
000003e0: 6323 c4bd 006a a13d 293c 963d 797b a8bd
000003f0: 3d0d 92bc 6f12 e4bb 75b2 7e3d 74b8 86bd

linear_relu_stack.8.bias f4 [32]
0.027194463 0.021379141 -0.09463927 -0.113149755 -0.04434057 -0.04050413 0.041792773 -0.02950972
0.08336126 -0.06802203 -0.054802146 -0.08577824 -0.005561826 -0.07045046 0.063780956 -0.057457667
0.057094306 0.070811175 -0.01850538 0.07372285 0.06745191 0.028948326 -0.08477111 0.08462179
0.12608595 0.00032557602 0.004102628 0.060734764 0.047272176 -0.1017707 0.11547563 0.038711324
00000000: ecc6 de3c 4f23 af3c 3cd2 c1bd 0fbb e7bd
00000010: 759e 35bd a9e7 25bd e62e 2b3d 5ebe f1bc
00000020: 4fb9 aa3d 224f 8bbd 3778 60bd 80ac afbd
00000030: fa3f b6bb 5548 90bd 979f 823d bb58 6bbd
00000040: b8db 693d 7305 913d 9898 97bc 01fc 963d
00000050: 3a24 8a3d 0a25 ed3c 7a9c adbd 304e ad3d
00000060: ad1c 013e 13b2 aa39 576f 863b 04c5 783d
00000070: 78a0 413d 286d d0bd 7d7e ec3d c48f 1e3d

linear_relu_stack.10.weight f4 [1, 32]
-0.22548726 -0.09034902 -0.0021107781 -0.18693288 0.257894 0.110558406 -0.20392527 0.08605703
-0.19967508 -0.13805716 0.14817499 -0.20009388 0.17110145 -0.27465904 -0.122521095 -0.18204755
0.26383063 -0.03273165 -0.16228877 -0.23250708 -0.19554134 -0.17164831 -0.16034539 -0.32436407
0.078120306 0.15337577 -0.21615627 0.11929719 0.18205741 -0.16793656 0.26022077 0.19195542
00000000: 22e6 66be e808 b9bd fb54 0abb 556b 3fbe
00000010: af0a 843e 726c e23d c9d1 50be ab3e b03d
00000020: a077 4cbe db5e 0dbe 2fbb 173e 69e5 4cbe
00000030: 3835 2f3e 1ca0 8cbe 57ec fabd ac6a 3abe
00000040: cf14 873e 9f11 06bd 072f 26be 5616 6ebe
00000050: fd3b 48be 93c4 2fbe 9531 24be 0c13 a6be
00000060: 8afd 9f3d 8a0e 1d3e 1258 5dbe 1652 f43d
00000070: 426d 3a3e 90f7 2bbe a83b 853e f68f 443e
