model/pendulum_model_14.pth (torch, 88722 bytes, 11 tensors)

linear_relu_stack.0.weight f4 [32, 3]
0	0x3ee06ee5	0.43834606
1	0xbda3c202	-0.079959884
2	0x3ec09cda	0.37619668
3	0x3d844cf9	0.06459994
4	0x3c643280	0.013928056
5	0xbeb8ff52	-0.36132294
6	0xbedbf83f	-0.42962834
7	0xbec73c46	-0.38913172
8	0xbef076aa	-0.46965533
9	0xbeac8928	-0.33698392
10	0xbef07274	-0.4696232
11	0xbe5516d5	-0.20809491
12	0x3ec7a6f9	0.38994578
13	0xbda08826	-0.07838468
14	0x3da7d0d0	0.08194125
15	0xbefb15a0	-0.49039936
16	0xbec3380d	-0.381287
17	0xbdda4e50	-0.10659468
18	0xbda06f99	-0.078337856
19	0xbefaf912	-0.4901815
20	0x3ebbfc74	0.36716044
21	0xbe3aa539	-0.1822709
22	0x3ca4a2ba	0.020097125
23	0x3e6cbce4	0.23118931
24	0xbdf7983a	-0.12089582
25	0x3effe258	0.49977374
26	0x3ecd3e1d	0.4008645
27	0x3ef7b173	0.4837757
28	0x3dfcbc4b	0.123406015
29	0xbd9e5402	-0.07730867
30	0xbe336f52	-0.17522934
31	0xbed19136	-0.409311
32	0xbe6acb81	-0.22929193
33	0xbe1d0d12	-0.15337017
34	0xbe929f96	-0.2863738
35	0x3f01516d	0.5051487
36	0x3ef3770c	0.47551763
37	0x3ea87883	0.32904443
38	0xbed33379	-0.41250208
39	0xbebc92cb	-0.36830744
40	0x3e41879f	0.18899392
41	0xbdc87a00	-0.09788895
42	0xbea09fea	-0.31372005
43	0xbe15dcb6	-0.14634976
44	0xbef4bf0d	-0.4780201
45	0xbd646a7b	-0.05576561
46	0x3ef452b8	0.4771936
47	0x3e84d7be	0.25945848
48	0x3e712e16	0.23552737
49	0x3edc2943	0.4300023
50	0x3e4c6d8e	0.19963667
51	0x3ed8148f	0.42203185
52	0xbf0cff02	-0.5507661
53	0x3eb76de9	0.35826042
54	0x3ed4eeb4	0.41588366
55	0x3f1d7e19	0.61520535
56	0x3eae5458	0.34048724
57	0xbed57cbc	-0.41696727
58	0x3f0d4790	0.5518732
59	0x3e1a4b46	0.15067777
60	0x3c90edea	0.017691571
61	0x3e190b1d	0.14945646
62	0xbe789f7d	-0.2427959
63	0xbec75bad	-0.3893713
64	0x3e94a690	0.29033327
65	0x3e123d98	0.14281309
66	0x3dedcebd	0.11611698
67	0xbf002741	-0.50059897
68	0xbe16cdea	-0.14726987
69	0xbd726f4d	-0.059188176
70	0x3e95215f	0.29127023
71	0x3eabca8c	0.33552969
72	0x3f0a68ec	0.5406635
73	0x3f045386	0.51689947
74	0xbe8c6c13	-0.27426204
75	0xbd903f00	-0.07043266
76	0x38a74472	7.9759295e-05
77	0x3e4b8f18	0.19878805
78	0x3cb6f365	0.022332856
79	0x3efc70df	0.49304864
80	0xbf104434	-0.5635407
81	0xbf05d3a8	-0.52276087
82	0x3edfef03	0.4373704
83	0x3eac3642	0.33635145
84	0xbe1fd238	-0.15607536
85	0x3eac83cc	0.33694303
86	0xbda6b21f	-0.08139443
87	0x3ec0270b	0.37529787
88	0x3eee538c	0.46548116
89	0xbe8daf0a	-0.27672607
90	0x3e277d44	0.16356379
91	0xbef63cc4	-0.48093235
92	0x3ef8f1d3	0.48621997
93	0x3e81c959	0.2534893
94	0xbee94123	-0.45557508
95	0xbf0dd827	-0.5540795

linear_relu_stack.0.bias f4 [32]
0	0x3e02f993	0.12790518
1	0xbef8d209	-0.48597744
2	0x3e8347b7	0.25640652
3	0xbdf1447f	-0.11780643
4	0xbf0d5433	-0.552066
5	0x3da98a39	0.08278317
6	0xbe89642c	-0.26834238
7	0xbe87cfa0	-0.26525593
8	0x3c0d3a69	0.008619883
9	0xbe04e5c8	-0.1297828
10	0x3e40cc6c	0.18827981
11	0x3e39a9b8	0.18131149
12	0xbe3111f8	-0.17292011
13	0x3de720cc	0.112855524
14	0x3f161e72	0.58640206
15	0xbf04ba4d	-0.5184677
16	0xbc951592	-0.018198762
17	0x3d85ae19	0.06527347
18	0xbe5fa7eb	-0.218414
19	0x3ef80c54	0.48446906
20	0xbeea7a99	-0.4579666
21	0x3eb9a13a	0.3625582
22	0x3df18c52	0.11794342
23	0x3d903d00	0.07042885
24	0xbea27449	-0.31729344
25	0x3eb28827	0.348695
26	0x3f0788a2	0.5294286
27	0xbdbd8c7d	-0.09255312
28	0xbea07007	-0.3133547
29	0x3e985d27	0.2975857
30	0xbe1b0c0e	-0.15141317
31	0x3eb4712f	0.35242602

linear_relu_stack.2.weight f4 [64, 32]
0	0x3e23d3e0	0.15998793
1	0x3e7e35fa	0.24825278
2	0xbe5a3b18	-0.21311605
3	0x3e05efb6	0.13079724
4	0xbe3e4361	-0.1858039
5	0xbe538ca3	-0.20659117
6	0x3d407b49	0.046992574
7	0xbe4799e0	-0.19492292
8	0xbde523bd	-0.11188457
9	0x3de39a0e	0.11113368
10	0xbda1eda7	-0.07906657
11	0xbdd46524	-0.103708535
12	0xbe0b71b1	-0.13617589
13	0x3e0be52c	0.13661641
14	0x3e1a937b	0.15095322
15	0x3e306f6e	0.17230007
16	0xbc9a4120	-0.018829882
17	0xbe263c60	-0.16233969
18	0x3dc8f519	0.09812374
19	0xbda1fff4	-0.07910147
20	0x3e338297	0.17530285
21	0x3c1892c6	0.009312337
22	0x3d098885	0.03357746
23	0xbe69fa41	-0.2284937
24	0xbdc029a4	-0.09382942
25	0xbd922708	-0.07136351
26	0xbe6154b0	-0.22004962
27	0x3d1231e4	0.03569211
28	0x3e22b63b	0.15889828
29	0xbc8b6551	-0.017016085
30	0x3d98e453	0.074654244
31	0x3e198541	0.14992239
32	0xbe05ad1c	-0.13054317
33	0x3d733274	0.059374288
34	0xbd707b74	-0.058711484
35	0x3dd069b3	0.101764105
36	0x3d574a80	0.052561283
37	0xbd8b2ea0	-0.067960024
38	0x3e95da27	0.29268
39	0x3cdb915e	0.026802715
40	0xbe9e9d6f	-0.30979487
41	0xbd254013	-0.04034431
42	0x3cd5ae3c	0.026084058
43	0x3e53e1a1	0.2069154
44	0xbe0dee61	-0.13860466
45	0xbd8f6115	-0.07000939
46	0x3d7471e3	0.059678923
47	0xbe085fb3	-0.13317756
48	0x3e04464d	0.12917443
49	0xbe5284f0	-0.20558524
50	0x3d901d42	0.070368305
51	0xbd25b1a1	-0.040452603
52	0x3c0cfeb1	0.008605645
53	0xbdde4f7b	-0.108550034
54	0x3ddd518d	0.1080657
55	0xbe42841a	-0.18995705
56	0x3ce4989c	0.027904801
57	0xbe2b4dad	-0.1672885
58	0x3d15d808	0.036582977
59	0xbe3a4fe0	-0.18194532
60	0x3d164011	0.036682192
61	0xbce9412d	-0.028473461
62	0xbe522262	-0.20520929
63	0xbe287dc1	-0.16454221
64	0xbd6fb2dc	-0.058520183
65	0x3e6d6d61	0.23186256
66	0xbde6e335	-0.11273805
67	0xbb437cf5	-0.002982912
68	0x3e0bc61e	0.13649794
69	0x3e32dd58	0.17467248
70	0xbe859797	-0.26092216
71	0xbdb81682	-0.08988668
72	0x3e42393a	0.18967143
73	0x3d853dd9	0.06505937
74	0x3dd20d28	0.102564156
75	0xbdd2ff1e	-0.10302566
76	0xbdeaa053	-0.11456361
77	0x3dd4cc19	0.10390491
78	0x3dd9f334	0.106420904
79	0x3e2400f1	0.16015984
80	0x3dfad6e0	0.122480154
81	0x3c13152c	0.008977216
82	0xbbc78617	-0.006088983
83	0xbe216e3d	-0.15764709
84	0x3d037a3d	0.032098997
85	0x3de6b8c9	0.11265714
86	0x3e0d5666	0.1380249
87	0xbe94f7c2	-0.29095274
88	0x3d898310	0.06714451
89	0xbc83bd83	-0.016081577
90	0xbe01805e	-0.12646624
91	0x3de7254a	0.11286409
92	0x3d1c3643	0.038137686
93	0xbb868f17	-0.004106413
94	0x3d0371ab	0.032090824
95	0x3dd60b5f	0.104513876
96	0xbe173f0a	-0.14770141
97	0x3cff3c0a	0.031156559
98	0x3ea2d116	0.31800145
99	0xbd1b606a	-0.037933744
100	0xbd124d40	-0.035718203
101	0x3de852d3	0.113439225
102	0xbe331501	-0.17488481
103	0x3e264849	0.16238512
104	0x3c9ac7df	0.018894134
105	0xbd86f18b	-0.065890394
106	0xbe21208f	-0.15735076
107	0xbd9498a8	-0.07255679
108	0x3d9bd9b0	0.0760988
109	0xbda405bc	-0.08008906
110	0x3d23a0c5	0.039948244
111	0x3c0bf8a8	0.008543171
112	0xbe6c0350	-0.23048139
113	0x3dee9dd8	0.116512
114	0xbd715503	-0.058918964
115	0x3e5a2bd9	0.21305789
116	0x3e34cb4f	0.17655681
117	0xbdaa09cc	-0.0830265
118	0x3df74a06	0.12074666
119	0x3d0e41a1	0.034730557
120	0x3d7d4c3d	0.061840285
121	0xbdb9faaf	-0.09081017
122	0x3d5c179b	0.05373345
123	0xbded5dfd	-0.115901925
124	0x3b9db99c	0.004813386
125	0x3e329282	0.17438701
126	0xbd6da4f4	-0.05801864
127	0x3e06242f	0.1309974
128	0xbdffc2f3	-0.124883555
129	0x3e711761	0.23544075
130	0xbce62479	-0.028093563
131	0x3dcc5e5e	0.099789366
132	0x3dbe2bf4	0.09285727
133	0xbd02a327	-0.031893875
134	0x3e085ae3	0.1331592
135	0x3d95cc55	0.07314364
136	0xbd53b267	-0.05168381
137	0xbe0a1e5f	-0.13488148
138	0x3d32a67a	0.043615796
139	0x3e24a0af	0.16076921
140	0xbd19e035	-0.037567336
141	0xbe0f4905	-0.13992698
142	0xbe6cc238	-0.23120964
143	0xbe9d3d61	-0.3071089
144	0x3db66196	0.08905332
145	0x3e26354a	0.16231266
146	0xbe316b7f	-0.17326163
147	0xbe19df44	-0.15026575
148	0xbc34d4b7	-0.011037043
149	0x39ecf133	0.00045193135
150	0xbe68c965	-0.22733076
151	0x3da3558a	0.079753
152	0xbe2c6395	-0.16834863
153	0xbdcce338	-0.10004276
154	0x3ee57fa3	0.44823942
155	0xbda4f7dd	-0.08055089
156	0xbe4a9cb6	-0.19786343
157	0xbdc7c8b9	-0.09755082
158	0x3d259a92	0.040430613
159	0xbe33808c	-0.17529505
160	0x3ded3c2f	0.11583745
161	0x3deb287c	0.11482331
162	0x3e4d6282	0.20057109
163	0xbe309e5d	-0.17247911
164	0xbd7e629d	-0.062105764
165	0x3e9b075d	0.30279055
166	0xbb8fa962	-0.0043842057
167	0x3e16097b	0.14652054
168	0xbe3a5074	-0.18194753
169	0x3e4ee1ab	0.20203273
170	0x3d369a45	0.044580717
171	0xbdda0036	-0.106445715
172	0x3d5e7f0b	0.054320376
173	0x3d428b3d	0.04749607
174	0xbdabec28	-0.083946526
175	0x3df6f026	0.120575234
176	0x3dbc4d42	0.09194423
177	0xbe1ebe68	-0.15502322
178	0xbe98fc3a	-0.29879934
179	0x3e1e4eef	0.15459798
180	0x3e365db1	0.17809178
181	0xbe1d1959	-0.153417
182	0xbe285cca	-0.16441646
183	0xbe56dd19	-0.2098278
184	0x3e01b7bb	0.12667744
185	0xbdab239b	-0.083564006
186	0x3da3102b	0.07962068
187	0xbdd25a39	-0.10271115
188	0x3db384e6	0.08765583
189	0x3d1d3ed9	0.038390014
190	0x3dcf4f43	0.1012254
191	0x3e003738	0.12521064
192	0xbd15a34c	-0.036532685
193	0x3e51fa33	0.205056
194	0xbea401fd	-0.32032767
195	0xbddd056e	-0.10792051
196	0xbe3f7eaa	-0.18700662
197	0xbd99575c	-0.074873656
198	0x3d59d1ac	0.053178474
199	0xbe52137f	-0.2051525
200	0xbe0716ea	-0.13192335
201	0xbe662c0c	-0.2247774
202	0x3db9e758	0.090773284
203	0xbd481088	-0.04884389
204	0xba54a143	-0.0008111188
205	0xbe4869a5	-0.1957155
206	0x3e39eaad	0.18155928
207	0xbd063f3e	-0.032775156
208	0x3ddd0de1	0.10793663
209	0x3e1b751b	0.15181391
210	0xbdbff905	-0.093736686
211	0x3e3bc795	0.18337853
212	0xbb41ebd2	-0.0029590023
213	0x3dded7f7	0.10881036
214	0x3e30886f	0.17239545
215	0xbd9a7b4f	-0.075430505
216	0x3dccbd59	0.09997053
217	0xbe1074af	-0.14107011
218	0xbb81a482	-0.0039563784
219	0x3dac0e1f	0.08401131
220	0x3e951e77	0.29124805
221	0xbdb150db	-0.08658
222	0xbdcfa888	-0.10139567
223	0x3d4bba99	0.0497385
224	0xbd84a57d	-0.06476877
225	0x3d1ae8b6	0.037819587
226	0xbe857887	-0.26068518
227	0xbe967d7d	-0.29392615
228	0xbe08e84a	-0.13369861
229	0x3e2404e1	0.16017486
230	0xbd9f089a	-0.077653125
231	0x3dda812a	0.10669167
232	0xbddb3969	-0.107043095
233	0x3e14d0f4	0.14532834
234	0xbca549e0	-0.020176828
235	0xbdf96322	-0.12177111
236	0xba9720bc	-0.0011530141
237	0x3daad282	0.083409324
238	0xbcf4ae97	-0.029868407
239	0xbc78bfe1	-0.015182466
240	0xbe33287a	-0.1749591
241	0x3db522e2	0.08844544
242	0xbe390127	-0.18066846
243	0xbdc995c3	-0.09843018
244	0xbd5725f6	-0.052526437
245	0x3daa9ffa	0.08331294
246	0xbe3edca3	-0.18638854
247	0x3e75aa91	0.23990847
248	0xbda452d7	-0.08023613
249	0x3e41b456	0.18916449
250	0x3df1b735	0.11802522
251	0xbd575d1f	-0.05257904
252	0x3cb1b03e	0.021690484
253	0xbd7acd9e	-0.061231248
254	0x3dda2608	0.10651785
255	0x3d00f5ed	0.031484533

linear_relu_stack.2.bias f4 [64]
0	0xbda6320d	-0.08115015
1	0x3b45f0e6	0.00302034
2	0xbd3aa817	-0.04557046
3	0xbdd5a50f	-0.10431873
4	0xbe064370	-0.13111663
5	0x3d8b1e98	0.06792945
6	0xbd76ca50	-0.060251534
7	0xbca88759	-0.020572351
8	0xbddbc312	-0.10730566
9	0xbd9742bd	-0.07385776
10	0xbdc93aaa	-0.098256424
11	0x3b46ef73	0.0030355125
12	0xbe18ca3b	-0.14920895
13	0x3e3896b5	0.1802624
14	0xbd77b221	-0.06047261
15	0x3d8e3a06	0.06944661
16	0x3dff2923	0.12459018
17	0x3ca8c08b	0.020599624
18	0xbe34000c	-0.17578143
19	0xbc416624	-0.011804137
20	0x3da61b1a	0.08110638
21	0xbd6a12ff	-0.057147022
22	0x3d90e176	0.07074253
23	0x3deb3307	0.11484342
24	0xbd2f5ac0	-0.042811155
25	0x3e0d0ef2	0.13775232
26	0x3b847601	0.0040423875
27	0x3de63b9c	0.11241838
28	0xbe337370	-0.17524505
29	0x3da4f0fa	0.08053775
30	0xbc4baec5	-0.012431805
31	0xbddfa267	-0.10919648
32	0xbe15f1c9	-0.14643015
33	0x3d59a0e8	0.053131968
34	0x3df185ee	0.11793123
35	0xbe8c9d5b	-0.27463803
36	0x3dc533fe	0.09629057
37	0x3d73b36f	0.059497293
38	0x3e467ff6	0.1938475
39	0xbdc5e661	-0.09663082
40	0xbd834185	-0.06408981
41	0xbcba1442	-0.022714738
42	0x3ddc2f5e	0.10751222
43	0x3d053a52	0.03252632
44	0x3e1ff585	0.15621002
45	0xbc4b6ad6	-0.012415608
46	0x3df043db	0.117316924
47	0x3c714bfe	0.014727591
48	0x3c7b5e15	0.015342255
49	0x3cb342ad	0.02188238
50	0xbc2caf92	-0.010539906
51	0x3cf1d2ef	0.029519526
52	0xbe11789a	-0.14206162
53	0xbe05fc14	-0.13084441
54	0xbd7d2965	-0.061807055
55	0xbda4ed53	-0.080530785
56	0x3d45de3c	0.048307642
57	0x3d16c85d	0.036812175
58	0xbe68e279	-0.22742642
59	0x3debeaaf	0.11519372
60	0xbe78f97a	-0.24313918
61	0x3d32c4a1	0.04364455
62	0xbe1f84e5	-0.15578039
63	0x3e07dfe8	0.13269007

linear_relu_stack.4.weight f4 [128, 64]
0	0xbdb371fa	-0.08761974
1	0xbc38cf76	-0.011279931
2	0xbda88437	-0.08228343
3	0xbe1002ac	-0.14063519
4	0x3d15a3fa	0.036533333
5	0x3e2dba0a	0.169655
6	0xbd286d46	-0.041119836
7	0x3d93f61f	0.07224678
8	0x3d8decc0	0.06929922
9	0x3df654f1	0.1202792
10	0xbdc5f654	-0.09666124
11	0x3db1c5a4	0.08680275
12	0xbde1b73c	-0.11021277
13	0xbd89b5d6	-0.067241356
14	0x3c0beeec	0.00854085
15	0xbda3ecf7	-0.08004182
16	0xbcd25e11	-0.02567962
17	0xbcd40fce	-0.025886443
18	0x3de53b77	0.11192983
19	0xbdb123ec	-0.0864943
20	0x3bad1aa3	0.0052827164
21	0xbd80690f	-0.06270038
22	0x3da57003	0.08078005
23	0xbe038f75	-0.12847693
24	0xbdb960d1	-0.090516694
25	0x3de41ada	0.11137934
26	0xbda21f9b	-0.079161845
27	0xbe0809e9	-0.1328503
28	0x3dd4e8a9	0.10395939
29	0xbe3cf00e	-0.18450949
30	0xbd7b6703	-0.061377537
31	0xbe0bb55b	-0.136434
32	0x3d35f835	0.04442616
33	0xbd666704	-0.056250587
34	0x3d7391bf	0.059465166
35	0x3dad9c16	0.08477037
36	0x3def96f3	0.11698713
37	0x3d6f9f0a	0.05850128
38	0xbe313be8	-0.17308009
39	0xbbdacbe2	-0.0066771368
40	0xbdf6eeea	-0.12057288
41	0xbd65b695	-0.056082327
42	0x3db4b62b	0.08823808
43	0xbb94f8b3	-0.004546249
44	0xbe983fd0	-0.29736185
45	0x3dbb013a	0.09131093
46	0xbef1571b	-0.4713677
47	0x3e47e64f	0.1952145
48	0x3e107371	0.14106537
49	0xbd4af123	-0.049546372
50	0x3cf9af52	0.030479107
51	0x3e20b6dc	0.15694755
52	0xbdd25208	-0.102695525
53	0x3ba6e09c	0.0050926935
54	0x3d938187	0.0720244
55	0x3e2c4cc1	0.16826154
56	0x3dac3303	0.08408167
57	0x3e20849e	0.1567559
58	0x3c20030e	0.009766353
59	0x3cb29371	0.021798821
60	0xbd95327a	-0.07285018
61	0x3d869dc5	0.06573061
62	0x3ccdde75	0.02513049
63	0xbd5b84be	-0.05359339
64	0x3e519997	0.20468746
65	0xbd10a8ac	-0.035317108
66	0xbc91ca71	-0.017796727
67	0xbd10636a	-0.03525106
68	0xbdc00c36	-0.09377329
69	0xbdb57909	-0.08860976
70	0xbe0d663a	-0.13808528
71	0x3e0ea081	0.13928415
72	0xbda3a327	-0.07990103
73	0x3957d636	0.00020583798
74	0x3ddbbbfc	0.107292145
75	0x3d25ab2b	0.04044644
76	0xbd7ffaf4	-0.062495187
77	0x3d402d07	0.04691794
78	0xbd8c9e08	-0.068660796
79	0x3e0f9c97	0.14024578
80	0x3e8c00bf	0.2734432
81	0x3da80f22	0.08206011
82	0xbd2eeec1	-0.042708162
83	0xbd2682c6	-0.04065206
84	0xbda4e2e9	-0.08051092
85	0x3e9e1139	0.30872515
86	0x3e09b413	0.13447599
87	0x3e15db11	0.14634348
88	0x3dfa9ea2	0.12237288
89	0x3dda96f7	0.106733255
90	0x3cb8a304	0.02253867
91	0x3e081462	0.13289025
92	0x3dd91be5	0.106010236
93	0x3e00dea0	0.12584925
94	0x3db31ce5	0.087457456
95	0xbb073ac1	-0.0020634385
96	0x3e5aadd1	0.21355368
97	0xbb2e926e	-0.0026637572
98	0x3e1d1041	0.15338232
99	0x3d72a84a	0.059242524
100	0xbe2f85cd	-0.17140885
101	0x3c7a1091	0.015262739
102	0x3d9b93dd	0.07596562
103	0x3e1dae37	0.15398489
104	0xbd387913	-0.04503734
105	0x3e33477a	0.17507735
106	0xbd2d3b2b	-0.042292755
107	0xbc2cd131	-0.010547922
108	0x3d96a572	0.07355775
109	0xbdb4d488	-0.088295996
110	0x3e16cf6e	0.14727566
111	0x3e38de30	0.18053508
112	0xbd104b48	-0.035228044
113	0xbe1f504e	-0.15557978
114	0x3d9645aa	0.07337506
115	0x3d948131	0.07251204
116	0x3e09e2bc	0.13465399
117	0x3d5add7a	0.053433873
118	0x3d8add3b	0.067804776
119	0x3e3e4121	0.18579532
120	0x3d202db9	0.039106105
121	0x3ddb4680	0.10706806
122	0x3e073bbe	0.13206384
123	0xbdc85a81	-0.09782887
124	0x3e07ecaa	0.13273874
125	0xbd7be59a	-0.061498262
126	0x3d84205a	0.06451483
127	0x3bf3447d	0.007423936
128	0xbd8d698a	-0.069048956
129	0x3dd06aa8	0.10176593
130	0xbe1512ab	-0.14557903
131	0xbe3d20b9	-0.18469514
132	0xbca08b59	-0.019597696
133	0xbd0e1561	-0.034688357
134	0x3e02067c	0.12697786
135	0xbc21b2e7	-0.009869314
136	0xbe0c407c	-0.13696474
137	0xbd846470	-0.064644694
138	0xbdeaa07e	-0.11456393
139	0xbddc9a1c	-0.107715815
140	0x3d14f904	0.036370292
141	0xbd09c21e	-0.03363239
142	0xbdf6447e	-0.120247826
143	0x3dee9a08	0.11650473
144	0x3d0659ff	0.03280067
145	0x3e40ed6a	0.18840566
146	0x3d562fee	0.052291803
147	0xbe3b9fd6	-0.18322691
148	0xbd05ed8b	-0.03269724
149	0x3d0f3206	0.034959815
150	0x3d8d5ecb	0.06902846
151	0x3e2a9718	0.166592
152	0x3e0753a7	0.13215505
153	0xbcd9debb	-0.026595464
154	0x3c8837e0	0.016628206
155	0xbd56b837	-0.052421775
156	0xbd2bace9	-0.041912947
157	0x3c0bd447	0.008534498
158	0x3bb6433d	0.0055622146
159	0xbb716fd9	-0.0036840348
160	0x3e67ca48	0.22635758
161	0xbcad8c7f	-0.021185158
162	0x3e5fef67	0.21868668
163	0xbc739a72	-0.014868366
164	0xbbe522d3	-0.0069926768
165	0xbdd4024b	-0.10352
166	0x3b031829	0.0020003414
167	0x3dd5a48e	0.10431777
168	0xbcf04a9f	-0.029332457
169	0x3bea8ae4	0.0071576703
170	0x3cab7e66	0.020934295
171	0xbe5c0c05	-0.2148896
172	0xbdd0cb79	-0.10195059
173	0x3dc699b9	0.09697289
174	0x3de5f007	0.11227422
175	0xbd110b52	-0.035411187
176	0xbdb4b37f	-0.08823299
177	0x3cefe713	0.02928499
178	0x3e04ebf9	0.12980641
179	0x3dd3cb41	0.10341502
180	0x3de8599b	0.11345216
181	0x3d6d60ae	0.05795353
182	0x3d2e452a	0.04254643
183	0x3d04b03b	0.03239463
184	0x3cad8488	0.02118136
185	0xbc906c41	-0.017629744
186	0x3d789c6a	0.060696043
187	0xbd92d69e	-0.07169841
188	0x3d5b7222	0.053575642
189	0xbb8fb29e	-0.0043853065
190	0x3dacf693	0.08445468
191	0x3c49ed1a	0.012324596
192	0xbd709db6	-0.058744155
193	0x3d7123cd	0.058872033
194	0x3da4485d	0.08021615
195	0x3d0bcfc0	0.034133673
196	0x3cf0d9e9	0.029400783
197	0xbe14a678	-0.14516628
198	0x3ddae1b1	0.106875785
199	0x3d382cb8	0.044964522
200	0xbde3ae1b	-0.11117192
201	0x3d52b788	0.05144456
202	0xbe195349	-0.14973177
203	0x3ab732ec	0.0013976968
204	0x3ddab67c	0.106793374
205	0x3dbd8c2b	0.092552505
206	0xbdf61c99	-0.12017173
207	0xbdbaff0d	-0.09130678
208	0x3e28ed1e	0.16496703
209	0x3de62685	0.11237816
210	0xbe2511ee	-0.16120121
211	0xbca47b4d	-0.020078326
212	0xbd62235b	-0.0552095
213	0xbd1da818	-0.038490385
214	0xbc8eee0d	-0.017447496
215	0xbdc73c26	-0.09728269
216	0xbd565812	-0.052330084
217	0x3d55c6b7	0.052191462
218	0x3e27b63c	0.1637811
219	0x3e2b3f88	0.16723454
220	0xbd4687e9	-0.048469458
221	0xbe4e4667	-0.20144044
222	0x3df20af0	0.118184924
223	0xbddb0ceb	-0.10695823
224	0xbe327d1a	-0.17430535
225	0xbe22cebc	-0.15899175
226	0x3d8914fe	0.06693457
227	0x3d9e175e	0.07719301
228	0x3e41e3a0	0.18934488
229	0x3e0bfaa3	0.13669829
230	0xbcf220c1	-0.029556634
231	0xbd907352	-0.070532456
232	0x3ded01fd	0.11572645
233	0xbcbe7d6e	-0.023253169
234	0xbc8a8de8	-0.01691337
235	0x3cee9836	0.029125314
236	0xbe4a3fd5	-0.19750912
237	0x3cf4aced	0.029867614
238	0xbd8d1e5b	-0.068905555
239	0xbdcfdb44	-0.101492435
240	0xbc6ba899	-0.0143834585
241	0xbd697e4f	-0.057005223
242	0xbda4dbe7	-0.080497555
243	0xbca4401e	-0.020050105
244	0x3e1f833c	0.15577406
245	0x3ce05406	0.027383815
246	0xbdae3f0b	-0.08508118
247	0x3d93fff3	0.07226553
248	0xbe35125f	-0.1768279
249	0x3ce5ef8d	0.028068328
250	0xbd52b079	-0.05143783
251	0x3c9d788a	0.019222517
252	0x3d93ddf8	0.072200716
253	0xbd1205c6	-0.035650037
254	0x3e0b7da9	0.13622154
255	0xbd757c9e	-0.059933297

linear_relu_stack.4.bias f4 [128]
0	0xbc0273f2	-0.007962214
1	0xbd43e6b6	-0.047827445
2	0xbd8fb151	-0.07016242
3	0x3dbffd4f	0.09374487
4	0x3dbcb3da	0.092139915
5	0x3c5e0d48	0.013552971
6	0xbc35e2b2	-0.011101412
7	0xbcf43a8b	-0.029813072
8	0xbe362a6e	-0.17789623
9	0xbdea02e6	-0.11426334
10	0xbd46bf00	-0.048521996
11	0xbb8ac37b	-0.004234729
12	0xbe18f98f	-0.14938949
13	0xbe0118ae	-0.12607071
14	0x3bbe401c	0.0058059823
15	0x3ca0cc05	0.019628534
16	0xbe15ef0c	-0.1464197
17	0x3e003db2	0.12523535
18	0x3cf91a24	0.030407973
19	0x3b755ee7	0.00374406
20	0x3b0d5e6a	0.0021571168
21	0xbdbcc4df	-0.09217238
22	0xbe09c203	-0.13452916
23	0xbdd72a2b	-0.1050609
24	0xbda9c6c1	-0.082898624
25	0xbe086374	-0.13319188
26	0xbe3d26a0	-0.18471766
27	0x3c2e9f39	0.010658079
28	0xbd2ad289	-0.04170469
29	0xbd88e1f5	-0.06683723
30	0xbda61dfe	-0.08111189
31	0xbd82717b	-0.06369301
32	0xbe48f466	-0.1962448
33	0xbdace1ab	-0.0844148
34	0xbde71a71	-0.1128434
35	0xbdc8e701	-0.098096855
36	0x3df6b176	0.12045567
37	0xbda5f3d2	-0.08103146
38	0xbdb7a803	-0.089675926
39	0xbccbe63f	-0.024890063
40	0x3c65f5d1	0.014035658
41	0xbdcd52da	-0.10025568
42	0xbd9a2122	-0.07525851
43	0x3d03966d	0.03212588
44	0xbd4ca24b	-0.049959462
45	0x3d1cbba6	0.038264893
46	0x3d3d7b2f	0.046260055
47	0xbdd4f874	-0.10398951
48	0x3b72f646	0.003707306
49	0xbda60bdb	-0.0810773
50	0xbe0fe682	-0.14052776
51	0x3c45a90f	0.0120642325
52	0xbcd4b29f	-0.02596408
53	0xbdb28b7c	-0.08718011
54	0x3d549893	0.05190332
55	0xbe5751b6	-0.21027264
56	0xbcbda619	-0.02315049
57	0xbe0087b6	-0.1255177
58	0xbe250392	-0.16114643
59	0x3e00d15f	0.12579869
60	0x3bd6882d	0.006546995
61	0x3d5f17a4	0.054465905
62	0xbd3e134f	-0.046405133
63	0x3bf3cca4	0.0074401665
64	0xbdaae9b3	-0.08345356
65	0xbe188fa1	-0.1489854
66	0xbe0980fe	-0.13428113
67	0xbc8ab32a	-0.016931135
68	0xbc23ddca	-0.010001609
69	0xbdc297de	-0.095016226
70	0xbe2363ac	-0.1595599
71	0xbe00d288	-0.12580311
72	0xbd9a11e8	-0.075229466
73	0xbe1d35fd	-0.15352626
74	0x3ce73ae2	0.02822632
75	0xbe132c0e	-0.14372274
76	0x3da62a65	0.08113555
77	0x3c429fde	0.011878936
78	0xbd9cbb67	-0.07652932
79	0x3cba2ba0	0.02272588
80	0x3de4fc03	0.1118088
81	0xbe3d7bb5	-0.18504222
82	0xbd649a98	-0.055811495
83	0xbe09d9a4	-0.1346193
84	0xbdd31e59	-0.10308523
85	0xbb0fa933	-0.002192092
86	0x3dd5e6f4	0.104444414
87	0xbe10aeb1	-0.1412914
88	0xbe594eaf	-0.21221422
89	0xbe021048	-0.12701523
90	0x3d06cb4f	0.032908734
91	0xbdc7ba31	-0.0975231
92	0x3df70470	0.12061393
93	0xbc6f26a2	-0.014596613
94	0xbd1828a1	-0.03714812
95	0x3d6b5dc1	0.057462458
96	0xbc8c07a5	-0.017093489
97	0x3d22fed7	0.039793815
98	0xbe26c5f6	-0.16286454
99	0xbde956a2	-0.11393477
100	0xbc07b463	-0.008282754
101	0xbe0085bf	-0.1255102
102	0xbdb86beb	-0.09004959
103	0x3d895f3f	0.0670762
104	0xbe1bef9b	-0.15228121
105	0xbda726dc	-0.08161709
106	0x3d922683	0.07136252
107	0x3d3ff6b9	0.046866152
108	0xbd8b66fd	-0.06806753
109	0x3d926c5e	0.07149576
110	0x3d4d439b	0.0501133
111	0xbdca329a	-0.09872933
112	0xbe3315a8	-0.1748873
113	0x3d12f3d1	0.035877053
114	0xbc9d3d83	-0.01919437
115	0xbd71e149	-0.05905274
116	0xbd860a96	-0.06544988
117	0xbd282ee0	-0.04106033
118	0xbdc3a408	-0.09552771
119	0xbde132dc	-0.10996029
120	0xbe06ae64	-0.13152462
121	0xbcfba7f5	-0.030719737
122	0xbe4995de	-0.19686076
123	0xbd946be5	-0.07247142
124	0x3db32413	0.08747115
125	0xbda5b27c	-0.08090684
126	0xbe0c54de	-0.1370425
127	0xbdc4f407	-0.09616857

linear_relu_stack.6.weight f4 [64, 128]
0	0xbd6d7cc7	-0.057980325
1	0x3ddc5813	0.10758986
2	0x3e3383e4	0.17530781
3	0xbcd38261	-0.025819005
4	0xbd51f581	-0.05125952
5	0x3bbc1521	0.0057398234
6	0x39a0335d	0.00030555847
7	0x3d048d56	0.03236135
8	0xbbb82d52	-0.005620637
9	0x3d0d4bb2	0.034496017
10	0xbdc7954b	-0.09745272
11	0x3e50bfc3	0.20385651
12	0x3de115ef	0.109905116
13	0x3d63d3d9	0.055621956
14	0x3e28cd96	0.16484675
15	0x3d46562c	0.048422024
16	0x3d3b83b7	0.04577991
17	0xbb85c6e0	-0.0040825456
18	0x3dbea3b1	0.093085654
19	0xbd98e7d7	-0.07466095
20	0x3e192fa9	0.14959587
21	0x3d44a8c2	0.048012502
22	0x3d83b6e2	0.064313665
23	0x3ca43ddc	0.020049028
24	0xbd6003c5	-0.054691095
25	0xbca0979c	-0.019603543
26	0x3c1eacc9	0.00968475
27	0xbccde9e8	-0.02513595
28	0x3bb11e88	0.005405251
29	0x3cffb5c9	0.031214612
30	0x3da68c5a	0.08132239
31	0x3df29598	0.11844939
32	0x3e28cee5	0.16485174
33	0xbd032948	-0.03202179
34	0x3e669cc8	0.22520745
35	0x3d4c6394	0.049899653
36	0xbccfc2eb	-0.025361499
37	0x3ace7695	0.0015751893
38	0xbd8471d0	-0.064670205
39	0xbdc5f51d	-0.09665892
40	0xbcfd3206	-0.030907642
41	0x3dfbc043	0.122925304
42	0x3be9d421	0.0071358834
43	0x3db8ca5f	0.09022974
44	0x3deabb1a	0.11461468
45	0x3dd62370	0.10455978
46	0x3c8806df	0.016604839
47	0x3c286738	0.0102785155
48	0xbdbe6b79	-0.092978425
49	0xbd72fb73	-0.059321832
50	0xbd16ef6b	-0.03684942
51	0xbc906b41	-0.017629268
52	0x3db709c3	0.08937409
53	0x3d85902e	0.06521641
54	0x3d3daa9c	0.046305284
55	0x3cdf5e45	0.02726663
56	0xbdd3d729	-0.10343773
57	0x3d9cd9e4	0.07658747
58	0x3d11149a	0.035420038
59	0x3d33a89d	0.043861974
60	0x3cb7550e	0.022379424
61	0x3e4f1cf6	0.20225891
62	0x3d9463c6	0.07245593
63	0xbc7608f2	-0.015016781
64	0x3dea7db1	0.11449755
65	0xbde3f910	-0.11131489
66	0x3de40a47	0.11134773
67	0xbc2c01da	-0.010498488
68	0x39aaed79	0.00032601858
69	0x3dc28651	0.09498275
70	0x3e0929e8	0.13394892
71	0x3dbf775d	0.093489386
72	0xbd3725d8	-0.044713825
73	0x3c7c0c7c	0.015383836
74	0x3db9afc9	0.090667315
75	0xbddbad5d	-0.10726426
76	0x3d6bbfc1	0.057555918
77	0x3d82092d	0.063494064
78	0xbd0eb78a	-0.034843005
79	0x3d9ee3e6	0.07758312
80	0x3c993b7f	0.018705128
81	0xbcee0a70	-0.029057711
82	0xbb008880	-0.001961261
83	0x3d92d44a	0.07169397
84	0xbcfcd254	-0.030862011
85	0x3e8a4640	0.27006721
86	0xbdab90a9	-0.08377201
87	0x3c72fa08	0.01483012
88	0x3e0bbedf	0.1364703
89	0x3e135610	0.14388299
90	0x3ba90a96	0.0051587326
91	0x3c7f0a81	0.015566469
92	0x3df5650f	0.11982166
93	0x3ce7bb1b	0.028287461
94	0x3d5b2ddb	0.053510528
95	0x3d86813a	0.06567617
96	0xbba59b5d	-0.005053921
97	0x3cb98b98	0.022649571
98	0x3e1aef35	0.15130313
99	0x3d08012e	0.03320425
100	0x3da61754	0.08109918
101	0x3e03386f	0.12814496
102	0xbd71c3de	-0.059024684
103	0x3c8dc419	0.01730542
104	0x3a9ee479	0.0012122534
105	0xbd4dc7e1	-0.050239448
106	0xb9b2c292	-0.00034095772
107	0x3cc55a40	0.024090886
108	0x3c4e8c77	0.012606732
109	0xbd711abe	-0.058863394
110	0xbc80d695	-0.01572732
111	0x3d07795d	0.033074725
112	0x3dd4ef2a	0.103971794
113	0xbd2b6a62	-0.0418495
114	0x3c624d8c	0.013812434
115	0x3e7c5f7a	0.24645796
116	0xbd4d3a7f	-0.050104614
117	0x3d7db012	0.06193549
118	0x3caddcd2	0.02122346
119	0x3dfa851a	0.12232418
120	0x3d2f7494	0.042835787
121	0x3dc574a2	0.096413866
122	0x3c9a0de8	0.01880546
123	0x3dceccbc	0.10097644
124	0x3cf424d2	0.029802714
125	0x3e1d9e94	0.15392524
126	0xbd584d36	-0.05280801
127	0x3d6a6d97	0.05723342
128	0x3de4c7f1	0.11170948
129	0xbd1f55ce	-0.03890019
130	0x3c1ed4ad	0.009694261
131	0xbded4f1c	-0.115873545
132	0xbb399e9f	-0.0028323305
133	0xbe2ae005	-0.16687019
134	0xbd83a634	-0.06428185
135	0xbe31369c	-0.17305988
136	0xbe307b27	-0.17234479
137	0xbcb7657a	-0.022387255
138	0xbe0eb61b	-0.13936655
139	0x3e1a3c6e	0.15062115
140	0xbd95f893	-0.073228024
141	0xbc1f50dc	-0.009723868
142	0x3d9d5fef	0.076843135
143	0xbe31c921	-0.17361881
144	0xbe20516f	-0.15656064
145	0xbe775972	-0.24155214
146	0x3d5f9f66	0.054595374
147	0xbb23526e	-0.0024920958
148	0xbdbe564e	-0.09293805
149	0x3d69e47e	0.057102673
150	0xbd9d2188	-0.07672411
151	0xbd6078ba	-0.054802634
152	0x3cabde2a	0.02097996
153	0x3e488d8e	0.19585249
154	0x3e0a0474	0.13478261
155	0x3d93e863	0.072220586
156	0xbdf386be	-0.118909344
157	0x3d88f4f7	0.06687348
158	0xbcee396b	-0.029080113
159	0xbcefb987	-0.029263271
160	0x3de8321c	0.113376826
161	0xbdd91844	-0.106003314
162	0x3d8cbe44	0.06872228
163	0x3c2fb4c8	0.010724254
164	0xbe8e12e1	-0.27748778
165	0x3de4638f	0.11151802
166	0x3d30dd51	0.043179814
167	0xbe50acee	-0.20378467
168	0x3d3129a4	0.043252602
169	0xbd99232a	-0.0747741
170	0xbdc919d4	-0.098193794
171	0xbdad5c66	-0.08464889
172	0xbca5c86c	-0.02023717
173	0xbd18c0c2	-0.037293203
174	0x3daae93c	0.08345267
175	0xbd6dde9e	-0.058073632
176	0x3e3e909a	0.18609849
177	0x3cee6bb7	0.029104097
178	0xbd7def2c	-0.06199567
179	0x3e52170f	0.20516609
180	0x3e089b23	0.1334043
181	0xbe746304	-0.23865896
182	0x3de9184b	0.11381587
183	0xbd2dc82b	-0.042427223
184	0x3d5a9027	0.05336013
185	0x3d8b8b7f	0.06813716
186	0x3e09f22b	0.13471286
187	0x3da1202f	0.07867467
188	0x3c99dc81	0.018781902
189	0xbd81f486	-0.06345467
190	0xbdc10c73	-0.094262026
191	0x3d7ea77e	0.06217145
192	0x3e0740eb	0.13208358
193	0xbdd4ac1e	-0.10384391
194	0x3e07d156	0.13263449
195	0xbcd9b931	-0.026577564
196	0xbdb21ced	-0.086969234
197	0xbdf4b5db	-0.11948749
198	0xbc567410	-0.013089195
199	0xbe8717c2	-0.26385313
200	0x3df09e41	0.117489345
201	0xbc57dd9b	-0.013175393
202	0xbdc4eb98	-0.096152484
203	0xbc739df2	-0.0148692
204	0xbe4ff8e4	-0.20309788
205	0x3d4eedaa	0.050519623
206	0x3e092efc	0.1339683
207	0x3c976608	0.01848127
208	0x3d4bbd34	0.049740985
209	0xbe0838e0	-0.13302946
210	0xbd25ed0f	-0.04050928
211	0x3d71ed58	0.05906424
212	0xbaed14d6	-0.0018087875
213	0xbd35255b	-0.044225078
214	0x3d4f5bbb	0.05062459
215	0x3d259c9f	0.04043257
216	0xbe10f1f5	-0.141548
217	0xbda8dd15	-0.08245293
218	0x3e3f4cae	0.18681595
219	0xbdbb15c0	-0.09135008
220	0x3d8eebe0	0.06978583
221	0x3cca4987	0.024693264
222	0x3d8be748	0.06831223
223	0x3d9ecc3a	0.07753797
224	0xbda9387d	-0.082627274
225	0xbd3babc6	-0.045818113
226	0x3a1a7578	0.0005892138
227	0xbd5a10ba	-0.053238608
228	0x3c7c0b4a	0.015383551
229	0x3c2a8300	0.010407209
230	0xbe06b173	-0.13153629
231	0xbc8fe354	-0.017564453
232	0xbd7dcd87	-0.061963584
233	0xbd3131ef	-0.04326051
234	0xba43f628	-0.000747534
235	0xbc7cc5b0	-0.015427992
236	0xbd915a33	-0.07097282
237	0xbcad62c5	-0.021165261
238	0xbdde0919	-0.10841579
239	0xbd7dc2f9	-0.06195352
240	0xbd8b52e2	-0.06802918
241	0xbc3e23ef	-0.011605247
242	0x3c825d8a	0.015913744
243	0xbd920b1e	-0.07131027
244	0xbe01dffe	-0.12683102
245	0xbcccbe63	-0.024993127
246	0xbd3592d2	-0.044329472
247	0xbd0c7261	-0.034288768
248	0xbc250ae5	-0.010073398
249	0x3d208001	0.039184574
250	0x3c08e665	0.008355712
251	0xbddbe93c	-0.10737845
252	0x3d858247	0.06518989
253	0xbdec1e6b	-0.11529239
254	0x3de4adcd	0.11165962
255	0x3db00d38	0.08596271

linear_relu_stack.6.bias f4 [64]
0	0xba998f38	-0.0011715656
1	0x3d96e652	0.07368149
2	0xbd54a88d	-0.051918555
3	0xbdf12a04	-0.11775592
4	0x3d044790	0.03229481
5	0xbdd83344	-0.10556653
6	0xbdf80793	-0.1211082
7	0xbe18fc96	-0.14940104
8	0xbdcf7540	-0.101297855
9	0xbcdf37bb	-0.027248254
10	0xbe123bfc	-0.14280695
11	0xbd955715	-0.07292
12	0x3c0d535e	0.008625833
13	0xbe4052b1	-0.18781544
14	0x3d8e3bb3	0.069449805
15	0xbd8109b6	-0.0630068
16	0x3d8105bb	0.06299921
17	0xbd799764	-0.060935393
18	0x3d63e6e5	0.05564012
19	0x3d61c061	0.055115107
20	0xbe0fc2d9	-0.14039172
21	0x3bf65ee7	0.0075186375
22	0xbe058044	-0.1303721
23	0xbcdc23b7	-0.026872499
24	0xbd53f9f8	-0.05175206
25	0xbe2c8544	-0.16847712
26	0xbccb9ac0	-0.024854064
27	0xbd54d68e	-0.051962428
28	0xbd64e32b	-0.055880707
29	0x3d5ea66e	0.05435794
30	0xbd0f7ee0	-0.035033107
31	0xbd3b6b1a	-0.045756437
32	0xbc8da08a	-0.017288465
33	0x3db5afa7	0.08871394
34	0xbdcfc961	-0.10145832
35	0xbd98340c	-0.07431802
36	0x3ddf1e3c	0.108944386
37	0xbb0d9206	-0.002160193
38	0x3cdd7b41	0.027036311
39	0xbd4989a5	-0.049203534
40	0xbd783a41	-0.06060243
41	0x3bff1a8f	0.0077851485
42	0x3c17583d	0.009237346
43	0xbc108acf	-0.008822157
44	0xbd4778b9	-0.048699114
45	0x3bf24615	0.0073936083
46	0xbd8dad27	-0.06917792
47	0xbb94f00f	-0.004545219
48	0xbdf9bfc7	-0.12194782
49	0xbd2b2065	-0.04177894
50	0x3d1cf3a3	0.038318288
51	0x3cd994aa	0.026560146
52	0xbd8ccf3b	-0.068754636
53	0xbe4f82b4	-0.20264703
54	0xbd892f81	-0.06698514
55	0xbd2f9114	-0.042862967
56	0xbd8e1635	-0.069378294
57	0xbd5bc967	-0.05365887
58	0x3d920497	0.07129782
59	0x3d0e12b8	0.03468582
60	0xbdb0f2b8	-0.08640045
61	0xbd3036d0	-0.043021023
62	0xbcdaa000	-0.026687622
63	0xbd4c5859	-0.049888942

linear_relu_stack.8.weight f4 [32, 64]
0	0xbd8c4f74	-0.06851092
1	0xbd69bb7e	-0.057063572
2	0xbd8e62e3	-0.06952455
3	0x3dbe3a38	0.09288448
4	0x3b8f28be	0.0043688705
5	0xbd2ffc5b	-0.042965274
6	0x3d00a961	0.031411532
7	0xbba485ae	-0.0050208187
8	0xbd5c8a86	-0.053843044
9	0x3da096cf	0.078412645
10	0x3d46ab10	0.04850298
11	0xbda1612c	-0.07879862
12	0xbd32dcc1	-0.04366756
13	0x3cb201c4	0.021729358
14	0xbdc930ba	-0.09823747
15	0xbbf5b4a1	-0.0074983393
16	0x3d4da853	0.050209355
17	0x3d935632	0.07194175
18	0x3d8bb7f8	0.06822199
19	0x3dcf66df	0.10127043
20	0x3d832e2b	0.0640529
21	0xbbb4e0a5	-0.005519944
22	0xbe164def	-0.14678167
23	0xbcb25462	-0.021768752
24	0xbb893bd3	-0.00418804
25	0xbdada8a7	-0.084794335
26	0xbc998637	-0.018740756
27	0x3ddcf40c	0.10788736
28	0xbe3de75b	-0.18545286
29	0x3c2879a4	0.010282908
30	0x3df4ac15	0.119468845
31	0xbb30abfb	-0.0026957977
32	0x3d8a3f64	0.06750372
33	0xbc07e9c0	-0.008295476
34	0x3dcf6dfc	0.101284
35	0xbd153d4b	-0.036435407
36	0xbd63cabf	-0.055613276
37	0xbc5d409d	-0.013504175
38	0xbc969882	-0.018383268
39	0xbd5bd350	-0.05366832
40	0x3d2ee767	0.04270115
41	0x3d050af1	0.032481138
42	0xbe30e456	-0.17274603
43	0xbdafa48d	-0.085763074
44	0x3c4d4ecc	0.012530994
45	0xbdffe563	-0.12494924
46	0xbc9796d9	-0.018504547
47	0xbdda2ba5	-0.10652856
48	0x3c1dd8f9	0.00963425
49	0x3cdb65be	0.026781913
50	0xbdce9aa6	-0.100880906
51	0xbbfff5b4	-0.0078112725
52	0x3ddb564f	0.107098214
53	0xbd7f0860	-0.062263846
54	0xbc71c07f	-0.014755367
55	0xbdbf7966	-0.09349327
56	0xbca852a4	-0.020547219
57	0xbcbd14ee	-0.02308127
58	0x3d36a2e0	0.044588923
59	0x3c404d56	0.011737188
60	0xbc97157e	-0.018442865
61	0xbd049f44	-0.03237845
62	0x3d07890d	0.033089686
63	0x3d9cfa9a	0.07664986
64	0x3df9daa8	0.121999085
65	0xbdc8476d	-0.097792484
66	0xbc941a2d	-0.018078888
67	0xbd0331fb	-0.032030087
68	0x3dd2a7e9	0.102859326
69	0xbe73893d	-0.23782821
70	0x3e238c9f	0.15971611
71	0xbd25b4df	-0.040455695
72	0xbe2a2010	-0.16613793
73	0xbdc437de	-0.09580968
74	0x3ca3988e	0.019970205
75	0xbdea3aa1	-0.11436964
76	0xbe10561c	-0.14095348
77	0x3dfb9ab3	0.12285366
78	0x3d975647	0.07389503
79	0xbd827298	-0.06369513
80	0xbe6f0591	-0.23341967
81	0x3daaaf71	0.08334244
82	0xbe1ac302	-0.15113452
83	0x3dabcce8	0.08388692
84	0x3d73045f	0.05933034
85	0x3c890f59	0.016730951
86	0xbd230c01	-0.03980637
87	0x3cdffb9e	0.02734166
88	0x3a6a583b	0.0008939539
89	0x3e1abc5a	0.15110913
90	0x3c527dab	0.012847344
91	0x3d29d84d	0.041466046
92	0xbb4e73f8	-0.0031502228
93	0xbc3f2bab	-0.011668126
94	0x3d65dcee	0.056118898
95	0xbdf66f39	-0.12032933
96	0x3df8d644	0.12150243
97	0x3e791845	0.24325664
98	0xbe4b0232	-0.19825056
99	0x3d009021	0.031387452
100	0xbdddbb37	-0.10826724
101	0x3ca18678	0.01971744
102	0xbca44980	-0.020054579
103	0xbd612a04	-0.05497171
104	0xbe02f9ce	-0.12790605
105	0x3e410a11	0.18851496
106	0xbd613f9c	-0.054992303
107	0xbd3e8822	-0.046516545
108	0x3d283846	0.04106929
109	0xbbe2d856	-0.006922762
110	0xbd753102	-0.05986119
111	0xbe2c5e0b	-0.1683275
112	0xbe2c9751	-0.16854598
113	0xbe6d5a3a	-0.2317895
114	0xbe391809	-0.18075575
115	0x3d83a900	0.064287186
116	0x3d215611	0.03938872
117	0xbde65138	-0.1124596
118	0xbd95bac2	-0.07311012
119	0x3d73d8c9	0.059532914
120	0x3d8095e4	0.06278589
121	0xbe302698	-0.17202222
122	0x3d0ded72	0.034650274
123	0x3d0c8db6	0.034314834
124	0xbe563c31	-0.20921399
125	0x3e3ebd60	0.18626928
126	0x3d0d9bd4	0.034572437
127	0xbd972d38	-0.07381672
128	0xbb730bf0	-0.0037085973
129	0x3c568b8e	0.013094796
130	0x3d43e88c	0.047829196
131	0x3e26fbcc	0.1630699
132	0xbc77624b	-0.015099118
133	0xbe28a278	-0.16468227
134	0xbe0843ea	-0.13307157
135	0x3d5bbb9f	0.053645726
136	0x3c1e38bc	0.009657081
137	0x3ca80c93	0.020513808
138	0x3e37d9f7	0.1795424
139	0xbdd5f7d5	-0.10447661
140	0x3d57a419	0.05264673
141	0x3c09ac33	0.008402872
142	0x3dbff579	0.09372992
143	0x3d404e7c	0.04694985
144	0xbdcb22ca	-0.09918745
145	0x3dbbd98c	0.09172353
146	0xbde75c6d	-0.11296926
147	0xbde28c63	-0.11061933
148	0xbd943162	-0.072359815
149	0x3d91af5c	0.07113525
150	0xbc823b9e	-0.015897568
151	0xbcd15961	-0.025555314
152	0x3a373efe	0.00069902826
153	0x3de5794a	0.11204775
154	0x3dd8d73e	0.10587929
155	0x3d0b6004	0.034027115
156	0xbda00dcb	-0.07815131
157	0x3d0c1546	0.034199975
158	0x3de13f53	0.10998406
159	0x3d8b9d58	0.0681712
160	0x3d91b526	0.071146294
161	0xbc1476b5	-0.009061505
162	0x3d106faf	0.03526276
163	0x3e667a15	0.22507508
164	0xbcb4ee38	-0.022086248
165	0x3cb68ee0	0.022284925
166	0x3d8c8006	0.06860356
167	0xbc3e2e8d	-0.011607778
168	0x3e4253b7	0.18977247
169	0xbd6d4e3e	-0.057935946
170	0xbd8b72bd	-0.06808994
171	0x3c9652ce	0.018350031
172	0x3ce4989e	0.027904805
173	0xbda278b6	-0.0793318
174	0x3d30dfd9	0.043182228
175	0xbd9caa21	-0.07649637
176	0xbcdeb5de	-0.02718633
177	0x3d5582f0	0.052126825
178	0xbd89dd71	-0.0673169
179	0xbdb8f929	-0.090318985
180	0xbdd28f56	-0.102812454
181	0x3d6cdc50	0.057827294
182	0x3d54b6ca	0.051932134
183	0xbd43a163	-0.047761332
184	0x3d966b90	0.07344735
185	0x3ce49902	0.027904991
186	0xbd387ab9	-0.045038912
187	0xbe0dd8e9	-0.13852276
188	0xbd0483c2	-0.032352217
189	0x3d594572	0.053044744
190	0x3d2639af	0.040582355
191	0x3d31efb2	0.043441482
192	0x3d9ff93c	0.078112096
193	0xbd3edb99	-0.046596143
194	0xbc365e43	-0.011130872
195	0x3ca7ea4c	0.020497464
196	0xbde4e74e	-0.1117693
197	0xbc97fac5	-0.018552193
198	0x3ccc3b00	0.024930477
199	0x3cbe2157	0.023209257
200	0x3dbe28ab	0.092851005
201	0xbc46cc04	-0.012133602
202	0xbc838a78	-0.016057238
203	0x3d94cb67	0.072653584
204	0xbd7e0a00	-0.062021255
205	0x3c00bcbe	0.0078575
206	0x3e00c9f7	0.12577043
207	0xbdca3ad3	-0.09874501
208	0x3b877213	0.0041334718
209	0x3e47a6b5	0.19497187
210	0x3e32187c	0.17392153
211	0x3db49122	0.088167444
212	0xbd5e0d25	-0.054211754
213	0x3d1a7566	0.037709616
214	0x3e2ffa06	0.1718522
215	0x3da9a2fa	0.082830384
216	0x3cac54b4	0.021036483
217	0x3e14d3c2	0.14533904
218	0x3d597a53	0.053095173
219	0xbca7b83f	-0.020473598
220	0xbdc037e2	-0.09385659
221	0xbe30daed	-0.17271014
222	0x3b8d713b	0.0043164766
223	0x3d64bc37	0.05584356
224	0xbde3f4bb	-0.11130663
225	0x3d556b7e	0.052104466
226	0x3d45ef16	0.048323713
227	0x3ced21f3	0.028946852
228	0xbe24ef08	-0.16106808
229	0xbd2d1d22	-0.04226411
230	0xbd10cb4c	-0.03535013
231	0x3e8fcbfd	0.28085318
232	0xbe31cc0a	-0.17362991
233	0x3a3c9195	0.0007193324
234	0x3d8cebc4	0.06880906
235	0xbdef5332	-0.1168579
236	0x3db9d551	0.0907389
237	0xbd24a50b	-0.04019646
238	0xbbf633d4	-0.0075135026
239	0xbc942f2a	-0.018088896
240	0xbe62b10b	-0.22137849
241	0xbc6e74cd	-0.014554215
242	0xbc383488	-0.011242993
243	0xbe7b862d	-0.24562903
244	0x3d268c21	0.04066098
245	0xbd6721fd	-0.056428898
246	0xbda2f9d6	-0.07957809
247	0x3ac9ae36	0.0015387002
248	0xbd3f431a	-0.046694852
249	0xbd8f1dc7	-0.069881015
250	0x3e2bee43	0.16790108
251	0x3dad7172	0.084689036
252	0x3bfc81a9	0.0077058864
253	0x3df34045	0.11877493
254	0x3d9575dc	0.072978705
255	0xba93223c	-0.0011225413

linear_relu_stack.8.bias f4 [32]
0	0xbe1322d1	-0.1436875
1	0x3da3a9ac	0.07991347
2	0xbdc7779e	-0.09739612
3	0x3d4e4e17	0.05036744
4	0xbdf94b5d	-0.121725775
5	0x3c176885	0.009241228
6	0xbca70a7b	-0.02039074
7	0x3d4c5a68	0.049890906
8	0xbd415eae	-0.047209434
9	0xbd9ad07c	-0.075592965
10	0xbdd54b99	-0.1041481
11	0xbd1c292f	-0.038125213
12	0xbd88a0fa	-0.06671329
13	0x3cc93717	0.024562402
14	0x3d08c9c4	0.033395544
15	0xbd788216	-0.060670935
16	0x3d96702b	0.07345613
17	0x3dd68050	0.104736924
18	0xbdd0e7ce	-0.10200463
19	0xbdbefd9d	-0.09325717
20	0xbce9e3d9	-0.028551029
21	0xba38d05a	-0.000705009
22	0xbb9e5f80	-0.004833162
23	0xbd33a316	-0.043856703
24	0xbd49250c	-0.049107596
25	0xbd2667f5	-0.040626485
26	0xbd69b19b	-0.057054143
27	0xbd96beaf	-0.07360589
28	0x3d9045e9	0.07044584
29	0x3d5e7cb0	0.05431813
30	0xbbc9c2be	-0.0061572483
31	0xbd86a226	-0.06573896

linear_relu_stack.10.weight f4 [1, 32]
0	0xbad98d38	-0.0016597873
1	0x3d995b93	0.074881695
2	0x3e1e20fa	0.15442267
3	0xbe2a811f	-0.16650818
4	0x3d31a4f8	0.043370217
5	0xbb70677b	-0.0036682773
6	0xb93fa1d7	-0.0001827547
7	0x3def288b	0.11677655
8	0xbc291ac5	-0.010321324
9	0xbda0ae0d	-0.078456976
10	0xbd751174	-0.059831098
11	0x3d89c89d	0.06727717
12	0x3e2160c5	0.15759571
13	0x3e269338	0.16267097
14	0xbd99d0bb	-0.07510515
15	0xbd80cafc	-0.06288716
16	0xbacddb8d	-0.001570569
17	0x3d4b836f	0.04968589
18	0xbd1143ac	-0.035464928
19	0x3cb6b74f	0.022304205
20	0xbda88e94	-0.082303196
21	0x3dd109ac	0.10206923
22	0xbab877e1	-0.0014073813
23	0xbdd1b97e	-0.10240458
24	0x3d396fd8	0.045272678
25	0x3c7a71f4	0.015285958
26	0xba9aa323	-0.0011797886
27	0x3acd783c	0.0015676091
28	0x3d099768	0.033591658
29	0xbd482f72	-0.048873372
30	0xbdf93d38	-0.1216988
31	0xbadb362d	-0.001672452
