model/pendulum_model_1.pth (torch, 88706 bytes, 11 tensors)

linear_relu_stack.0.weight f4 [32, 3]
00000000: 87ff f53e 8d02 b1bd da9c c03e c351 b53d
00000010: 1942 fe3c 52ff b8be 18d4 e8be 3297 b0be
00000020: aa76 f0be 6ec1 99be 49e0 dabe d516 55be
00000030: 5664 ee3e 41b3 9dbd d0d0 a73d 976b 03bf
00000040: 1ff5 acbe 504e dabd a494 abbd 410c 01bf
00000050: 74fc bb3e 5027 75be 17b8 b23d e4bc 6c3e
00000060: c4d9 12be 1cbb 043f 1d3e cd3e f9bd 043f
00000070: cad9 a73d 0254 9ebd 1be1 60be 22e5 c9be
00000080: 81cb 6abe b0ce 4cbe 7ab5 b6be 6d51 013f
00000090: 395c 023f 3790 b13e 7933 d3be 1a1a cabe
000000a0: dead 243e 007a c8bd 2233 a0be c6f7 41be
000000b0: 0dbf f4be 3e1f b4bd 90dc f33e bed7 843e
000000c0: 2bd5 853e e6ac b83e 8e6d 4c3e a1bb d33e
000000d0: 8489 f5be e96d b73e ed9a ce3e 7a52 043f
000000e0: 5854 ae3e 58c8 d8be f13c 0e3f 464b 1a3e
000000f0: 74d8 d23b 9786 803d 7d9f 78be b0f7 d2be
00000100: 8dff 6e3e 983d 123e 2a86 343e 8e00 ecbe
00000110: eacd 16be 4ee8 8bbd a688 5f3e 8cca ab3e
00000120: 6045 113f bb50 0b3f 136c 8cbe ff05 58bd
00000130: 30b1 76bc 188f 4b3e 64d4 013c fb1d d43e
00000140: 3444 10bf fc7d 10bf 895d e53e 4236 ac3e
00000150: a04b 71be c5b0 c63e 1fb2 a6bd 65d4 cd3e
00000160: fe5c dc3e 0aaf 8dbe 86da 1d3e 6629 c1be
00000170: d3f1 f83e 7778 873e ad0c f1be 27d8 0dbf
0.48046514 -0.08643065 0.37619668 0.088534854 0.031037377 -0.36132294 -0.45474315 -0.34490353
-0.46965533 -0.30030388 -0.4274924 -0.20809491 0.46560925 -0.077002056 0.08194125 -0.51336044
-0.33780763 -0.10659468 -0.0837796 -0.5040932 0.36716044 -0.23940778 0.087265186 0.23118931
-0.14340883 0.51848006 0.4008645 0.51852375 0.08195837 -0.07730867 -0.21960871 -0.39432627
-0.22929193 -0.2000072 -0.3568533 0.5051487 0.5092197 0.3468034 -0.41250208 -0.3947304
0.1608195 -0.09788895 -0.3128901 -0.18942174 -0.4780201 -0.087950215 0.47629213 0.25945848
0.26139197 0.3606941 0.19963667 0.41354087 -0.4795648 0.35826042 0.40352574 0.5168835
0.34048724 -0.4234035 0.5556174 0.15067777 0.0064344946 0.06275671 -0.2427959 -0.41204596
0.23339672 0.14281309 0.17629305 -0.46094173 -0.14726987 -0.06831418 0.21829471 0.33552969
0.5674648 0.5442006 -0.27426204 -0.052740093 -0.015056893 0.19878805 0.007924173 0.41429123
-0.5635407 -0.56442237 0.44797924 0.33635145 -0.23564005 0.3880674 -0.08139443 0.40201107
0.43039697 -0.27672607 0.15415391 -0.37726897 0.48621997 0.26459095 -0.47079983 -0.5540795

linear_relu_stack.0.bias f4 [32]
00000000: 58ad 293e f4cd e1be ea2c 503e 4c5e 5fbe
00000010: 199c c9be ebec 083d 51cf 67be 50de c8be
00000020: 465d a03d 74e8 a7bd c8dc 833e 0e39 753e
00000030: 9fce abbd b7fa 433d 9dd4 023f 7861 01bf
00000040: 8f7c 9d3d ff37 0c3e ee5d 03be 0c37 e73e
00000050: 94bb debe ec68 ac3e 62bb 62bd 8dd8 cf3d
00000060: 7eff 64be 2103 c43e 8f7b 9a3e 1d30 05be
00000070: 2726 b7be 95a5 d73e b56b 3cbe 0f3a bd3e
0.16570032 -0.44102442 0.20329633 -0.21813315 -0.39376906 0.033429068 -0.22637679 -0.3923211
0.078302905 -0.08198634 0.2575438 0.23947546 -0.08389019 0.047846522 0.5110567 -0.5053935
0.07689773 0.13693236 -0.128288 0.45159185 -0.43502486 0.336738 -0.055354483 0.10148726
-0.22363088 0.38283637 0.30172393 -0.13006635 -0.35771295 0.42118517 -0.18400462 0.36958358

linear_relu_stack.2.weight f4 [64, 32]
00000000: f4f8 223e 6e76 303e 876e 2fbe e47d 003e
00000010: 4e19 2cbe 8af2 2ebe 03e3 a73d 85d1 46be
00000020: 3815 0cbe b8e5 ef3d 3143 8dbd 273e edbd
00000030: 1077 d3bd edff 143e 945e 1f3e ffa9 083e
00000040: ffda c1bc a626 02be 0948 863d edff 95bd
00000050: 9e5b 363e 6eb3 be3c 8bf1 a73c d911 f6bd
00000060: 990a 13bd 3f5f 83bd 504b 54be d125 ff3b
00000070: 1ada f93d 55be a3ba 9ac9 953d 8020 143e
00000080: 9b38 febd 4c4f 503c 86a9 8abd 9a91 d23d
00000090: 2119 3b3d a8a9 80bd dd26 443e 89f2 843b
000000a0: 9ba7 5ebe 2c47 0ebd a173 10bc bb29 353e
000000b0: 7e4d 1cbe 7dd8 9ebd 9ea4 d63d ad1f 12bc
000000c0: ce5f e53d 4dbc 24be 714a f83c 3621 3cbb
000000d0: 77fa 0fbd c3ed cabd fe82 3e3e a43b 3abe
000000e0: 200a fe3b 49cc 15be 9a9e b1bd 61f8 44be
000000f0: 713d 2a3d a2fb 61bd 8442 1abe 8000 fbbd
00000100: 7cc5 edbc 310d 3f3e 59e1 e6bd 81d6 89bd
00000110: cfef 1f3e 07aa 013e e7f4 4abe 21eb 00be
00000120: 8e64 0e3e e374 9a3d 1e2a f83d bb74 c6bd
00000130: 07d6 c9bd 96d5 c93d 4283 cc3c df6b cf3d
00000140: 074c bf3d b5fb f53c 4d32 603d 96ad 19be
00000150: dd05 973a 884b c63d be72 073e 9def 86be
00000160: 22f9 aa3d c619 573d 6f10 513d 8e11 c43d
00000170: cb20 123d e3e5 673d 0417 fb3c bf3a 053e
00000180: 7f44 d1bd f596 ac3c 9033 633e 08c2 a5bd
00000190: 13bf f4bc 6bd6 603d 263f 25be 373c 083e
000001a0: c703 243d 0946 33bd af17 02be a91d 73bd
000001b0: e022 8e3d ab34 b2bd e035 d9bc a674 8dbb
000001c0: b725 3cbe 829d 023e de2f bfbc a2a0 3e3e
000001d0: b5dd 073e fa93 c1bd 9a37 113e e414 913c
000001e0: 16d9 153d a2cf b9bb dbd8 e23d 69c0 8ebd
000001f0: 34f5 093c 8805 3e3e f812 29bd 4113 133e
00000200: 64fe e4bd 3056 1c3e d6e4 fc3c 5fe1 f43d
00000210: 60f0 b83d 3aed a5bb 0555 473d 15c2 933d
00000220: 7555 a93d 44bf 05be 0a20 553b d6db 103e
00000230: 3c50 4abc dbfa 03be 509e 92bd 67a3 4dbe
00000240: dd40 2a3e 10d5 263e 8880 11be 703e 00be
00000250: 0f01 a6bd 5829 8e3c 4cea 2dbe fb2f d13b
00000260: 663a dcbd ccca 64bb 75b7 3a3e 6da3 91bd
00000270: 4229 21be 887b 0fbd c186 943d b2f0 18be
00000280: c6c0 093e 7fbd d23d cecf 2d3e becb 1bbe
00000290: e6e0 13bd c06f 483e 177b 07bd c976 223e
000002a0: 126e 1bbe dc7c 473e 99b8 a83c b31a 03be
000002b0: 97dc 1a3d f3ac 4c3d 2e8f 8dbc 0162 f93d
000002c0: 759c 0d3e f6f2 e1bd ca37 45be f900 003e
000002d0: 872f 193e e9fe 09be 433b 1ebe 774d 14be
000002e0: 59fe fd3d 5e85 c9bd 736b 0b3e e5b0 68bd
000002f0: e70c 923d 692b 913d ad02 df3d 2fe1 123e
00000300: 6e25 6d3d f1e6 b53d 8d34 4cbe b5ed 1dbd
00000310: c3ba 1fbe dc03 24bc e066 923c 6b5a 0dbe
00000320: 00b7 e5bd b2cd 13be 3001 323d 8d08 d1bd
00000330: 0cec 1b3d 772c a3bd bf06 513e 09b9 7fbd
00000340: 13c8 a53d 51c7 dc3d 6c91 adbd b4c6 d83d
00000350: c78a 2bbd 8e71 b63d 4078 363e c413 d8bc
00000360: 5ad4 463d d227 02bd 3dd6 b63c 70a4 063e
00000370: c8ef 153e ce0a b2bc 4221 cabd 1d8d 693c
00000380: 73a3 d5bd 51eb df3d b53f 11be 2348 2ebe
00000390: b96a 1fbe a662 2d3e 6085 adbd 21e1 2d3e
000003a0: 14c2 53bd c1f3 ae3d 3787 82bc b9d5 cbbd
000003b0: d2c3 45bd 9480 d53d 5f3f a83d dc3f 353d
000003c0: a82c 44be 6cbd b63c 6edf 24be 7117 00be
000003d0: f310 7cbc 381a aa3d 2932 2cbe bb93 133e
000003e0: 050b b7bd 0df0 6c3d 7c19 043c c42e 81bc
000003f0: fa66 883d a648 aebd 4704 fd3d 10e1 25bc
0.1591528 0.17232677 -0.17132007 0.12548023 -0.16806528 -0.17084709 0.08197596 -0.19415863
-0.1367997 0.11713737 -0.06897581 -0.1158412 -0.10325444 0.14550753 0.15563422 0.13346098
-0.023663996 -0.12710056 0.06556708 -0.073242046 0.17808387 0.023278918 0.020500919 -0.12015123
-0.03589878 -0.06414651 -0.20731854 0.0077864905 0.12199803 -0.0012492636 0.07313843 0.14465523
-0.124131404 0.012714218 -0.06770615 0.102816775 0.04567826 -0.06282359 0.1915545 0.0040572328
-0.21743624 -0.034735844 -0.008816631 0.176917 -0.15263936 -0.077561356 0.10480617 -0.008918685
0.11199914 -0.16087456 0.030308934 -0.0028706319 -0.03515097 -0.09908631 0.18604657 -0.18186814
0.007752672 -0.1462871 -0.08672829 -0.19235374 0.0415625 -0.055171616 -0.15064436 -0.12255955
-0.029024832 0.18657376 -0.112734504 -0.067303665 0.15618823 0.12662517 -0.19819985 -0.12589695
0.13905546 0.075418256 0.12117408 -0.09690233 -0.098552756 0.098551914 0.024964932 0.10127997
0.09340673 0.03002725 0.05473547 -0.15007624 0.0011522133 0.09682375 0.13227364 -0.26354685
0.083482996 0.052514814 0.051041063 0.09573661 0.035675805 0.05661572 0.030650623 0.13010691
-0.10218143 0.021068076 0.22187638 -0.08093649 -0.029876268 0.054891985 -0.1613737 0.1330422
0.040042665 -0.043767963 -0.12704347 -0.059354458 0.06940246 -0.08701452 -0.026514947 -0.004316884
-0.18373762 0.12755397 -0.023338255 0.18615964 0.13268168 -0.094520524 0.14181367 0.017710157
0.036583982 -0.0056705037 0.11076518 -0.06970293 0.008420277 0.18556798 -0.041277856 0.14362814
-0.11181334 0.15267253 0.030870836 0.119570486 0.09030223 -0.00506368 0.048665065 0.072147526
0.08268253 -0.13061243 0.0032520317 0.14146361 -0.012348231 -0.12888663 -0.07159102 -0.20081864
0.16626306 0.16292214 -0.14209187 -0.12523818 -0.08105671 0.017353699 -0.16983908 0.0063838935
-0.10753326 -0.0034910915 0.18234046 -0.07111249 -0.15738395 -0.035029918 0.07252265 -0.14935568
0.13452443 0.1029005 0.16973802 -0.1521444 -0.03610315 0.19573879 -0.033076372 0.15865625
-0.15178707 0.19481224 0.020595836 -0.12803154 0.037808027 0.049969625 -0.017280187 0.12176896
0.13829215 -0.11032669 -0.19259563 0.12500371 0.14959536 -0.13476147 -0.15452294 -0.14482675
0.124020286 -0.09839891 0.13615207 -0.056809325 0.07131367 0.07088358 0.10889182 0.14343713
0.057897024 0.08881939 -0.19941922 -0.038556773 -0.15598588 -0.010010686 0.01787132 -0.13804023
-0.11216545 -0.14433935 0.043458164 -0.10206709 0.03806691 -0.07967465 0.2041273 -0.062432323
0.08094802 0.10780204 -0.08475003 0.105847746 -0.041880395 0.089083776 0.17819309 -0.026376612
0.048542358 -0.031776257 0.022318954 0.13148665 0.1464225 -0.021733668 -0.09869625 0.014254835
-0.10431566 0.10933555 -0.14184459 -0.17019705 -0.15568055 0.16932163 -0.08472705 0.16980411
-0.05169876 0.08542586 -0.015933616 -0.09952874 -0.048282452 0.10424915 0.08215212 0.044250354
-0.1915766 0.02230712 -0.16100857 -0.12508942 -0.0153849 0.08305782 -0.1681601 0.14411823
-0.08937649 0.057846118 0.008062717 -0.01576937 0.06660266 -0.0850995 0.123543315 -0.01012446

linear_relu_stack.2.bias f4 [64]
00000000: 87b4 a2bd 9713 473c b8b4 e93b 0574 4fbd
00000010: 4354 b0bd 9aba ff3d 41cf db3b b81e a9bd
00000020: 9476 0cbd 77cf 36bd a538 8fbd 0443 883c
00000030: 6862 0cbe 362d 3c3e e634 6bbc 7599 de3c
00000040: cb6a 193e 2d9f ab3d 494a 0bbe eb38 6ebc
00000050: 1c5c a13d 4575 50bd 05eb ea3d 7cf6 e13d
00000060: 8d5d f1bd 0a77 133e bf28 183d 0645 1b3d
00000070: b5c3 ecbd 5d96 f43d be29 55bd 4f84 32bc
00000080: de54 eabd a75a 7c3d 9dcd dd3d f9e5 52be
00000090: 6d36 f43d abc2 883d 528a 3e3e 9632 9cbd
000000a0: d1f0 21bd 4634 863c 0525 f13d 2602 3b3d
000000b0: b5a7 473e 474b 4fbc abb3 9c3d eeba 143d
000000c0: 8245 8b3d 41a4 903d 91d4 383c 6775 393d
000000d0: 66a7 e6bd 6b72 9cbd 7ff6 7fbd 8522 8ebd
000000e0: 7ebe fa3d 00a9 6b3d 144a 3dbe 2779 d13d
000000f0: df94 3abe d149 c63d 1098 fbbd 8590 c53d
-0.07944589 0.012150667 0.007132139 -0.050647754 -0.08609822 0.12486763 0.006708056 -0.08257812
-0.034292772 -0.044631448 -0.06993226 0.016633518 -0.13709414 0.18376622 -0.014355874 0.027172783
0.14982145 0.0837997 -0.13602556 -0.0145399375 0.078788966 -0.050893087 0.11470608 0.11033341
-0.117854215 0.14400879 0.037148234 0.037907623 -0.11560766 0.11942742 -0.05204176 -0.010895803
-0.114419684 0.06160989 0.10830233 -0.2059554 0.119244434 0.06677755 0.18607453 -0.07626836
-0.0395363 0.016382348 0.11774639 0.045656346 0.19497569 -0.012652225 0.076514564 0.036311083
0.06800367 0.07062579 0.0112811485 0.04527798 -0.112623975 -0.07639011 -0.062490936 -0.06940178
0.12243365 0.057534218 -0.1848529 0.10228186 -0.18220852 0.09682048 -0.12284863 0.096467055

linear_relu_stack.4.weight f4 [128, 64]
00000000: 052e 8abd 1d47 543c 0705 68bd 6fbb 67bc
00000010: 0d7c 8a3d c546 353e 4e79 063d 8129 6d3d
00000020: 7907 d63d 036f 2e3d 4067 0fbe 8e96 b73d
00000030: c00f 1fbd 7252 b2bd 7fa1 c7ba 80de edbc
00000040: e4d8 99bc 64b7 a5bd 6faa c33d 8885 893d
00000050: b398 19bd 7453 a6bd e0a5 a0bc 8649 e0bd
00000060: d91e edbd e70a f73d 9283 90bd d805 fdbd
00000070: 4892 a53d cb76 e0bd 5818 07bd 1e94 9cbd
00000080: 31b5 373d 61cf 3ebd 1229 243d 8925 473d
00000090: c4fd 213c 03dd 053d 4f29 e6bd 0472 033e
000000a0: 806b 9fbd cee0 85bd 5ed3 a73d 843b 0cbd
000000b0: 0675 29be 35c0 9e3c c70b 93be 0ceb 243e
000000c0: 6d66 b23d f0d4 43bd 0817 ffba d52f 043e
000000d0: 6541 b0bd f412 ddbb d7cf 8f3d 0dad 133e
000000e0: 0d00 a53d e870 f63c b133 b03c 94a8 2dbd
000000f0: 20ef d9bd 7d4c aa3d d514 c6bc 8ff1 02bd
00000100: c58b 083e d7db 9bbc 75a3 8bbb 241a 7d3d
00000110: a096 28bd e5f7 37bd 8061 bdbc 7cb4 013e
00000120: 2475 e0bc 8d26 46bd 5a3e 7a3d b005 f23c
00000130: 0caa d0bd 2d63 513c 8273 143d 9a02 083e
00000140: e6d2 203e 6ea5 593c d00a 08bd ad60 133c
00000150: f07f b9bd 83a0 773e 0656 ba3d b3bf 44bb
00000160: 1539 dd3d cb86 cf3c b314 473d 3f50 d43d
00000170: 7775 aebd 4b90 3fbd 2edf 0a3a 86dd ae3c
00000180: 8c2a b13d e567 69bd f9fd 1e3d 37f7 553d
00000190: 4eb1 22be 7fad 303d 5269 693d 4a60 5a3e
000001a0: 74b0 33bd 09d8 f33c 5586 ebbc e6d1 3ebc
000001b0: 76b0 aa3d ef70 d8bd 1d85 813d 1c6e 7f3d
000001c0: ee17 32bd 9ff6 efbd 1e1e 843d 29e0 853d
000001d0: f656 b73d e721 36bd 1495 923a 8f79 bb3d
000001e0: 89d4 af3c 587f c73d 2275 ef3d b47a 28bd
000001f0: c6d4 e63d d916 c1bd c511 653d a815 2bbc
00000200: 2d20 debd def1 313d d88f c1bd 93c0 afbd
00000210: d70a e0bc f247 e4bc 4ffe 723d 22d9 b1bd
00000220: 7ca6 92bc 2ed9 43bd 5219 d6bd 706a aabd
00000230: f23f a33d 2cbd 51bd 2b0c bbbc 756f da3c
00000240: 047a d93b cf3e bb3d b51d 853d c040 10be
00000250: 0f50 e2bd 4eae 2cbd 13ad a43d c5df c83d
00000260: b804 153e af1d c9bb aba1 d23d 5d0a a2bc
00000270: 1bcf 0b3c 0c39 06bc 5b30 c8bb 1690 0c3d
00000280: e3e1 093e a3e3 423c efbd e33d c8d8 83bd
00000290: 93ce 7abb 7902 143c 5902 9d3d 3ebb b63d
000002a0: 79f5 133d ee81 1abd 0d2d c73d d19a 1abe
000002b0: c1dc 72bd 2631 1bbc 5a08 003e 28e2 943a
000002c0: f449 64bd b856 823d cba4 d83d a82b ec3d
000002d0: 07d5 dd3c c28a 17bd 9249 85bb cf23 44bd
000002e0: a67a 59bc adcb 01bb 54df 99bc 8aa2 aebd
000002f0: f9cf 3dbb ab9c d33b 0595 0b3d a9a4 7fbc
00000300: 77b3 c9bd d582 f53d f8cc 103c c50d abbd
00000310: 1d2c 46bd 90d0 12be 9391 c53d 2a34 b53d
00000320: 3549 d7bd 34a9 053d fb3a b13a fc65 143d
00000330: 1ba4 1cbd 340e 883d 6ea2 f9bd 5c30 a5bd
00000340: e87b 003e 2f87 f93d 78ee c4bd 23b3 49bd
00000350: e805 52bd 7ac4 f4bc 52b5 76bb dd60 9ebd
00000360: 4917 98bd 9956 ca3d 09a5 ea3d 4d63 043e
00000370: a6cb 153c abbf f2bd 6df9 073e 54ff 86bd
00000380: 7142 9cbd ed19 10be 288e 933d cb26 023e
00000390: 1c8f 193e c63f 173e 5015 21bd 0153 d1bc
000003a0: c459 c73d 84bf 12bd 01fd 723c 13c2 213d
000003b0: f358 39be 7909 623d 58ad 3339 890b b2bd
000003c0: b96f b33a 2fc0 8dbd dbb5 dabd d2b4 613d
000003d0: e01e f93d e077 9e3d b82c 94bd 5f81 f63d
000003e0: 80b0 ccbc 56d6 413d 5792 02bd 1e6a 833b
000003f0: fc00 883d dd33 b9bd 8889 0e3e 8884 fc3b
-0.06747059 0.012956408 -0.05664542 -0.014143809 0.06761942 0.17702778 0.03283053 0.05790091
0.10450644 0.042586338 -0.1400423 0.08964263 -0.03883338 -0.087071314 -0.0015230625 -0.02903676
-0.01878018 -0.080916196 0.09553992 0.06714922 -0.03749914 -0.08121386 -0.019610345 -0.109515235
-0.11578149 0.12062626 -0.07056345 -0.1235463 0.080845416 -0.10960158 -0.0329822 -0.076454386
0.044850532 -0.04658449 0.04007823 0.04861978 0.009887163 0.032681476 -0.11238348 0.12836462
-0.07784176 -0.06537019 0.08194612 -0.034236446 -0.16548547 0.01937876 -0.28719923 0.16105288
0.087109424 -0.047810495 -0.001946182 0.12908871 -0.08606223 -0.006746644 0.07022064 0.14421482
0.0805665 0.030083135 0.021509023 -0.042397097 -0.106413126 0.0831537 -0.024179855 -0.03196865
0.13334568 -0.019025726 -0.004261429 0.061792508 -0.041159272 -0.044914145 -0.02311778 0.12666506
-0.027399607 -0.04837661 0.06109462 0.029543728 -0.10188684 0.012779993 0.03624297 0.13282242
0.15705451 0.01328407 -0.033213437 0.008995217 -0.09057605 0.24182324 0.09098439 -0.0030021488
0.10801903 0.025332829 0.048603725 0.10366868 -0.085184984 -0.046768468 0.00052975386 0.021345865
0.08650693 -0.056983847 0.038816426 0.052237716 -0.15887949 0.04313421 0.056985207 0.21325794
-0.04386945 0.0297661 -0.028750578 -0.011646723 0.083344385 -0.105684154 0.063242175 0.062360868
-0.043479852 -0.11716961 0.06451057 0.06536896 0.08952133 -0.044465926 0.0011183345 0.09154045
0.02146365 0.09741086 0.11692263 -0.041132644 0.11271052 -0.09428186 0.05592515 -0.010442175
-0.10845981 0.043443553 -0.09451264 -0.085816525 -0.027348919 -0.027866337 0.05932456 -0.08683993
-0.017901652 -0.04781454 -0.10454048 -0.083210826 0.07971181 -0.0512058 -0.02283295 0.026664475
0.00663686 0.09142839 0.06499807 -0.140872 -0.11050426 -0.042158417 0.08040824 0.09808306
0.14552581 -0.0061375718 0.10284742 -0.019780332 0.0085332645 -0.008192312 -0.00610928 0.0343171
0.13465075 0.011895093 0.11120211 -0.06437832 -0.00382701 0.009033793 0.076664634 0.08922432
0.036122773 -0.037721567 0.0972539 -0.1509812 -0.05929256 -0.009472167 0.12503186 0.0011358904
-0.05573459 0.063641965 0.10578307 0.11531764 0.027079118 -0.036997564 -0.004067608 -0.047885712
-0.013273871 -0.0019805238 -0.018783249 -0.085270956 -0.0028963073 0.0064578853 0.034077663 -0.015603223
-0.09848683 0.11987845 0.008837931 -0.08352236 -0.048381913 -0.14337373 0.09646907 0.0884784
-0.1051201 0.032632068 0.0013521606 0.036230072 -0.03824244 0.06643334 -0.12189184 -0.080658644
0.12547266 0.12183987 -0.09615797 -0.049243104 -0.051275164 -0.029878844 -0.0037644696 -0.07733319
-0.07426316 0.098797984 0.11457259 0.12928505 0.009142792 -0.11852964 0.13278742 -0.06591669
-0.0762986 -0.1407239 0.072048485 0.12710111 0.14995998 0.14770421 -0.039326966 -0.025552275
0.09733918 -0.035827175 0.014830829 0.039491724 -0.18100338 0.055184815 0.00017135346 -0.086936064
0.0013689912 -0.06921422 -0.106792174 0.055104084 0.12164092 0.07737708 -0.07235092 0.12036394
-0.024986506 0.047323547 -0.03187784 0.004010453 0.06640813 -0.09043095 0.13919652 0.0077062286

linear_relu_stack.4.bias f4 [128]
00000000: 1ece 653d 233b 7aba 02a5 223b 1312 bb3d
00000010: 39be f43d 61c0 2e3d a189 6bbd fd60 59bd
00000020: da0c f6bd ad4d a5bd 9c58 78bb c5cf cb3a
00000030: 2985 cbbc b13c 6bbd 2c6a bc3d 3d1c 9c3d
00000040: d9bf f7bd 36d4 023e 55d9 bf3d 6fe7 193d
00000050: 1f72 283d da2b 2e3d 4dae 04be 8f5e 91bd
00000060: e5b5 7cbd 2eb4 acbd b90d b6bd 6fd9 353d
00000070: d0bf b4bc 4c95 f8bd bc7d 0cbd 865f 2bbd
00000080: b22b 0fbe 90ca a3bd 303c bbbd ddd3 ecbc
00000090: 983a 0a3e f394 b0ba 9a95 8cbd 6a67 95ba
000000a0: b916 753c 5dbc 01bd 0b3c 5abd 84bc bf3d
000000b0: c983 9bbd d6b3 3b3c ba98 a63d 8495 64bd
000000c0: 597e c13c c365 75bd 92ab b9bd ff78 8e3d
000000d0: 22bb 033d 0e49 91bd 150d b23d 5fdf 02be
000000e0: 1204 e1bc 020b 4cbd 9442 08be 71c8 783d
000000f0: 46ef 013d de73 703d 6651 b2bd ca65 a03d
00000100: f47b 0b3c 5725 efbd ecc2 c0bd 1f8f 09bc
00000110: 0c14 75b8 da8b 22bc 85e5 05be 8117 dbbd
00000120: 544a 4e3c 9619 d3bd 23c4 c93d 05d6 d2bd
00000130: 83fd c53d b9bd 893c a529 7cbd eabf 573d
00000140: 6073 f43d 7205 03be c173 e4bd f75a 9fbd
00000150: 596b 65bd da1b 6c3d 8631 d13d 0a35 86bd
00000160: f1ce ffbd 3ad4 a6bd 9b8b dd3d f37c 61bd
00000170: 2d9e 233e b829 413d a668 3a3c 361a a13d
00000180: cf10 a3bd 278b 783d 13bd c6bd 88de 9ebd
00000190: 4bc2 933d 40b5 d4bd e930 46bd 4d14 da3d
000001a0: 8d84 03be 4329 cdbd b511 d03d 6827 4e3d
000001b0: 069b ca3c 8f31 da3d 30c3 af3d 97dc a9bd
000001c0: 9bb3 bebd e117 623d e9d4 6b3d b1fb 5dbd
000001d0: ece4 17bc e9f7 0dbd 6027 c4bd 5b40 5bbd
000001e0: 5a63 e9bd 2db3 883c f356 24be 006b 053c
000001f0: 202b 7e3d 6b86 91bc 966c b2bd c617 69bd
0.05610477 -0.0009545555 0.002481759 0.09134307 0.119503446 0.042663936 -0.0575043 -0.05307101
-0.1201417 -0.08071456 -0.0037894612 0.0015549591 -0.02484377 -0.057430927 0.09199938 0.076225735
-0.12097139 0.12776265 0.09367625 0.037574228 0.04112446 0.04252229 -0.12957115 -0.07098114
-0.061696906 -0.08432804 -0.08889336 0.044396814 -0.02206412 -0.12137851 -0.034299597 -0.041839145
-0.13981512 -0.0799762 -0.09142339 -0.028909618 0.13498914 -0.0013472125 -0.06864472 -0.0011398618
0.014959031 -0.031673778 -0.053279918 0.093621284 -0.075934954 0.01145645 0.08134599 -0.05580665
0.023619818 -0.0599115 -0.090659276 0.06956672 0.032160886 -0.07094012 0.086939014 -0.12780522
-0.027467761 -0.049815185 -0.13306648 0.06073803 0.03172233 0.05870425 -0.08706932 0.07831915
0.008513439 -0.11677044 -0.094121784 -0.008395939 -5.8431222e-05 -0.0099210385 -0.13075836 -0.106978424
0.012590963 -0.103076145 0.09851863 -0.10294727 0.09667494 0.0168141 -0.061563153 0.052673258
0.119360685 -0.12795046 -0.11154891 -0.07781022 -0.056010578 0.05764375 0.10214524 -0.06553085
-0.12490643 -0.08145948 0.10817643 -0.0550508 0.15978308 0.047158927 0.011377489 0.078663275
-0.0796219 0.06067958 -0.09704032 -0.07757288 0.07214793 -0.10386133 -0.048386488 0.10648403
-0.12843533 -0.10017636 0.10159627 0.05033055 0.024732124 0.10653984 0.08582151 -0.08294027
-0.09311601 0.055198554 0.057576094 -0.05419511 -0.009270888 -0.034660254 -0.09577823 -0.05352817
-0.11395903 0.016687 -0.16048793 0.008143187 0.062052846 -0.01776429 -0.087121174 -0.056907438

linear_relu_stack.6.weight f4 [64, 128]
00000000: eb94 89bd 7c15 98bb 0cfe 913d 8a88 a3bd
00000010: 8623 80bd 69c1 4a3b ab64 a2bd b84b 623d
00000020: d5af 3e3d 98cb 2dbd 3e3a b0bd 7684 54bc
00000030: 760f b43c 6139 8e3d f3d3 a33d 29cc 84bc
00000040: 552a 5c3d 3a08 08bd 4b5d b63d 3720 52bd
00000050: f4fc 1e3e 1b2f 353d e578 9bbd 2c19 913d
00000060: 00bf fc3c 13b4 b7bd 348b cbba 0407 f7bb
00000070: 1fbd 133c 8195 b53c 7b41 8b3d b5c8 4d3d
00000080: 0422 483d 9ac3 0ebb 2a22 043e a344 c43c
00000090: 6177 8bbc 53a1 b9bb 3631 8abd 3a1c ae3c
000000a0: 58dd 44bb 510e a93d 5388 6ebd 01cb 7c3d
000000b0: 3575 7d3d c3d6 ec3c 7d04 aa3c 406e a1bc
000000c0: c2bd 14be 7346 60bd 6317 91bd d7ce 1a3c
000000d0: 6a95 0abb b6ec 2fbc ddc4 003e 199e 85bd
000000e0: e15c d1bc cb40 493d 9d99 bdbb 97ac 843d
000000f0: 155e a13d 44ab b83d 3034 a33d 937e 61bd
00000100: 1f88 ab3d 1ef6 cbbd a141 df3d 1764 dfbc
00000110: 9a34 cfbc d51c a03d f38e e53c c63d 693c
00000120: dd8d afbd afc6 6d3c f902 9a3c b6ef 09bd
00000130: f1f6 7ebc 3c9d 213e 3dfa 27bd db00 aebd
00000140: d2da 5c3d e6b5 713c 52b8 d1bd d075 323c
00000150: 8bfa 76bd 9e0c 143e 1a1a 55bc e8d5 84bc
00000160: 1684 a23d f12b 843d c091 b83d cbdc b8bc
00000170: bd96 023e cd15 ef3d 51b0 0c3d 3f20 c43d
00000180: 5370 683d 20b3 a7bb a921 e03d f477 203d
00000190: 0c2a aa3d aed4 2e3d 5a88 e6bd 51f0 b13d
000001a0: 4cd3 c63c 9e41 b0bc f7d6 02bd 934a 27bd
000001b0: e066 6abd 6b0c 9fbd c117 6fbd 5253 de3b
000001c0: d190 f43c b655 a2bd 2aea af3c d179 60bc
000001d0: 85ef a7bd 0a4a 7abc 108d bd3c 96cd a93d
000001e0: 5618 d6bc 5007 963d c27c 8f3c 173b a33d
000001f0: d1ad 973d 892e 0e3e 83d1 d83c 4d45 7f3d
00000200: d517 bd3d 34c5 033d 6008 b03b 1dd2 acbd
00000210: bbaf 92bb 1a78 ccbd 4ee2 96bc 514f 6ebd
00000220: 9bb9 a1bd c269 6abc 4cac a2bd 4cef 023d
00000230: 21c2 a5bd 8d91 c6bc 5b8c 9d3d d92b dfbd
00000240: c70c 9bbd ec38 8bbd a27a 033d 3a65 a5bc
00000250: 8353 85bd 4779 853d fefd be3c f897 87bd
00000260: 0107 f13c 4585 4f3d e70a 913d f947 67bd
00000270: 9cd7 c4bc 514c 6ebc 92b9 f8bb a0b4 f03c
00000280: e8f2 823d 5e62 4cba 798e e43c 0d19 e0bc
00000290: d683 03be a0fa 3b3d 5fcd 9d3c 83d6 90bd
000002a0: 99d9 babc e447 193d 718f b0bd ea0c 77bc
000002b0: 9aa6 96bb 2f83 4b3b 6fe6 253d 048e 89bc
000002c0: b506 94bb ece8 e53c 7d8b 1bbb eb9e a53d
000002d0: 4117 9a3d d8a9 07be d02f d23d b612 2ebd
000002e0: 4c21 a7bb 3680 5f3d 7d4e 953c fe89 363d
000002f0: af95 cbba 680e 55bd 6773 96bd 7b6e 9a3d
00000300: 0052 a23d 37f3 efbc e85e c43d b1dd 3bbd
00000310: 1699 aebc a7d8 97bd 3a0a 8dbd c297 bebd
00000320: c5b7 a13d aacd 743d e7a1 86bd 996f c83c
00000330: 9868 29bd ebf2 06bd 16ee 573d f7a2 d4bc
00000340: f281 b43d 044e 88bd 6b3e 40bd 6762 9c3d
00000350: 0970 173d 19b1 123d c79c 853b a07f 783d
00000360: eb37 c2bd 6262 49bd 3144 973d addb b2bc
00000370: 4f3f f3bc b5ed 7ebc 0518 103c 4bf1 bf3d
00000380: 38ca 8bbd 16b3 67bd 7e02 46bc 9a4e c83c
00000390: c445 403c 5477 ff3b f705 25bd 71b5 4b3b
000003a0: a736 68bd d23d 0fbd 145b 83ba 6970 1d3c
000003b0: 22d3 1fbd c334 ccbd 7b95 73bc 145d 2cbd
000003c0: 5dba 51bd 9d1c 1c3d a5ab a33c 679c 7bbd
000003d0: 1d8b 4fbd 936c 0f3d 56d8 083c ecaf 053c
000003e0: 4d20 34bc 30d7 4e3c 770f 2e3d aa3e 4ebd
000003f0: cf68 6e3d 8916 61bd 9a06 c13d 6e6b 953d
-0.06717857 -0.004641233 0.07128534 -0.07985027 -0.062567756 0.0030938035 -0.07929357 0.055247992
0.046554405 -0.04243049 -0.08604859 -0.012971034 0.021980029 0.06944538 0.079994105 -0.016210632
0.05375131 -0.03321097 0.08904513 -0.051300254 0.15526181 0.044234376 -0.07591418 0.07084879
0.030852795 -0.08969893 -0.0015529157 -0.007538678 0.009017258 0.022166016 0.06799599 0.050240237
0.048860565 -0.0021784068 0.12903658 0.02395851 -0.017024698 -0.0056649833 -0.067476675 0.021253694
-0.0030039158 0.08254684 -0.058235478 0.061717037 0.061879355 0.028911 0.020754093 -0.019705892
-0.14525512 -0.054754686 -0.07084539 0.0094487285 -0.0021146187 -0.010737589 0.12575097 -0.06524295
-0.025556983 0.049134057 -0.0057861344 0.064782314 0.07879273 0.09017041 0.07968938 -0.05505235
0.083755724 -0.099590525 0.109011896 -0.027269406 -0.025293637 0.07817999 0.028022265 0.014235919
-0.0857198 0.014512702 0.018800246 -0.03367587 -0.015561805 0.15782636 -0.04101013 -0.08496257
0.05391962 0.014752841 -0.102402344 0.0108923465 -0.06029753 0.14457938 -0.013006711 -0.01621528
0.0793535 0.06453694 0.090121746 -0.02256622 0.12752815 0.1167408 0.034347836 0.09576463
0.056747746 -0.005117789 0.1094392 0.039176896 0.08308801 0.042683296 -0.11256476 0.08688415
0.024270676 -0.021515664 -0.031943288 -0.040842604 -0.057227015 -0.077660404 -0.058372263 0.006784835
0.02985421 -0.07926504 0.021473963 -0.013700918 -0.081999816 -0.015276441 0.023138553 0.082911655
-0.026134651 0.073256135 0.017515544 0.07970255 0.074062 0.13884939 0.02646709 0.06232195
0.09233061 0.03217049 0.005372092 -0.084385134 -0.004476515 -0.09983845 -0.018418457 -0.05818111
-0.078967296 -0.014307441 -0.07943019 0.031966493 -0.08093668 -0.024239326 0.07692786 -0.10897035
-0.075707965 -0.06797966 0.032099374 -0.02018987 -0.06510069 0.065172724 0.023314472 -0.066207826
0.029422285 0.050664205 0.070821576 -0.056465123 -0.024028592 -0.014544562 -0.007590481 0.029383004
0.06393987 -0.000779664 0.027899968 -0.027355695 -0.1284326 0.04589331 0.019262968 -0.07072165
-0.022808837 0.037422076 -0.08621109 -0.015078763 -0.004597497 0.0031053533 0.04050296 -0.016791351
-0.004517401 0.028065167 -0.0023734265 0.08086952 0.075239666 -0.13248384 0.10263026 -0.042498313
-0.005100405 0.05456563 0.018225903 0.044565193 -0.001553228 -0.052015692 -0.0734623 0.07540604
0.079257965 -0.029290779 0.095884144 -0.04586572 -0.021313231 -0.0741437 -0.06886716 -0.09306289
0.078963794 0.05976645 -0.06573849 0.024467276 -0.041359514 -0.03294651 0.05271729 -0.025956614
0.088138476 -0.06655505 -0.046934526 0.07635956 0.03697208 0.035813425 0.004077527 0.060668588
-0.09483322 -0.04916609 0.07386053 -0.021833265 -0.029693274 -0.015559603 0.008794789 0.09372195
-0.068256795 -0.056567274 -0.012085555 0.024451543 0.011735383 0.0077962074 -0.04028889 0.003108349
-0.056692746 -0.034971066 -0.001002165 0.00960932 -0.03901971 -0.09971001 -0.014867182 -0.042080954
-0.05120312 0.038113225 0.019979307 -0.061428454 -0.05066978 0.035015654 0.00835236 0.008159619
-0.010994029 0.012624547 0.042495217 -0.05035273 0.058205422 -0.05495313 0.09425087 0.07295881

linear_relu_stack.6.bias f4 [64]
00000000: 4ff1 5b3d 8ecb 963d 6262 f43c 4a58 7ebd
00000010: 2166 36bd c27d 83bd 9d51 a0bd 6360 afbd
00000020: 6ebe c0bd 2d4e 4b3d cfc5 93bd 942f 4bbd
00000030: 5422 5cbc 35ec c7bd 5e8a 623d 50a2 1fbd
00000040: baa1 a23d 7eb7 50bc fad1 6b3d 009d cf3d
00000050: 33ed 97bd 61db 7e3d fcfc b3bb 4ab6 303d
00000060: b588 863c 2a6a ccbd e7e3 313d 5af4 8fbd
00000070: e91b 883c 9e39 923d 1d4a fd3c 2884 0fbc
00000080: e662 643d 2dc5 be3d 4009 083c 2011 98bd
00000090: a396 863d 95bf 933d afca 803d c234 60bd
000000a0: 6eb4 dc3b 82c4 8b3b d464 093d 32b3 7d3c
000000b0: 036b 7bbc f56a 823d 21b3 6e3c 3255 493d
000000c0: f54e d5bd 29ea f0bb bb5b 253c 0eed 343c
000000d0: ac39 8539 57eb ddbd 8fcb 94bd fac2 efbb
000000e0: 2671 8a3c b395 033d 1aed 4d3d e488 a2ba
000000f0: eb2f 08bd e3ea dabc 39b4 1ebd f9fb 0e3d
0.053696927 0.07363044 0.029832069 -0.062095918 -0.04453099 -0.06420471 -0.078280665 -0.08563306
-0.094113216 0.0496351 -0.07215463 -0.04960592 -0.013435919 -0.0976185 0.05530774 -0.038973153
0.07941003 -0.01273906 0.057573296 0.10137367 -0.07418289 0.062220935 -0.0054928046 0.043142594
0.016422609 -0.09981187 0.043430235 -0.07029028 0.016614871 0.07139896 0.030919129 -0.008759536
0.05575838 0.09314952 0.008302987 -0.07425141 0.065717004 0.07214276 0.06288659 -0.054737814
0.006735376 0.004265369 0.033543423 0.015484618 -0.015345338 0.06368057 0.014569075 0.049153514
-0.104154505 -0.007352133 0.010092671 0.011042846 0.00025410706 -0.10835903 -0.07265388 -0.007316944
0.016899657 0.032125186 0.050274946 -0.0012400416 -0.033248823 -0.02672333 -0.038746092 0.03490827

linear_relu_stack.8.weight f4 [32, 64]
00000000: c0cf b8bd e2cf 6bbd 7ce0 c7bd 7c47 d63d
00000010: c6fb a43d bcfa 12bd c680 013c a9cd dabc
00000020: e2a1 43bd 9b38 713d 1ea2 1b3d 6d83 84bd
00000030: 9349 adbc 6860 503d 55a7 a6bd c150 d4bc
00000040: cfb6 b33d 14c2 733d 31a3 65bc dfd9 613d
00000050: f4f1 c33d 055e b13c 90e3 01be 2195 02bd
00000060: 2bb3 213d 526b fcbb edd6 20bd fd76 ed3d
00000070: e96e 0abe 1524 d9bd 8e38 6d3d 2087 bd3c
00000080: 0059 bb3d 5edb 71bd 7d85 a63d d828 b73d
00000090: 1b03 70bd a468 563d d0b8 123d 8369 0abe
000000a0: b7a6 35bc 0b68 ac3a f353 11be 7dec 15be
000000b0: 1760 d03b 9cf9 e7bd 6e06 86bc 384b 24be
000000c0: c538 0d3c 6e34 493c a6fb af3a 8122 db3c
000000d0: 2ffe f83d 6e35 a2bd f962 0bbd 7738 8ebc
000000e0: 25e1 a23c bbd9 e63c 571f 14bb 58ab 483c
000000f0: 949f 00bd 38c8 d3bd 535f cc3d 521a 0a3d
00000100: 4d5a 003e 6e1f 42bd feb7 423d 5f7d 953d
00000110: 2db0 863d 8962 e8bd 7a3e 0b3e 3c67 1cbd
00000120: ea76 c4bd cba1 39bd f6fe 1abd bb2c 123c
00000130: 0c30 dfbd abf1 333d a463 8b3d e503 94bd
00000140: e601 edbd 270f 583d 045d e8bd 11a0 313d
00000150: 9488 8c3d 1a72 683c 96be 83bb 94aa 183d
00000160: 18ff 693d b3fc f63d a9e0 22bd d7dd 4a3d
00000170: f151 ed3b 2da0 c73d 8aa9 563d baea cdbd
00000180: 850c a73d fb2e ea3d ba6d 16be 6880 853d
00000190: f3f1 e9bd ed43 783d 970d 3b3d 12d8 b3bd
000001a0: ef1a 04be 01b7 d43d 63c0 0fbd dd03 31bd
000001b0: bae5 d43d e668 293d e831 1ebd 6908 e0bd
000001c0: 5394 8fb8 7f70 26be 9920 8cbd 95fb 6c3c
000001d0: c6a8 d73d eca3 a7bd 2c8b 09bd 65dd f03d
000001e0: 03ac 233d bcc4 f2bd b0bd 453d 3b0d 903d
000001f0: 6ff5 f3bd 79e4 bb3d 4811 e5bb fb4d 7cbd
00000200: d576 3dbd ed50 dc3c edb5 a83d 2da2 0f3e
00000210: fa0e 76bb 8adb 67bd 55c2 20be 5808 063e
00000220: 294f 2e3d 2ee3 843d 6a54 143e 1932 4abd
00000230: 38a0 373d c9e6 14bc 9545 953d d6bb ee3d
00000240: e1b2 2abe 8a04 0e3d feb0 58bd 543c c43c
00000250: 8d0f 94bc 64bc c33c d95f 1c3b 989d 93bc
00000260: a85f 373c 7ab1 f53d 4ecb 903d c1af 303b
00000270: 429e c3bd f002 993d 1ac8 073e 2a4f 553d
00000280: 0af1 133d d08b a4bd 54aa 243d 5609 003e
00000290: 9d43 41bd 3074 a73c 05c3 9b3a a3e8 94bd
000002a0: 7b8a 193e a563 66bd 6106 95bd 24d3 833d
000002b0: 5226 e93a a13c 6cbd 35a7 2d3d 1d61 a1bd
000002c0: df1f cebc 2bf4 9f3c 10bb 00be 5c1c b7bd
000002d0: 5f68 f1bd 93d2 703d 0f36 2f3d 5a6b aebd
000002e0: b1b1 2e3d a448 8e3c 5366 20bd ecba 2dbe
000002f0: 9b60 93bd 70f5 b6bb 3aa2 fe3c 7922 273d
00000300: c3a9 e53d 6254 5bbd 5723 09bd 2491 2d3d
00000310: a4ee f6bd 9353 a23b 9b9f 1abc e6c3 6a3d
00000320: cdac b73d 35a5 e03b 2a66 cbbc 9cd4 253d
00000330: bde3 61bd 40c2 34bd 9384 db3d 60e3 f4bd
00000340: 0225 4c3d 8500 2d3e e06c 0c3e 8d2a c03d
00000350: a048 37bd 8284 64bc f193 c33d 6a5f e53d
00000360: 8375 473d 4382 033e 033c 063b e875 2ebd
00000370: 42cb 66bd 0db6 b0bd 4960 063d 0515 2b3d
00000380: 6403 ccbd 95e4 f63c 7d70 b43d 4555 353d
00000390: 4a95 22be 828a 3ebd 3f5c 3e3d 9c64 453e
000003a0: 49e1 0fbe 14e4 bdbc 9b8f d53d 0e0f edbd
000003b0: 6a56 613d b994 cbbd ed50 8a3c 346b dfbb
000003c0: c442 e6bd d12f efbc de4f 04bd 6df7 45be
000003d0: 74a6 a53c 7160 28bd fe3b b9bd 78d5 64bd
000003e0: 0821 1bbd f5c0 babd 97f8 e73d e515 c83d
000003f0: 3589 d6bc dddd fd3d 0cca 763d 3872 1bbc
-0.09024 -0.0575713 -0.09759614 0.10462853 0.080558345 -0.03588365 0.007904237 -0.026709395
-0.047761805 0.058891874 0.037996404 -0.0647038 -0.021153247 0.05087319 -0.08137385 -0.025917413
0.08775102 0.05951126 -0.014015959 0.05513942 0.09567633 0.021651277 -0.12684464 -0.0318805
0.03947751 -0.0077032233 -0.03926747 0.11594961 -0.13518871 -0.10602585 0.057915263 0.023135722
0.09147835 -0.059047095 0.081309296 0.08943337 -0.05859671 0.052345887 0.035820782 -0.13516812
-0.011087111 0.0013153566 -0.1419218 -0.14640994 0.006359111 -0.11326906 -0.016360488 -0.16044319
0.008619492 0.012280567 0.0013426438 0.026749851 0.12157857 -0.07920347 -0.034029935 -0.017360909
0.019882748 0.028179994 -0.0022601688 0.012247883 -0.031402186 -0.10340923 0.09979119 0.033716507
0.12534447 -0.047393255 0.04753875 0.07299303 0.065765716 -0.11346919 0.13598052 -0.03818439
-0.095929936 -0.045320313 -0.037840806 0.008921797 -0.10897836 0.043931644 0.06806114 -0.07227305
-0.11572628 0.052748825 -0.11345866 0.04336554 0.06861988 0.01418736 -0.0040205223 0.03727205
0.057128042 0.12059917 -0.039765034 0.04952797 0.007242434 0.09747348 0.05240778 -0.10054536
0.08156685 0.11434742 -0.14690295 0.06518632 -0.11423101 0.060611654 0.045667257 -0.087814465
-0.129009 0.10386468 -0.035095584 -0.043216575 0.10395379 0.041359805 -0.038621813 -0.10939104
-6.846399e-05 -0.16253851 -0.06842155 0.014464279 0.10530238 -0.081855625 -0.03357999 0.11760978
0.039958965 -0.1185393 0.048276603 0.070337735 -0.11912047 0.09174437 -0.0069905855 -0.061597805
-0.046255905 0.026894057 0.082378246 0.14026709 -0.0037545548 -0.056605853 -0.15699132 0.1308912
0.04255596 0.064886436 0.14485326 -0.049364183 0.04483053 -0.009088227 0.07288662 0.116569206
-0.166698 0.034672298 -0.052903168 0.023954548 -0.018073821 0.023893543 0.002386084 -0.018019482
0.01119224 0.119967416 0.07070027 0.0026960226 -0.0955167 0.074712634 0.13259926 0.05207745
0.036118545 -0.080344796 0.0402015 0.12503561 -0.04718362 0.020441145 0.0011883682 -0.072709344
0.14994232 -0.056247372 -0.07276607 0.06436756 0.001778791 -0.057675008 0.04239579 -0.07879851
-0.025161682 0.019525608 -0.12571359 -0.08940956 -0.11787485 0.05879457 0.042776164 -0.085165694
0.04264993 0.017368622 -0.039160084 -0.16965836 -0.071961604 -0.0055834576 0.031083215 0.04080436
0.1121402 -0.05354727 -0.03348097 0.042374745 -0.12057236 0.0049538105 -0.009437467 0.05731573
0.08968506 0.0068556317 -0.024828989 0.040485963 -0.05514883 -0.044130564 0.10718646 -0.11957431
0.04983998 0.1689473 0.13713408 0.09383116 -0.044746995 -0.013947608 0.09549702 0.111998394
0.048696052 0.1284266 0.0020482547 -0.042592913 -0.056346186 -0.086284734 0.03280667 0.041768093
-0.09961584 0.030138293 0.08810518 0.044270772 -0.15877262 -0.04651881 0.04647469 0.1927666
-0.14050783 -0.023180045 0.10427781 -0.11575137 0.05501405 -0.09940476 0.016884292 -0.0068181995
-0.11243203 -0.029197605 -0.03230273 -0.19332667 0.020220973 -0.0411076 -0.09044646 -0.055867642
-0.037873298 -0.09118835 0.113267116 0.09769801 -0.026188472 0.12395833 0.06025128 -0.009487681

linear_relu_stack.8.bias f4 [32]
00000000: 7898 b8bd 5546 463d bce3 85bd 2bc1 613d
00000010: 877d 22bd 164e 0a3d ebed 563d 6ed0 2c3b
00000020: 6eb9 a13d 1240 83bd 73c0 7d3d 10bc 0dbd
00000030: f34e 4abd 844e 1b3c 98b0 cb3d a524 0ebd
00000040: 9673 e13d 9c63 cc3d 0eab 2fbd f7db c7bd
00000050: b0b9 2ebc 0061 9fbd 1bc4 823d 4b9c febb
00000060: 6090 cf3b 56d1 c43c 1ef1 cf3a ba6c 80bd
00000070: a23a de3d 75dd 1d3d bbca 2b3d 4b48 8cbd
-0.09013456 0.048406918 -0.065375775 0.05511586 -0.039670493 0.033765875 0.05247299 0.002636935
0.07896696 -0.06408705 0.061951112 -0.03460318 -0.049391698 0.009479169 0.09945792 -0.034702916
0.110083744 0.099799365 -0.04288774 -0.09758752 -0.010664389 -0.07782173 0.063850604 -0.0077700964
0.0063343495 0.0240256 0.0015864705 -0.06270738 0.10851027 0.038541276 0.041941386 -0.06849726

linear_relu_stack.10.weight f4 [1, 32]
00000000: e885 b0bd edef 0a3e 2cab 413e e8b5 4bbe
00000010: 4918 4f3d e972 14bb 3978 62bd 6fa9 1f3e
00000020: f35b 65bd fa2b eabd c42e d5bd 41c7 fe3d
00000030: 0dd8 283e d184 5b3e b53a 4ebd 1f9d f0bd
00000040: 87ba 4b3a 46f7 193e 31f6 98bd f873 bb3d
00000050: 661f 15be 37bd 063e a2c5 2bbc 9e81 1ebe
00000060: d113 af3d 2f9f 9b3d 0781 fe3c 19c1 df3b
00000070: 3480 d93d ed53 e0bd 35ca 3abe e628 2fb9
-0.086192906 0.13568087 0.18912953 -0.1989361 0.05056027 -0.00226515 -0.055290435 0.15591978
-0.055995893 -0.11434169 -0.104093105 0.124403484 0.16488667 0.21437384 -0.050348956 -0.117487185
0.000777163 0.15035734 -0.07468832 0.09152979 -0.14562759 0.13158117 -0.010484131 -0.15479133
0.085487016 0.07598721 0.031067384 0.006828439 0.10620156 -0.109535076 -0.18241198 -0.00016704536
