pendulum_model_pinn.pth (torch, 88754 bytes, 11 tensors)

linear_relu_stack.0.weight f4 [32, 3]
00000000: ca94 813e cc5c 553e 98d4 aebe 55ac a1bd
00000010: b7cd 0a3f 53b7 293e 58c6 65bd da5b 03bf
00000020: bfbc 153d a576 e53c 2350 a7be d480 e73e
00000030: 1643 1abe 2717 063f 3fbc c93c e830 923d
00000040: 0cbb 8f3d 0fdd fb3e 8fc8 843e a72c 77be
00000050: 6923 973e b600 0e3f 7bf3 b03e add3 dbbe
00000060: 41ed a5be 4c3e 5b3e 5adc 40bf 5a35 d53b
00000070: 8f0d db3e f302 073f 7469 963e da28 f13e
00000080: 7f49 363f b377 00bf 4ca0 0f3f 9b58 093f
00000090: 0922 943e 6c56 53be 4e6c 163d 97c5 56bd
000000a0: fc7c 023e 475a e43c 5301 84be 9e8a 64be
000000b0: 6766 953e 5acf 433e 6fd0 aabd b0fa 12bf
000000c0: 5623 d5be 74f6 05be 1d31 1bbf 00f1 13be
000000d0: 0ee5 03be 2594 6c3e bf5e 083e 988d e83d
000000e0: 0147 2b3f dfc9 3d3e dd51 253c eb1e 253e
000000f0: 45ee 0b3f 3fc2 f83d cac0 893e 789d efbe
00000100: 4764 b83e cd9a e2be 0bfb 28bd d08e f53e
00000110: f799 92be 0735 d0be edec 98be 0944 29be
00000120: 8a22 cc3e 6b29 e93e f125 b8be a690 d4be
00000130: 9d0c e33d c245 bc3d f82f e2be 1148 9ebe
00000140: 86f3 dcbd b743 b33e 7548 573d 9e78 b9be
00000150: 0b2d e2be 9068 293c 061a 803e 1527 07bf
00000160: b0fa 1a3e 5c12 60be 69c7 563c 7f5e 08be
00000170: 3bd8 133f 10c3 42be b408 e0be 46b7 b8bd
0.2530883 0.2083618 -0.3414657 -0.07894198 0.54220146 0.16573839 -0.05609736 -0.5131203
0.036556955 0.028010676 -0.32678327 0.45215476 -0.15064654 0.5237908 0.024625896 0.071382344
0.07018098 0.49192092 0.25934264 -0.24138127 0.29519203 0.55469835 0.3456076 -0.42934933
-0.32407573 0.21410483 -0.7533623 0.006506604 0.42783782 0.52738875 0.2937733 0.4710148
0.71205896 -0.50182647 0.5610397 0.53650826 0.28932217 -0.20638436 0.03672438 -0.05243453
0.1274299 0.027875079 -0.2578226 -0.22318503 0.2917969 0.19122067 -0.08340537 -0.5741377
-0.41628522 -0.13082296 -0.60621816 -0.14447403 -0.12880346 0.23103388 0.13317393 0.11355132
0.6690522 0.18534039 0.0100903185 0.16125076 0.54660445 0.121464245 0.269049 -0.46799827
0.36014006 -0.4425873 -0.04125504 0.4796052 -0.2863309 -0.40665457 -0.2986826 -0.1652986
0.398701 0.45539412 -0.35966447 -0.41516608 0.1108639 0.09192993 -0.44177222 -0.30914357
-0.10788636 0.350126 0.052559335 -0.36224836 -0.4417499 0.010339871 0.25019854 -0.5279401
0.15134692 -0.21882004 0.0131090665 -0.13317297 0.57751817 -0.19019723 -0.4375664 -0.09019332

linear_relu_stack.0.bias f4 [32]
00000000: b0fb 00bf 58e5 57be 9c04 87be ddee 83be
00000010: d04e 1c3f acc4 54be 6942 7fbd 65f3 a23d
00000020: b894 b93e dcd6 b43e 58b6 e53e 3f4f a2be
00000030: 5603 a9be 0000 bd3d 3738 66be d115 cd3e
00000040: dab8 1739 337c afbd 5d24 b4be 6fe7 6b3d
00000050: 487e d2be 6584 12be d45e 95bd f363 0d3f
00000060: 39fd 233e fad6 ccbc 6614 ad3e 394b e93c
00000070: cbb7 be3d 2b26 69be c8f4 5e3e b804 723e
-0.50384045 -0.21083581 -0.26370704 -0.25768176 0.6105776 -0.2077815 -0.062319193 0.0795658
0.36246276 0.35320175 0.4486568 -0.31701085 -0.33010358 0.092285156 -0.22482382 0.40055707
0.00014469345 -0.08568611 -0.35183993 0.05759376 -0.4111197 -0.14308317 -0.07293478 0.55230635
0.16014566 -0.025004853 0.33804625 0.028478252 0.093123995 -0.22768466 0.21773064 0.23634613

linear_relu_stack.2.weight f4 [64, 32]
00000000: 15c7 27be 7fb8 b5ba 887b b83d 6e6d 033e
00000010: 5b80 2cbe b02f dd3d 9862 efbb 5a01 823d
00000020: d637 9b3d 7461 8cbc 0dd8 933d 5bf2 f7bc
00000030: c1f2 e0bd dfdf 473d 9a3a c33b f4cf 02be
00000040: 9de4 f13c 2704 07be a299 04be 459f 0bbe
00000050: acc6 36be 6345 6dbc 675c 613d d8df 19bd
00000060: 2eda c3bd f0eb e3bd ccaa 39bd d1fe 983d
00000070: d164 f43d ac6f 4ebd 9214 983d cf60 863d
00000080: 4a75 c23b 7265 4abe 59ad a8bd ebe2 9dbc
00000090: bac3 29be 8fc7 6ebc f1ee 6b3d 02e0 24be
000000a0: c65e e6bd a0f7 4fbd 0a74 4dbd ad81 523d
000000b0: 5e4d 2d3c efc3 f13d b2f0 823d bdaf d2bd
000000c0: f9d9 bebd e69f efbd 825b 51be 4b1e fdbd
000000d0: c8f0 173e a1d0 03bd 434f cdbd 73e4 c4bd
000000e0: a48b 09be d54e 01be bcb3 b93d d193 9bbd
000000f0: fa57 cd3d 3c96 713c 924f 7bbe 7336 c3bd
00000100: 519c 113e e9a9 99bd 8104 073e f458 193e
00000110: e2b2 0abd 3fab d33d 4247 1ebe dde1 693d
00000120: 9bfb 153e d778 163d 05b8 9a3d 9f73 2bbe
00000130: 532d cebd 1999 6a3d d060 dfbd 176e 27be
00000140: 7251 2e3e 91a7 2eba 222c 113e 1291 bc3d
00000150: f91c aa3d b98d 273e 6a8d b53c 61bb 2a3d
00000160: 6338 0bbe 75c2 12be a30e 193d 86ef 173e
00000170: 2f60 0a3e ffa7 f43d 32d2 01be d493 bfbd
00000180: 9941 a73d e1df f73b a8a9 23be d67b 19be
00000190: 410c 89bd 32d4 94bd 53a9 4bbe 0f60 0f3e
000001a0: b3d4 333e e821 95bd 7e13 ddbd 550c 93bd
000001b0: f117 853b 1ec7 90bd 2888 0c3d b1ee b8bd
000001c0: c862 28be 1538 003d d09e 0abe 3260 eabd
000001d0: f344 a53c 71f7 033e 6338 2d3e 2fa0 a9bd
000001e0: e88b d2bd fb6d 8ebd c406 5cbd 925d 0bbe
000001f0: 30da 94bd 058c a43d 89dc bebd 710e 2fbe
00000200: 9b08 b9bc 0a77 2dbe b87c c4bd 42fd 953d
00000210: 4356 303e 7fae 1e3d 9475 373e f4c6 023e
00000220: 89e1 073e b75c 833d 0cb1 34be d376 28bd
00000230: edc7 733d 3229 0f3e 8187 d23d cae2 12be
00000240: 70bf cebd f38a 533d b134 c9bc 7317 293d
00000250: b642 2bbe 228b 173e 67bf f83b 6be6 d4bd
00000260: 21b6 413d d973 293e 6c53 a43c 541c 103e
00000270: ea8b 3d3e 324f 6c3d d5de 9abc e801 3b3e
00000280: 7151 583d 5b67 92bc 5ae6 0abe c684 113e
00000290: 1309 9ebc fc99 03be da3d 5d3d 3caa 293e
000002a0: a29e 143e 0e92 87bc bb93 963b a0cd 21be
000002b0: 8bd3 313e 20d6 0b3d 154e debd 5ae4 1bbe
000002c0: 4874 ddbc f7f4 103e 5c53 aa3d 2787 36bd
000002d0: 6be1 2d3d 0798 0fbe d472 a2bd 3296 3fbd
000002e0: b59b bb3d 7b0c 3f3b f9ae 603b c04e 06be
000002f0: f7b7 103e 0f5a ff3d 0ef5 8e3d 981c e0bd
00000300: 60d9 89bd 805c 9fbd aea5 abbd 9436 023e
00000310: 2ecd 233d de54 bdbd b484 6d3d 7999 553e
00000320: 0059 063e 49de 833c 2ab3 143e 4803 693c
00000330: 8973 193e 3ed6 803c e2ca 29be 5361 8dbd
00000340: ba44 69bb 9f4b 3dbe 6295 093e 6615 88bd
00000350: 63cf d83d 7158 e3bd 500c e53d 7b3f eebd
00000360: 93e6 1c3e fe7d b43d 2e22 fbbd 7b47 173d
00000370: 0737 973d faa4 893d 7e32 25bd 23a4 2c3e
00000380: a2c8 233e a9df fdbc 9ed4 9e3d 04ed 19be
00000390: 53d9 bd3d 2bb9 f2bc b563 e3bd 1b2c e2bd
000003a0: ab42 bd3a c0e8 b9bd 73b3 d33d 2b55 acbb
000003b0: 2911 453d e6b7 163d 762f e8bb 0690 ab3c
000003c0: 89e9 9a3d b7c2 e93d 5050 5cbd b453 babd
000003d0: 4615 283e d3b7 18be 0c27 ea3c 1fd3 a83d
000003e0: 7e26 0bbd 1fc6 713c 390f f9bd 444b 5a3d
000003f0: 73d0 9c3d a08e 773d 02ae fdbd 5dd2 3f3e
-0.16384538 -0.0013864188 0.09007937 0.12834713 -0.16845839 0.10800111 -0.0073054545 0.06347914
0.07579009 -0.017136313 0.07218943 -0.030266931 -0.10983802 0.048797484 0.0059579136 -0.1277464
0.029527957 -0.13185178 -0.12949231 -0.13634975 -0.17849225 -0.014481875 0.055019762 -0.03756699
-0.09563099 -0.11128986 -0.0453289 0.07470477 0.11933292 -0.050399467 0.074257985 0.065614335
0.005934392 -0.19765261 -0.082361884 -0.019273242 -0.1657857 -0.014573946 0.05760092 -0.16101077
-0.11248545 -0.050773263 -0.05015949 0.0513932 0.010577528 0.118049495 0.06393565 -0.10287426
-0.09318919 -0.1170042 -0.20445064 -0.123592936 0.14837945 -0.032181386 -0.100248836 -0.09613886
-0.13432175 -0.12627728 0.09067485 -0.07596553 0.10026546 0.014745291 -0.24542072 -0.0953187
0.14219786 -0.07503111 0.13185312 0.14975339 -0.033862002 0.10335397 -0.1545687 0.057100166
0.14646761 0.036736336 0.0755463 -0.16743325 -0.10067239 0.05727491 -0.109071374 -0.1635059
0.17023256 -0.00066625426 0.14176992 0.092073575 0.08306307 0.16362657 0.022162158 0.041682605
-0.13595729 -0.14331992 0.037367474 0.14837465 0.13513254 0.11946105 -0.1267784 -0.09354368
0.08166809 0.0075645302 -0.15982687 -0.14988646 -0.0669179 -0.072670355 -0.19888811 0.14001487
0.17561607 -0.07281858 -0.107947335 -0.071800865 0.004061692 -0.070692286 0.034309536 -0.09029902
-0.16443932 0.031303484 -0.13537145 -0.11444129 0.02017448 0.1288736 0.16916041 -0.08282506
-0.10280591 -0.06954571 -0.05371739 -0.13609913 -0.072681785 0.08034519 -0.093194075 -0.17095353
-0.022587111 -0.16939941 -0.09594101 0.07323696 0.17220406 0.03874063 0.17915946 0.12771207
0.13269629 0.06414168 -0.17645663 -0.041128945 0.059516836 0.13980559 0.102797516 -0.14344326
-0.100951076 0.051646184 -0.024561258 0.04128213 -0.16724667 0.14799169 0.0075911763 -0.10395511
0.047292832 0.16548099 0.02005931 0.14073306 0.18510404 0.057692714 -0.018905083 0.18262446
0.052812044 -0.01787155 -0.13564435 0.14210805 -0.019291436 -0.12851709 0.054014064 0.16568846
0.14513639 -0.016549136 0.0045952476 -0.15801096 0.17365853 0.034139752 -0.10854737 -0.15223828
-0.027032986 0.14155947 0.08316681 -0.044562485 0.042451303 -0.14022838 -0.07932058 -0.046774097
0.09160558 0.0029151726 0.003428398 -0.13115978 0.14132677 0.12468349 0.06980334 -0.10942954
-0.06730914 -0.07781315 -0.0838121 0.12716132 0.039990596 -0.09244703 0.057987884 0.20859326
0.13119888 0.016097205 0.1452147 0.014221974 0.1498548 0.015727159 -0.165813 -0.06903329
-0.0035593943 -0.18485878 0.13435891 -0.066447064 0.10586431 -0.11100853 0.11183989 -0.11633202
0.15322332 0.088130936 -0.12262379 0.036933403 0.073835425 0.0672092 -0.040331356 0.16859488
0.15994504 -0.030990439 0.07755397 -0.1503182 0.09269967 -0.02962931 -0.11103002 -0.11043569
0.0014439424 -0.09077597 0.103369616 -0.0052591763 0.04811207 0.036796473 -0.007085736 0.0209427
0.075640745 0.11414092 -0.05378753 -0.09097996 0.16414365 -0.14913873 0.028583072 0.08243393
-0.033972256 0.014756708 -0.121611066 0.053294435 0.07656946 0.060438752 -0.12386705 0.18732591

linear_relu_stack.2.bias f4 [64]
00000000: adfb 593d 26b0 8ebd b3a3 95bd e662 df3c
00000010: 441b 4b3e ccd9 28be 1cc5 373e 3a18 a7bd
00000020: a0e6 28bc 1bef af3d 051f f9bd b7e3 243e
00000030: 8235 463d d343 c13d b4e0 ed3d bef2 8a3c
00000040: 9a53 18be 7d0f 433e 4086 0f3e a4bd 233e
00000050: 9e5d 36be ec05 263e 2bcc 633d 8c17 033e
00000060: d647 dd3d b926 ac3d a0e0 133e c859 ea3d
00000070: bdc1 92bd 67ef 11be 9a3c cf3d e720 313d
00000080: be4e 04be fb13 243e dea4 debb 40b3 75bc
00000090: 0603 de3d 3a77 bfbd 3e0c a5bd fcc1 3d3e
000000a0: 4617 133e 74ba ca3d 70db 0abe 6853 16be
000000b0: 0bf5 10be 0191 2bb8 de68 1bbe 16ad b2bd
000000c0: 5b0d 963d ac76 393e 4b29 063d bf42 553d
000000d0: 3033 ffbd 949e 38be 6c13 adbd 05f4 d0bc
000000e0: b1d3 f73d 70a9 1b3e b52d bebd b004 80bd
000000f0: d468 9a3d 66e1 123e c371 673d f75b 04be
0.053218532 -0.069671914 -0.07306614 0.027268838 0.1983462 -0.16489333 0.17946285 -0.08158918
-0.010308892 0.085905276 -0.1216412 0.16102491 0.048390873 0.094367646 0.11615124 0.016961452
-0.14875641 0.19048877 0.14016056 0.15990311 -0.1780915 0.16213197 0.05561463 0.12801951
0.10804717 0.08405823 0.14441156 0.11442906 -0.07165859 -0.14251481 0.10118981 0.04324427
-0.12920663 0.16023247 -0.006794556 -0.01499635 0.108404204 -0.093489125 -0.08058976 0.1853103
0.14364347 0.09898844 -0.13560271 -0.14680254 -0.14155976 -4.0904622e-05 -0.15176722 -0.0872442
0.07326766 0.18111676 0.032754224 0.052065607 -0.12460935 -0.18029243 -0.0845097 -0.025506983
0.12100924 0.15201354 -0.09286062 -0.06250894 0.07539526 0.14343795 0.056504976 -0.12925707

linear_relu_stack.4.weight f4 [128, 64]
00000000: 32f5 cc3d 5f83 373d 0c59 03be 425c 58bc
00000010: e89c 91bd 4992 75bd 82a9 9b3d e87e 9c3c
00000020: ff81 f33d f630 0cbe b058 bf3d f01c f6bd
00000030: e21c f43d 867a 673d 9640 cfbd 28e7 8f3d
00000040: a38f fbbd b7c5 4c3c 026e 0bbd 2966 903d
00000050: 776c fabd 0245 ae3d 083b 673d 3bae 683d
00000060: c3de a83d 55fa d03d 6fa4 5dbd 5b33 043e
00000070: f4e1 073d 7ec1 903c 8b49 f1bd e222 033e
00000080: 4595 4c3c 1547 d6bd 50f5 753d 2b3b dd3d
00000090: c3f0 aabc de8a d33c 13b4 563d 94ba ebbc
000000a0: 9ede b83d df63 46bb b601 83bc 54a5 40bd
000000b0: b114 b7bc 08ce c73d bff2 c9bc f289 93bb
000000c0: 307e d73d 67ec bc3d e639 0abd 7629 08be
000000d0: 40aa a33b 434c ca3d 770f e2bd dc9e 04be
000000e0: c7a8 cd3d 1958 e93c a797 c03d 8899 d7bd
000000f0: ae65 a83d 169e 303d 1528 003d fcc8 983d
00000100: 2316 043d cef2 70bb a67a 5cbd bb65 d7bd
00000110: 6017 473a 2c25 a23d 4404 203d b102 973d
00000120: da0f b33d fcae 79bc b302 e23c 9896 a43d
00000130: dc66 e73d e3d6 0e3d 5805 eabd 4224 8a3d
00000140: 66f0 9a3c 88e2 ab3d fdac 0b3d 0246 81bd
00000150: 6bab a83d a462 a5bd 4866 063d 8b1e 50bd
00000160: 68a8 53bd 399b 52bc d62d 0abe 234a 0ebc
00000170: d07e b4bd 2836 f2bd 61d6 883d 646f 9d3c
00000180: d46c 9bbd 1d5a ddbc 3c6c 283d 0516 6abd
00000190: 6a3b 82bc 12c8 903d 067f 8c3d b3fb 95bd
000001a0: 22b8 afbd 2ba2 983c 9aaa 0ebe 3021 c3bd
000001b0: 2ccc f0bd 5e35 a1bd 2ade 83bd 82d8 d0bc
000001c0: e0bf b3bd eb87 57bc e2ff 813d 3401 943d
000001d0: adc0 9abc 9176 aebd 6f35 06bc 3cd2 14be
000001e0: 66b5 1c3c 3bc3 6cbd 499a bebc df4a cabc
000001f0: df04 96bd 7d02 a6bd 34b6 0cbd 1648 0cbb
00000200: a498 c33c 6da8 b73d 4c3d ca3c d75a 8bbd
00000210: 8f70 0b3d ca74 1fbd be55 5d3d 7098 2dbd
00000220: 8b4a afbd a963 47bd d55d b93d ebe2 a93d
00000230: 056f 12bd 40c3 973c e122 cc3d 53e5 863d
00000240: 19af d23d e9dd f83d ac92 c23d 866f 49bd
00000250: 8643 79bd 9d59 0a3e bdf3 8f3d 565f f43d
00000260: 8797 9bbc bf30 b83d 861f cb3c 8ffb 18bc
00000270: 6af3 8f3d df9b 76bc 3574 ee3d 661f a93d
00000280: 2db9 a3bc 9964 a7bd fdd7 42bd 3331 be3d
00000290: 5124 713d 1484 2bbc fc55 4cbd 262d 05bd
000002a0: 6ce1 91bd f004 4a3b efc7 8bbd b483 f7bc
000002b0: 39ac ff3b 7ffa eb3d 1b77 483d c615 413d
000002c0: ecf6 92bd 9e58 43bd 9c66 78bd 9280 8c3d
000002d0: 7119 883d adeb 2e3d f927 273d d6ce 323d
000002e0: 1b30 c2bd 77f2 3d3d 2d03 c13c 106a 7b3c
000002f0: fda3 f0bc d17b ddbd 9fe0 18bd 6b97 c4bd
00000300: db9d 15bd c00b 543d 68f0 8d3d d533 87bd
00000310: 025e 8d3c cef5 89bd 950a af3b 6b65 0abe
00000320: 06be 88bd 7026 6e3c 7b92 7f3d 2195 d33d
00000330: b707 dcbd cc4a 09bd c828 1dbb 30e4 dbbd
00000340: a776 89bd e55d eabc 89d7 183e 58d3 05be
00000350: 9b38 a5bd 81ff 353d a963 b03d 7a46 b6bd
00000360: d212 a0bd d20e f6bd 8503 0b3e 532c 97bd
00000370: 7964 ea3d 1c31 28bd 8b47 7dbc 5c14 fabd
00000380: 888d 6ebd e899 5abd ae38 8e3c 1068 993b
00000390: 5680 e93d abb1 c83c 2646 98bd 6e46 da3d
000003a0: ce0b d93d 114d 413d 3ecf c13d 9a14 b93d
000003b0: 3805 6fbd 8548 2a3d 1fd0 f13c 389f f3bc
000003c0: 70b5 433d de05 9a3d 95cb 9bbd 8153 f43d
000003d0: 5451 3ebd f02c dfbd e26e 37bd b53c 97bd
000003e0: 5c15 bb3d f14d 27bd 153a 9dbd 1bce 0abe
000003f0: a2d0 33bd 4a77 9dbd cc96 a9bd 35c2 abbd
0.10007705 0.04480302 -0.12826937 -0.01320559 -0.071100056 -0.05995396 0.076006904 0.019103482
0.11890029 -0.13690552 0.09343088 -0.12017238 0.119195715 0.05651333 -0.10119741 0.070265114
-0.12283256 0.012498311 -0.03404046 0.070507355 -0.12227719 0.08509256 0.05645278 0.056806784
0.082456134 0.10203997 -0.054111894 0.12910216 0.03317447 0.01767039 -0.11781605 0.12806275
0.0124867605 -0.104627766 0.0600484 0.10802301 -0.020866757 0.025823053 0.052417826 -0.02877549
0.09026836 -0.003027193 -0.015992027 -0.04703267 -0.022348734 0.09756094 -0.024651883 -0.0045025283
0.10522115 0.09224778 -0.033746623 -0.13297066 0.0049946606 0.09877827 -0.11038106 -0.12951225
0.10041957 0.028484391 0.094039254 -0.10527331 0.08222519 0.043119512 0.031288225 0.0746021
0.032247674 -0.0036765817 -0.053827904 -0.105174504 0.00075947307 0.07917246 0.039066568 0.0737356
0.08743258 -0.015239473 0.027589178 0.08036536 0.11298916 0.0348729 -0.114268005 0.06745197
0.018913459 0.08392817 0.03410052 -0.06312181 0.082358204 -0.08075455 0.032812387 -0.050810378
-0.051674277 -0.012854391 -0.13494048 -0.008684668 -0.0881325 -0.11826736 0.066815145 0.019218154
-0.07589117 -0.027020508 0.041118845 -0.057149906 -0.015897471 0.070694104 0.06860165 -0.073233984
-0.085800424 0.018632015 -0.13932267 -0.095278144 -0.11757693 -0.07871507 -0.06438859 -0.025493864
-0.087768316 -0.013154964 0.06347634 0.07226792 -0.018890703 -0.085187085 -0.0081914505 -0.14533323
0.009564733 -0.057803374 -0.023266928 -0.024693904 -0.07325148 -0.08105943 -0.03435345 -0.0021405271
0.023876496 0.089676715 0.024687432 -0.06804436 0.03404289 -0.038929738 0.05403685 -0.042381704
-0.0855914 -0.048679028 0.090511 0.08295234 -0.035750408 0.01852572 0.0996759 0.06586709
0.102873035 0.12151701 0.09500632 -0.049178623 -0.06085541 0.13510747 0.07028911 0.119322464
-0.018993152 0.089936726 0.024795305 -0.00933732 0.070288494 -0.015051811 0.116432585 0.08257942
-0.01998576 -0.08173484 -0.047569264 0.09286728 0.058872525 -0.010468502 -0.04988669 -0.03251376
-0.07123074 0.0030825697 -0.06825244 -0.030214168 0.007802513 0.11522388 0.048941713 0.047139905
-0.07176003 -0.047691934 -0.06064473 0.0686046 0.066454776 0.042705227 0.040809605 0.043654285
-0.09481832 0.04637381 0.023561085 0.0153451115 -0.02937507 -0.10814632 -0.03732359 -0.09599193
-0.036527496 0.05176902 0.069306195 -0.06601683 0.01725674 -0.06736337 0.0053418376 -0.1351525
-0.06676869 0.014535531 0.062395554 0.103311785 -0.10743659 -0.033518597 -0.0023980606 -0.10736883
-0.06712084 -0.028609226 0.1492597 -0.13068902 -0.08067437 0.04443312 0.08612759 -0.08900161
-0.0781609 -0.120145455 0.13575561 -0.07381501 0.11444945 -0.04106246 -0.015458952 -0.122109145
-0.058240443 -0.053369433 0.017361011 0.0046815947 0.11401431 0.024498781 -0.07435255 0.10657965
0.10597955 0.047192637 0.094633564 0.090371326 -0.058354586 0.041573066 0.029518185 -0.029739007
0.047780454 0.0752065 -0.076071896 0.119299896 -0.04646428 -0.10897243 -0.04478348 -0.07384626
0.09134933 -0.040845815 -0.07677094 -0.13555185 -0.04390014 -0.07688768 -0.08280715 -0.083866514

linear_relu_stack.4.bias f4 [128]
00000000: b907 6fbd a009 f03d 6fcc 19bd a30d f03d
00000010: 7446 833d af04 e23d 1168 b33d 1b6b e7bd
00000020: 386d b53b 5be2 9f3d 9c92 a13c 8a21 c7bd
00000030: f33c 053e 4521 8c3c 0d3f 133e 84b9 883d
00000040: a114 653d b0fd dc3d 03a0 8d3d 7f43 40bd
00000050: f0aa a83d 422c 77bb 1771 b23d e239 a6bd
00000060: 001b f4bd abe1 823d caa9 0abd d492 023d
00000070: 8206 963d a62d 67bc 9d93 0d3e 57bc a8bd
00000080: 8949 0f3e 2445 3a3d 1180 f53d 9e50 bebc
00000090: afbb c83d c4c9 063e 362b 903d b1b1 bfbd
000000a0: 6981 fcbd c132 e13d 753a 9a3d ee64 8a3d
000000b0: 9176 c43d 1a12 f0bd e153 3cbd 0fb8 e6bc
000000c0: c556 aa3d 547b 973b dce7 9f3d ffa1 8f3d
000000d0: 16c7 8abb 49c9 9ebc 2d35 1e3d 59fa cfbd
000000e0: df4e e93d 3431 62bd e1ec bebc 963a 5ebd
000000f0: a143 803b ced4 5fbd 8708 99bd b98b 7e3d
00000100: 669a 75bc 6661 e63d aa4c bebd d6cd 003e
00000110: 7818 15bc 1237 34bd 29c4 46bd 6a02 bd3d
00000120: 80d3 543d 899f 7ebd 028b 4dbd 552d 353d
00000130: 8fb6 8a3c b74d 61bd 0f47 013e 7133 8a3d
00000140: 8292 c8bd a6f7 00be 0098 13be daf1 203d
00000150: e262 3a3d 5ee3 403d 8469 ce3d 921d c63d
00000160: c101 043e a596 093e b1cc 84bc 556f 13bd
00000170: f357 61bd 00db 2c3d 8767 83bd c329 c3bc
00000180: 7f02 3d3d d8b5 803c 5c1a a0bd b13a e83d
00000190: 1562 3dbd 4e96 7a3d 4442 133e 44fc 163d
000001a0: 4cd5 aa3d 9189 c3bd 3d38 a13d 6357 f13d
000001b0: 7bec d4bd 4c1a bc3d 625a b53c 37f6 033d
000001c0: d0ce 94bd 9631 61bd 8c38 273c 0c4e ce3c
000001d0: 69c7 bc3d 68d5 0e3e 00fb 873c 8e41 f7bd
000001e0: a595 a03b b628 bcbc 4b27 babc 1d1c 8fbb
000001f0: 3724 04be 19b5 b1bd c1ba 7d3d cd94 c23c
-0.058356974 0.11720586 -0.03754848 0.11721351 0.06409922 0.110360496 0.087600835 -0.112997256
0.0055367015 0.07806846 0.01972323 -0.09723194 0.13011532 0.017105708 0.1437952 0.06676009
0.055927876 0.107905746 0.069152854 -0.04693937 0.08235729 -0.0037715589 0.087129764 -0.08116509
-0.11919212 0.06390699 -0.03385333 0.031878307 0.0732546 -0.0141100045 0.13825841 -0.08239048
0.13992895 0.045476094 0.11987317 -0.0232318 0.09801423 0.13162905 0.07039492 -0.09360064
-0.123293705 0.10996009 0.07530681 0.06757532 0.09592927 -0.117222026 -0.04597843 -0.028163938
0.08317331 0.004622856 0.078078955 0.0701332 -0.0042351587 -0.01938309 0.03862493 -0.10155172
0.113919966 -0.055222705 -0.023306312 -0.05425509 0.003914312 -0.054646306 -0.074723296 0.06214497
-0.014990425 0.11249046 -0.09291966 0.1257852 -0.009100072 -0.04399783 -0.048526917 0.09228976
0.051959515 -0.062163863 -0.050181396 0.044232685 0.016932754 -0.055005755 0.12624763 0.06748093
-0.09793569 -0.1259447 -0.14413452 0.039293148 0.04550446 0.047091834 0.10078719 0.09673609
0.12891294 0.13436373 -0.016210886 -0.035994846 -0.055015516 0.042201042 -0.06416231 -0.023823624
0.04614496 0.01571171 -0.07817528 0.113393195 -0.046236116 0.061178498 0.14380747 0.036861673
0.083414644 -0.09547723 0.07872055 0.11784246 -0.103966676 0.09184703 0.022137824 0.03221723
-0.07266009 -0.05497893 0.010206353 0.0251837 0.09217722 0.13948596 0.016599178 -0.120730504
0.0049006515 -0.022968631 -0.022723814 -0.004367365 -0.1290444 -0.0867712 0.06194568 0.023752594

linear_relu_stack.6.weight f4 [64, 128]
00000000: 5450 0f3d 57f2 10bd c9d3 383c cda4 fe3c
00000010: c685 223d c474 ae3d 2f79 50bd 70f6 e43c
00000020: 7b09 7a3d 54ae 363c fb6a 14bd a6e0 163b
00000030: fc4f 48bd 56d2 dfbd 31db 22bd 0e2c a23c
00000040: 0823 b7bc 43e1 91bd 18ae 19bc 84d0 e13c
00000050: 1628 393d 7173 983d 73ef e03c 7eca cbbd
00000060: 5e33 d53d e6ee cd3d f69e 8bbd cf0c 1fbd
00000070: 6746 beba 07d6 363b 0b86 8abd b3c6 23bd
00000080: d5a6 2f3c 6be2 923d 75c4 b43c 306c 80bb
00000090: 1d1b b63b 837a 3ebd 3ff3 a73d 42de 623d
000000a0: 8463 4c3a e45b cf3c a569 a83d c1c3 8fbb
000000b0: ce8e 9abd d546 3a3d 9bf5 3fbd f69e 07bd
000000c0: e229 1c3d 641c a8bd ae8d 153d edf7 c23d
000000d0: d051 3b3d a82e acbc 5fad 0a3d 5e1f 213d
000000e0: e2bf c93d db74 e43c 06a8 83bd c07e 573c
000000f0: 5421 ad3d df80 21bd 9c64 46bd 858e a2bc
00000100: af7c a33d fd01 5eba 10c1 953d 3991 cebd
00000110: 28f7 3dbc be47 813d 1082 c2bc 4df0 f4bd
00000120: 19ad ca3b 1b8d be3d 9936 08be 3b04 993c
00000130: b8b5 993c bef0 58bc 21c2 1a3e 450a 463c
00000140: 5646 8fbd 9d53 86bd b441 53bc 353d d73d
00000150: 8537 e1bc 5d51 2c3d e897 8b3d 703c 7ebd
00000160: 7a75 2f3d 239f 75bd 99fb 4d3d eaf8 34bd
00000170: 63bc 3e3a 2808 3b3d 22b9 33bc fa62 833d
00000180: ec5d 843d 8c6b bbbc 803f 14bd 3301 43bd
00000190: 8b63 ba3d 5986 c23d 8877 80bd 3315 30bd
000001a0: fa24 a43d 712a 4dbd 614f 0f3d 924c 173d
000001b0: ecd5 c93c b043 3d3d 502f 513c 0ae8 c4bd
000001c0: 3619 14bd 71dd 553d a64d 85bd 6bb4 0f3d
000001d0: 57dd d53d 9f19 c5bc b7ca 82bd ac52 e3bc
000001e0: 1fa7 9d3d d871 083d 3611 173d 81a8 983d
000001f0: 6b84 84bd 8163 79bd f176 47bd c1cb 7e3d
00000200: c0e1 ebbd 16b8 25bd 7a1d e83c 0912 25bb
00000210: 8099 c33c cf58 2f3d 0c07 babd c1ab 873c
00000220: 8c30 ab3d a1f2 24bd 5905 87bd 3f0f e2bd
00000230: d101 333d 07b0 80bd f2ea e53d bed9 04bd
00000240: 1dac 593d 42de 143d c05b 773d 80fc ebbd
00000250: 7fff ae3d 9bb0 843d 1318 613b e802 e9bd
00000260: b505 913d 1323 38bd 5e74 a3bd 282c e13c
00000270: f180 d5bc 81fa 833d 0c25 a1bb 8f38 2bbd
00000280: 4a6c 80bd efeb 74bd 64f2 91bd 2621 643d
00000290: d75a a33d 228d 883d c830 fdbd 125f 923b
000002a0: 689b 2d3d 22ef 653d 3df3 603c a12b 033d
000002b0: 0476 8f3d 3450 f03c 426e 253d 8315 c93c
000002c0: b285 483d 3bb1 9a3d 9ae1 48bb 17f9 7abd
000002d0: b44c 94bd 4993 47bd 73cc 1a3d 5f98 ecbd
000002e0: a3b9 e2ba 60eb 99bd 9ce5 0abe b37e d7ba
000002f0: ef3f f53d 91d2 a7bd a118 8f3d 44b9 51bd
00000300: efef 02be 8067 05bd e302 a53c cadb 3dbd
00000310: 88ff 40bd dd1c f2bd b3a3 abbd df68 10bd
00000320: e228 b63c 7f0d 613d e021 573d 8037 963d
00000330: 13c4 61bd f98b 9c3b bb56 4b3d 27b8 c3bd
00000340: 2ca3 613c 5df6 3a3c 6233 853d 8e8f ee3c
00000350: 862c 6f3d d58e 30bd 143b 2cbc 9e08 0fbc
00000360: fbee 753d 63c1 053d 542f 083e 3508 a8bc
00000370: ba7a fbbb 5a3a 5d3d 9c9a ecbc 56c5 29bd
00000380: 7008 013d 1b42 edbd 2523 823d c4ae 9d3d
00000390: e326 a73d b629 3bbd 247e bf3c 63fd 863d
000003a0: 326c a1bd 8f55 a7bd 460a e03d 593c 00be
000003b0: f4a4 bcbd 143c 4fbc 54c1 4a3b 2cbd cebd
000003c0: d445 0f3d 4f2c 953d d9fc 5cbd 21d1 b9bc
000003d0: cbb2 5abd 2e74 523d 7fff ec3b dfd3 553d
000003e0: 8f86 1b3d b844 0d3d f502 703d e89d d93a
000003f0: 97e3 443d 6b4b 3d3c 3431 743d 78a5 00be
0.034988716 -0.035387363 0.011280962 0.031084443 0.039678358 0.08518365 -0.05089682 0.027949542
0.061044198 0.0111499615 -0.036234837 0.0023022084 -0.048904404 -0.1092879 -0.03975982 0.019796398
-0.022355571 -0.071230434 -0.009379886 0.027565248 0.045204245 0.07443894 0.027457928 -0.09950732
0.10410188 0.10055332 -0.06817429 -0.038830575 -0.0014516831 0.0027898566 -0.06763848 -0.039984416
0.010720928 0.07172092 0.022066334 -0.003919147 0.0055574314 -0.046503555 0.082006924 0.055387743
0.00077968114 0.025312372 0.08223275 -0.0043873494 -0.07546769 0.045477707 -0.046865087 -0.03311058
0.03812588 -0.0820854 0.03651207 0.09519944 0.04573232 -0.021018341 0.033856746 0.039336555
0.09851052 0.027887752 -0.06428532 0.013152778 0.084536225 -0.03942954 -0.048435792 -0.01984335
0.07982766 -0.0008468924 0.073122144 -0.10086293 -0.011594571 0.06312512 -0.02374366 -0.11959896
0.0061851856 0.093042575 -0.13302077 0.018678775 0.018763408 -0.013240991 0.15113117 0.012087409
-0.069958374 -0.06558917 -0.012894083 0.10509721 -0.027492294 0.04206978 0.06816083 -0.062069356
0.042836644 -0.059966218 0.05028877 -0.044182695 0.00072759966 0.045662075 -0.010969432 0.06415363
0.06463227 -0.02287843 -0.03619337 -0.047608566 0.091010176 0.09498281 -0.06272799 -0.042988967
0.08014865 -0.050089303 0.03498781 0.036938258 0.024638139 0.04620713 0.012767628 -0.096145704
-0.036156856 0.052213136 -0.06508951 0.03508417 0.10442608 -0.024060069 -0.06386321 -0.027749382
0.076978914 0.033311695 0.036881648 0.074540146 -0.06470569 -0.06088591 -0.048697416 0.062206034
-0.11517668 -0.04045876 0.028334368 -0.0025187752 0.023876905 0.042809304 -0.09083375 0.01656139
0.08358869 -0.04027045 -0.06592817 -0.11038064 0.043702904 -0.062835746 0.11226453 -0.032434218
0.053142656 0.036344774 0.060390234 -0.1152277 0.08544826 0.06478997 0.0034346625 -0.113775074
0.07081167 -0.044955324 -0.0798118 0.027486876 -0.02606246 0.06444264 -0.0049177464 -0.041801985
-0.062706545 -0.059795316 -0.071263105 0.055695675 0.07976311 0.06667544 -0.1236282 0.0044668997
0.042384535 0.056136258 0.0137298675 0.03202403 0.070049316 0.029335119 0.040388353 0.02454639
0.048955627 0.07553335 -0.0030652047 -0.061272707 -0.072411925 -0.048724446 0.037792634 -0.115525
-0.0017297756 -0.07515597 -0.13564152 -0.0016440958 0.11975085 -0.08194459 0.069871195 -0.051202074
-0.1278684 -0.03256941 0.020142978 -0.046352185 -0.047118694 -0.118219115 -0.083808325 -0.035256263
0.022236291 0.05494451 0.05252254 0.073348045 -0.05511863 0.004777428 0.04964326 -0.09556609
0.013771813 0.011411277 0.06503941 0.029121187 0.05839207 -0.043104965 -0.010512132 -0.008730082
0.060042363 0.03265513 0.13299304 -0.020511726 -0.0076745423 0.054010727 -0.028882317 -0.04144796
0.031502187 -0.11584874 0.063543595 0.076993495 0.08161714 -0.045694076 0.023375578 0.065912984
-0.07881965 -0.08170616 0.109394595 -0.12523021 -0.0921115 -0.012648601 0.0030937986 -0.100946754
0.034978703 0.07283842 -0.05395207 -0.022682728 -0.053393167 0.05138033 0.007232606 0.05220401
0.037970122 0.034489363 0.05859657 0.0016602846 0.04806861 0.011553626 0.059617236 -0.12563121

linear_relu_stack.6.bias f4 [64]
00000000: e8ca 7cbd 5db1 b2bd 2a97 cf3c 663a 2e3c
00000010: be53 8d3d 1831 2dbd 0572 33bd 5473 7abd
00000020: 69e5 6bbd 6e69 a1bb 516d ca3c 31e9 823d
00000030: bc6e babc 9316 0e3d 7cc9 63bd 7169 8cbc
00000040: db01 16bd 032f 463d ff3a 9bbc 7db1 8abd
00000050: c4d6 beb8 29a3 08bd d758 85bd e1ec c0bd
00000060: 74fd 923c f703 0d3d a094 9b3d 70d9 5c3d
00000070: 7055 873d 9e87 51bd 30b0 46bd 04d5 e23c
00000080: e634 cc3b 845f 55bc 027e 053d 98aa 60bd
00000090: 7e28 883c 2ee6 a4bc 844d 893c 8c13 a73d
000000a0: 38e4 843b 4af8 73bd 9f39 1fbd ff87 91bd
000000b0: fd7a 8dbc a291 2c3c ccc8 8e3d a230 933c
000000c0: f7e4 00bd 3648 9e3d d88b e83d 6130 963d
000000d0: 3d54 1fbd ac5e 9fbd dadb db3d a5e5 53bd
000000e0: a98f a8bc 0d37 923c d87f 103d 66db 67bc
000000f0: 9f1b 2e3d 829e 16bc 7f50 a8bd db2b 633d
-0.061716944 -0.087252356 0.025340635 0.01063404 0.06900738 -0.042283148 -0.04380991 -0.06114514
-0.05759183 -0.0049258983 0.02471033 0.06392134 -0.02275788 0.034689497 -0.055612072 -0.017140122
-0.036622863 0.048384678 -0.01894903 -0.067721345 -9.099909e-05 -0.033358727 -0.065110855 -0.09420181
0.017943121 0.03442761 0.07596707 0.053918302 0.06608093 -0.051154725 -0.04850787 0.027689464
0.006231892 -0.013023261 0.032590874 -0.05485019 0.01662087 -0.02012929 0.016760595 0.08158025
0.004055526 -0.05956296 -0.03887331 -0.07106017 -0.01727056 0.010532768 0.06971893 0.017967526
-0.031468358 0.07728617 0.11354798 0.07333446 -0.038898695 -0.07781729 0.10735293 -0.051732678
-0.020576315 0.017848516 0.03527817 -0.01415143 0.04250681 -0.009193065 -0.082184784 0.055461746

linear_relu_stack.8.weight f4 [32, 64]
00000000: a09d 923d b653 85bd c0d3 06be d161 bdbd
00000010: e8a5 34bd 3176 11be b11e b6bd 9d5f 023e
00000020: f0c4 e93d c689 1cbe 9c0a 213e bbfb 10be
00000030: 27da d5bd aaa5 793c eeb2 a43d b8b4 b53d
00000040: abed d73d 5010 62bc 7b59 c53d d48f 22be
00000050: 0304 b7bd 81f9 83bd 56e4 63bd 066a bcbb
00000060: ad33 a4bd 816a da3c 4b93 a3bd 6d54 c23d
00000070: e1ec c33d 45e6 f73d 2c4a b2bd 23f9 c23c
00000080: 2e4a d93c 9a1f 30be 30c0 08bd 7e1f 14be
00000090: 0202 5f3d 4826 5ebd 1e63 efbd 25fc 4c3d
000000a0: e754 c4bd 0d16 c4bc 5116 adbc bd29 67bd
000000b0: 2ccb 9d3c f797 eebb 9f68 05bd 5974 34be
000000c0: bdb7 133d 1481 113e 637c 293e c97e 06be
000000d0: 5c6e 8c3d 6d8c 9a3a 020e f73d 29c6 a63d
000000e0: cd9f ed3d 16ce 13be 4184 b1bd f792 77bd
000000f0: 3905 b23d 8031 0bbd d22b 9ebd cc0b 18bd
00000100: e398 a73d 52b5 d83d 782f 6bbd 1b4c dbbd
00000110: 9ace 703b 110c e53b d306 02be 4554 043e
00000120: 4b69 fd3d 9811 de3d 7520 e7bd ed30 a5bd
00000130: b128 84bc c592 8b3d 169a 8cbd 10f6 c73c
00000140: d871 d9bd d7c6 103d e670 cc3c 46de fdbb
00000150: 86b5 05ba 3371 873d 5a39 bc3c 5bc1 efbd
00000160: f82a 2c3d 162b c3bc 6312 ac3d bf6e 06be
00000170: 905a 083e a8ba b8bd ae7c cb3d 19de 713d
00000180: f3b5 aabd cc86 08be c8c2 20bd d250 04be
00000190: 42af bf3d fa7d ffbd 5c23 fc3d efb9 ad3d
000001a0: c48d 473d 0b63 113e 05c1 873c 38cd ee3b
000001b0: cd21 bc3d af3b c43c 7541 503d 0693 a4bd
000001c0: 704f f43d 5846 1cbd 94f4 a6bd db27 613d
000001d0: c2f0 973d 4847 8c3d f37e bb3d 7e07 853d
000001e0: da85 ecbc 11d8 c0bc 5c38 5abd d61c 5fbd
000001f0: 3269 c0bd 85fa 04be fac7 103d 9f64 3d3c
00000200: e869 00be 4518 cb3d a2b3 903d 9dd0 ccba
00000210: eab8 e6bd e874 f3bd 3df2 523d 6ef0 6b3d
00000220: 8316 a4bc d069 ff3b 0a58 fc3c 2b7f 633d
00000230: a11d 763d 201d 8bbd ce9f 19be 4992 ebbc
00000240: 627f 6bbb 68aa daba 6217 8bbd 5469 873d
00000250: 4670 a53d 2d75 8d3d 06c6 f93d 23cb 2bbd
00000260: 046a 17bd 91ef fbbc 2b60 0abe f643 96bd
00000270: 64cd 083e 5415 12bc ae6e 583d 7a39 92bd
00000280: 5be3 d7bd 2594 603d fc5f 173d e609 afbd
00000290: 7232 913d 5d32 1cbe f087 8dbb 2c9f 42bb
000002a0: a62f cabd 470e e03d 4f88 87bd 23f3 26be
000002b0: 1fb5 12be 1a5a bc3c 4929 c1bc 6587 cebd
000002c0: 1ea3 9f3d 1f02 2bbd 6353 82bd b13c 0ebd
000002d0: 545b d93d 50c0 a2bc 41af 323d d67b b93c
000002e0: 1a18 c13d 0ea3 9ebd c0d8 3ebd f62b 683d
000002f0: 0ff0 063d 151f 1b3d 64f7 863c 72d4 dbba
00000300: 6b2a 80bd 5a5c 37bd cf4e 5b3d 5931 5d3d
00000310: b401 603d 1fb1 e3bd c310 e9bd 13b2 cabd
00000320: f579 ef3d e8ce 8dbd 58cf a83d f7b9 0dbe
00000330: 2634 57bd 3178 9a3d 9aeb 7fbd 372e f53c
00000340: 5a0d ac3c e04a a53d 0dfe e6bd c85b e53d
00000350: 686a b7bd 3e3f 15be 9edd 113e 5a57 d0bd
00000360: e2d5 b3bd 7b8b 923d d70e cebd 1976 423c
00000370: 4893 033e 0c96 d83c 63e2 eb3d f088 a5bc
00000380: 7930 0cbe dc53 06be 2dd0 963c 3bd8 84bd
00000390: 11a4 3e3d cd79 babd 5cc1 6e3d 2f5f 083c
000003a0: 46f4 b63d 0c7c f13d eab8 00bb 8b78 1abe
000003b0: 5950 9e3c 4655 dfbb b317 863d e468 edbd
000003c0: e97a 923c b38b bcba bb8e f13c 39c6 923d
000003d0: ee75 9b3c f32b ecbd e270 783d a5c7 9f3d
000003e0: 83cf 453d 6ab9 a23d d36a fe3d 0a25 b93d
000003f0: c7a0 a9bd c4f6 0dbe c4b0 6ebd 6a56 713d
0.07158971 -0.06510107 -0.13166714 -0.092471726 -0.044103533 -0.14205243 -0.08892573 0.12731786
0.11414516 -0.15286931 0.15726703 -0.14158528 -0.10442 0.015237251 0.08041941 0.0887236
0.105433784 -0.0137978345 0.09636208 -0.15875179 -0.08936312 -0.064440735 -0.05563768 -0.0057499437
-0.08017669 0.026662113 -0.07987078 0.09488759 0.095666654 0.12104467 -0.087055534 0.023800438
0.02652463 -0.17199555 -0.03338641 -0.14465138 0.054445274 -0.054235727 -0.11688827 0.05004515
-0.09586506 -0.023936296 -0.021128805 -0.05643629 0.019261919 -0.007281299 -0.032570478 -0.17622508
0.0360639 0.14209396 0.16551356 -0.13134302 0.06856987 0.0011791118 0.12063219 0.08143265
0.11602745 -0.14434084 -0.086678036 -0.06044289 0.086924024 -0.033982754 -0.07723202 -0.037120625
0.08183458 0.10581459 -0.057418317 -0.10707875 0.0036744238 0.006989964 -0.12697916 0.12922771
0.12373599 0.108431995 -0.112854876 -0.080659725 -0.016132684 0.068151034 -0.06865327 0.024409324
-0.10617417 0.03534588 0.024956178 -0.0077474443 -0.00051005965 0.06613388 0.022976566 -0.117068015
0.042033166 -0.023824256 0.084019445 -0.13128184 0.13315797 -0.09019977 0.0993589 0.0590497
-0.08335485 -0.13332671 -0.039248258 -0.12921456 0.093596 -0.124752 0.12311432 0.0848273
0.048719183 0.14197938 0.016571531 0.0072876476 0.091861345 0.02395424 0.050843675 -0.08035855
0.11929214 -0.038153023 -0.08152118 0.05496965 0.07418968 0.06849533 0.09155073 0.0649557
-0.02887242 -0.023540528 -0.053276405 -0.05447086 -0.093950644 -0.1298619 0.035346963 0.0115596345
-0.125404 0.099167384 0.07065512 -0.0015626136 -0.11265738 -0.118875325 0.051500548 0.05760234
-0.020030266 0.0077945963 0.030803699 0.0555412 0.06008685 -0.067926645 -0.15002367 -0.028756278
-0.003593408 -0.0016682865 -0.06791569 0.066118866 0.08078055 0.06907115 0.12195973 -0.041941773
-0.03696634 -0.030753883 -0.13513248 -0.07337181 0.133596 -0.008916218 0.052839927 -0.07139869
-0.105414115 0.05482878 0.036956772 -0.0854681 0.070897 -0.15253587 -0.0043191835 -0.0029696925
-0.098723695 0.10940223 -0.06617796 -0.16303687 -0.14326905 0.022992183 -0.023579257 -0.10084418
0.07794784 -0.04175007 -0.06363561 -0.03472585 0.106131226 -0.019867092 0.043624166 0.022642057
0.09428425 -0.07745944 -0.046593428 0.05668255 0.03294378 0.03787144 0.016475387 -0.0016771688
-0.062580906 -0.044765808 0.053541955 0.05400214 0.054689124 -0.111177675 -0.1138015 -0.09897246
0.11693183 -0.0692423 0.08242673 -0.13840471 -0.052539967 0.07542456 -0.062480547 0.029929264
0.02100246 0.08070922 -0.11278925 0.111991465 -0.08955842 -0.14574906 0.14244696 -0.10172911
-0.08781029 0.0715551 -0.10061424 0.011868977 0.12849152 0.026438735 0.11517789 -0.020206898
-0.13690366 -0.13117927 0.018409813 -0.06486555 0.046543185 -0.09105263 0.05828987 0.008323475
0.0893331 0.11791238 -0.0019641467 -0.15085046 0.019325422 -0.0068155853 0.06547489 -0.11592272
0.017880874 -0.0014384895 0.029487005 0.07166714 0.018977132 -0.1153182 0.06065453 0.07801751
0.0482936 0.07945521 0.12422719 0.09040268 -0.08282619 -0.13863665 -0.058274046 0.0589203

linear_relu_stack.8.bias f4 [32]
00000000: df7c d33d ca15 f1bd 66d5 f63d c1ef 0ebd
00000010: c41a 1cbd a3e3 e63c 086d 603d df28 8dbd
00000020: a6f8 9f3d b630 4abd 3711 d83d 30aa 4c3d
00000030: 2fc6 953d 29f7 a73d 2bde aabd 57f3 8dbc
00000040: a2a4 7dbd 1ae6 b0bd fad5 d53d 2514 653b
00000050: 8718 c7bd d69c 81bd ea58 d13d 2989 673d
00000060: 0d08 98bd f30e fa3d 25bc 413d dff0 ba3d
00000070: d4d7 8bbd 8db1 babc 2494 99bd b7d9 043c
0.10326552 -0.11771734 0.12052421 -0.034896616 -0.038111463 0.028184718 0.05479148 -0.06892561
0.07811098 -0.04936286 0.105501585 0.04996699 0.07313191 0.08201439 -0.083431564 -0.017327948
-0.061924584 -0.086376384 0.104412034 0.0034954634 -0.09721475 -0.06328742 0.10222037 0.05652729
-0.074234106 0.122098826 0.04729857 0.09127974 -0.06828275 -0.022789741 -0.07498959 0.008108548

linear_relu_stack.10.weight f4 [1, 32]
00000000: 5027 3e3e 5113 053e 6a61 483e 1d69 563e
00000010: 7bf5 ddbd e2fb f13d 9f70 193e ddf5 fabd
00000020: e897 9b3d 1304 333e 6e86 1bbd b391 5c3e
00000030: ef40 16be ba59 c5bd 7f4a 4d3e cba6 333e
00000040: 278f 4fbe ac6d 0c3d ef80 173d 7f56 d63c
00000050: 409f f9bd 8acd 27bd 61bf 03be 3a5f 82bd
00000060: 20de 3ebe d640 0a3e 599f 5fbe 92ce 71be
00000070: 4adc 46bd c074 f8bd a352 17bd 5a63 96bd
0.18569684 0.1299565 0.1956841 0.20938535 -0.10837837 0.11815621 0.14984368 -0.12253926
0.07597333 0.17482023 -0.03797 0.21539955 -0.14673208 -0.096362546 0.20047949 0.17544095
-0.20269452 0.03428428 0.036988195 0.026164291 -0.12188578 -0.0409675 -0.12865974 -0.06365819
-0.18639421 0.13501295 -0.2183813 -0.23613957 -0.048549928 -0.12131643 -0.036944043 -0.073431686
