models/K_autoencoder.pth (torch, 95728 bytes, 22 tensors)

_orig_mod.encoder.encoder.0.weight f4 [64, 2]
00000000: e2c8 05bf 7542 f2bd 60d8 b43e ca00 fc3e
00000010: e0cc 0abf f0c6 8cbe 2b8c 313e 0440 ae3d
00000020: 45b2 8bbe 4ba2 863e 581b 303f 0d3b a2bd
00000030: 00a2 873e e051 88be 1029 1bbf 3ab3 163e
00000040: 60f8 20be 254e 6fbe 4636 75be 1cc0 df3e
00000050: 3063 383f db4e d3bd 0437 33be be4d da3e
00000060: 3ef9 c3be 4836 0abf 591c 09bf 36e1 5d3c
00000070: adf6 fb3e aad5 b83d 9cd6 e23e 61c0 d5be
00000080: c612 11b8 cfba 0b3a 2aa7 453d a14a 0b3f
00000090: 736c 9c3e e64d 0c3f a284 0abf 2832 f8bd
000000a0: 101a 373d 3f2d 8fbd f9e5 1739 6a91 fcb9
000000b0: d301 b0be 36a1 12bf 6ab8 343e 10ca 7abe
000000c0: c684 f5be 1c4c fbbe 751e 903e cc98 823e
000000d0: f1a6 26bf 7409 093e 5382 9bbe 46c9 a9be
000000e0: 2b9b b4be 5303 d73d 1626 03be 80e1 e2bd
000000f0: aebf e53e e2f3 fa3e e27d 19bf 28ff 093d
00000100: d09c 62bd ed63 393e 2008 0e3f 15a5 0b3c
00000110: c54b 12be fa48 08bc 9c9d f9bd 29a6 143f
00000120: c061 93be aa11 3c3e 51b1 053e 056c 663e
00000130: e4f5 86be 6d33 f2be 7896 b0be a6ee 103e
00000140: 6f44 e93e 92b1 e8be b1fe bcbe 02f9 c1be
00000150: a525 02bf 100c 90be 8521 f43e ee14 043e
00000160: b15b cb3d 6df4 043e ef12 05bf 8e09 7abb
00000170: b37d 6fbe c856 7e3e e6f0 08be 65be 603e
00000180: f40f e3be 1df7 0a3f 749a 623e 366e 0dbf
00000190: 1308 07bf 7276 d23e 1c21 143b 32fd 93bd
000001a0: 8c27 94be 01a5 c9bd 9ed9 29bf d1ba 0b3e
000001b0: c451 293e 9e16 efbe ed01 223f a440 753e
000001c0: 9829 30bd 1a54 af3e 5e63 4ebe f703 af3e
000001d0: 07ef 20bf a404 c53e 86d9 253d a2bc a13e
000001e0: b262 4b3e 6ada ddbe 4a4a 6f3e 4c6e da3e
000001f0: f802 16bf 8cff b13d dce1 fb3e 337b bebe
-0.5225965 -0.11829082 0.3532133 0.49219352 -0.54218864 -0.27495527 0.17338626 0.08508304
-0.27284446 0.26295695 0.68791723 -0.07921419 0.26490784 -0.26624966 -0.6060953 0.14716807
-0.15719748 -0.23369654 -0.23946485 0.43701255 0.7202635 -0.10317775 -0.17501456 0.42637438
-0.38276094 -0.53989077 -0.5355888 0.013542464 0.49211636 0.09025128 0.4430436 -0.41748336
-3.4588178e-05 0.0005330266 0.048255123 0.5441075 0.3055149 0.54806364 -0.5410863 -0.121189415
0.04470259 -0.06991052 0.00014486154 -0.00048173527 -0.34376392 -0.5727724 0.17648473 -0.24491143
-0.4795286 -0.49081504 0.28148237 0.255072 -0.6509848 0.13382512 -0.30372867 -0.33161372
-0.35274634 0.10498681 -0.12807497 -0.11078167 0.44872802 0.49014193 -0.59957707 0.0336906
-0.05532533 0.18104525 0.5548115 0.008523245 -0.14286716 -0.00831818 -0.12188265 0.5806604
-0.28785515 0.18366113 0.13055922 0.22502144 -0.26359475 -0.4730486 -0.344898 0.14153537
0.45560023 -0.45447975 -0.36913064 -0.3788529 -0.5083869 -0.28134203 0.47681823 0.12898609
0.09929598 0.12983866 -0.51982015 -0.0038152668 -0.23387794 0.24837792 -0.13373145 0.2194763
-0.4434811 0.54283315 0.22129232 -0.55246294 -0.52746695 0.41105992 0.0022602743 -0.072260275
-0.28936422 -0.09845925 -0.6634768 0.13645484 0.16535097 -0.46696943 0.6328419 0.2395044
-0.043008417 0.34243852 -0.20155093 0.34182712 -0.62864727 0.38480103 0.04049065 0.31589228
0.19861868 -0.433307 0.23368183 0.42662275 -0.5859828 0.0869132 0.49195755 -0.3720337

_orig_mod.encoder.encoder.0.bias f4 [64]
00000000: 1be8 0f3f d87a 043f 830d a0bd 2a96 05bf
00000010: c3b6 cb3e 00ce dfbe 4b28 8e3e ddd3 b7be
00000020: d6bf 84be 94fb f3be e80f f03e 2213 0fbf
00000030: 2d3d 12bf 9a64 2abe bd8b 33bd 2edc 16be
00000040: 0773 6d3a a621 88be 8283 5bbe 166d 45bf
00000050: c82e 193e 5930 7238 6ef2 b5be ab66 563e
00000060: 1864 0abf 7c4c a1bc 475a 0ebf 0331 0cbf
00000070: 648a 0d3c ff5a 363f 992a 43bf d884 dcbe
00000080: eda1 5a3f 8dfb a1be 725c 643f 457f c8bd
00000090: 6586 3b3f 5b50 fbbe 7f84 0dbf 7360 21bd
000000a0: 2153 da3e 075f d33e 93ab aabe 4958 143e
000000b0: 26c5 163f c561 b9be 72c1 1a3f ab5c 66be
000000c0: 5b78 863e 611d d9be ff31 0cbe e19e 433e
000000d0: e57a 20be f279 57be d9e1 553f ce42 2cbf
000000e0: 53f4 953e ab6f 9ebe 31e8 0dbf 3e2c 553f
000000f0: 8dd9 35be 2182 84bd ca5b d7bd 2287 41bf
0.5621354 0.51749945 -0.07815077 -0.5218226 0.39787874 -0.43711853 0.27765116 -0.35903826
-0.2592761 -0.47652876 0.46887136 -0.5588857 -0.57124597 -0.16639939 -0.043834437 -0.1473243
0.0009057973 -0.26588172 -0.21436885 -0.77119577 0.14959252 5.7742323e-05 -0.35536522 0.20937602
-0.5405898 -0.01968979 -0.556065 -0.54762286 0.008638952 0.712326 -0.76236874 -0.43070102
0.8540333 -0.3163723 0.8920356 -0.097899 0.73251945 -0.49084744 -0.552803 -0.03939862
0.42641547 0.41283438 -0.33334026 0.14486803 0.58894575 -0.36207405 0.60451424 -0.22496288
0.262637 -0.42405227 -0.13690947 0.19103576 -0.1567188 -0.21042612 0.8354774 -0.67289436
0.29287967 -0.3094457 -0.5543242 0.83270633 -0.1775877 -0.064701326 -0.10515554 -0.7559682

_orig_mod.encoder.encoder.2.weight f4 [64, 64]
00000000: f0a8 eabd 5c55 1dbe 63b3 f2bd 7f29 a23e
00000010: 577c a5bd d0ca 683e 8483 763c 74d9 95bd
00000020: b7cc 613d f107 063e 3d3c df3d 23ef 393e
00000030: 5f31 4abd 60d8 d8bc 9353 9b3c 5398 213d
00000040: fad7 8fbd 1820 14bf 8caf 4bbe e825 b03d
00000050: 8807 d83c e1c5 4e3d 0f43 883d 588a 2a3e
00000060: 7120 0e3e ff83 a3bd 6384 33be c64c 623e
00000070: 212f 3bbd 912c 1cbe 47c0 9abe a597 a63d
00000080: 2982 40be d581 193e 88e8 09be d9c4 c1bc
00000090: 7e8d 41be 9717 f73d d12e b83d dfde 79bb
000000a0: 1d50 683d 154d 243d 75f9 2ebc 6d16 d23d
000000b0: 0944 e8bd 6d87 e93c 4029 26be ca44 4c3e
000000c0: d92e 2cbe 97fe 633e 5287 8abe af95 e03c
000000d0: 334c 473e e6cb a53d d1c3 04bb 2174 67bd
000000e0: 16f8 a7bd bf85 723d f8c1 b1be 4e0f 2abd
000000f0: 2079 053c 996e 90be f550 ddbd 2998 ce3e
00000100: c214 12bd 0371 84ba 703b 65bc e31c 243e
00000110: cc28 4c3d 430b 913e ce60 d5bd 908c 313d
00000120: 1a84 953d 2ee7 eb3d 460d 1a3d 80af 033e
00000130: 8802 bf3d beed eebc 87ce f63d 58e0 573d
00000140: 75ab c43d 309c 033e bb77 febc 4a54 6b3e
00000150: 7561 55bd 0e02 d9bc a0bb 223e f77f 073e
00000160: 4556 133e f70c d33d 6726 d03d 0d89 1c3e
00000170: b5e6 00bc 005f a13d cd63 8fbe 2838 cf3d
00000180: 0df9 b6bd 1a4f d73d 2cdd 5d3d 706e d6bd
00000190: 560b 533d 13fe 863d 5137 483e d8bd ddbc
000001a0: 37c8 d6bd ad58 3dbd c8cd 763b 8b12 443e
000001b0: 34c3 b1be 8cff 8d3d 686b 403d 875b ed3b
000001c0: 1bb9 51bd 81da 80bc a89d 013e dcc0 053c
000001d0: 233f 2f3e 6339 da3d 1180 c2bd c8af aebe
000001e0: eb7f 0e3c 5196 843c 6cbf a13d bd29 a5be
000001f0: b0ed a03d a587 103e 13ec f33d c962 433e
00000200: b6fa 2ebe ea64 f5bd 902b 0b3d 78d8 91bc
00000210: 70b1 65be 9fe2 433c ffee d2bd 1d7c b5be
00000220: 555d 343e 227a 003e 1cf0 d53d 25bd 2b3e
00000230: b157 123e e641 18be 722c d4bc d18a d3bd
00000240: 1c1e a33c 78aa d73d 8f8e b53c 6680 483e
00000250: aeb0 003d 395d 653d 4553 c73d d83d 473d
00000260: d282 eb3d ca44 913d b867 3cbe 1325 db3d
00000270: 4156 2ebe 4818 ee3c ab0f cebc b6e8 07be
00000280: a1e1 19be 6cfd 9e3d c353 473b 3d67 ba3d
00000290: 473f 003d 602a 9f3d 52fa 0d3e 03cc 32be
000002a0: 7051 efbd bb95 d13c e88c a2bc d83a 573b
000002b0: 9a2c e5bc d80a 923d e085 1abe d33f 8e39
000002c0: db3d c7bd 2639 823e 88c9 49bf 15fc bf3d
000002d0: 506c 32bd 3375 69be 5b36 2e3c 1fc9 e5bd
000002e0: f3c1 83bc 159f 933d 944e 0dbf 0cac 8b3d
000002f0: 9aa0 8f3e 6a85 123d 67ea 29be 37d8 3bbe
00000300: 043e d2bd 96bd 43bc f435 0c3e 17f7 533d
00000310: e0aa f8bd 8190 e03d 48e8 12be 481f fbbc
00000320: fff7 5f3d 0607 67bd 8f53 403d 4ced e33c
00000330: 91b8 a03d 97d1 f43c 6640 413d cc30 8bbd
00000340: c490 b63b 762c dc3d d0d3 7d3d d0f3 f63d
00000350: 3cb8 08bc d6ff a7bd b75d 2d3e 82e3 cebd
00000360: 4d7a 713d f178 3c3e 8adf 473e 2422 9e3d
00000370: 1404 93bd 05ab 263d 0d75 a1bc bba3 353e
00000380: 6008 21bd 0274 9d3e c729 93bd d308 fbbd
00000390: 298b 3a3d 450f 9e3c c1e9 843d 8008 f63d
000003a0: fb95 6fbe e051 413c ee4d a13d 0cb6 243e
000003b0: 0a47 c3be e5c3 8f3d 5514 24be 2c1d b73b
000003c0: 0de3 e43d fa04 43bd 4a00 2bbd 4806 b63d
000003d0: e6e3 3bbd 8b7f 2cbc 5c66 7bbd 1ace 8b3d
000003e0: e2b4 29be f023 633d 3c33 c63d 354c 18be
000003f0: 9f57 8a3d 207f 4b3e fe79 1a3e 8501 46bd
-0.114580035 -0.15364593 -0.118506216 0.31672284 -0.080803566 0.22733617 0.015046004 -0.073168665
0.055126872 0.13088967 0.109001614 0.1815763 -0.04936349 -0.026470363 0.01896075 0.03945191
-0.07023616 -0.5786147 -0.19891185 0.0860098 0.026370779 0.05048168 0.066534154 0.16654336
0.13879563 -0.07984161 -0.1753097 0.22099599 -0.045699243 -0.15251376 -0.3022482 0.08134393
-0.18799652 0.14990933 -0.1346761 -0.023653435 -0.18901631 0.12065046 0.089933045 -0.0038127226
0.056717027 0.040112574 -0.010679592 0.10258184 -0.11341102 0.028506959 -0.16226673 0.19948116
-0.16814746 0.22265087 -0.27056366 0.027415125 0.19462661 0.08095531 -0.0020258317 -0.056507234
-0.082016155 0.05920958 -0.347183 -0.041518502 0.008146554 -0.2820938 -0.10806457 0.40350464
-0.035664327 -0.0010104481 -0.013991222 0.16026644 0.049843594 0.28328905 -0.10418855 0.04334694
0.07300587 0.115187034 0.037610315 0.12859917 0.09326655 -0.029166099 0.12051111 0.052704185
0.09603015 0.1285255 -0.031062951 0.22981372 -0.052094895 -0.026490238 0.15891886 0.13232408
0.14388378 0.10305207 0.10163575 0.15286656 -0.007867505 0.07879448 -0.2800583 0.10118133
-0.089342214 0.10513134 0.054166004 -0.10470283 0.051524483 0.065914296 0.19552352 -0.027068064
-0.10487407 -0.046227146 0.0037659276 0.19147699 -0.3471924 0.06933507 0.04697743 0.007243577
-0.05120192 -0.01572919 0.12657797 0.008163657 0.17113928 0.10655477 -0.09497083 -0.34118485
0.00869749 0.016184958 0.07897839 -0.32258406 0.07857835 0.14114244 0.11910262 0.19080652
-0.17087826 -0.119821385 0.03397709 -0.017803416 -0.22430968 0.011955886 -0.10299491 -0.35446253
0.17613728 0.1254659 0.10446188 0.16771372 0.14291264 -0.14868888 -0.0259001 -0.103292115
0.019911818 0.10530561 0.022162704 0.1958023 0.031418495 0.055997107 0.09732679 0.048642963
0.11499561 0.070931986 -0.1839894 0.10700431 -0.17025091 0.029064313 -0.025153955 -0.13272366
-0.15027477 0.0776318 0.0030414916 0.091017224 0.031310346 0.07771754 0.13865021 -0.17460637
-0.11685455 0.025584092 -0.01984258 0.003284147 -0.02797537 0.071309745 -0.15090132 0.00027131903
-0.09728595 0.25434226 -0.7882314 0.09374253 -0.043560326 -0.22798614 0.010633077 -0.112200014
-0.016083693 0.07208077 -0.55198026 0.06819925 0.28052217 0.035771765 -0.16593324 -0.18344198
-0.10265735 -0.011947056 0.13692456 0.051749315 -0.12141967 0.10965062 -0.14346421 -0.030654564
0.054679867 -0.056403182 0.046954688 0.027823113 0.07847703 0.029885096 0.047180556 -0.06796417
0.0055714566 0.10750668 0.06196958 0.12058222 -0.008344706 -0.08203094 0.1693028 -0.101019874
0.058954526 0.1840551 0.19518867 0.077213556 -0.07178512 0.04069044 -0.019709134 0.1773824
-0.039314628 0.3075257 -0.07185703 -0.122575425 0.04554287 0.01929439 0.064898975 0.1201334
-0.23397057 0.011799306 0.07876192 0.1608507 -0.38140136 0.07019786 -0.16023381 0.0055881944
0.11176119 -0.047612168 -0.041748323 0.08887917 -0.045871638 -0.0105284555 -0.061376914 0.0682642
-0.16572908 0.055454195 0.09677741 -0.1487282 0.06754994 0.19872713 0.15085599 -0.048341293

_orig_mod.encoder.encoder.2.bias f4 [64]
00000000: 7dc4 c2bd 8742 25bd 2061 f03d 12ae 4dbe
00000010: 8500 893d f4fa 893e 7204 3a3d e698 e2bd
00000020: 3b3d 0cbd 32ce a83d 983d ecbd a609 48be
00000030: 49cf b8bd 571a 97bd 9433 debd 8769 bcbd
00000040: f7be a3bd 8249 83bd 12a7 db3d d782 0ebe
00000050: f91f cabc 0639 5cbe 3ee4 24be 2590 52be
00000060: 7d56 89bc c8fe cebd 480f 413e d142 1abe
00000070: 3ef3 46be 1e09 10be 9e3a 01bd 2d4e 6f3d
00000080: f6c3 62be afce bebd 1c3a 79be 26d4 813e
00000090: 7fd5 893e cd3a a53d 79f6 eebd ad51 76be
000000a0: 1e60 013d a7f9 423d 30e7 3ebe 2ab5 4c3d
000000b0: 994c 6cbd 0888 f3bd 02c0 35be d8cc b7bd
000000c0: 9023 4cbd 095f 60be 3170 94bd 3c54 bd3d
000000d0: ce96 16be 3a61 16be 8a24 6abd c1ea 45be
000000e0: acc4 7ebd db66 143e aaa9 0ebe 6efa 7cbe
000000f0: 6340 17bd 329f 113e 8522 88be 0e77 a93e
-0.095101334 -0.04034665 0.11737275 -0.20085934 0.06689552 0.26949275 0.045414396 -0.11064319
-0.03423808 0.08242454 -0.115351856 -0.1953493 -0.090239115 -0.07378071 -0.108496815 -0.09199815
-0.07995408 -0.06410505 0.107252255 -0.13917099 -0.024673449 -0.21506128 -0.16102692 -0.205628
-0.016764874 -0.101071894 0.18853486 -0.15064551 -0.19428727 -0.14065978 -0.031550042 0.058424164
-0.22145066 -0.093167655 -0.24338573 0.2535717 0.26920697 0.08067856 -0.11668105 -0.24054594
0.031585805 0.04760137 -0.18642879 0.04997746 -0.057690237 -0.1189118 -0.17749026 -0.08974618
-0.049838603 -0.21911253 -0.07247961 0.09244582 -0.14705965 -0.14685526 -0.057163753 -0.19327833
-0.06219928 0.14492361 -0.13931909 -0.24704906 -0.03692664 0.14220884 -0.26588836 0.33098644

_orig_mod.encoder.encoder.4.weight f4 [64, 64]
00000000: 7539 debd ce27 fcbd 28da c43d a88d d93c
00000010: 4fed 833b be06 d6bd 5934 b9be 2cec 06bb
00000020: 5d46 bbbd 72da 433e 14df 5dbe 7aed a2bd
00000030: b24b eb3d 10d3 72bc e614 b33d 5108 9d3d
00000040: af8e 71bd 7e94 e93d f03f 973d 418a 04bd
00000050: ddd9 2f3d 1b51 343e 285a c4bd 5096 3f3e
00000060: 13fe f93c e343 eebd 21e9 cebe 96b3 a03c
00000070: 7631 f23d 3893 04bd 8483 3f3b 47e2 0dbd
00000080: 0816 583e 4b3c 9a3e 6b50 60bc 8d33 4f3e
00000090: 5213 81bd cb7e 053c 0a3a 39bb 2b17 2b3e
000000a0: e89d 44bd 702d f4bc 5788 fcbd 8532 5ebe
000000b0: ea57 ea3b f8dd c03d af76 e33d 9682 c3b8
000000c0: 8982 72bd 18d3 22bd 00ff 1f3d 976c 6fbe
000000d0: e1d3 31bc ffea 96bd d302 db3c 215c 833d
000000e0: c31a 4ebd 86fa ff3d 2789 073b 585b 853d
000000f0: 3956 8fbd cd2f e73e baae 2e3d 5190 433e
00000100: 6b92 f3bc 8911 01be 149b 2cbe 40f6 8bbd
00000110: 3771 f03d f9d5 99bc 3d92 30be 4281 c4bc
00000120: 38a7 afbc 74de b2bd e80d 79bd a804 2a3e
00000130: de33 b8bd fdcb 123e a7b3 5cbb d931 be3d
00000140: 7e39 153c c171 10bd e81a cebd 6331 eb3c
00000150: 7f86 2fbb d2c2 7d3e 144d 0b3d 9008 a4bd
00000160: fdaf f63d a587 d5bd 5535 1cbf 02ca 75bd
00000170: 0a91 573c f1fb bb3d 798f 83bd 0068 6cbd
00000180: 80c9 aebc 8247 bb3d 0ed4 453e d712 9abe
00000190: 1af4 44be aef9 7e3e 38fc f2bd 1e26 08bd
000001a0: c232 0dbd feaf 35bd aba9 473e 6739 803e
000001b0: 5710 cdbd ac7f 9dbc 0648 d9bd c1bf 0e3d
000001c0: b357 a73d 750b a43d de18 c1bd 5350 6dbd
000001d0: e84e 83bd 0974 59bd d2bd efbd bec8 683c
000001e0: 26f0 cdbd 29b8 6b3e c0c3 d5bc 555c 89bd
000001f0: 935e 2abd 6df9 803d ecc0 b63d 075f bfbd
00000200: 409b b73e 9aa3 3fbd 2291 db3e f89a 86bd
00000210: bc71 02be 0f66 cf3d cf67 983e 90b3 1c3e
00000220: 3f02 203c e829 1bbe ba0f 333e e1e2 403e
00000230: dc5b e8bd 79f3 593d b646 96bd b6a4 cdbc
00000240: 9260 803d b168 c43d ec6c 01be 2bb0 473d
00000250: a540 6dbd 41df 233e 5d54 3fbe c9e1 7d3d
00000260: 9a78 0a3e 8a79 0b3e 384a 11bf 4c28 79bd
00000270: 4c79 853d 0150 1ebe 2650 003e ac38 1c3d
00000280: b4c5 053e 39aa 083e e6ed b13d f4e0 513d
00000290: e14b 463e eeab 903d 2510 843c 8829 773d
000002a0: 4acb 4fbe 37ce 30bd c1e7 a2be c5b8 6b3c
000002b0: 13a9 6bb9 48a8 1cbb 947c 1abd 952f d63d
000002c0: 6193 a13d c03c 4c3d 46b6 88bd 937b 2b3e
000002d0: cb46 cebc 0c1b d63d 5a98 593e 9f10 15bd
000002e0: 4d46 62bd a329 733d 103d 963c 32c6 22bd
000002f0: 5a60 4a3d cb2c 6d3d e69e 06bd c6fb 243b
00000300: b602 f23d 3fb1 29bd 41d8 a43d b68c 26bd
00000310: 7058 2fbb 6ed4 c9bd 1c0e b0bd 19ab 96bd
00000320: 004a c33d fa94 20bc 153d cabd 3152 f2bc
00000330: d1bd 293e 4c71 493d 40f7 95bd f8dc 98bc
00000340: 76a6 49be ad51 e7bd 6ea8 6a3c b550 40bd
00000350: 7e70 783c a1a6 5c3d 098e f4bd 31fb 10be
00000360: a866 59bd 884e 1c3e 35c7 af3e a31c c13c
00000370: 1c92 34be 4487 cdbd 9ee4 80bd e6bf 163d
00000380: 438b 933d 2e58 cdbd 7299 133e 4ca8 ccbd
00000390: db42 ac3d 296a 03be afef 84bb 4da3 7d3d
000003a0: ebd0 a43d 861d f6bd 86be 83bc a9d8 15bd
000003b0: f0d1 963d 12f7 21be d055 cbbd 7a57 243d
000003c0: 7fb3 343e 0d2f 3e3d 888e bb3d 7d94 ba3b
000003d0: 4251 dd3d 91d7 783d 860f 1bbe 245e 19be
000003e0: 8f8b 343e 4aeb 233b 40b0 f13c 1f35 b7bd
000003f0: 71fc 01bd 7711 323c 8656 a33d 4c87 2f3e
-0.10850803 -0.1231228 0.096119225 0.026556805 0.004026092 -0.10450505 -0.3617275 -0.0020587547
-0.0914428 0.19126299 -0.21667129 -0.07955451 0.11489047 -0.014820829 0.087442204 0.07667602
-0.058973964 0.11405276 0.07385242 -0.03235841 0.04293238 0.17609064 -0.095875084 0.18709683
0.03051666 -0.11634042 -0.40412238 0.019616883 0.1182584 -0.03236696 0.0029222677 -0.034639623
0.21102154 0.30124125 -0.013691048 0.20234509 -0.06302513 0.008147906 -0.0028263354 0.16708057
-0.048002154 -0.029806823 -0.12330692 -0.21698959 0.0071515935 0.09417337 0.111066215 -9.322648e-05
-0.05920652 -0.039752096 0.039061546 -0.23381267 -0.0108537385 -0.07369041 0.026734745 0.064140566
-0.05031849 0.124989554 0.0020681114 0.06511563 -0.069988675 0.45153657 0.0426471 0.19098021
-0.029732903 -0.12604345 -0.16856033 -0.06834078 0.11740344 -0.018778788 -0.17243285 -0.023987416
-0.02144204 -0.08733836 -0.060804278 0.16603339 -0.08994268 0.14335628 -0.0033676417 0.092868514
0.0091079455 -0.035264734 -0.10063726 0.028710073 -0.0026783047 0.2478135 0.034009054 -0.08009446
0.12045286 -0.10426263 -0.6101888 -0.060007103 0.013157139 0.091789134 -0.064238496 -0.05771637
-0.021336317 0.091444984 0.19319174 -0.300925 -0.19233742 0.24899933 -0.11864513 -0.033239476
-0.034472235 -0.044357292 0.19498317 0.25043795 -0.10012882 -0.019225918 -0.106094405 0.03485084
0.08171024 0.08009998 -0.09428571 -0.05793793 -0.064115345 -0.053089175 -0.11706127 0.014208017
-0.1005557 0.2301947 -0.026094317 -0.06707064 -0.0415941 0.06297574 0.08923516 -0.09344297
0.35860634 -0.046786882 0.42884165 -0.06572527 -0.12738699 0.10126888 0.297667 0.15302873
0.0097661605 -0.15152705 0.17486468 0.18836547 -0.11345646 0.05321071 -0.07337706 -0.025102954
0.06268419 0.09590281 -0.12639207 0.04875199 -0.057922978 0.16003133 -0.18684526 0.061982904
0.13522568 0.13620582 -0.56753874 -0.060829446 0.06517276 -0.15460207 0.12530574 0.038139984
0.13063699 0.13346185 0.08687954 0.051239923 0.19364883 0.07064043 0.01612098 0.06034234
-0.20292392 -0.04316541 -0.3181744 0.014387314 -0.00022474331 -0.0023904014 -0.037716463 0.10458294
0.078894384 0.049862623 -0.06675391 0.16746359 -0.025180241 0.104543775 0.21249524 -0.036392804
-0.055242825 0.05936588 0.018339664 -0.039739795 0.049408294 0.057904046 -0.03286638 0.0025174483
0.11816923 -0.0414288 0.0804906 -0.040661536 -0.0026755594 -0.09854971 -0.08596441 -0.07356853
0.09535599 -0.009801144 -0.09874932 -0.029580208 0.16576315 0.049180314 -0.0732255 -0.018660054
-0.19692406 -0.11294875 0.014322383 -0.04695197 0.015163539 0.053869847 -0.119411536 -0.14158322
-0.053076416 0.15264332 0.3433167 0.023573225 -0.17633861 -0.100355655 -0.06293605 0.036804102
0.072042964 -0.100265846 0.14414003 -0.099930376 0.08411189 -0.12833466 -0.004056893 0.061923314
0.080476604 -0.1201735 -0.01608206 -0.036583576 0.07364261 -0.15816906 -0.09928477 0.040122487
0.17646597 0.04643159 0.09158045 0.0056939707 0.10806514 0.060752455 -0.1514264 -0.14977318
0.17631362 0.002501207 0.029502988 -0.08945679 -0.031734888 0.010868422 0.079754874 0.17141455

_orig_mod.encoder.encoder.4.bias f4 [64]
00000000: 136d 1dbe e6d5 71bd 9198 cdbc 5215 b13d
00000010: dfd0 18be 1608 9dbd 6c91 763e f66e 9dbd
00000020: dcc0 07be a8e7 d33c 5da3 4abd 3108 03be
00000030: 10a8 613d 8083 ddbd 2b2c eebc 9091 08be
00000040: df9b 593c c4eb 34bd b922 20be 5ce0 cbbc
00000050: 93be ec3c 5c03 063e cfd5 ffbd 4f93 15be
00000060: e88b 45be 04d2 6dbe d337 c4bd f5c1 073d
00000070: f4f3 6ebb c341 c13d 96c5 993b b9b1 003d
00000080: 6a0e 633d bd77 803e 4824 88bd 98ab c9bd
00000090: fc89 f6bb cca3 22be 0d55 3abe ca2f 1cbe
000000a0: ea5d a8bd f434 8dbd 0f2f 883e c8d7 debd
000000b0: e84f 753d 4084 fabd fb37 38be f173 3e3d
000000c0: 2405 c5bd 9bf6 b5bc 8f58 5ebd f351 11be
000000d0: c5a3 163d 9a6e cfbd 8f5c ae3d a1ce e9bd
000000e0: b19e 9abc b7c7 93bd 726f e7bd bb2d 5e3e
000000f0: d3a0 d6bd 1e48 d43d 0240 04be eebb 16be
-0.1537364 -0.05904188 -0.025097163 0.08646645 -0.14923428 -0.07667558 0.24078912 -0.0768718
-0.13257164 0.025867298 -0.0494722 -0.12796094 0.055091918 -0.10816097 -0.029073795 -0.13336778
0.0132817915 -0.044170156 -0.15638246 -0.024887256 0.028899467 0.13087219 -0.12491953 -0.14606975
-0.19291651 -0.23224646 -0.0958096 0.033143956 -0.0036461325 0.09436371 0.0046927435 0.03141949
0.05543367 0.25091353 -0.06647545 -0.09847182 -0.0075237732 -0.15882796 -0.18196507 -0.15252605
-0.08221038 -0.06894866 0.26598403 -0.10881001 0.059890658 -0.12232256 -0.17990105 0.04649729
-0.09620121 -0.022212317 -0.054283675 -0.14191417 0.036777277 -0.101285174 0.08513748 -0.114163645
-0.018874498 -0.07215827 -0.113005534 0.21697132 -0.104798935 0.10365318 -0.12915042 -0.14720127

_orig_mod.encoder.encoder.6.weight f4 [2, 64]
00000000: 2607 85bd 5f5b 7e3d d50a a23d 3809 ebbd
00000010: 8f11 3abe 89f1 f03d b29c 9cbd 56e0 2a3e
00000020: ce7b cebc 4ceb b93d ea99 e43d 627c 80bb
00000030: 8ac7 c0bd 7467 2f3e c271 a5bd db1b c73d
00000040: c140 a53d 5909 f33d c216 ebbd 0fb0 43bc
00000050: 3284 b0bd 9d2c e13b 9c8d d8bc cb19 203e
00000060: 3ef5 25bd 0d50 bdbd 9c46 0c3d 8b35 c03d
00000070: d4f8 593d c74c db3d 9174 88bd f758 413d
00000080: 9265 d2bc d43a 72bc d8d2 2dbe 3382 043e
00000090: bd56 cf3d 4d43 4bbe bd29 14be eb89 f1bd
000000a0: 3216 3aba 7c79 2f3e 0959 f83d fa09 fdbd
000000b0: b2bf e73d 4ae8 b13c d86f b33d cedd 0abe
000000c0: 019c 353a 2cc2 7cbd 91ca 013e 6347 fb3d
000000d0: 7d64 883d a5b7 0d3e 7af4 b73b 5216 15be
000000e0: 38b4 383e 2b66 d2bd 396b aebd 55cf 12be
000000f0: d7c0 dc3d f7ed 24be 92ae bdbd 2713 29be
00000100: 0b43 67be 4690 873c 5f94 83bd 744b 073d
00000110: 5e09 0ebe 3938 42be 2061 2cbf 621c 3ebe
00000120: 9c8a b6bd fa4c 74bd c421 2bbe 6928 90be
00000130: 97f9 aa3d 648b d33c f50b 4abb 57f6 1f3c
00000140: b250 4b3e ae1a 6a3d 1b90 f13d a932 6bbe
00000150: 6b0c 913d 601f 95be b586 7dbd c7ff 9ebc
00000160: f287 a13e ec33 e13e 5f53 1dbe 7e46 303e
00000170: d368 00be 3e5f 95bc 2bd2 f83d adc7 0cbe
00000180: 7b3f 21be 394e a23e 2152 713c 7972 e8bd
00000190: d628 483e 1667 873c ae06 6ebe b659 e13d
000001a0: ff3e 173e a319 9dbd fab3 aebe 3ed4 e6bd
000001b0: 297e 5d3c 0637 0cbe ca2e 2a3e dbf3 55bd
000001c0: 4c80 a839 f6e9 52be 2c8c a8bd dad0 a73e
000001d0: 6240 0b3e 25cb f73c 1653 d03d d011 6d3d
000001e0: 96ed 11be ab5b 65b9 1fca 733a 8d4c 6cbe
000001f0: 9a1e 293e 8cf9 e73c 17e5 233e c56c e13d
-0.06495504 0.062098857 0.07912222 -0.11476368 -0.1817076 0.11764819 -0.07647075 0.1668714
-0.025205519 0.090780824 0.11162169 -0.0039210776 -0.09413059 0.17129308 -0.08078338 0.0972211
0.080689915 0.11867017 -0.1147895 -0.011943831 -0.08618964 0.0068717734 -0.026434712 0.15634839
-0.040517084 -0.09243784 0.034247026 0.093852125 0.053215817 0.107080035 -0.06662858 0.047203984
-0.025683198 -0.0147845335 -0.16974962 0.12940292 0.10123966 -0.19849892 -0.14469047 -0.11793884
-0.0007098644 0.17136186 0.12126357 -0.123554185 0.1131586 0.02171721 0.08761567 -0.13561174
0.00069278484 -0.061708614 0.12674929 0.12269475 0.066597916 0.13839586 0.0056138607 -0.14559296
0.18037498 -0.10273393 -0.08516545 -0.14336903 0.10778969 -0.16106401 -0.09261812 -0.16511212
-0.22584169 0.016548287 -0.06424784 0.033030942 -0.13870761 -0.1896676 -0.673357 -0.18565515
-0.089131564 -0.059643723 -0.167121 -0.2815583 0.08348387 0.025823303 -0.003082988 0.009763322
0.19855002 0.05715435 0.11795064 -0.22968544 0.07082447 -0.291255 -0.061896045 -0.019409074
0.3154903 0.43984926 -0.15363835 0.1721439 -0.12539987 -0.018233892 0.12149461 -0.13748045
-0.15746872 0.31700304 0.014729054 -0.11349959 0.19546828 0.016528647 -0.23244736 0.11003439
0.14770125 -0.076709054 -0.34121686 -0.11270951 0.013518848 -0.13692865 0.16619411 -0.05223451
0.00032139046 -0.20597062 -0.08229861 0.3277653 0.13598779 0.030248234 0.101720974 0.057878315
-0.14250788 -0.00021873291 0.0009299833 -0.23076077 0.1651558 0.028317235 0.1600536 0.11007074

_orig_mod.encoder.encoder.6.bias f4 [2]
00000000: 414c 7b3c 559f d33d
0.015338005 0.103331245

_orig_mod.decoder.decoder.0.weight f4 [64, 2]
00000000: 77c4 533d c50a b93e 1c21 b6bd f584 1dbf
00000010: 9f49 37bf f950 a33e 3b4b 0d3f b912 e9be
00000020: 53db 1fbf b021 69be 09df 6cbe f660 cdbe
00000030: d02a fabe 8e57 983e 4b48 2abf d78e 05bf
00000040: 8db8 6a3e 9f76 01bf 35f1 a6be 2be2 d73c
00000050: a530 e6bd 138d 8c3e f054 39be 6c61 0fbf
00000060: 9069 a43d a9ed 80bf a0e5 17be a17f 99be
00000070: 7092 563d c097 08be 4c88 e4be d69d 2f3f
00000080: 9c8b 563e 56a0 9c3e 6ca6 d63d 49aa 09bf
00000090: e76d bcbe 1378 7a3e 9da1 ecb9 512f 233f
000000a0: ca30 81be c4bc 34be 7b3d b43b a895 e93c
000000b0: 405c cd3e b2cb ed3d d797 02be 3251 643e
000000c0: b510 dc3e 68ea c8bc 0c41 00bf 2bac f4be
000000d0: a0cb 343f b124 043f 09f0 99be 6aba 4ebf
000000e0: 1350 d4be 4f5b a83e f49a 8abd 792a 0cbf
000000f0: f308 393e c90a 9c3e a0c2 963e b85a 0cbf
00000100: 2a97 efbe c141 873e 6731 0abe 3575 883e
00000110: ec27 2c3e 4e42 0a3d 9ac5 8d3e 82d5 15bf
00000120: b668 26bf 6478 1fbd 19d6 88bf b247 5bbe
00000130: ce55 16bf f5ed 39bf b193 eebe 0a05 2abf
00000140: f75c 0b3f 1835 203f f54d 0bbf 247a 3d3e
00000150: aebd 3cbf 8934 553e a443 bd3e cdc5 a8be
00000160: 0aab 0bbf 9764 a8be a54e 00bf 6de0 b3be
00000170: 0898 053c 6e92 e6be acca 11bf a4b1 a2bd
00000180: caf5 c43e 641e d43e d6b9 4a3e 54e2 98be
00000190: cf41 23be 4bc0 ba3e 2b62 813c 161a 19bd
000001a0: b2f5 233f 8e4f 403f e285 e53e 57db b5be
000001b0: 3150 053f 0528 ea3d 803b 363d 863c 083f
000001c0: 2621 d1bc 453c 42bf d977 a3be 5b82 0c3f
000001d0: 21c8 c73e 4342 da3e 8251 9bbe e801 7cbe
000001e0: 0986 04bf 20a9 debd 8a27 183f 8a38 ccbe
000001f0: 1b10 d83e 00e2 a93d 3c3e a2be 3f06 91be
0.051701035 0.3614103 -0.08893034 -0.61531 -0.7159671 0.31897715 0.5519292 -0.45522097
-0.6244404 -0.22766757 -0.23131956 -0.40113038 -0.48860788 0.297543 -0.6651656 -0.5217108
0.22921963 -0.50571626 -0.326059 0.026352962 -0.11239747 0.2745138 -0.18098807 -0.5600803
0.08027947 -1.0072528 -0.14833689 -0.29980186 0.052385747 -0.13339138 -0.44635236 0.68600214
0.20951694 0.30591077 0.10480961 -0.5377546 -0.368026 0.24459867 -0.0004513384 0.63744074
-0.25232536 -0.17650133 0.005500493 0.028513744 0.40109444 0.116111174 -0.12753235 0.22296599
0.42981496 -0.024525836 -0.50099254 -0.47787604 0.7062321 0.51618487 -0.30065945 -0.80753195
-0.41467342 0.32882163 -0.06767836 -0.5475231 0.1806982 0.30476978 0.29445362 -0.54825926
-0.46795017 0.26417354 -0.13495408 0.26651922 0.16812104 0.03375464 0.2768982 -0.5852891
-0.65003526 -0.038933173 -1.0690337 -0.21414068 -0.5872468 -0.7262872 -0.46597055 -0.6641394
0.5443873 0.62581015 -0.5441583 0.18503624 -0.7372693 0.20820822 0.36965668 -0.3296341
-0.5455786 -0.32889244 -0.5012 -0.3513216 0.008153923 -0.45033592 -0.5694988 -0.079440385
0.38468772 0.41429436 0.19797453 -0.29860175 -0.15943073 0.36474833 0.01579388 -0.037378393
0.64046776 0.7512139 0.44828707 -0.35518906 0.5207549 0.11433414 0.044490337 0.5321735
-0.025528502 -0.75873214 -0.31927374 0.54886407 0.39019874 0.4262868 -0.30335623 -0.24610102
-0.5176702 -0.10872102 0.5943533 -0.39886886 0.42199787 0.08295059 -0.31688106 -0.28325078

_orig_mod.decoder.decoder.0.bias f4 [64]
00000000: 5306 3cbf 74ba 633f 7b70 153f 72d1 443f
00000010: 4d26 173f 54df 5a3f ad77 4abf feb1 9cbe
00000020: 6a36 85bf b702 983f df6e e3bd dc6e 37be
00000030: ceec 083f 26f7 e43d 068f 8dbd a3f3 5ebf
00000040: a90a 1cbf 4e9f 80be 9c6a 513f f204 013f
00000050: 5456 8bbf 6e0a 803f 138b 993e 3f91 10bf
00000060: 97e1 543f aa40 41bf 189a 873e e965 47bf
00000070: 3a61 59bf 392b 473d 5b1d 0dbf f20f 1f3e
00000080: daad 983d 9eb9 1ebf 5d9c 22be 3422 113e
00000090: 73f0 30bf 54d9 65bf 8fe3 49bf 99e6 f9be
000000a0: 280d 09bf c837 57be 9770 54bf adf6 56bf
000000b0: 91f4 543f 2300 97be 9cf6 5abf 533b ed3e
000000c0: b656 c03d a551 903e d51d 2c3f 4bc0 c63f
000000d0: 7f55 52bf 20de be3e 511f 423f 526b 93be
000000e0: 84cb 7dbf 6111 073f 8123 8dbd b66e 74bf
000000f0: e34f 813f 2363 3cbf 5004 8ebf 12be 0a3f
-0.7344715 0.8895638 0.58374757 0.7688209 0.5904282 0.8549702 -0.7908886 -0.30604547
-1.0407231 1.1875829 -0.11105131 -0.17913383 0.53486335 0.11179952 -0.06912045 -0.8709051
-0.60953766 -0.2512154 0.818033 0.5039817 -1.088572 1.0003183 0.29988918 -0.5647163
0.8315672 -0.75489295 0.26484752 -0.7788988 -0.8491398 0.048625205 -0.5512292 0.15533426
0.074550346 -0.6200198 -0.1587996 0.14173204 -0.69116896 -0.8978474 -0.7886285 -0.48808745
-0.535357 -0.21017373 -0.829843 -0.8397015 0.8318568 -0.29492292 -0.85532546 0.46334323
0.09391539 0.2818729 0.6723302 1.5527433 -0.82161707 0.37278843 0.75829035 -0.28792816
-0.99138665 0.52760893 -0.068915375 -0.9548143 1.0102504 -0.7358877 -1.1095066 0.54196274

_orig_mod.decoder.decoder.2.weight f4 [64, 64]
00000000: 335b 44be e44e 21be 2bd1 c2bd a11e a83d
00000010: a8ea 73be 286f 303d d144 cb3d 87ca f4bd
00000020: 1861 7d3e 99f4 b2be 8ce3 133e 9bcb a93d
00000030: a46d 17be 8d9f e4bb caa5 783d 0e76 053e
00000040: 6b90 053d 40b3 753e bdf0 fabc a1fc f4be
00000050: e31a 253f 781a 7abe b587 0ebe 66e9 903e
00000060: 46a5 2e3e ea2f 383e 5215 dcbe c32b 743e
00000070: 625e 013d e021 2b3d 469d 2b3e 6187 603d
00000080: 1ee4 d83d 5066 af3e b73a 09be 7ae2 0f3e
00000090: bcb3 103e a5d2 a93d 2957 b13c 010c 593d
000000a0: 82d0 973d 93c9 d23c 4fad 2e3e 7528 2b3e
000000b0: 83ab 1ebd 5220 a0bd 1823 5c3e 0ef3 0b3d
000000c0: 5f04 783c de03 e23d 883d 633c 353e 2ebe
000000d0: 0096 d63d f41e e53d bd0b 76bd faf8 c5be
000000e0: 69bf bebd b1f8 943c 6d25 37bd 0c2d 823e
000000f0: be10 77be d8dd 163e 9300 8abf a9c4 ebbd
00000100: f8a1 a0bd 25a9 98bc 5198 e63d e181 04be
00000110: 6743 d9bd d449 b7bd 0f63 dc3d 8aff 9b3d
00000120: a1ff 433e 092d 553d b5f7 ee3d aa99 f13c
00000130: 3dfe ffbd 73fa 19bc 3491 153e 583b c83d
00000140: 9164 2fbd bef7 5f3d a219 eb3d 0297 59bd
00000150: 20d1 3a3e 3c4a 5abe 5f88 c7bd bbce 0dbd
00000160: f7ee 27bb bb44 553e f588 88be 853b b93d
00000170: d1ef 8dbd 0abe 2a3c e9ff 8b3d 824c 1f3e
00000180: 6b82 eb3c 3c18 003c e420 2fbc 75b9 f4bb
00000190: e3ae 463a dc6a 273e d43a 8d3d 607c 413e
000001a0: 16eb 0dbd 8fe8 123d 5f1e f83d 6335 9d3d
000001b0: f02a 793d 767c 993d e4c7 1e3e 7245 423d
000001c0: 7172 4abe 267f b1bc 494c 083d 6335 10be
000001d0: 94b1 84be 1cff 893c 678d 3fbd 2d6d 33be
000001e0: 7dbb 783e 615f 48bd 5dee cabd 853a 223e
000001f0: efc5 c1bd 850d 0a3e f07c 35bf ffb4 043e
00000200: 66fc a8bd 0380 b13c 10bf 533d c134 983d
00000210: df92 0a3e c88b 113e 7895 223e 61e1 033e
00000220: 91a9 31bd 6b92 96bd c738 803d 91b1 df3d
00000230: e331 db3d ead1 203e f8bc b73d ea95 863d
00000240: 1612 683e d6ba 3f3c 7289 5fbd 640d a2bd
00000250: 4993 a5bd 9b71 f2bc c2cc 33bc ac42 9d3d
00000260: 4010 9fbd 1820 053d ad72 34be 803c f0bc
00000270: 5c6b 2b3e 4689 183d a309 aa3e d8d9 223e
00000280: d1af cf3d 9569 4d3d d48a 103e 0c07 183d
00000290: 8a00 163e 3a4a 983c 663b b43d 3d63 24bd
000002a0: 317d d93c 4ddb b93c 2edd 1b3e da3c 0d3e
000002b0: 2c5f 123e ebfe ec3d 181e 433e 4b5a f33d
000002c0: ead4 50bd 0b15 063d 144c b8bd 473e 72bd
000002d0: edd5 883d 3480 3abd 1094 11be 5f1c bebc
000002e0: dcea 353e 13b6 283e 995e 5b3c a935 bd3d
000002f0: c9a2 93bd 8bf7 a73c bfd1 afbd 0c6b a4bc
00000300: d522 57be e80d 83be de54 f83d 122a 7bbe
00000310: 4750 7bbd 4cf7 1dbd 842f aebd ea1f b2be
00000320: 48de c73d 103a a43d e3f3 163e ba79 10be
00000330: 5dd3 c4be b9f4 e4bd 804b 6cbe 0cdf 5c3e
00000340: 389a 0c3d 9326 e33c 1c3c 1c3e d092 113c
00000350: 7da5 95bd f08e 54bc fb82 ccbc 00b9 f93c
00000360: 048f 92bd 5993 1abe a88e 4abd c312 bebe
00000370: 6eaa 5dbe 1194 1abe 7aa9 a0bd a881 42be
00000380: 550c ef3d fb5b c93d 5706 083d d47b c6be
00000390: 14f0 ccbe f750 26bf 0dea f1be b697 c4be
000003a0: 2312 ee3c 0bd7 21bd adf4 bdbe 2710 2c3e
000003b0: 3f78 523d a049 96be 6ccb f03b ceab 95b9
000003c0: 8f07 fa3d 6504 1cbe 4416 303e 7a3d ffbc
000003d0: f446 893d 4fe6 32be c75f e8bd 0b2b 2fbd
000003e0: 3c45 0bbe 3fae 0c3e 5723 553d 56b5 8bbd
000003f0: f3c8 46bd de96 6e3c 39ab adbd d124 37bd
-0.19175415 -0.1575275 -0.09512552 0.08208967 -0.23819983 0.043074757 0.09925235 -0.119526915
0.2474407 -0.34952238 0.14442271 0.08290788 -0.14787918 -0.0069770277 0.060704984 0.13033316
0.03260843 0.2399416 -0.030632371 -0.4784899 0.6449415 -0.2442416 -0.13918956 0.2830307
0.17055234 0.17987028 -0.42985016 0.23844819 0.03158415 0.041780353 0.16759214 0.054816607
0.10590385 0.34257746 -0.13401304 0.14051238 0.14131063 0.082921304 0.021648007 0.052989963
0.074128166 0.025730884 0.170583 0.16714652 -0.038737785 -0.078186646 0.21497762 0.034167342
0.015137761 0.11035894 0.013869651 -0.17015918 0.10477829 0.111875445 -0.06006979 -0.38666517
-0.09313852 0.018184992 -0.044713426 0.25424993 -0.2412748 0.14733064 -1.0781425 -0.11512119
-0.07843393 -0.018635342 0.11259521 -0.1294017 -0.10608559 -0.089496285 0.107610814 0.076170996
0.19140483 0.052044902 0.1166834 0.029492218 -0.12499664 -0.009398091 0.14606172 0.09776944
-0.042820517 0.054679625 0.114794984 -0.053122528 0.18243837 -0.2131738 -0.097428076 -0.03462098
-0.0025624612 0.20827 -0.2666699 0.090445556 -0.06930507 0.010421285 0.0683592 0.15556529
0.028748712 0.007818278 -0.010688994 -0.0074683973 0.0007579161 0.16349357 0.06895986 0.18895102
-0.034648024 0.035866316 0.12115168 0.07676198 0.060831964 0.07494442 0.1550594 0.04742951
-0.19770218 -0.021667074 0.033275876 -0.14082865 -0.2591673 0.016845278 -0.04676571 -0.17522116
0.24290271 -0.048919085 -0.099087454 0.15842636 -0.09461581 0.1348172 -0.70893764 0.1295967
-0.08251266 0.021667486 0.051695883 0.07431937 0.1353259 0.14213479 0.1587733 0.12878944
-0.0433746 -0.07352146 0.062608294 0.1092254 0.107028745 0.15705076 0.0897159 0.065715626
0.22663149 0.01170226 -0.054574437 -0.0791271 -0.08084733 -0.029595187 -0.010974111 0.07678732
-0.07766771 0.03250131 -0.1762187 -0.029325724 0.16740173 0.03724029 0.33210477 0.15903413
0.10140956 0.05014952 0.14115459 0.037116095 0.14648643 0.018590081 0.08800392 -0.040133704
0.026548954 0.022687579 0.15221092 0.13792744 0.14294118 0.11572059 0.19054449 0.118824564
-0.0509843 0.032734912 -0.08998886 -0.059141424 0.06681428 -0.04553242 -0.14216638 -0.023206888
0.17765373 0.16475706 0.013389253 0.092387505 -0.07208783 0.02050378 -0.08584928 -0.020070575
-0.21009381 -0.25596547 0.12125562 -0.24527767 -0.061355855 -0.03856592 -0.08505157 -0.34789973
0.09759194 0.08018887 0.14741473 -0.14108935 -0.38442507 -0.1117949 -0.23075676 0.2156946
0.034326762 0.027728355 0.15257305 0.0088851005 -0.07306955 -0.012973532 -0.0249648 0.030483723
-0.07156184 -0.15095271 -0.049452454 -0.3712369 -0.21647045 -0.15095545 -0.07844825 -0.18994772
0.11672274 0.09831997 0.03320917 -0.38766348 -0.40026915 -0.6496729 -0.4724888 -0.38396996
0.029061383 -0.03951172 -0.37100735 0.16803037 0.051384207 -0.29353046 0.0073484685 -0.000285475
0.12208473 -0.15236051 0.17195994 -0.031157244 0.06702986 -0.17470668 -0.11346393 -0.04276566
-0.1360063 0.13738345 0.052035656 -0.068216965 -0.048531484 0.014562337 -0.08479924 -0.044712845

_orig_mod.decoder.decoder.2.bias f4 [64]
00000000: 2e52 d6be 556a 233c a244 7dbc 5fe9 7b3d
00000010: a79e 17bf bed2 bf3e a7a8 b43d 57a8 cb3d
00000020: 9cea e8be 4017 363c c346 273e 6dce b53e
00000030: 2e9e d2be 004f cebe 0412 65be 09f2 753e
00000040: 20aa 2a3f 03f5 aebc a35a 15be 5093 183f
00000050: 715d 6f3e 966f e13d 32be 3bbf e2dc 153d
00000060: 94ad 2a3d cce6 f43d aed8 7f3e 3a7e b83d
00000070: 0e1b 593e ca5c 093e dc88 76bc 0dae d63d
00000080: 4085 4f3e b3f9 8dbe ce6f 81be 6287 bdbe
00000090: b7b3 05bf 5d03 bebe 24e4 213e fd43 d63d
000000a0: e367 063e 3b68 553e bfc6 d23d 6d79 383d
000000b0: aa8c 1cbf c806 9cbd 94b6 883d 04a5 25be
000000c0: 4f7c 483e 72d3 8a3e 9e4c 6e3d 2793 01bf
000000d0: 71a3 1ebc 071a 4b3d dc8e 07be afd2 06be
000000e0: 0bb5 e1be 73f0 60bd d2c1 133d ae61 4dbf
000000f0: 1fcb 8e3d 260d 3cbe c9a4 b73e 4904 edbe
-0.41859573 0.009974082 -0.015458258 0.061501857 -0.5922646 0.3746547 0.088212304 0.09944218
-0.45491493 0.011113942 0.16335587 0.35509053 -0.41136307 -0.40294647 -0.22370154 0.2401811
0.6666584 -0.021357065 -0.14585356 0.5959978 0.23375489 0.110076115 -0.7333709 0.036587603
0.041669443 0.119580835 0.24985 0.09008451 0.21201727 0.13414302 -0.015047278 0.10482416
0.20265675 -0.27729568 -0.25280613 -0.3701735 -0.5222735 -0.3711194 0.15809685 0.104621865
0.13125567 0.20840542 0.10291814 0.045037676 -0.61152136 -0.07618481 0.06675449 -0.1617623
0.1957867 0.27114445 0.058178537 -0.5061516 -0.009682522 0.04958537 -0.1323809 -0.13166307
-0.44083437 -0.05491681 0.036073513 -0.8022717 0.06972336 -0.1836439 0.3586791 -0.46292332

_orig_mod.decoder.decoder.4.weight f4 [64, 64]
00000000: ee0a a2be 9f5c c0be ef10 c5bd 63ce 513c
00000010: 3258 cdbe f75c 7cbc 8d9b b5b9 37e5 863d
00000020: 3a05 a53d 7df2 8a3e f3f9 aa3d 6f5c c53d
00000030: e300 80be 3c4b aebe 7b73 353e e7e2 fbbc
00000040: 15d8 0a3e ec64 ab3d a71c 0f3c fba3 883d
00000050: b3aa f83d 53f9 ff3c c2a3 dabe 0951 0a3d
00000060: b9c0 963d 0e1c c63d f750 4a3e 1a12 7c3d
00000070: dd71 233e 900a 083e 8cb0 193d 8400 d13d
00000080: db10 933c fb33 2fbe 8fef d8bd 8c2f 6dbe
00000090: a501 d0bb 33b2 20bc 5b04 f6bd d385 9bbd
000000a0: 46d8 bb3d f549 d3bd 1bab 89bd 86e3 80bd
000000b0: 7f3a e2be f329 17be ccb8 57bd 686f 963d
000000c0: a034 103e fa10 703e 8b2a 22bd 6827 bfbe
000000d0: f3f1 cd3d f2f5 22ba 9875 d3bd 31ea a3be
000000e0: 3dd5 0b3b 457b 1bbe 4c9d b5be 9286 0bbf
000000f0: 745a 09bd 471b 96be 16d9 e03d b5f1 0abe
00000100: f953 243d 4e5c 90bd a200 46bb c2ff dbbe
00000110: d7c5 143e 1eff e8bc 2e70 9cbd bf7c c1be
00000120: db27 c03d 7cd8 8e3e 0fa7 3cbd 321a 863d
00000130: c060 f8bd 4564 22bd 66ef aebe 87c0 3fbe
00000140: abc8 243b bf00 f9bf 3d60 9ebf cab3 fb3d
00000150: f3f0 51bd da30 3c3d 645a bfbd b462 1fbe
00000160: 7da9 bebd cff3 df3d e02b f3be f637 44be
00000170: 6ef8 2abb 4cc6 5fbd 1998 bcbe 5ab8 043a
00000180: f3e9 d73d e643 e03d b963 983e 8c26 ff3c
00000190: 25db cabd a95b 67bf e832 b13c 63a1 ad3e
000001a0: 0c7a 483d b1b0 8cbe 198e 2a3d 9efe 783c
000001b0: e837 9ebf 4cbb 753d 2e46 6cbe 6aca ff3c
000001c0: deca d93d fe89 233e eac7 43bd 1beb 0ebe
000001d0: ebc6 68be 3d56 14be baac 6cbe 3888 b1bc
000001e0: bab6 f7bd 7221 b2bf cdfd 7dbe 4a76 2bbe
000001f0: 6b9b 1ebd ff9b 973e 2431 2a3c 2ecc b8bd
00000200: 77d8 19bf 8baa 523d 1e28 8e3d 6899 a5be
00000210: 6cb0 3abe 69a7 3b3e 8809 3d3e 07d1 1abe
00000220: 377e e1bf a299 2f3e f575 383d 6799 c53e
00000230: eb4a ffbe 02a4 84bd 6643 64bf a9e3 093e
00000240: 5f65 bebd a662 34be 00df 87be f4db 1b3e
00000250: 21af 663e 35c4 9fbc 64a4 eebe 4610 123e
00000260: 70d9 5fbe 7e46 cc3d 6724 cdbe c6c1 40be
00000270: c958 383e 1717 a5be 49e2 09bf e35b a23e
00000280: c0c3 c63b 624d 413e e09e 16bf 25b3 373c
00000290: c3e6 9cbf 4c8a afbf 6d54 113e 59e2 84bc
000002a0: 85ab 77be ab5e a3be c6b0 e53c c9ac 493d
000002b0: 578b 86be d6f7 483d cba6 02be 2ef0 95bd
000002c0: 77b3 b73e ece0 a53e c7d2 903c 8fb2 a5be
000002d0: e12f 343c 632a 40bf ee90 77bf acf5 c53d
000002e0: fbc1 e7be 726f 85bd 1985 0cbe fd49 0ebf
000002f0: 83c0 553c fd87 fb3b 3cb5 ed3d cd19 cbbe
00000300: 82fc 633d fe84 8bbc 86b3 0bbd f8f8 b6bc
00000310: 9a28 d93d 9a60 aa3d fd11 553e 3387 cd3d
00000320: b764 30be f611 2dbe 5306 923d 65ae 1e3e
00000330: 6d95 cdbb ff66 4e3e 0f76 45bd ed4e d53d
00000340: 2cf4 3b3e d7c2 e0bd 6cc3 3e3d 41df ae3d
00000350: 5508 8d3d 9a75 02be 209b fc3c 189e 213d
00000360: 4a47 1c3e 94c3 7e3d 8cc6 82be 59f3 bebc
00000370: ee34 7bbc dff6 1fbc a5d1 333b 3590 77bd
00000380: 7254 7bbd 793b 84bd 0767 3b3e 7d09 ca3d
00000390: 9eee ba3c 6521 d73d 5da3 573d 055e 1f3e
000003a0: d944 dfbe dc69 c1bc 88f9 21be bcc2 44bd
000003b0: 032b fabd 856e 3e3d 580e 8fbe 1142 f43d
000003c0: 90d7 36bd 7cda 4d3e 4192 b23c 42e2 0abe
000003d0: 00f9 ad3e 42ea e33d 6ea8 a43e 44db c83d
000003e0: efb0 e73d fd04 08be 94b1 4f3e a3da 1abf
000003f0: c668 113e 783c f5bc cc9c 11bd 119a c9bc
-0.31648964 -0.37570664 -0.096223705 0.012805554 -0.4010635 -0.015403024 -0.00034638905 0.06586688
0.080576375 0.2713813 0.08348455 0.09636771 -0.25000677 -0.34041774 0.17719834 -0.030747844
0.13558991 0.08368859 0.008734859 0.06671902 0.12141933 0.031246817 -0.42703062 0.033768687
0.07360978 0.0967332 0.19757448 0.0615407 0.15961404 0.1328528 0.037521884 0.102051765
0.017952373 -0.17109673 -0.10592567 -0.23162669 -0.0063478523 -0.009808111 -0.120125495 -0.07593884
0.0917211 -0.103168406 -0.06722089 -0.06293397 -0.44185254 -0.14762096 -0.05266647 0.07345468
0.14082575 0.23443976 -0.039591353 -0.37334752 0.10055914 -0.0006216458 -0.103251636 -0.3201461
0.0021336817 -0.15183742 -0.3547157 -0.54502213 -0.03353353 -0.29317686 0.10978906 -0.13568766
0.040119145 -0.07048856 -0.003021278 -0.42968565 0.14528595 -0.028441962 -0.07638584 -0.37790486
0.09382602 0.2789954 -0.046057757 0.06547965 -0.121278286 -0.039646406 -0.34167022 -0.18725787
0.0025144021 -1.9453353 -1.237312 0.122901514 -0.051255178 0.045945026 -0.093434125 -0.15564996
-0.09309671 0.10935175 -0.4749441 -0.19161972 -0.0026088017 -0.05463247 -0.3683479 0.0005062871
0.10542669 0.109504506 0.29763582 0.03114631 -0.0990508 -0.9037424 0.02163072 0.3391219
0.048944518 -0.27478555 0.04163942 0.015197424 -1.2360811 0.059993073 -0.23073646 0.031224448
0.10634397 0.15970609 -0.047798075 -0.13956873 -0.22732131 -0.14486022 -0.23112765 -0.0216714
-0.12095399 -1.3916457 -0.24803849 -0.16744342 -0.038722437 0.29611203 0.010387693 -0.09023319
-0.60095924 0.051432174 0.069412455 -0.32343602 -0.18231362 0.1832558 0.18460667 -0.151188
-1.7616643 0.1714845 0.045034368 0.385936 -0.49861845 -0.064765945 -0.8916534 0.13465752
-0.09296679 -0.17615756 -0.26537323 0.15220624 0.22527744 -0.019502738 -0.46609795 0.1426402
-0.2186029 0.09974383 -0.40066835 -0.18823919 0.18002619 -0.3224418 -0.5386091 0.3171073
0.0060658157 0.18877175 -0.58836174 0.011212145 -1.2257923 -1.371408 0.14192362 -0.016221212
-0.24186523 -0.31908163 0.028038394 0.049237046 -0.26278183 0.04906448 -0.12758939 -0.07321201
0.35879108 0.32398164 0.017678631 -0.32362792 0.010997743 -0.75064677 -0.9670552 0.09665999
-0.45265183 -0.06515397 -0.13722648 -0.5558165 0.013046387 0.007676123 0.11606833 -0.39668122
0.055660732 -0.017031189 -0.034106754 -0.022335514 0.10603447 0.083192065 0.20807643 0.10035553
-0.1722592 -0.16901383 0.071301125 0.15496214 -0.0062739165 0.20156477 -0.048208293 0.104154445
0.18354863 -0.10974663 0.046573088 0.08538676 0.06886355 -0.12740174 0.030835688 0.03945741
0.1526157 0.062198237 -0.25542104 -0.023309397 -0.015332444 -0.0097634485 0.002743819 -0.06044026
-0.06135983 -0.06456656 0.1830102 0.09865091 0.02281886 0.105044164 0.05264603 0.1556321
-0.43607214 -0.023610048 -0.15817845 -0.048037276 -0.12215235 0.04649212 -0.2794063 0.11926664
-0.04463917 0.20102876 0.021798255 -0.13562873 0.33979034 0.111286655 0.32159752 0.098074466
0.11313044 -0.13283153 0.20282584 -0.60489863 0.14200124 -0.02993606 -0.035549924 -0.024609597

_orig_mod.decoder.decoder.4.bias f4 [64]
00000000: 0a2a 923e 1205 50bd cf17 a03d 32c9 9c3d
00000010: 2c16 d83d 96ef 0e3c afec a3bd a70f 883e
00000020: 732b eb3c d157 9b3d 6e5f 933e 0769 863e
00000030: 6791 bfbd 56c2 823e c5a9 de3d 1180 623d
00000040: 9faa 443e f35a bdbd 3782 ac3d ad7f 433e
00000050: e11e cf3d ca2f 493c 747e 973e a7c9 783e
00000060: 3d1a b63e 8587 cabc 50b9 adbd 6dac 893d
00000070: 946a 1c3d bb2c 403e 554b 3e3e 9677 003e
00000080: a1f9 493e c9cc b8be 0f32 073e a1fb 763e
00000090: 045f 1e3e d90e 2dbd fe51 c13c fc27 3cbd
000000a0: 0f86 81be 103b 37bd 7d50 0b3e a45a c23d
000000b0: 674a 9f3d 96bc 5b3c d118 2bbe 4df8 9d3e
000000c0: 2af2 873c 083a b13e 2695 6fbe c8f6 713e
000000d0: dce1 843d 22ab 183e 9698 c93d dfb4 9d3d
000000e0: 67f1 643e 28c8 da3d 17c2 8a3c 6564 803d
000000f0: 652b e3be 9dc4 b03d 7edc dfbd 3b73 093e
0.28547698 -0.050786085 0.07817041 0.076555625 0.10551104 0.008724114 -0.08004128 0.26574442
0.028707242 0.07585109 0.28783745 0.26252005 -0.09353905 0.25538892 0.10872225 0.055297915
0.19205712 -0.09245863 0.08423274 0.19091673 0.101133116 0.01227946 0.29588664 0.24295674
0.35566893 -0.024722824 -0.08482611 0.06722341 0.03818758 0.18767063 0.18583424 0.12545618
0.19724132 -0.3609374 0.1320269 0.24119426 0.15465933 -0.042250488 0.023598667 -0.04593657
-0.2529759 -0.04473406 0.13604923 0.094899446 0.07777863 0.013411662 -0.16708685 0.308535
0.016594965 0.34614587 -0.2339674 0.23629296 0.06488392 0.14909032 0.098435566 0.07700514
0.22357713 0.10682708 0.016938252 0.06269149 -0.44369045 0.08631251 -0.109307274 0.13422863

_orig_mod.decoder.decoder.6.weight f4 [2, 64]
00000000: bcfe 04bd 49f4 ebbd 32c0 91bd 8546 e5bd
00000010: 46b3 40bd 5b5f 24be b883 fa3e d89c 23be
00000020: af24 0c3e 8faa 2c3a f879 093d adc5 6dbd
00000030: 773b fb3b 5ea7 513e 160d 88bd ab8b d5bd
00000040: 32c0 8b3d 1ccc 703e dabc 27be 1c4f 18be
00000050: 54f8 973d 2b00 f8bd 5956 e23d 331e e8bd
00000060: 4150 693d 0a4b 283e b69d ca3c d759 0cbd
00000070: 8fbc 0a3e 44d6 0c3e aec0 3e3e e138 f2bc
00000080: 09a4 9d3c 04f4 24be 08e9 613d 2514 45be
00000090: d0fa 2fbe 297d 48bc 9e1a b93e 3e9c 26be
000000a0: 9f9d 993e 9c8d aa3d 7412 f2bd 1c1d 70be
000000b0: 37c0 363e 965a 01be 6c71 cfbd 0c01 233e
000000c0: e5bd 783d bc8a 6d3b 5640 c93c f884 c6bd
000000d0: a2cc 9c3e 74e1 013e a621 fd3d 261c c63d
000000e0: 6927 03be 7bb8 be3b 532f f0bc 7138 7ebd
000000f0: 4856 423d 286b 05be f5c1 e9bd 8c04 30be
00000100: 7af7 b43e 4b35 b73e 4142 963e bd90 523d
00000110: 6861 4b3c 32b9 ce3e 7c1e c13e a2e1 b6bd
00000120: 075e 4dbc fcd4 b339 f083 b13e e114 a03e
00000130: d08f 3c3e dea9 d03d 3417 84be 5a4f 403e
00000140: 4ec7 b1be d5cc 73be f673 f9bd ad3d bfbe
00000150: 34f8 8ebd 47e8 89bd 9e62 c5be 01a7 b63e
00000160: fa87 a1be b2dc 67be 0350 203e ff9a bd3c
00000170: bc99 33bd 20d2 be3e 0618 7bbc 424b 6a3e
00000180: f429 333d 336d 423e 13e6 b6be c302 c1be
00000190: 8d0b 71be 3abc 0f3e 8590 3dbe 6727 a4bd
000001a0: 31ea 703d 52aa 2ebd b2fc 6d3d 9e2e 0bbe
000001b0: 6656 af3d ff09 923c d07c c8be 8c8b eebd
000001c0: c385 1d3d 95dd aa3e 0701 243c 193a 1d3d
000001d0: 6eeb cf3d 60ef aebe 3006 f7bc 7b06 dbbc
000001e0: 6816 45be 92fd 973e 7a53 51be 0f6d cc3d
000001f0: 1cc1 3f3e bcf6 c7be eac3 693d b536 91be
-0.032469496 -0.11521203 -0.071167365 -0.11195091 -0.04704597 -0.16052 0.48928618 -0.159778
0.13685869 0.00065866945 0.033563584 -0.058049846 0.007667001 0.20474002 -0.06643121 -0.1042703
0.06823768 0.23515362 -0.16380635 -0.14873928 0.07420412 -0.12109407 0.11051626 -0.11333885
0.0569613 0.16434875 0.024733406 -0.034265365 0.13548492 0.13753611 0.18628189 -0.029568138
0.019243257 -0.1610871 0.055153877 -0.19245966 -0.17185521 -0.012236872 0.3615312 -0.16270539
0.30003068 0.08327791 -0.11819926 -0.23448604 0.17846762 -0.12632212 -0.101290554 0.15918368
0.060727973 0.0036246022 0.02456681 -0.096933305 0.30624872 0.1268366 0.123599336 0.09673338
-0.12808003 0.0058203316 -0.029319441 -0.062065545 0.047445565 -0.13029158 -0.114139475 -0.17189234
0.3534506 0.35782847 0.29347423 0.051407564 0.01241336 0.40375668 0.3771857 -0.08929755
-0.012534625 0.00034300226 0.34670973 0.3126593 0.18414235 0.101886496 -0.25798953 0.1878027
-0.3472237 -0.23808606 -0.12180321 -0.37351742 -0.06980935 -0.067337565 -0.385518 0.3567429
-0.31549054 -0.22642782 0.15655522 0.023145197 -0.043847784 0.37269688 -0.015325552 0.22880271
0.04374118 0.18986969 -0.35722408 -0.3769742 -0.23539563 0.14036646 -0.18512161 -0.08015328
0.058817092 -0.0426429 0.058102317 -0.13592002 0.08561401 0.017827032 -0.39157724 -0.1164771
0.038457643 0.3337218 0.010010011 0.038385484 0.101523265 -0.34167004 -0.030154318 -0.026736489
-0.19246829 0.29685646 -0.20442 0.09981739 0.18726009 -0.3905543 0.057071604 -0.2836205

_orig_mod.decoder.decoder.6.bias f4 [2]
00000000: c4f0 1d3d 2d97 6a3c
0.03855969 0.01431827

_orig_mod.K.auxiliary_network.0.weight f4 [64, 2]
00000000: cefe c7bd 73a0 33be 6fe2 2abe 694c da3e
00000010: 1f12 ed3e 1bb8 8c3e 85fc 98be 217d 0d3d
00000020: 2535 f43e 50b4 f4bd 195f f0be 6edd 14be
00000030: 1079 c2be f6f7 a8be 94ee c1be b15a c4be
00000040: 2416 983d f710 843d 23ef 693e daf2 40bf
00000050: 8b1d 963e c42f 383f 92f5 bc3e 1fce 2b3f
00000060: 5b92 343e 9390 cd3e 4ba5 d13e 3dee 4cbd
00000070: 0b9a bfbe 08ea b93e 486a 843e ba6e dabe
00000080: f52c 1cbf e342 1c3f 3ca8 e83d bf6d 9d3e
00000090: 4aa4 f5be 65d6 ca3d bb9f 6bbe 1613 1c3f
000000a0: 5071 ac3e 5a08 ddbe 14bd f03c aa18 803e
000000b0: 93d6 0d3f 4aee 233e 022d 91bb 81fa b03c
000000c0: 8da7 06bf eb96 e1be 930f c7be f502 f4be
000000d0: f040 e03e 1f60 6f3e 18c2 8b3e 8182 86bd
000000e0: 0712 60be b3ea 273f 6381 afbe 0856 523e
000000f0: a558 efbd 8be8 37bf 48f3 8d3c beaa 183f
00000100: 5296 333d 70ca 8d3e 8284 6abe a27e e93e
00000110: 78c7 1f3f 97e8 aa3e eea9 a33e b6a0 39bf
00000120: 90a8 fb3e 910a d2be 9c66 c8bd 9459 323f
00000130: 25f1 023f 4b46 c83e 4554 0e3f e7e8 1b3f
00000140: 79c4 7c3e f4eb afbe e1ce b03e d027 593f
00000150: 71c6 253f 994d d7be 72a9 0b3e dda0 eebe
00000160: b7ad 473e 270c d23d d4ea 4dbe 4fe3 34bf
00000170: eb64 6e3e 6f94 26bf c0cb 03bf d283 0fbf
00000180: 7e53 a3be 7a07 0bbf aa2f 1bbe 9f8a 50be
00000190: a14a 903e 7661 edbc e4f1 9d3d 8470 b0be
000001a0: 48f7 bfbe 3117 f23e 950a 13bf 378b 44be
000001b0: 1b12 0ebf 32f3 803e 364c 333f aa93 e93e
000001c0: 2ed1 c93e 5346 04bf e543 edbe 1b82 ca3e
000001d0: d0ed 7a3e 8c4e d53e 5552 0bbf f34e f33d
000001e0: be81 a4be c05a 4abf 52c3 e13e 7064 cfbd
000001f0: ddf3 883e 0896 b1bd 242e 7f3d c16e 963e
-0.09765397 -0.17541675 -0.1668794 0.4263642 0.46302888 0.2748421 -0.29880157 0.03454316
0.47696796 -0.119484544 -0.46947554 -0.14537594 -0.37982988 -0.3300168 -0.37877333 -0.38350442
0.07426098 0.06448548 0.2284513 -0.7537056 0.29319414 0.71947885 0.36906105 0.6711139
0.17633955 0.40149364 0.4094642 -0.05003189 -0.37422213 0.36311364 0.25862336 -0.42662603
-0.610061 0.6103956 0.11360213 0.30747792 -0.47976905 0.09904174 -0.23010151 0.6096662
0.336802 -0.43170434 0.029387034 0.25018817 0.5540554 0.16008869 -0.004430414 0.021603825
-0.5259941 -0.44060454 -0.3887907 -0.47658506 0.43799543 0.23376511 0.2729652 -0.065678604
-0.21881877 0.655925 -0.34278402 0.20540631 -0.116868295 -0.7183921 0.01732792 0.5963553
0.04384453 0.2769351 -0.2290211 0.45604426 0.6241374 0.33380577 0.31965584 -0.7251085
0.4915204 -0.41023687 -0.09785196 0.69667935 0.5114921 0.3911613 0.55597335 0.60902256
0.24684323 -0.34359705 0.34532836 0.84826374 0.6475592 -0.4205139 0.13638857 -0.46607104
0.1949986 0.10256224 -0.20109111 -0.70659345 0.23280685 -0.6507024 -0.5148277 -0.56060517
-0.31899637 -0.54308283 -0.15154901 -0.2036538 0.28181937 -0.028977137 0.077121526 -0.34460843
-0.37493348 0.4728332 -0.5743802 -0.19193731 -0.55496377 0.25185543 0.70038164 0.4562047
0.39417404 -0.51669806 -0.46340862 0.39552388 0.24504781 0.4166149 -0.54422504 0.11880293
-0.32130235 -0.79044724 0.4409433 -0.10126579 0.26748553 -0.08671194 0.062299863 0.29381374
