models/pendulum_model_vanilla.pth (torch, 88866 bytes, 11 tensors)

linear_relu_stack.0.weight f4 [32, 3]
-0.34919986 0.1901126 -0.03589395 -0.56152743 -0.56122315 0.18468487 0.509571 0.3719194
-0.42465556 -0.11802266 -0.3758513 0.53161514 -0.25485146 0.42929277 0.51015115 0.10760093
-0.3597139 -0.30377656 -0.4177512 0.10336873 0.4747228 0.12752554 0.49045244 -0.033963397
0.5189519 0.04072113 0.5280893 0.4813013 -0.21031412 0.07955734 0.48533994 -0.31264406
-0.54140836 -0.23476362 0.5067985 0.12408972 0.5427497 0.32524592 -0.34072283 -0.25752312
-0.37341574 0.30818117 -0.16700746 0.19081055 -0.5771386 0.04306044 0.41726664 -0.4119456
0.46725792 -0.44950548 -0.44017792 -0.49344245 -0.53210163 0.13520676 0.48480248 -0.6152246
-0.12547503 -0.20351046 -0.060879283 0.52094215 -0.3123574 -0.4885466 0.46513784 -0.5140338
0.30155382 -0.32845518 -0.59242654 -0.45604277 0.21500169 -0.05349485 -0.13332169 0.5142307
-0.32275465 0.34580746 -0.25157997 0.4062982 -0.043862503 -0.379446 -0.49394968 0.48589596
-0.26720342 -0.018573865 -0.62024486 0.14705624 0.48098108 -0.19751143 -0.5479604 0.24843508
0.3586814 -0.03329985 0.084006965 -0.33386126 -0.0702873 -0.19610259 -0.19286206 -0.2600978
00000000: 53ca b2be e1ac 423e 8905 13bd 43c0 0fbf
00000010: 52ac 0fbf 081e 3d3e 3f73 023f 386c be3e
00000020: 746c d9be ddb5 f1bd 956f c0be ee17 083f
00000030: e47b 82be 43cc db3e 4499 023f e05d dc3d
00000040: 6c2c b8be 9a88 9bbe 7ce3 d5be fcb2 d33d
00000050: de0e f33e 0e96 023e 951c fb3e 341d 0bbd
00000060: 08da 043f 33cb 263d dc30 073f 206d f63e
00000070: 965c 57be f5ee a23d 7a7e f83e e212 a0be
00000080: bd99 0abf e065 70be 8cbd 013f c022 fe3d
00000090: a5f1 0a3f a286 a63e 3973 aebe 12da 83be
000000a0: 5930 bfbe ecc9 9d3e 0104 2bbe d763 433e
000000b0: 5bbf 13bf 2560 303d f9a3 d53e 89ea d2be
000000c0: 6e3c ef3e 9525 e6be 005f e1be 7da4 fcbe
000000d0: d037 08bf a473 0a3e 0838 f83e 5c7f 1dbf
000000e0: 877c 00be 0c65 50be 8e5c 79bd 775c 053f
000000f0: 4fed 9fbe c822 fabe 8c26 ee3e b897 03bf
00000100: 4365 9a3e 472b a8be 44a9 17bf 707e e9be
00000110: 6729 5c3e 6a1d 5bbd 7b85 08be a0a4 033f
00000120: 1940 a5be ad0d b13e 17cf 80be 5106 d03e
00000130: 2ba9 33bd bf46 c2be f9e6 fcbe 5bc7 f83e
00000140: e3ce 88be 3828 98bc 5ec8 1ebf e995 163e
00000150: 2743 f63e 7040 4abe 2247 0cbf c465 7e3e
00000160: 17a5 b73e 6c65 08bd d80b ac3d ddef aabe
00000170: caf2 8fbd 1ecf 48be a27d 45be 8a2b 85be

linear_relu_stack.0.bias f4 [32]
-0.42083368 0.3679494 0.4140321 0.46961716 -0.43354762 0.1282029 -0.0124647105 -0.24838372
0.23569372 -0.5365031 -0.32759535 -0.5072177 -0.23408948 0.01413934 0.3661527 0.26666468
0.17738059 0.43735045 -0.5955081 0.16825323 -0.0328328 -0.25218934 0.46584317 -0.32165664
0.18477762 0.18011296 -0.3260824 0.46302155 0.2039634 0.21809205 0.06575441 -0.07280988
00000000: 8377 d7be dd63 bc3e 04fc d33e a971 f03e
00000010: f4f9 ddbe 9f47 033e c938 4cbc 4d58 7ebe
00000020: b259 713e 4458 09bf 94ba a7be 05d9 01bf
00000030: 27b5 6fbe b1a8 673c 5e78 bb3e 4688 883e
00000040: 42a3 353e 66ec df3e 3873 18bf 934a 2c3e
00000050: b07b 06bd f61e 81be ff82 ee3e 2eb0 a4be
00000060: 5836 3d3e 886f 383e 46f4 a6be 2911 ed3e
00000070: c8db 503e 8653 5f3e 40aa 863d 591d 95bd

linear_relu_stack.2.weight f4 [64, 32]
0.0057979636 0.16606432 -0.16692947 -0.07657233 0.18650053 0.07305352 0.046726484 0.10763968
-0.16252346 -0.18403915 0.0805902 0.061802913 -0.07270145 -0.0552864 0.17582792 -0.054490846
-0.06946439 0.17749257 -0.12783267 0.010054739 0.13105963 -0.017140456 -0.0456613 0.100007534
-0.15245667 0.13408771 -0.058189683 -0.03558255 0.07498485 -0.05885547 -0.00085328805 -0.14389855
-0.06659419 -0.038321428 -0.12582025 -0.053449765 0.058510847 -0.028147347 0.15376128 0.065531656
-0.07641359 0.013731556 -0.048540454 0.15291375 -0.11413091 -0.021094302 0.17716578 0.03733908
-0.00017203178 -0.1131801 -0.012614822 0.0960764 0.10964809 -0.032410216 -0.022785237 -0.023712961
0.20319156 -0.078708395 0.15056191 -0.13698545 -0.018097995 0.03312875 -0.0330167 0.08107423
0.17504282 -0.12526424 -0.05451108 0.12183667 -0.065916546 0.12423046 -0.037966345 -0.07925425
0.08427088 -0.018825687 0.039541114 -0.12372784 0.10209437 0.15755834 -0.10707953 0.03457234
0.033437457 -0.11574822 0.035781436 0.13761209 0.0042634886 0.027796622 -0.055233512 -0.12338684
0.0247644 0.0036436743 0.07683194 -0.13333684 0.12337057 -0.10143183 -0.11908947 0.03758662
0.18925777 0.081959024 -0.09926654 -0.056887917 -0.17223097 0.01422487 -0.040153917 0.16257825
0.0046260403 -0.16966942 -0.15104936 0.06754378 -0.23007517 0.14705142 0.19505338 0.12806581
-0.20519045 0.06890489 0.00010873441 0.09440643 0.0797441 -0.020251933 0.037089776 -0.1367933
0.018134238 -0.16213891 0.02242956 -0.19172354 -0.11167546 0.036310457 -0.08148847 0.117156416
0.10811592 0.12936667 -0.10543794 0.149585 0.13898319 0.13412137 0.015968239 -0.0081064645
0.014168889 0.036642864 -0.13633652 0.012097013 0.0033547645 0.092605144 0.1569271 -0.03877945
-0.1802822 -0.11990457 -0.038796894 0.12169275 0.026525732 0.057672627 -0.1201393 -0.019291304
-0.15243326 0.12240926 -0.16587263 -0.14845124 0.050367184 -0.08524562 0.11731779 0.09101782
0.10971626 0.063363284 -0.011916399 0.12921214 0.12347265 -0.16884397 0.1547913 -0.017617289
0.02957429 0.0004058715 0.13219835 -0.031405166 -0.02358183 -0.14957717 -0.15200987 -0.0488582
-0.02041018 0.010214652 -0.010378574 0.18705833 -0.041729897 0.019542279 -0.104616106 -0.013529478
-0.12874076 0.15908788 -0.13465364 0.13324997 0.060219094 -0.04947216 -0.09631298 -0.07444592
-0.038290557 0.15680097 -0.06099884 0.0917229 0.113659635 0.06216229 0.16246402 0.012113352
0.06978755 -0.1405791 -0.015389279 -0.17242701 -0.075963035 -0.13776179 0.037857383 0.08644026
-0.072990336 0.09281055 0.14478748 0.05753323 0.11791793 0.055915236 0.09503849 0.13062471
0.18558611 -0.088136025 0.102749765 -0.018037442 -0.0752975 -0.10514547 0.11444656 -0.06858817
0.0888373 -0.18261492 -0.16170816 0.16793215 0.24021219 -0.0056665405 -0.1821517 0.019660478
-0.017404256 0.16441944 -0.17019257 -0.033634976 0.041735165 -0.079161376 -0.049215253 0.12210395
0.03264995 -0.12711588 -0.12046625 -0.029231364 0.026852828 0.02780456 -0.10456592 0.08819883
-0.12027874 0.1451954 0.12522934 -0.05066917 0.015054381 -0.17006384 -0.06532093 -0.10392291
00000000: d8fc bd3b c40c 2a3e 8fef 2abe f4d1 9cbd
00000010: fff9 3e3e 159d 953d 4564 3f3d 3172 dc3d
00000020: 8d6c 26be c274 3cbe 7a0c a53d 0d25 7d3d
00000030: 7fe4 94bd fe73 62bd 3c0c 343e cb31 5fbd
00000040: 5943 8ebd 9dc0 353e 91e6 02be a2bc 243c
00000050: 7f34 063e 246a 8cbc 5807 3bbd c0d0 cc3d
00000060: 9a1d 1cbe 4a4e 093e 4e58 6ebd 02bf 11bd
00000070: a891 993d 6f12 71bd 31af 5fba 245a 13be
00000080: 8962 88bd eef6 1cbd 06d7 00be 24ee 5abd
00000090: 12a9 6f3d 4495 e6bc 9973 1d3e 7635 863d
000000a0: ba7e 9cbd 52fa 603c 5bd2 46bd 6c95 1c3e
000000b0: 77bd e9bd f5cd acbc f26a 353e ddf0 183d
000000c0: 6e63 34b9 f8ca e7bd 66ae 4ebc b4c3 c43d
000000d0: 2e8f e03d 93c0 04bd 1ba8 babc af41 c2bc
000000e0: 7311 503e de31 a1bd e72c 1a3e ea45 0cbe
000000f0: 3f42 94bc 03b2 073d 853c 07bd 3f0a a63d
00000100: 6d3e 333e 4545 00be 0347 5fbd 8185 f93d
00000110: 41ff 86bd 8a6c fe3d 9982 1bbd 0d50 a2bd
00000120: 3696 ac3d 5438 9abc ddf5 213d 0665 fdbd
00000130: da16 d13d f956 213e 834c dbbd ba9b 0d3d
00000140: b7f5 083d 670d edbd 8e8f 123d 2fea 0c3e
00000150: bcb4 8b3b beb5 e33c 893c 62bd 3db2 fcbd
00000160: b6de ca3c b6ca 6e3b 105a 9d3d 7489 08be
00000170: b6a9 fc3d 7ebb cfbd 2ee5 f3bd 6df4 193d
00000180: cacc 413e 22da a73d 414c cbbd 4e03 69bd
00000190: 515d 30be 6e0f 693c 6f78 24bd ea7a 263e
000001a0: 0a96 973b d2bd 2dbe afac 1abe 6554 8a3d
000001b0: d398 6bbe a694 163e 13bc 473e af23 033e
000001c0: 721d 52be 021e 8d3d 5808 e438 2958 c13d
000001d0: e050 a33d 62e7 a5bc 73eb 173d 8b13 0cbe
000001e0: 418e 943c be07 26be 32be b73c 2d53 44be
000001f0: 1bb6 e4bd 46ba 143d 6de3 a6bd b4ef ef3d
00000200: e16b dd3d b278 043e d9ef d7bd cf2c 193e
00000210: 9c51 0e3e 1d57 093e d3cf 823c fad0 04bc
00000220: a124 683c d416 163d cd9b 0bbe 8d32 463c
00000230: 9cdb 5b3b c4a7 bd3d 7fb1 203e 33d7 1ebd
00000240: e69b 38be 8790 f5bd 7ee9 1ebd 0c3a f93d
00000250: 7e4c d93c 223a 6c3d 980b f6bd cc08 9ebc
00000260: 7717 1cbe b5b1 fa3d 84da 29be 9a03 18be
00000270: d24d 4e3d 4195 aebd 4f44 f03d 8d67 ba3d
00000280: ebb2 e03d 9cc4 813d 003d 43bc 3050 043e
00000290: 3bdf fc3d 6fe5 2cbe 9c81 1e3e 2252 90bc
000002a0: c845 f23c 27cb d439 015f 073e b4a2 00bd
000002b0: af2e c1bc c22a 19be 7aa8 1bbe 891f 48bd
000002c0: 4033 a7bc 5b5b 273c e50a 2abc 388c 3f3e
000002d0: f8ec 2abd 2117 a03c f840 d6bd beaa 5dbc
000002e0: 9ed4 03be efe7 223e a5e2 09be ae72 083e
000002f0: 4ca8 763d 52a3 4abd bd3f c5bd 1a77 98bd
00000300: 8fd6 1cbd 6f90 203e ebd9 79bd 37d9 bb3d
00000310: 62c6 e83d e39d 7e3d f85c 263e 1577 463c
00000320: c6ec 8e3d f8f3 0fbe 5123 7cbc b590 30be
00000330: 8292 9bbd 6d11 0dbe 5810 1b3d 9707 b13d
00000340: f57b 95bd 7513 be3d 2b43 143e f7a7 6b3d
00000350: f57e f13d 6007 653d 8aa3 c23d 7cc2 053e
00000360: 490a 3e3e a980 b4bd 786e d23d 42c3 93bc
00000370: 9335 9abd 8256 d7bd f562 ea3d f477 8cbd
00000380: 55f0 b53d 68ff 3abe d396 25be 68f6 2b3e
00000390: 2ffa 753e 63ae b9bb fa85 3abe 030f a13c
000003a0: 5f93 8ebc 925d 283e f646 2ebe d4c4 09bd
000003b0: 7ef2 2a3d 5c1f a2bd ef95 49bd a311 fa3d
000003c0: f4bb 053d aa2a 02be 02b7 f6bd 9d76 efbc
000003d0: 76fa db3c 63c6 e33c a826 d6bd 97a1 b43d
000003e0: b354 f6bd 1aae 143e 1f3c 003e 7a8a 4fbd
000003f0: a7a6 763c 3725 2ebe fbc6 85bd 89d5 d4bd

linear_relu_stack.2.bias f4 [64]
-0.107594706 0.16326341 -0.19848566 -0.19145726 -0.07966565 0.1633506 0.057359505 -0.073166326
-0.12727992 -0.033335462 0.076389536 0.084511586 0.17366424 -0.16525102 -0.071648166 0.1502042
0.19988483 -0.11509783 0.0846391 0.0010933412 0.070561014 -0.13113041 -0.02019564 0.059052646
-0.062300928 -0.01579161 -0.09384482 0.17500193 -0.14363359 0.08438183 -0.072822236 0.04724594
0.0545696 0.105070464 0.03549936 0.09615371 0.09436859 -0.1640165 -0.04789424 -0.16066281
-0.17737848 -0.12465722 -0.17388663 0.0005152208 0.16190878 0.108877674 0.12225716 -0.0476381
-0.014768036 -0.097024016 0.17410176 -0.11678459 -0.17309618 -0.037915137 -0.14815149 0.080756195
-0.12871304 0.18430588 -0.1440054 -0.11108707 0.017602315 0.13065697 -0.13364623 -0.05540135
00000000: 9d5a dcbd 862e 273e d33f 4bbe 5f0d 44be
00000010: bf27 a3bd 6145 273e cdf1 6a3d 3ad8 95bd
00000020: ab55 02be c48a 08bd 1e72 9c3d 6914 ad3d
00000030: 0ad5 313e 9037 29be 46bc 92bd 21cf 193e
00000040: 9cae 4c3e 69b8 ebbd 4457 ad3d 714e 8f3a
00000050: 4b82 903d 0d47 06be 5471 a5bc 30e1 713d
00000060: 422f 7fbd 685d 81bc b731 c0bd b533 333e
00000070: af14 13be 62d0 ac3d d323 95bd f584 413d
00000080: 5f84 5f3d 2f2f d73d c767 113d 3cec c43d
00000090: 5244 c13d f1f3 27be c02c 44bd cb84 24be
000000a0: b4a2 35be 494c ffbd 560f 32be e20f 073a
000000b0: 6acb 253e 42fb de3d f661 fa3d 2b20 43bd
000000c0: a2f5 71bc 87b4 c6bd bb47 323e c22c efbd
000000d0: 2040 31be e74c 1bbd 06b5 17be 8163 a53d
000000e0: 5acd 03be aeba 3c3e 2776 13be 9e81 e3bd
000000f0: bb32 903c f1ca 053e 8fda 08be 87ec 62bd

linear_relu_stack.4.weight f4 [128, 64]
-0.1399864 -0.086013004 -0.040387385 0.089255266 -0.06986138 -0.10129926 -0.06289628 0.107996374
0.04423959 0.05052047 0.02754172 -0.094030194 0.07797032 0.040365163 -0.08032619 -0.053859122
0.08121082 0.08005594 0.10223361 0.1065773 0.07757605 -0.13153419 -0.0009454047 -0.0029988633
0.09156206 -0.09423202 -0.048448138 -0.04720293 -0.05044378 -0.14704743 -0.05566596 -0.084006034
-0.08517228 0.08773112 -0.0021480648 0.046859227 0.12390447 0.06954168 -0.102903314 -0.013302279
-0.10985036 -0.04659491 0.06596477 0.10777238 -0.014836408 -0.0207314 0.0027870873 0.07988766
-0.058377888 0.09184598 0.0130335735 -0.04750874 -0.10294479 -0.047087204 -0.10258383 0.040437788
-0.009758525 0.0914831 0.11636133 -0.049331605 0.04396574 -0.013172346 -0.12902544 -0.017106026
-0.010849502 -0.030538872 -0.0062511885 -0.12781464 0.0978085 0.10054231 0.07573106 -0.04037012
0.06380714 -0.08111421 -0.021734083 -0.02905341 0.060725085 -0.063358285 0.07040744 0.11593212
-0.0151983965 -0.12701923 -0.014767191 0.088344924 0.022004602 0.0573779 0.07259974 0.09336245
-0.040663846 -0.04087169 -0.0032946651 -0.09233975 0.03647539 0.06520086 0.13177942 -0.024100875
0.011528636 0.1208469 0.12138129 -0.12642187 0.014071824 -0.001921819 0.034009993 -0.058830045
0.049058065 -0.0077738566 -0.033004623 -0.008718329 -0.07982497 -0.115278795 -0.004516867 0.07310781
-0.052335773 0.045990895 -0.010924895 -0.034137316 -0.10761353 0.03149985 -0.057713773 0.0688251
0.09217642 0.025692757 0.010790131 0.08075602 -0.07595981 0.080320336 -0.025610788 -0.11032825
0.114375785 0.10440443 0.050671767 0.100129575 -0.0043291696 0.037487973 0.11654185 0.056279268
0.010489732 -0.046794433 -0.009082202 -0.008867139 -0.028751586 0.06523228 0.011453662 -0.1082989
0.111120716 0.06962249 -0.033293016 -0.095770806 -0.12530917 0.046608746 0.10345114 0.12067582
0.12048209 -0.0001408624 -0.061419997 0.12566577 0.012999667 0.0943393 -0.100558996 -0.12205231
0.04523004 -0.03985011 0.061377294 -0.0816981 -0.10871194 0.039345212 0.1453625 -0.078446925
0.13070899 0.11823298 0.015056725 -0.10963653 0.0677641 0.0140659595 0.056946855 0.09661554
0.0578441 -0.10863942 -0.025969014 0.02351504 -0.06373931 0.1124206 -0.00087525824 0.023876557
-0.06369676 -0.03383337 0.09321203 -0.030381035 -0.055790372 -0.12289216 -0.05355166 0.05491023
-0.0043927706 0.093676426 0.11461225 -0.089758426 -0.13063596 -0.091437325 0.019508826 -0.10140151
0.05837816 0.07688435 0.009227962 0.0029933648 -0.050788827 -0.028758476 -0.046641853 0.015862988
-0.12545875 0.0798032 -0.09656353 -0.08696911 -0.026101857 0.07165179 0.046968672 0.052449647
0.120603725 0.010879601 -0.06674357 0.042077247 -0.019709602 -0.09798045 0.054706804 0.06621641
0.09257624 0.021696856 0.11468437 0.053278588 -0.03762694 -0.006262711 0.06039719 -0.060802713
0.07777063 -0.111925654 0.056522787 -0.07348288 0.097326756 0.037153922 -0.12093802 0.072900146
-0.10533929 -0.12414242 0.05045665 -0.0071506575 -0.018434528 0.072809815 0.01952456 0.08772302
0.069210544 0.045394156 -0.13515586 -0.05678726 -0.10478699 0.077538066 0.025453875 -0.078642204
00000000: 9858 0fbe 9627 b0bd 3e6d 25bd 77cb b63d
00000010: 7c13 8fbd fd75 cfbd c4cf 80bd 342d dd3d
00000020: 9334 353d 8dee 4e3d 2c9f e13c e792 c0bd
00000030: e7ae 9f3d f155 253d 0f82 a4bd 629b 5cbd
00000040: dc51 a63d 5ef4 a33d db5f d13d 3345 da3d
00000050: 31e0 9e3d e6b0 06be 09d5 77ba 9488 44bb
00000060: e484 bb3d b8fc c0bd 8e71 46bd dc57 41bd
00000070: 239e 4ebd 9a93 16be fd01 64bd 5b0b acbd
00000080: ce6e aebd 60ac b33d 8cc6 0cbb 76ef 3f3d
00000090: a0c1 fd3d de6b 8e3d f9be d2bd cdf1 59bc
000000a0: 3af9 e0bd 4eda 3ebd 8a18 873d c4b7 dc3d
000000b0: 6814 73bc e6d4 a9bc 91a7 363b 249c a33d
000000c0: a71d 6fbd bf19 bc3d c58a 553c 8698 42bd
000000d0: b8d4 d2bd 83de 40bd 7917 d2bd 18a2 253d
000000e0: 38e2 1fbc 7e5b bb3d d94e ee3d f00f 4abd
000000f0: 6b15 343d d3d0 57bc 3f1f 04be f021 8cbc
00000100: 1cc2 31bc a82c fabc c5d6 ccbb d7e1 02be
00000110: d34f c83d 20e9 cd3d e318 9b3d 245b 25bd
00000120: 51ad 823d 351f a6bd ad0b b2bc 6b01 eebc
00000130: deba 783d fdc1 81bd c731 903d d26d ed3d
00000140: b202 79bc 5411 02be 17f2 71bc 2fee b43d
00000150: ff42 b43c 1705 6b3d 2caf 943d d034 bf3d
00000160: 228f 26bd 1369 27bd 4feb 57bb 9f1c bdbd
00000170: 3867 153d 0788 853d 2ff1 063e 336f c5bc
00000180: 9be2 3c3c 947e f73d c196 f83d bc74 01be
00000190: 828d 663c 8ce5 fbba 104e 0b3d c6f7 70bd
000001a0: 1cf1 483d d6bb febb db2f 07bd 52d7 0ebc
000001b0: 467b a3bd 4a17 ecbd 3a02 94bb 8cb9 953d
000001c0: 095e 56bd f360 3c3d 55fe 32bc 92d3 0bbd
000001d0: 7b64 dcbd fd05 013d 4765 6cbd 2df4 8c3d
000001e0: fec6 bc3d 9e79 d23c 17c9 303c 6a63 a53d
000001f0: d190 9bbd fd7e a43d b7cd d1bc c7f3 e1bd
00000200: da3d ea3d fdd1 d53d 338d 4f3d bc10 cd3d
00000210: b5db 8dbb fd8c 193d 7ead ee3d 1785 663d
00000220: 20dd 2b3c 85ab 3fbd 84cd 14bc 7a47 11bc
00000230: 7288 ebbc 8098 853d 24a8 3b3c d0cb ddbd
00000240: 4293 e33d 3c96 8e3d 425e 08bd 7c23 c4bd
00000250: 0c51 00be d0e8 3e3d 31de d33d e224 f73d
00000260: 50bf f63d 76b4 13b9 8993 7bbd 87ae 003e
00000270: 8efc 543c f734 c13d e0f1 cdbd 90f6 f9bd
00000280: 2243 393d de39 23bd c266 7b3d 5551 a7bd
00000290: 5ea4 debd 7228 213d e8d9 143e c8a8 a0bd
000002a0: 94d8 053e 2224 f23d 7bb0 763c 1e89 e0bd
000002b0: e8c7 8a3d e974 663c 1b41 693d 5ede c53d
000002c0: efed 6c3d 587e debd f8bc d4bc 9da2 c03c
000002d0: c189 82bd c63c e63d 9671 65ba c598 c33c
000002e0: 7273 82bd dc94 0abd f3e5 be3d a6e1 f8bc
000002f0: 7284 64bd e3ae fbbd fc58 5bbd 8de9 603d
00000300: 3bf1 8fbb 6dd9 bf3d d4b9 ea3d 44d3 b7bd
00000310: 6fc5 05be 7e43 bbbd f9d0 9f3c 98ab cfbd
00000320: f01d 6f3d 8b75 9d3d e130 173c 542c 443b
00000330: f207 50bd e596 ebbc 870b 3fbd 19f3 813c
00000340: 4278 00be dc6f a33d 1ac3 c5bd dc1c b2bd
00000350: 90d3 d5bc 2cbe 923d 3962 403d 71d5 563d
00000360: 16ff f63d 5b40 323c dab0 88bd 3159 2c3d
00000370: 0876 a1bc f9a9 c8bd 3e14 603d 789c 873d
00000380: 9d98 bd3d 9bbd b13c a4df ea3d a63a 5a3d
00000390: b51e 1abd 6d37 cdbb 0b63 773d 440c 79bd
000003a0: 3546 9f3d 4739 e5bd 7084 673d 317e 96bd
000003b0: 4053 c73d b62e 183d 5aae f7bd ac4c 953d
000003c0: 20bc d7bd 623e febd a2ab 4e3d 1050 eabb
000003d0: 0204 97bc 501d 953d f8f1 9f3c 20a8 b33d
000003e0: 42be 8d3d 39ef 393d 4c66 0abe c299 68bd
000003f0: 909a d6bd 47cc 9e3d a584 d03c 2a0f a1bd

linear_relu_stack.4.bias f4 [128]
-0.113388576 0.032875467 -0.0030038308 0.06507794 -0.070839085 0.12926373 -0.031676468 -0.06382259
0.176182 0.058898978 -0.09478324 -0.03835915 -0.028503075 0.024352849 -0.06540102 -0.096370146
-0.035357393 -0.059565235 0.09549297 -0.017709719 0.081677556 0.045693085 -0.11551854 0.051644944
0.008442881 -0.012997863 0.041311156 0.0393011 0.06806754 -0.039170913 0.022152394 -0.09992992
-0.10319967 -0.041064013 0.09700352 0.13050833 -0.10892967 0.008106504 -0.03121391 0.11646361
0.11302787 -0.07632771 -0.0019059523 0.1426882 -0.05644482 -0.1123993 -0.0011584061 0.09537635
0.09456475 -0.05727568 -0.1432012 0.07751551 -0.09771826 -0.084451884 0.0048686853 0.0004440502
0.0603128 -0.02450215 -0.064962514 0.08865564 -0.08509329 0.10323267 -0.033528052 -0.04614552
-0.06995364 -0.08371245 0.09144254 0.12074897 0.14270456 -0.019972421 0.020258918 0.10272743
-0.08529786 -0.12866165 -0.11238158 0.009598763 -0.13206159 -0.08345078 -0.0015925391 0.07319421
0.034878317 0.07197814 0.015817493 0.08847641 0.056214504 -0.03269119 -0.09281769 -0.047416765
-0.054806594 0.039950453 -0.057974197 -0.010055701 -0.09634484 0.009766616 0.084230155 -0.11442754
0.04657817 0.007973982 0.10578683 -0.01476265 0.067035265 -0.116793044 -0.003697626 0.1157988
-0.064303696 -0.09974456 -0.008851902 -0.08660893 -0.07013078 -0.092344314 0.032017436 0.0062616165
-0.009052468 -0.11286028 0.04608871 -0.042687975 0.023490869 -0.084081344 0.056709256 -0.10756286
-0.02804628 -0.110058166 -0.02683682 -0.105401754 -0.061017 0.0111423535 -0.048590895 0.04373351
00000000: 4538 e8bd 6da8 063d ebdb 44bb 9547 853d
00000010: 1514 91bd b65d 043e 2fbf 01bd 6bb5 82bd
00000020: 0e69 343e 0e40 713d b71d c2bd 7c1e 1dbd
00000030: 487f e9bc a07f c73c f8f0 85bd b65d c5bd
00000040: ead2 10bd adfa 73bd d191 c33d f913 91bc
00000050: 9046 a73d ac28 3b3d fc94 ecbd a689 533d
00000060: 0254 0a3c fdf4 54bc e335 293d 31fa 203d
00000070: ff66 8b3d ae71 20bd f078 b53c 0fa8 ccbd
00000080: 595a d3bd bd32 28bd c8a9 c63d faa3 053e
00000090: 8516 dfbd 24d1 043c 50b4 ffbc 7984 ee3d
000000a0: 287b e73d b451 9cbd 26d1 f9ba db1c 123e
000000b0: af32 67bd 9b31 e6bd a9d5 97ba ad54 c33d
000000c0: 2aab c13d e799 6abd 56a3 12be 74c0 9e3d
000000d0: 8320 c8bd 1cf5 acbd 7e89 9f3b 69cf e839
000000e0: 8e0a 773d bcb8 c8bc 110b 85bd 1791 b53d
000000f0: 6445 aebd a66b d33d b654 09bd 1603 3dbd
00000100: db43 8fbd 6f71 abbd 3a46 bb3d 3c4b f73d
00000110: 2521 123e 349d a3bc 08f6 a53c c262 d23d
00000120: a5b0 aebd e1bf 03be 5028 e6bd 2144 1d3c
00000130: 273b 07be 3ee8 aabd bfbc d0ba d9e6 953d
00000140: 91dc 0e3d 4669 933d b093 813c 1f33 b53d
00000150: 2e41 663d 32e7 05bd 3317 bebd 1538 42bd
00000160: e17c 60bd 16a3 233d 5a76 6dbd abc0 24bc
00000170: 7250 c5bd 2804 203c dc80 ac3d fc58 eabd
00000180: c0c8 3e3d 4ea5 023c c4a6 d83d 0bdf 71bc
00000190: c949 893d 3131 efbd df53 72bb ec27 ed3d
000001a0: a8b1 83bd e046 ccbd 9107 11bc 0660 b1bd
000001b0: baa0 8fbd 041f bdbd b724 033d 3f2e cd3b
000001c0: ce50 14bc 4a23 e7bd 84c7 3c3d 96d9 2ebd
000001d0: ec6f c03c d732 acbd f747 683d eb49 dcbd
000001e0: 50c1 e5bc 2d66 e1bd e4d8 dbbc e0dc d7bd
000001f0: f6ec 79bd 6b8e 363c 3f07 47bd e921 333d

linear_relu_stack.6.weight f4 [64, 128]
0.012439423 -0.030989721 0.010892625 0.060336743 -0.009379792 -0.082620405 0.022483138 0.03625718
-0.012816629 -0.08165209 -0.07710546 0.048378736 -0.07228977 -0.07321436 -0.01256677 -0.024814168
-0.002543182 0.13715819 0.0015308496 0.044982627 -0.044668846 -0.097414024 0.10066191 0.008335401
0.061073013 0.0027397776 -0.0056517236 -0.029823925 0.07967241 0.06781384 0.07846503 -0.045814067
0.063461915 -0.04275001 0.042221397 -0.006043365 0.044459 -0.066483 0.026953256 0.034353174
-0.014915865 0.09923583 -0.07032985 0.005096959 0.053483993 0.054105718 0.010096129 0.09973089
0.05343295 0.096976765 -0.06693697 0.10277655 -0.007934587 0.05312005 0.04527335 -0.061642196
0.06968979 0.048432898 -0.031968214 0.11582167 -0.03784725 0.031582184 0.01442705 -0.07096831
0.07478986 -0.061664112 -0.064958 -0.10107676 -0.035379015 0.069007866 0.026288068 0.023093162
0.08335065 -0.05356519 0.055684805 -0.049053725 -0.043889903 0.045016605 -0.054615952 -0.10920796
0.007626756 -0.029388282 0.034144685 0.08873535 0.009931984 0.024663309 -0.03762379 0.059939694
-0.01765594 -0.032736324 -0.071041815 0.013511736 -0.110467635 0.08485015 0.013665166 0.03387615
-0.024575057 -0.025674403 0.11710423 -0.090854 -0.05112106 -0.00031488424 0.075293474 -0.09827946
0.03879138 0.032493472 -0.08710186 0.0072597205 0.065331474 0.07253656 0.04707822 0.011229415
-0.037772685 -0.01399239 -0.054220665 0.023824511 -0.07243518 0.03790905 0.02011468 -0.101709194
-0.049343783 -0.07320254 -0.04039025 0.007337708 0.06975019 -0.04419328 0.02229488 0.11148759
-0.0475327 0.011463972 0.02821019 0.0249128 0.01931378 -0.0741788 0.0060400814 0.027513701
0.045405366 -0.03550862 0.07362795 0.077671036 -0.06854164 -0.006228047 -0.046187486 0.030523278
0.037333142 -0.052599546 -0.10065969 0.08120876 -0.023144236 0.025325062 -0.08331754 0.08816732
-0.035110567 -0.06677795 -0.043331213 -0.021791523 0.09392139 0.060375158 -0.06176658 -0.0585527
-0.006332093 -0.0773873 0.00888635 0.029447624 -0.033946946 0.068368964 -0.07320347 -0.0043434254
-0.04484388 -0.046765517 0.0058400263 -0.067751616 -0.038713668 -0.071740374 0.085260086 0.055444453
-0.07507648 0.029498253 0.055537462 0.0016748043 0.048824023 -0.00071998796 0.05412805 0.044627022
0.0068607056 -0.048512816 -0.044756364 0.036825117 0.011840221 0.05183444 0.036953524 0.09792476
-0.05605541 -0.051199157 0.066804245 -0.030277861 0.10698839 0.03647313 0.042958777 0.06445914
0.004481946 -0.044839703 -0.07626304 -0.022309355 0.046225585 -0.05967364 0.004868838 0.07513118
-0.048037454 -0.05588699 -0.0036766664 0.007179799 0.0024285195 0.045758247 0.07660047 0.06197332
0.088325635 0.078864865 -0.002919128 -0.026796984 -0.0124391 -0.035311967 0.005227838 -0.056987178
0.010865219 -0.060551193 -0.05063766 -0.022109242 -0.021326443 0.043061618 -0.02667237 0.04219631
0.06828472 -0.013180949 0.05119842 -0.09679095 -0.020455763 0.029838461 -0.054922547 -0.042873282
0.041024655 0.015211661 0.023997793 0.034261912 0.042733587 0.006718349 0.035021283 -0.033539202
-0.043390017 0.0499286 0.0060356124 -0.037062492 0.080313414 0.043609805 -0.03392419 0.008674052
00000000: b9ce 4b3c 28de fdbc fb76 323c a923 773d
00000010: b3ad 19bc e334 a9bd 8f2e b83c 6982 143d
00000020: d7fc 51bc 3639 a7bd 78e9 9dbd c828 463d
00000030: a90c 94bd 69f1 95bd dbe4 4dbc 1547 cbbc
00000040: 84ab 26bb 3273 0c3e caa6 c83a b43f 383d
00000050: aef6 36bd 0181 c7bd d527 ce3d 3591 083c
00000060: b227 7a3d d78d 333b 1832 b9bb 4e51 f4bc
00000070: 4a2b a33d fce1 8a3d 46b2 a03d 88a7 3bbd
00000080: 52f8 813d a21a 2fbd 58f0 2c3d 6c07 c6bb
00000090: a41a 363d 3d28 88bd 13cd dc3c eab5 0c3d
000000a0: ac61 74bc 283c cb3d 1909 90bd 6404 a73b
000000b0: 0812 5b3d f59d 5d3d 3c6a 253c b53f cc3d
000000c0: 82dc 5a3d c19b c63d 4016 89bd 837c d23d
000000d0: 1200 02bc 6994 593d 8c70 393d 877c 7cbd
000000e0: 85b9 8e3d 9361 463d 1af1 02bd e933 ed3d
000000f0: b805 1bbd 525c 013d 6f5f 6c3c d557 91bd
00000100: 6d2b 993d 8293 7cbd b308 85bd 5501 cfbd
00000110: 96e9 10bd ff53 8d3d 135a d73c df2d bd3c
00000120: bfb3 aa3d 2c67 5bbd c015 643d 8fec 48bd
00000130: e6c5 33bd 5563 383d fab4 5fbd 6ca8 dfbd
00000140: dee9 f93b b2bf f0bc 4cdb 0b3d e1ba b53d
00000150: c3b9 223c b50a ca3c 671b 1abd 5383 753d
00000160: 31a3 90bc 8616 06bd 5f7e 91bd 5460 5d3c
00000170: db3c e2bd eac5 ad3d dce3 5f3c b8c1 0a3d
00000180: a151 c9bc 2053 d2bc 58d4 ef3d a911 babd
00000190: 5164 51bd 0c17 a5b9 7733 9a3d be46 c9bd
000001a0: b6e3 1e3d e017 053d 7662 b2bd f3e2 ed3b
000001b0: 82cc 853d 0c8e 943d 17d5 403d 95fb 373c
000001c0: 88b7 1abd 5640 65bc 7d16 5ebd 9f2b c33c
000001d0: e558 94bd 8546 1b3d 8bc7 a43c e94c d0bd
000001e0: b51c 4abd 37eb 95bd 3f70 25bd 2871 f03b
000001f0: 30d9 8e3d 0304 35bd c1a3 b63c 9b53 e43d
00000200: a6b1 42bd 62d3 3b3c 0e19 e73c ee15 cc3c
00000210: ef37 9e3c 0eeb 97bd e0eb c53b 6a64 e13c
00000220: fafa 393d 7d71 11bd 40ca 963d fe11 9f3d
00000230: 8f5f 8cbd a514 ccbb 172f 3dbd f40b fa3c
00000240: a3ea 183d 9f72 57bd ab26 cebd c750 a63d
00000250: fb98 bdbc 8176 cf3c 63a2 aabd 1191 b43d
00000260: 19d0 0fbd e1c2 88bd 127c 31bd 2384 b2bc
00000270: dc59 c03d f14b 773d f4fe 7cbd f5d4 6fbd
00000280: 727d cfbb 3c7d 9ebd 0e98 113c 253c f13c
00000290: f40b 0bbd 0705 8c3d b3eb 95bd 4b53 8ebb
000002a0: 37ae 37bd 338d 3fbd b15d bf3b 5cc1 8abd
000002b0: 3992 1ebd 9eec 92bd d79c ae3d b919 633d
000002c0: b3c1 99bd 52a6 f13c 407b 633d 1b85 db3a
000002d0: b3fb 473d 93bd 3cba 60b5 5d3d d3ca 363d
000002e0: c5cf e03b 60b5 46bd 7352 37bd efd5 163d
000002f0: 7cfd 413c 5a50 543d 945c 173d c78c c83d
00000300: 5c9a 65bd 35b6 51bd aad0 883d 4709 f8bc
00000310: bb1c db3d d964 153d 8bf5 2f3d 2703 843d
00000320: 4add 923b d6a9 37bd cc2f 9cbd 1cc2 b6bc
00000330: 0a57 3d3d 596c 74bd c68a 9f3b 60de 993d
00000340: ecc2 44bd c2e9 64bd 3af4 70bb 8544 eb3b
00000350: cc27 1f3b 006d 3b3d b5e0 9c3d bcd7 7d3d
00000360: 12e4 b43d e783 a13d d74e 3fbb 5985 dbbc
00000370: 5ecd 4bbc 48a3 10bd 494e ab3b 636b 69bd
00000380: 0804 323c 8704 78bd 6f69 4fbd 711e b5bc
00000390: cbb4 aebc 6161 303d 0480 dabc 0ad6 2c3d
000003a0: dcd8 8b3d e8f4 57bc 6fb5 513d 553a c6bd
000003b0: d892 a7bc ca6f f43c 77f6 60bd e59b 2fbd
000003c0: 7809 283d 553a 793c 0597 c43c 3856 0c3d
000003d0: 6a09 2f3d 9925 dc3b 7a72 0f3d 6760 09bd
000003e0: bbb9 31bd ef81 4c3d 63c6 c53b d7ce 17bd
000003f0: 5c7b a43d 32a0 323d 17f4 0abd 9c1d 0e3c

linear_relu_stack.6.bias f4 [64]
-0.027748588 0.033241484 0.09806612 0.08588817 -0.038742624 0.09229413 -0.07870607 0.021555172
-0.11463421 0.03290612 0.0782773 -0.08439519 -0.034696955 -0.020656431 0.036301084 -0.005025769
0.03007442 0.04707699 -0.07594653 0.038343087 -0.09143688 0.05761221 -0.04397809 -0.08945511
0.023767266 0.036943913 0.028332306 0.031951383 -0.05637042 0.09201885 0.069418676 0.0068914383
-0.054890003 -0.060694497 -0.04523734 0.0124072805 0.05267821 -0.02477157 0.006583354 0.06625399
-0.050928794 0.04934281 -0.07403953 -0.018258067 -0.0018214117 0.023999251 0.015039884 0.047254413
0.08379814 -0.009061586 0.04527053 -0.022210127 -0.050848786 -0.04631284 -0.018620862 0.07021525
-0.0004838704 -0.025374375 0.07801338 0.07396626 0.0016121302 -0.065148704 -0.048033677 0.031615965
00000000: 0251 e3bc 3928 083d e4d6 c83d 23e6 af3d
00000010: 96b0 1ebd b404 bd3d a630 a1bd 7994 b03c
00000020: 57c5 eabd 91c8 063d d94f a03d 63d7 acbd
00000030: 651e 0ebd ad37 a9bc 72b0 143d 35af a4bb
00000040: a15e f63c cdd3 403d db89 9bbd a40d 1d3d
00000050: 4243 bbbd c8fa 6b3d 5f22 34bd 3e34 b7bd
00000060: 92b3 c23c 8052 173d 2719 e83c 74df 023d
00000070: abe4 66bd 6174 bc3d 612b 8e3d 93d1 e13b
00000080: 57d4 60bd cb9a 78bd ca4a 39bd e847 4b3c
00000090: 1bc5 573d bfed cabc 2db9 d73b 2cb0 873d
000000a0: b69a 50bd b01b 4a3d 09a2 97bd f191 95bc
000000b0: 6fbc eeba 149a c43c d869 763c d88d 413d
000000c0: 5c9e ab3d 0c77 14bc 976d 393d 03f2 b5bc
000000d0: d146 50bd 88b2 3dbd c78a 98bc 03cd 8f3d
000000e0: fcaf fdb9 ecdd cfbc 7bc5 9f3d 9f7b 973d
000000f0: 1d4e d33a af6c 85bd f6be 44bd be7f 013d

linear_relu_stack.8.weight f4 [32, 64]
0.03379423 -0.04455305 0.10911482 0.028625727 0.09404817 0.105708756 -0.011776204 -0.07101006
-0.07401188 0.056805406 -0.02297181 -0.02471631 0.14405139 0.0527485 -0.10786141 0.11144257
-0.08732652 0.09476778 0.08941188 -0.0913396 -0.07005324 -0.024457345 0.07260418 0.12093029
-0.03760887 0.14478192 0.07453512 0.007193121 0.10842015 0.006877252 -0.08011947 0.0021088258
-0.011293039 0.0052730152 -0.088331416 0.002389545 -0.06779351 -0.07169099 -0.015268714 -0.08693145
0.082387224 -0.10290579 0.09634608 -0.0810084 -0.0087557 -0.03840258 -0.03944919 -0.087035716
0.053644847 0.16954383 -0.06919485 -0.048874203 -0.042832542 0.116879486 -0.11764961 0.07659824
0.12876704 0.0027251646 -0.058815215 -0.021082956 -0.04921378 -0.1387257 -0.052393075 0.04043073
0.010814452 0.09268404 0.060363736 0.02724842 0.06639788 -0.09716057 -0.102890804 0.0007002249
0.09726851 -0.008598983 -0.10079372 -0.07477109 -0.04745991 0.10833062 -0.009086877 -0.06464798
0.10266679 0.00712352 0.0894554 0.10537405 0.0052433773 0.0508284 -0.06809483 0.011509956
-0.09847967 -0.08697494 -0.068373345 0.084185965 -0.11366931 -0.077615 0.03660925 0.07873361
0.075893655 -0.10247262 0.054326132 -0.08111964 0.116137385 -0.050040036 -0.11775788 -0.0014310103
0.05951673 0.04087806 0.07208528 -0.007987552 0.11036635 0.043877877 -0.056201104 0.010230275
-0.05193736 0.04263065 0.06976654 0.101425044 0.1099912 0.0604579 -0.13600893 -0.0821869
0.073521085 0.10484936 0.035200894 0.07642061 0.100412935 0.00971295 0.084654026 -0.07074998
-0.026406331 -0.08374639 -0.05368381 -0.005255887 -0.13705169 -0.030149069 0.11910805 0.00908199
0.03139962 0.043480292 0.02906316 0.04436103 0.12394635 0.066607274 -0.1131476 -0.009394171
0.025571246 0.07043622 0.115411125 0.09281636 -0.106213205 0.094357826 -0.0007791726 0.073972195
-0.0047890507 -0.03129248 -0.11980496 0.089799315 -0.024547387 -0.12040822 -0.014414363 -0.043786775
-0.08544957 0.12184956 0.110096835 0.052015286 -0.07803183 0.029708514 -0.04901976 -0.14670706
-0.09902679 0.015301162 0.15271372 0.015303627 -0.016752727 -0.05876629 0.016283542 -0.025440669
0.008195467 0.09979987 -0.014723768 0.024267627 0.08588413 0.040627982 -0.10256752 -0.12982428
-0.02730349 0.07141777 0.0036797128 0.04246864 -0.11219958 -0.15037343 0.019625254 -0.07052139
-0.014682351 0.059369642 0.0713852 0.017211027 0.034554146 -0.08966397 -0.07923364 -0.09122867
-0.053793695 0.07612331 0.13323633 0.06878607 0.053816885 -0.12626448 -0.0376608 0.108430795
-0.11507182 -0.08307871 -0.06393076 -0.11972395 -0.05654082 -0.08527916 -0.08215422 0.07359408
-0.056646425 0.10318428 0.08423988 0.07988462 0.010658223 0.041509017 -0.055324774 0.08215398
0.13717292 0.09333062 0.061985467 0.09833506 0.024974955 -0.10096829 0.09666969 0.06402345
-0.035061423 0.07203467 -0.12449001 0.088211745 0.07882016 -0.06616794 0.00022098627 0.014391633
0.110698484 -0.12745175 -0.11514675 0.09212849 -0.049503982 -0.11067926 0.009647046 0.04519734
-0.019024525 -0.04873934 0.08169987 0.05939424 0.037212934 0.07074517 0.10733388 0.097167805
00000000: d26b 0a3d 427d 36bd 9777 df3d 8080 ea3c
00000010: 549c c03d d57d d83d fbf0 40bc b96d 91bd
00000020: 8a93 97bd c9ac 683d 612f bcbc dc79 cabc
00000030: 3582 133e d00e 583d 71e6 dcbd 013c e43d
00000040: 3fd8 b2bd 9c15 c23d 931d b73d 4210 bbbd
00000050: 1378 8fbd c55a c8bc 80b1 943d 4daa f73d
00000060: c20b 1abd b641 143e dea5 983d 46b4 eb3b
00000070: 620b de3d 925a e13b ad15 a4bd 3a34 0a3b
00000080: 7006 39bc 42c9 ac3b 1ae7 b4bd ea99 1c3b
00000090: 53d7 8abd bad2 92bd a129 7abc 1e09 b2bd
000000a0: a2ba a83d 45c0 d2bd 1851 c53d bbe7 a5bd
000000b0: 1174 0fbc 064c 1dbd 7995 21bd c83f b2bd
000000c0: b3ba 5b3d e69c 2d3e 08b6 8dbd 5130 48bd
000000d0: 2d71 2fbd 835e ef3d 47f2 f0bd 8adf 9c3d
000000e0: 82db 033e ad98 323b 39e8 70bd 2ab6 acbc
000000f0: 6394 49bd 1c0e 0ebe 1f9a 56bd b19a 253d
00000100: 192f 313c 21d1 bd3d f73f 773d 1438 df3c
00000110: 9dfb 873d 1ffc c6bd 6ab8 d2bd 4c8f 373a
00000120: b634 c73d c0e2 0cbc f06c cebd 9621 99bd
00000130: 5365 42bd 72dc dd3d 20e1 14bc 2966 84bd
00000140: f742 d23d 6b6c e93b 6534 b73d 5ace d73d
00000150: a3d0 ab3b 7131 503d 4d75 8bbd 4194 3c3c
00000160: b6af c9bd eb1f b2bd 5307 8cbd b169 ac3d
00000170: 75cb e8bd 9df4 9ebd 95f3 153d 163f a13d
00000180: 226e 9b3d 2add d1bd 1485 5e3d 0e22 a6bd
00000190: 70d9 ed3d c8f6 4cbd 0b2b f1bd bd90 bbba
000001a0: d1c7 733d c16f 273d 73a1 933d 39de 02bc
000001b0: c107 e23d 4ab9 333d 2133 66bd e29c 273c
000001c0: 45bc 54bd 7a9d 2e3d c2e1 8e3d efb7 cf3d
000001d0: 1143 e13d b4a2 773d ed45 0bbe 9b51 a8bd
000001e0: 3992 963d 43bb d63d d02e 103d 6982 9c3d
000001f0: 4ca5 cd3d 1123 1f3c 175f ad3d 5ee5 90bd
00000200: 1752 d8bc 3a83 abbd 8ee3 5bbd 9339 acbb
00000210: 4757 0cbe 2efb f6bc ecee f33d a1cc 143c
00000220: e39c 003d 6418 323d dd15 ee3c e9b3 353d
00000230: 95d7 fd3d 6569 883d eeb9 e7bd 02ea 19bc
00000240: ca7a d13c dd40 903d ab5c ec3d 8116 be3d
00000250: 4f86 d9bd ad3e c13d 6341 4cba bc7e 973d
00000260: 78ed 9cbb 8b2c 00bd 4e5c f5bd b4e8 b73d
00000270: 9a17 c9bc 9698 f6bd 382a 6cbc c359 33bd
00000280: 2f00 afbd 438c f93d 737a e13d fb0d 553d
00000290: 27cf 9fbd 455f f33c f2c8 48bd 603a 16be
000002a0: 8fce cabd bab1 7a3c fc60 1c3e 10bc 7a3c
000002b0: 043d 89bc ecb4 70bd 1065 853c f368 d0bc
000002c0: 4846 063c e063 cc3d f63b 71bc e7cc c63c
000002d0: 05e4 af3d 8769 263d ec0e d2bd a8f0 04be
000002e0: 92ab dfbc 7b43 923d 5627 713b 99f3 2d3d
000002f0: e5c8 e5bd 7efb 19be 24c5 a03c 856d 90bd
00000300: 3e8e 70bc 952d 733d 6732 923d 24fe 8c3c
00000310: a688 0d3d bea1 b7bd 3f45 a2bd 19d6 babd
00000320: c756 5cbd 8ae6 9b3d 1b6f 083e b6df 8c3d
00000330: 186f 5c3d 7a4b 01be 3642 1abd f710 de3d
00000340: c6aa ebbd 2c25 aabd 21ee 82bd d531 f5bd
00000350: 5997 67bd d7a6 aebd 7940 a8bd 7eb8 963d
00000360: 1506 68bd 4852 d33d f585 ac3d 8c9a a33d
00000370: d49f 2e3c 5c05 2a3d 3b9c 62bd 5940 a83d
00000380: 0f77 0c3e 2024 bf3d 79e4 7d3d e463 c93d
00000390: 4798 cc3c 76c8 cebd c2fa c53d ba1e 833d
000003a0: 919c 0fbd ea86 933d 9ef4 febd 5ca8 b43d
000003b0: 776c a13d 0f83 87bd 8db8 6739 e2ca 6b3c
000003c0: e3b5 e23d b682 02be 0fd2 ebbd ddad bc3d
000003d0: b0c4 4abd cfab e2bd a50e 1e3c d920 393d
000003e0: 52d9 9bbc e7a2 47bd 4352 a73d 6047 733d
000003f0: 976c 183d d8e2 903d ded1 db3d eaff c63d

linear_relu_stack.8.bias f4 [32]
-0.062106747 0.1095742 -0.11153578 -0.09195056 0.10689526 0.012415401 -0.0036892486 -0.09038852
-0.05443388 0.062371332 -0.053172786 0.022135068 -0.10685176 0.11287692 -0.057566106 -0.0023096558
0.07178324 0.09440648 -0.12075752 0.0003076396 -0.025529953 -0.073577926 0.0732459 0.025015824
0.059955854 0.11768296 0.050749473 0.03526484 -0.090193756 0.08017089 0.026611483 0.07911358
00000000: a563 7ebd 7068 e03d df6c e4bd 9350 bcbd
00000010: e7eb da3d f769 4b3c 52c7 71bb 9e1d b9bd
00000020: 0ff6 5ebd 1579 7f3d b5cb 59bd 9a54 b53c
00000030: 18d5 dabd 042c e73d 70ca 6bbd 985d 17bb
00000040: 1703 933d 2f58 c13d b84f f7bd b04a a139
00000050: 3124 d1bc 06b0 96bd f201 963d fced cc3c
00000060: 4594 753d c403 f13d aede 4f3d dd71 103d
00000070: 81b7 b8bd a330 a43d 5300 da3c 4d06 a23d

linear_relu_stack.10.weight f4 [1, 32]
0.1853709 -0.0008279784 0.22417697 -0.06858689 -0.16476315 -0.06818429 -0.1928185 -0.037401985
-0.29116362 -0.07714644 -0.021565137 -0.29184023 0.19306518 -0.046111133 -0.20909579 0.10976308
0.22436085 -0.011251159 0.2475096 -0.18722177 -0.49899477 -0.26475966 -0.15991631 -0.16177921
0.21030106 -0.17349158 -0.12437693 0.047920424 0.017401183 0.13605578 -0.2105968 0.21910383
00000000: dfd1 3d3e b10c 59ba a68e 653e 4977 8cbd
00000010: acb7 28be 34a4 8bbd 3672 45be d332 19bd
00000020: 6613 95be f4fe 9dbd 5fa9 b0bc 156c 95be
00000030: e1b2 453e 07df 3cbd 351d 56be 77cb e03d
00000040: dabe 653e c856 38bc 2873 7d3e 10b7 3fbe
00000050: 3e7c ffbe 948e 87be 1ac1 23be 73a9 25be
00000060: 2959 573e c7a7 31be 55b9 febd 3548 443d
00000070: ed8c 8e3c 3552 0b3e b0a6 57be c15c 603e
